weights/old/unet-test13.pt (torch_old, 478380 bytes, 92 tensors)

down_path.0.block.0.weight f4 [8, 3, 3, 3]
00000000: 832f 0080 f90c 0000 b42e 0080 c33d 0080
00000010: 6021 0000 d43a 0000 362d 0080 f805 0080
00000020: 7204 0000 e731 0080 8a36 0000 3701 0080
00000030: 160f 0080 6833 0000 f03f 0000 ef26 0000
00000040: f108 0080 5f55 0000 5f21 0080 a23d 0000
00000050: ff3a 0080 e028 0080 1347 0080 6f5a 0000
00000060: 4a35 0000 bb1f 0000 8b04 0080 beaa 33a8
00000070: cef0 45a9 cd55 daa9 1708 e9a4 4040 7227
00000080: ea6d 31aa 39ea b6a8 b931 0fa8 6d37 b8a9
00000090: fd6d ae28 8620 3c28 ad8c a3a7 0f9e 5a28
000000a0: e1b1 93a7 2fb8 baa8 ba6f 1827 0a58 6428
000000b0: 11e8 9428 0f7e 2e26 f0f2 64a5 3211 3da7
000000c0: c13d eaa5 4bff e1a6 fcfa 34a7 7514 c8a5
000000d0: cbd6 a0a6 3a5c dea7 2e64 353c a913 a5be
000000e0: 5615 553d 8e60 c0be 4c3c 71be 4099 6b3e
000000f0: 7bd0 6abe 37e6 5bbc be92 5f3e e6d1 75be
00000100: 3501 573e 888d ab3e e6e2 17be b0d6 943d
00000110: c4df d83e e842 1abf a2f4 353e eb60 ac3e
00000120: 8b6a a73d f238 c1bd 253b 673d 28e6 10be
00000130: c1e3 5fbe 3000 603e cca8 f0be 1666 0bbf
00000140: 6b39 703d cf0a 0080 3f07 0000 6313 0000
00000150: 0720 0080 ab0b 0080 f91c 0080 3401 0080
00000160: d603 0080 6716 0080 560d 0080 2520 0080
00000170: ef26 0080 0700 0000 4e19 0080 b506 0000
00000180: a202 0000 961c 0000 bb24 0080 b503 0080
00000190: 1f27 0000 3c11 0000 8621 0080 9502 0000
000001a0: a522 0000 a721 0000 bd13 0000 ad04 0080
000001b0: 6a8f 85be 3cad 05be 98b1 01bf 331d 293e
000001c0: 78df 133e 930c 03be 2520 583e b08b 05be
000001d0: b063 09bd 14c2 233f 8b83 aa3e e547 f03e
000001e0: 4590 203f 9c1e eb3e 6ece 66bd 69ce 123f
000001f0: 9cde 683e ba25 233d ef00 babe 9c5a c5be
00000200: 42e7 0ebf 48ff 5cbe f2ba afbd af04 48be
00000210: 5e32 9abe 1071 8cbe 905c 2ebf 9e0d 0000
00000220: 5d02 0000 f002 0000 3f03 0080 2f26 0000
00000230: 892d 0080 9b2c 0080 9c06 0000 6421 0000
00000240: fd1a 0080 730d 0080 4b2a 0080 a804 0080
00000250: 9827 0080 060f 0000 3b13 0080 0502 0000
00000260: b117 0080 0821 0080 b129 0080 1509 0080
00000270: 3213 0000 8a01 0000 b51e 0080 b72a 0080
00000280: a921 0000 500d 0000 6519 0080 ed0a 0080
00000290: 2d21 0080 9120 0080 1a03 0080 6a21 0000
000002a0: c924 0080 820f 0080 2812 0000 d413 0000
000002b0: b116 0000 0a23 0080 1a0f 0080 e60e 0000
000002c0: b400 0080 c403 0000 7726 0000 ea08 0000
000002d0: 5d14 0080 7318 0080 3623 0000 6e26 0080
000002e0: bc09 0000 da15 0000 dd01 0080 4824 0000
000002f0: 7220 0080 1108 0000 f405 0000 261c 0080
00000300: 850e 0080 5c10 0080 920b 0000 601c 0080
00000310: 6c0f 0080 c80d 0080 150d 0080 d00e 0080
00000320: 0a10 0000 d719 0080 2209 0000 f60d 0000
00000330: 5b1c 0080 4a1a 0080 bb08 0080 f527 0080
00000340: 3804 0080 5c28 0080 f40a 0000 2f2a 0000
00000350: ef13 0000 5c04 0000 2416 0000 472b 0000
-1.7044e-41 4.654e-42 -1.6754e-41 -2.2156e-41 1.1973e-41 2.1104e-41 -1.6219e-41 -2.141e-42
1.595e-42 -1.7902e-41 1.9565e-41 -4.36e-43 -5.412e-42 1.8441e-41 2.2936e-41 1.3967e-41
-3.208e-42 3.0625e-41 -1.1971e-41 2.211e-41 -2.1164e-41 -1.4663e-41 -2.5497e-41 3.2441e-41
1.9117e-41 1.1383e-41 -1.63e-42 -9.97352e-15 -4.3951652e-14 -9.696029e-14 -1.0106135e-16 3.3619076e-15
-1.5758892e-13 -2.0307637e-14 -7.9488765e-15 -8.180856e-14 1.936558e-14 1.0443149e-14 -4.539411e-15 1.21357045e-14
-4.0993553e-15 -2.0730025e-14 2.1154805e-15 1.2675633e-14 1.6531944e-14 6.053922e-16 -1.9858158e-16 -2.623834e-15
-4.0634375e-16 -1.5681709e-15 -2.5116077e-15 -3.4708332e-16 -1.116045e-15 -6.171737e-15 0.011071248 -0.32241562
0.0520223 -0.37573665 -0.23558158 0.23007679 -0.22931091 -0.013421587 0.21833321 -0.24005851
0.20996554 0.33506417 -0.14832649 0.07267511 0.4235822 -0.6025834 0.17769101 0.33667693
0.08174618 -0.094346896 0.05645289 -0.14150298 -0.21864225 0.21875072 -0.47003782 -0.54452646
0.058648508 -3.877e-42 2.6e-42 6.955e-42 -1.1489e-41 -4.186e-42 -1.0393e-41 -4.32e-43
-1.376e-42 -8.036e-42 -4.784e-42 -1.1531e-41 -1.3967e-41 1e-44 -9.078e-42 2.406e-42
9.44e-43 1.0255e-41 -1.3176e-41 -1.33e-42 1.4034e-41 6.183e-42 -1.2026e-41 9.26e-43
1.2428e-41 1.2072e-41 7.081e-42 -1.677e-42 -0.2608598 -0.13054365 -0.5066161 0.16515045
0.14440715 -0.12797765 0.21106012 -0.13041568 -0.033542335 0.63968015 0.33303484 0.4692985
0.6272014 0.4592179 -0.05634921 0.57346207 0.22741169 0.0398309 -0.36328837 -0.38545692
-0.5582162 -0.21581757 -0.08580579 -0.19533037 -0.30116552 -0.2743001 -0.6810999 4.885e-42
8.48e-43 1.054e-42 -1.164e-42 1.3698e-41 -1.6335e-41 -1.6001e-41 2.371e-42 1.1978e-41
-9.682e-42 -4.825e-42 -1.5172e-41 -1.67e-42 -1.4204e-41 5.39e-42 -6.899e-42 7.24e-43
-8.499e-42 -1.185e-41 -1.4956e-41 -3.258e-42 6.886e-42 5.52e-43 -1.1016e-41 -1.5323e-41
1.2075e-41 4.776e-42 -9.11e-42 -3.92e-42 -1.1901e-41 -1.1683e-41 -1.113e-42 1.1987e-41
-1.3196e-41 -5.563e-42 6.513e-42 7.113e-42 8.14e-42 -1.257e-41 -5.417e-42 5.345e-42
-2.52e-43 1.351e-42 1.3799e-41 3.198e-42 -7.305e-42 -8.771e-42 1.2631e-41 -1.3786e-41
3.492e-42 7.839e-42 -6.68e-43 1.3015e-41 -1.1639e-41 2.894e-42 2.136e-42 -1.0098e-41
-5.209e-42 -5.869e-42 4.15e-42 -1.0179e-41 -5.532e-42 -4.944e-42 -4.693e-42 -5.314e-42
5.754e-42 -9.27e-42 3.276e-42 5.008e-42 -1.0172e-41 -9.431e-42 -3.132e-42 -1.4334e-41
-1.513e-42 -1.4478e-41 3.929e-42 1.5133e-41 7.151e-42 1.564e-42 7.943e-42 1.5525e-41

down_path.0.block.0.bias f4 [8]
00000000: 39f4 1000 8df5 f3b3 f8d0 843f 19c9 a78b
00000010: 133f 123f e8f6 0580 458f 9c98 87fe dda1
1.556979e-39 -1.1360235e-07 1.0376272 -6.462864e-32 0.57127494 -5.47751e-40 -4.046972e-24 -1.5042915e-18

down_path.0.block.2.weight f4 [8]
00000000: 8530 0080 965c 4d28 df57 793f 6508 0000
00000010: 7432 413f 1b16 0080 0404 0000 3d24 0080
-1.7406e-41 1.1399862e-14 0.97399706 3.011e-42 0.7546761 -7.93e-42 1.44e-42 -1.3e-41

down_path.0.block.2.bias f4 [8]
00000000: f77b 58ba 13ad 823e 5084 7bbe f1f7 45ba
00000010: 9730 143f c8a2 72ba 7f26 623a 6782 47b7
-0.00082582183 0.2552267 -0.24562192 -0.00075519 0.5788664 -0.00092558237 0.0008626952 -1.1891686e-05

down_path.0.block.2.running_mean f4 [8]
00000000: c906 0100 0400 0000 7ebe 383f 0400 0000
00000010: 6b69 163f 0fd9 0000 0400 0000 0400 0000
9.427e-41 6e-45 0.7216567 6e-45 0.58754605 7.7866e-41 6e-45 6e-45

down_path.0.block.2.running_var f4 [8]
00000000: 0400 0000 0400 0000 4381 623d 0400 0000
00000010: c0dc 8b3c 0400 0000 0400 0000 0400 0000
6e-45 6e-45 0.055299055 6e-45 0.017073035 6e-45 6e-45 6e-45

down_path.0.block.3.weight f4 [8, 8, 3, 3]
00000000: ca27 03b9 ee85 01b9 188a 05b9 e5f3 f7b8
00000010: 27b1 f4b8 e3a1 fcb8 d473 feb8 742e fbb8
00000020: 3492 01b9 dea7 b03d 350b 9c3d ccfb 963d
00000030: e4de b13d 1c09 c93d 4b26 923d d9c3 ac3d
00000040: c7cc bb3d a163 903d e304 55be 0556 c5be
00000050: 803a 0c3d d00a acbe e56c 8ebe 26bc 373e
00000060: 5cb8 acbe 55df f7bd 3c95 053e d891 8eb8
00000070: be5b 8bb8 37b3 80b8 2618 78b8 cba9 71b8
00000080: 4745 5cb8 8640 81b8 cc0e 7cb8 abb2 66b8
00000090: 331e 313f b344 473e d065 b53e df6c f53e
000000a0: 4e7b b83e 055c 853e f971 f53e 316c 873e
000000b0: 79f2 e53d 6877 2eb9 3fbe 2cb9 05b2 33b9
000000c0: 6969 27b9 efb0 25b9 db97 2cb9 bc0f 2bb9
000000d0: c755 29b9 013f 30b9 dfed b638 0c95 b238
000000e0: 6f3f a438 67fc 9f38 aaa1 9b38 b128 8d38
000000f0: 41f4 a638 5c95 a238 f027 9438 7819 dab7
00000100: 69b6 d9b7 81b8 07b8 d732 e7b7 22d7 e6b7
00000110: e73a 0eb8 14d6 e9b7 197c e9b7 1e91 0fb8
00000120: 75fd 8eb6 9aff 8eb6 6713 8fb6 1d33 a2b6
00000130: 0533 a2b6 b344 a2b6 6b35 a2b6 3535 a2b6
00000140: a75a a2b6 4108 b9b9 e61a b9b9 0387 b9b9
00000150: 7c7b a8b9 008e a8b9 97fa a8b9 4c55 a6b9
00000160: ad67 a6b9 82d4 a6b9 915b 97ba 66f5 86ba
00000170: 26c7 88ba 5945 ddba 9529 c7ba ffce c3ba
00000180: 24a8 bcba 9967 a6ba 1cb7 a0ba b283 9eb6
00000190: 7c07 9fb6 fa27 a0b6 a358 a7b6 a13c a8b6
000001a0: b262 a9b6 57bc abb6 9b1d acb6 c9ae acb6
000001b0: 8a3b b8ba 7681 c3ba b6b5 abba c714 70ba
000001c0: 1134 87ba ff9f 6eba afac 3bba e1ca 5eba
000001d0: 251e 42ba 8834 f8b5 7294 f8b5 022d fcb5
000001e0: ada0 23b6 c0c3 23b6 f165 24b6 418b 24b6
000001f0: 376e 24b6 91b8 24b6 8485 b136 3ee4 ae36
00000200: da8c af36 4d5f c336 604c c036 02c5 c136
00000210: 6569 c236 0c29 bf36 70ff c036 3456 0334
00000220: accb 0334 d724 0534 2275 0634 d12f 0634
00000230: 15c6 0834 3475 0434 28ea 0534 9233 0734
00000240: 7728 c635 6ba3 c135 cb7f b535 9651 c635
00000250: 7bf8 c135 8db8 b435 6182 c535 5aac c035
00000260: b7ed b135 6ff0 23ba 27fe 23ba a902 24ba
00000270: 0a2a 24ba ed37 24ba 893c 24ba 3a2b 24ba
00000280: 2739 24ba c13d 24ba 6341 d439 5993 f939
00000290: 5425 e839 5702 bc39 09cc ea39 b193 f339
000002a0: 26f1 a439 2a3f de39 2622 fb39 7a7d 82b6
000002b0: 29be 86b6 c20e 86b6 842c 60b6 7b26 5db6
000002c0: 3e22 64b6 2e06 61b6 88f3 68b6 8cb6 6fb6
000002d0: 461c 5fb9 0856 57b9 2d93 9cb9 9c50 38b9
000002e0: f917 2db9 e1ae 87b9 f903 50b9 a06e 3bb9
000002f0: 4e51 84b9 10fb f536 d327 f836 a27c 0e37
00000300: 4df9 ed36 95fe f036 f204 0537 c53c f036
00000310: 9814 f536 203a 0a37 7fb4 a936 a261 b236
00000320: 543c ab36 2ff6 a836 202e b236 23a4 aa36
00000330: ff26 ac36 9159 b236 e048 ac36 9f91 03b4
00000340: 018a 03b4 2f93 03b4 4940 03b4 cc7d 02b4
00000350: 0a77 03b4 c84b 03b4 d713 03b4 890f 03b4
00000360: 5719 303a 4f19 303a 32d7 2d3a e144 343a
00000370: fa44 343a e902 323a 200a 343a 2a0a 343a
00000380: 5bc8 313a 4aac fd3c 0c3e fd3c cc1a c73c
00000390: 623e c13c 1844 bf3c 70e5 863c ebe6 bd3c
000003a0: 7a9f bb3c afa5 853c f2f1 5dbe 1e88 babe
000003b0: e865 84bd b5e1 1fbe 8829 76be 97af 9ebc
000003c0: 0ad8 333e cb06 efbc 40d5 1b3e 5010 ad39
000003d0: 4610 ad39 69e6 ad39 7875 aa39 7775 aa39
000003e0: ee4b ab39 bc65 aa39 d265 aa39 803c ab39
000003f0: 7537 58bd 7b5e ffbd 249b a53b 8880 8d3d
-0.00012507956 -0.00012352291 -0.00012735312 -0.00011823307 -0.00011667824 -0.0001204645 -0.000121332385 -0.00011977265
-0.00012356864 0.08625768 0.07619325 0.07372245 0.08685091 0.098161906 0.0713621 0.084357925
0.091699176 0.07050253 -0.20802645 -0.3854219 0.034235477 -0.33602 -0.27817455 0.17942867
-0.33734405 -0.12103144 0.1304521 -6.798253e-05 -6.645125e-05 -6.136897e-05 -5.9150298e-05 -5.761701e-05
-5.2516607e-05 -6.163218e-05 -6.0095263e-05 -5.500267e-05 0.69186705 0.194598 0.3542924 0.47934625
0.36031574 0.26046768 0.47938517 0.2644973 0.112278886 -0.00016638415 -0.0001647407 -0.00017137088
-0.0001596563 -0.00015801539 -0.00016459769 -0.00016313692 -0.0001614905 -0.00016808139 8.722743e-05 8.5154636e-05
7.831945e-05 7.6287244e-05 7.421088e-05 6.730983e-05 7.960993e-05 7.752582e-05 7.064629e-05 -2.5999485e-05
-2.5953357e-05 -3.235834e-05 -2.756102e-05 -2.7518316e-05 -3.3910295e-05 -2.7875452e-05 -2.7833552e-05 -3.4229008e-05
-4.261436e-06 -4.2616857e-06 -4.263991e-06 -4.8339266e-06 -4.8339157e-06 -4.835974e-06 -4.834195e-06 -4.8341703e-06
-4.8385295e-06 -0.000352921 -0.0003530599 -0.0003538654 -0.0003213546 -0.00032149255 -0.0003223016 -0.00031725538
-0.00031739232 -0.00031820318 -0.0011547675 -0.0010296523 -0.0010435327 -0.0016881629 -0.0015194888 -0.0014939009
-0.0014393372 -0.001269567 -0.0012261602 -4.7240983e-06 -4.7394406e-06 -4.7730255e-06 -4.9873065e-06 -5.0138483e-06
-5.048082e-06 -5.1181228e-06 -5.129446e-06 -5.146347e-06 -0.001405583 -0.0014915902 -0.0013100419 -0.00091583695
-0.00103152 -0.0009102821 -0.0007159216 -0.0008498859 -0.00074050046 -1.8492728e-06 -1.8520643e-06 -1.8788562e-06
-2.4382418e-06 -2.4402834e-06 -2.4497242e-06 -2.451896e-06 -2.4502058e-06 -2.4545336e-06 5.2905543e-06 5.212175e-06
5.2318037e-06 5.8225473e-06 5.730937e-06 5.774783e-06 5.79392e-06 5.697022e-06 5.7517827e-06 1.2231686e-07
1.2274421e-07 1.2399992e-07 1.2522335e-07 1.2497118e-07 1.2738049e-07 1.2336096e-07 1.2471776e-07 1.2591616e-07
1.4763926e-06 1.4427181e-06 1.3522744e-06 1.4775894e-06 1.4451938e-06 1.3464756e-06 1.4715589e-06 1.4355276e-06
1.3256712e-06 -0.0006253784 -0.0006255828 -0.00062565 -0.0006262368 -0.0006264437 -0.0006265124 -0.0006262545
-0.000626462 -0.00062653056 0.00040484508 0.00047602764 0.000442783 0.00035859898 0.00044783976 0.0004645861
0.00031460187 0.000423902 0.00047899893 -3.8889093e-06 -4.0156488e-06 -3.9952292e-06 -3.3404513e-06 -3.2953965e-06
-3.399458e-06 -3.353121e-06 -3.4712448e-06 -3.5720032e-06 -0.0002127747 -0.00020536047 -0.00029864293 -0.00017577637
-0.00016507496 -0.00025879501 -0.00019837906 -0.00017874921 -0.0002523758 7.3307965e-06 7.395612e-06 8.492878e-06
7.092173e-06 7.1821946e-06 7.928569e-06 7.159632e-06 7.3039664e-06 8.238974e-06 5.057605e-06 5.3161793e-06
5.1032202e-06 5.0354497e-06 5.310183e-06 5.085503e-06 5.130539e-06 5.3152403e-06 5.134483e-06 -1.2253302e-07
-1.2250531e-07 -1.2253871e-07 -1.2223713e-07 -1.2152958e-07 -1.2243632e-07 -1.2227895e-07 -1.2207543e-07 -1.2205977e-07
0.0006717643 0.00067176385 0.0006631493 0.0006876719 0.00068767334 0.0006790595 0.0006867964 0.00068679696
0.00067818695 0.030965943 0.030913375 0.02430477 0.023589317 0.0233479 0.016466826 0.0231814
0.022903193 0.016314356 -0.21674326 -0.36431974 -0.064647496 -0.15613444 -0.2403928 -0.019370837
0.17562881 -0.029178044 0.15218067 0.00033009285 0.00033009256 0.000331688 0.00032512448 0.00032512445
0.00032672234 0.00032500725 0.0003250079 0.00032660738 -0.052787263 -0.124691926 0.0050538946 0.06909281

down_path.0.block.3.bias f4 [8]
00000000: af07 ce3e d150 d7bb 5273 c4ba be1e 07bc
00000010: cbbc fc3e d3e5 9b3c c815 3bbc c909 993e
0.40240237 -0.0065709134 -0.0014987981 -0.008247076 0.49362788 0.019030487 -0.011418767 0.29890278

down_path.0.block.5.weight f4 [8]
00000000: 4e05 4b3f 6dd4 25ba f307 6b39 8944 373f
00000010: 7c0f 3d3f cd87 e53e 4409 fc3e 2f80 c53e
0.7930497 -0.00063259044 0.00022414308 0.7158895 0.7385175 0.4483017 0.4922582 0.3857436

down_path.0.block.5.bias f4 [8]
00000000: 7d24 db3d 3c39 213b c09c f139 a355 7e3d
00000010: 1a5c 85bb 217d 9b3b b5d4 a23d dd5b ecbc
0.10700319 0.0024600765 0.0004608389 0.06209339 -0.0040698173 0.004745141 0.07950727 -0.028852398

down_path.0.block.5.running_mean f4 [8]
00000000: 1249 3640 fa5d 4b3b 7dfe e137 5ddb bc3e
00000010: 0b7d 8c3f 2b5f 943e e389 b93d 5c5e 093e
2.8482099 0.0031031356 2.6940595e-05 0.3688611 1.097566 0.28978857 0.09059503 0.13414901

down_path.0.block.5.running_var f4 [8]
00000000: ab94 6340 cbe4 d938 fbc5 0334 26ed d43e
00000010: 99bb a53e dac3 463e 64d9 d73d ced4 ed3d
3.555949 0.00010389982 1.227235e-07 0.4158718 0.32369688 0.19410649 0.10539511 0.11612855

down_path.1.block.0.weight f4 [16, 8, 3, 3]
00000000: 2b15 30bd bf9b a9bd 94e8 92be 4ab6 b23e
00000010: 8a3e ad3e 88ba aa3d f028 823e f376 923e
00000020: a501 4b3e 8cd1 e93a acf6 ea3a 5dba e03a
00000030: 624b ec3a ce8b e43a 0785 da3a e4db fd3a
00000040: eab5 ef3a d835 e33a 2e53 28b9 8776 1bb9
00000050: 9374 e8b8 b72a 15b9 ffba 1fb9 adc1 00b9
00000060: ff00 23b9 9532 3eb9 2307 30b9 2cf0 2f3e
00000070: a700 243d c572 d2bb 69a0 3e3e 3de3 9c3d
00000080: 7dfb 55bc 3852 ed3d 2262 723d 684b ac3a
00000090: 44dc ccbd 6f84 41bd 1265 00bd 5530 933b
000000a0: 54fa 543d 5382 8a3d 40a4 b83d 0d55 cf3d
000000b0: 274d ad3d 0d5d 21be d6cc 58be 375b fcbd
000000c0: c872 d1bc 6632 06be ea13 83bd bad0 223e
000000d0: f826 4d3c 39a2 5bbc 5f65 d0bd 63e8 2fbc
000000e0: 5175 073e c4b1 d6bd f4c7 38bd 0ea2 cf3d
000000f0: d719 edbd 321e 8abd 4c9c 813d 8b01 d1bd
00000100: de20 42bd 4a5e d93d cb43 00bd 729e 433c
00000110: 4342 2a3e d05c 583c b117 533d d5a5 0f3e
00000120: d979 793e 75f9 dd3d 73db 90be d2f0 a93d
00000130: e7ca eebc 03d6 c5be a661 1b3d 6715 9abd
00000140: 3341 b4be 50a9 d9ba 16d6 eeba 5413 e3ba
00000150: b92e dbba 6821 f4ba 96da ecba 9bbb dbba
00000160: 935d eeba 0e6a ebba c676 9438 4246 d638
00000170: 3721 0439 093e a637 92b8 7338 cfde c138
00000180: d4bb 5c37 3552 6638 8593 ad38 c6a4 ec3d
00000190: f63a ac3d 2504 d23d b207 af3d 06eb 1f3d
000001a0: 0b38 a53d c740 35bb 60f7 23bd 44fb fe3c
000001b0: 3e40 9e3d 16c5 663d 220c 97bc 422c 5fbc
000001c0: 542d d7bb e0d5 47bd 2c9d edbc 4062 1cbc
000001d0: 153a 85bc 3460 e83c da4c dc3d bcc6 7c3e
000001e0: 3a38 82bc e347 0a3e 1eab 893e f0ca 393d
000001f0: e8ab 143e 33a1 7e3e c208 1a3e 13f4 133e
00000200: 882e 9f3e 0947 093e 4005 093e 5348 943e
00000210: 2dc4 5e3d 90d9 393d e381 323e 57e6 34bd
00000220: 94a3 3bbe 0adf 2e3e 2c92 563c e1ad fdbd
00000230: 7b27 653e ca09 1b3d 0b1b 78bd cc5a 5c3e
00000240: 4cf3 c63e e683 8ebc c9e5 e8be a7c4 963e
00000250: 1ac4 75bc 1b92 f3be 6043 f13e 9288 4e3d
00000260: 037f e2be 1486 8f3b 1b2e 923b edd3 8e3b
00000270: c8f0 8d3b 383f 933b 5cba 8f3b cd3f 893b
00000280: 0017 933b 75d9 913b c54e ed39 d64c dc39
00000290: af97 e339 48ee e239 b941 d239 fcde de39
000002a0: 9f3d d439 b6de c739 456a ca39 a461 f4bd
000002b0: 7357 ccbd 90b2 dc3b 2860 1dbe 3782 c2bd
000002c0: a859 533c f681 1cbe 530d 0cbe 1e3c 20bd
000002d0: c344 57bd 648d c1bd 729d 34be e9ad 1abd
000002e0: f917 a3bc e4d6 09bd 0554 403d 6bae 2b3d
000002f0: ffca 9a3d b144 87be 6a92 f7ba bdfb bb3d
00000300: 0f0c 78be 8ec7 bc3d 0c8a 9c3e 9f55 a1bd
00000310: c281 6b3e 08fb 003f 08bd eb3d d458 4e3e
00000320: 07ae 0e3e f7e2 d73d d3ef 073e 3d97 463c
00000330: d924 5a3d c544 753d 7263 7fbd 15af 4abe
00000340: 2532 df3d f3fe 983d 7fb1 25be 061b e33d
00000350: 84d2 663d a759 12be 9af5 ad3d 93ad d53b
00000360: dd13 59be 01a2 57bd 2165 ac3d ca49 5dbe
00000370: 31a9 e5bd d241 fcbd aca2 cf3d bbcd 553d
00000380: 2d38 19bd bdcb 593a 3b40 323a 9a12 333a
00000390: 71d7 583a 3523 2e3a 134a 2f3a ceef 663a
000003a0: ddd1 393a 13e2 323a b272 88b8 5bd7 6ab8
000003b0: 2130 2fb8 f9cd a1b8 dcd7 82b8 ae7c 18b8
000003c0: 1832 ebb8 e79b b1b8 b9ae 45b8 c836 76bd
000003d0: 73c4 0bbe 30af 35be a8ab 05be dc87 4dbe
000003e0: 80f3 70be 2534 d5bc c85f 95bd be6c a9bd
000003f0: 5e87 40be 7762 75bd a98a 463d 0773 23be
-0.042988937 -0.08281659 -0.28693068 0.349047 0.33836776 0.08336359 0.25421858 0.28606376
0.19824846 0.0017838939 0.0017926297 0.0017145384 0.0018027837 0.0017436685 0.0016671725 0.0019367901
0.0018288468 0.0017334772 -0.00016052715 -0.00014826107 -0.00011084336 -0.0001422566 -0.00015233083 -0.00012279181
-0.00015545262 -0.00018138655 -0.00016787327 0.17181462 0.040039685 -0.006422373 0.18615879 0.0766053
-0.013060448 0.115879476 0.059175618 0.0013145031 -0.1000295 -0.04724544 -0.03134639 0.0044918456
0.051996544 0.067631386 0.09015703 0.10123644 0.08461981 -0.15758152 -0.21171889 -0.12322085
-0.025567427 -0.13105163 -0.06400283 0.15899935 0.012521498 -0.013405376 -0.10175585 -0.010736558
0.13228346 -0.10483125 -0.045112565 0.10138331 -0.11577194 -0.067440405 0.063286394 -0.102053724
-0.047394626 0.10613687 -0.031314652 0.011939632 0.1662684 0.013205722 0.051536266 0.14028104
0.24362887 0.10838596 -0.28292426 0.08297886 -0.029149486 -0.3863984 0.03793492 -0.075236134
-0.35205993 -0.0016606245 -0.0018221762 -0.0017324486 -0.0016722298 -0.0018625678 -0.0018070515 -0.0016764285
-0.0018185846 -0.0017960684 7.079313e-05 0.00010217402 0.00012600874 1.981763e-05 5.810761e-05 9.2444585e-05
1.3156754e-05 5.4912834e-05 8.2767605e-05 0.115548655 0.084096834 0.10254697 0.0854639 0.039042495
0.0806733 -0.0027657019 -0.040030837 0.031125672 0.07727097 0.0563403 -0.018438403 -0.013621392
-0.006566683 -0.04878795 -0.02900561 -0.009544909 -0.016263047 0.028366186 0.10756846 0.24685186
-0.015895952 0.13503985 0.26888365 0.045359552 0.14518702 0.2486618 0.15042403 0.14448576
0.31090188 0.13406004 0.13380909 0.2896143 0.054386307 0.0453735 0.1743236 -0.04416498
-0.18324119 0.1707727 0.0130963735 -0.123866804 0.22378342 0.037851132 -0.060572665 0.21519011
0.38857496 -0.017396878 -0.45487812 0.2944691 -0.015000368 -0.47572407 0.47121716 0.050423212
-0.44237527 0.004379997 0.0044610626 0.0043587596 0.004331682 0.0044936202 0.0043862294 0.004188514
0.004488826 0.0044509717 0.0004526285 0.00042018917 0.00043409827 0.00043283612 0.00040103288 0.00042509276
0.00040481702 0.0003812217 0.0003860762 -0.11932686 -0.09977617 0.0067351535 -0.15368712 -0.09497493
0.012899794 -0.15283951 -0.13676958 -0.039119832 -0.05255581 -0.09450796 -0.17638186 -0.03776351
-0.019908892 -0.0336522 0.046955127 0.041914385 0.0755825 -0.26419595 -0.0018888239 0.09178875
-0.2422335 0.092177495 0.3057407 -0.07877659 0.22998717 0.50383043 0.11510664 0.20151073
0.13933574 0.10541337 0.1327508 0.012121019 0.053257797 0.059880037 -0.062350698 -0.19793351
0.10898236 0.07470503 -0.1618099 0.11089139 0.056353107 -0.14292012 0.084941104 0.006520936
-0.21198983 -0.052644733 0.08417726 -0.2161018 -0.11213911 -0.12317242 0.10138449 0.052198153
-0.03740709 0.00083082524 0.0006799732 0.000683108 0.00082718494 0.00066428195 0.0006686758 0.00088095374
0.0007088462 0.0006823849 -6.506349e-05 -5.5990513e-05 -4.1768075e-05 -7.715444e-05 -6.23909e-05 -3.635574e-05
-0.00011215004 -8.469057e-05 -4.7131183e-05 -0.060110837 -0.13649158 -0.1774261 -0.13053763 -0.20071357
-0.23530388 -0.026025841 -0.072936594 -0.08272694 -0.18801638 -0.059908357 0.04847208 -0.15961848

down_path.1.block.0.bias f4 [16]
00000000: 7871 0cbe d4e8 abbe 9ab2 6ebe ba12 493c
00000010: a483 41bc 328b d53e a6df 70bc b030 373c
00000020: 0a2e 75bc dd79 b43e 7482 d6bd 29de d3be
00000030: 2fc0 9290 4a3d 95bc c13c 8cbc 9724 a1bc
-0.1371516 -0.3357607 -0.23310319 0.012272531 -0.011811171 0.4170776 -0.014701759 0.011181042
-0.01496459 0.35249224 -0.10474101 -0.41380432 -5.788295e-29 -0.018217701 -0.017118813 -0.019670768

down_path.1.block.2.weight f4 [16]
00000000: c498 023f cd2d b43e 92a1 093f 3cf1 333e
00000010: 8ba9 00ba 652b 8a3f 0bce 823b 0bc8 663a
00000020: a7b6 813c 9fb3 a73f d929 b03e 4212 823e
00000030: 10f8 a338 240c 503b 21f1 b5bb e0db 8ebb
0.5101435 0.35191193 0.5376216 0.17572492 -0.00049080764 1.0794493 0.0039918474 0.00088036124
0.015834166 1.3101691 0.34406927 0.25404555 7.818651e-05 0.0031745518 -0.0055524264 -0.0043597072

down_path.1.block.2.bias f4 [16]
00000000: 81a1 a63e 2d64 37bd 239e 67be c792 0fbe
00000010: d161 093a a528 98bd fb70 093a 7592 663a
00000020: 57c1 00ba 2b2d 9f3d 3bf1 eb3c f75c 833d
00000030: ba00 77ba 3916 bd3a 3394 6e3a 82eb adba
0.32545093 -0.04477327 -0.22618918 -0.14020835 0.0005240711 -0.07429627 0.00052429707 0.00087956275
-0.00049116224 0.07772287 0.028801551 0.06414216 -0.00094224105 0.0014426179 0.0009101063 -0.0013269039

down_path.1.block.2.running_mean f4 [16]
00000000: dd88 f53e 0218 e03e 7054 703e 6d4a 323e
00000010: 706f 3a3b 8550 2e3f cac4 723c 85c1 843c
00000020: 6377 873c 5de1 093f 8cfc 403f b37f c93c
00000030: 0400 0000 7b43 423b f979 c03b 4f29 253c
0.4795598 0.43768317 0.2346971 0.17411204 0.002844777 0.68091613 0.014817426 0.016205559
0.01653642 0.538595 0.75385356 0.024597025 6e-45 0.0029642272 0.0058739153 0.0100806495

down_path.1.block.2.running_var f4 [16]
00000000: e7a3 493f 78cd 923f 048e c83e 820f 7c3d
00000010: b9cc a938 a73c 843f 75f6 783a b3cc 9439
00000020: 75ce 523a 3d3e 1b3f ce2d b03f 9b0a 623c
00000030: 0400 0000 6fc2 8438 165b cd39 6a9d 193a
0.7876572 1.1468954 0.3917085 0.061538227 8.0966805e-05 1.033101 0.0009497174 0.00028381273
0.0008041629 0.60641843 1.3763978 0.013796474 6e-45 6.3304666e-05 0.0003916851 0.00058599433

down_path.1.block.3.weight f4 [16, 16, 3, 3]
00000000: f16d abbb 2059 fdbd 655b 3bbe 6aca df3d
00000010: cbe0 23bb 666b 89bd c0e2 223e 231f 3c3d
00000020: 152e fcbc a662 e3bb 7760 87bb e456 51bd
00000030: 713a f7b9 78e9 893c 0460 6dbd 7e9b 50bd
00000040: 1b1f 93bc 5557 b5bd ac6a 9d3d aca4 153e
00000050: 6c5c bb3d 18eb 603d 587c 063e d091 0c3d
00000060: 0a47 793c d185 f63d 3dad eabc fae0 2fba
00000070: de9c 0d3c 0aed 1b3e 5c79 3bbd ec83 6fbc
00000080: 4b7f 033e 7087 ebbd 7ae0 8bbd 96ce 993d
00000090: 2278 7bba 4c2e 75ba 6e04 66ba f704 5dba
000000a0: e25c 61ba 5e5f 50ba f4c8 4fba 38ea 5bba
000000b0: a07f 51ba d97a 9c3b 3e16 34bd 32ef c53d
000000c0: 644c e13b 9186 67be 44d7 1a3c e811 1a3e
000000d0: 283d d6bd af84 3bbd 2b41 16bb 3e83 14bb
000000e0: b26f 16bb b03a 17bb b532 ebba 86b9 ccba
000000f0: 6fdd 21bb a9e8 e3ba aa40 afba 9d3e e73a
00000100: e84f e53a ca41 b73a db84 c63a e6e0 c03a
00000110: 5f64 9d3a a38d 9f3a 374f 913a a747 6a3a
00000120: 20f9 fdbb b64c edbb 13a4 e0bb d2ee debb
00000130: e90f b7bb 773c aabb da5e cdbb 7a98 9cbb
00000140: 8ed5 92bb ae91 8f3c 7641 edbe cb56 863e
00000150: 8140 263d 6a9d ecbe ce21 d23e 86bc 86bc
00000160: a719 b6be bd95 573e 1f51 1f3d 67d4 b6bd
00000170: 3f1f 6bbe 4d67 8f3d c390 4cbd 9c2e 3fbe
00000180: 0d22 c33d 10e1 8abc e657 2bbe 7042 e3bd
00000190: efd6 9fbd df92 903d bbdb 25bd f583 fe3b
000001a0: bc09 173e 9bdd 5bbb 3fd9 45bc 619f 9b3d
000001b0: d45a e639 3590 cc39 6d0b c139 5e5c 1239
000001c0: a9ac bc38 0dba 8e38 0cf5 1239 ace8 bd38
000001d0: 3af9 8f38 900f 303b 88c8 463b da59 3d3b
000001e0: c276 243b 5968 543b f711 5a3b 6697 f03a
000001f0: 8082 313b aee9 433b d52c 863b 466e 843b
00000200: c72b 833b cd88 823b bce1 6d3b b5b2 603b
00000210: bcf0 793b 8b29 563b 8152 3f3b 7ceb 5b3b
00000220: c899 633b 7e15 573b 8a1f 483b 5965 193b
00000230: 37b2 fb3a 5929 7f3b 1df0 353b 140b 083b
00000240: be2a b8bd 4881 98bd 119b 70bd 21ed d1bd
00000250: e6fb cabd b439 8cbd 31e5 f3bd 594e e9bd
00000260: e93a b6bd 090c a7bb cf40 3abc d875 60bc
00000270: 1257 eb38 ec36 08bc 716d 1abc 1f4b 543c
00000280: 1f55 533b 57f8 093b f830 0ebc f217 8cbc
00000290: ef3a c23b d0e2 8bbc 3301 88bc ca90 603c
000002a0: 1123 f8bb bcda e5bb ea73 c53c 9901 e1bb
000002b0: 1de1 f7bc 16c8 44bd 511d fb39 31fe b9bc
000002c0: 33a1 21bd 1fac 5f3c cc42 2abc dd7d d6bc
000002d0: 0eb8 d6b9 3360 52b8 bfac 313a ea5c 8eb9
000002e0: bb3d a838 50be 723a 5899 49b9 7800 c238
000002f0: d19e 743a 473e d7bc 246d 4dbd 3bc9 5ebc
00000300: b708 b3bc be83 e2bc e0f5 dd3c 3115 6e3c
00000310: 13e3 b93c 635c 7d3d 95ca 8fba 38ce 4eba
00000320: e2dc 62ba 9822 4bba 99d9 b2b9 ed69 b0b9
00000330: 7ffd 5bba ffb3 a6b9 27bf a337 74c7 a9b9
00000340: 8bec 7fb9 e9d9 40b8 692d 1bb9 b977 35b9
00000350: 4db7 96b8 965b a2b9 3f2c f1b9 f81a 91b9
00000360: 585c 7bbb 117a 8dbb 4bd8 bfbb b822 07bb
00000370: 71a6 19bb ba03 93bb 9b8a 52ba e04c 64ba
00000380: 793f 48bb 445a 1b3c b4bb 41bd 5fa9 26bc
00000390: bc13 b03c a1a5 dbbc 3bb8 9ebc d038 983c
000003a0: 97cb f4bc 3dc9 18bd 6fac bdbb 961e d83b
000003b0: c0a7 eb3b e74a 28bc c80b 173b 95f6 98ba
000003c0: 87d3 bbbc f01d 43bc 89a2 7bbc 334a 4d3c
000003d0: 2f0c 1a3d 550e 90bb 92f9 023b bf7d 073d
000003e0: adbf f93a 9965 c6ba 564e ee3c 4523 2e3c
000003f0: 0a35 4eba 1f24 56ba 9894 71ba 2505 5eba
-0.005231612 -0.12370515 -0.18296583 0.10927279 -0.0025005813 -0.06709938 0.15906811 0.04592813
-0.030783692 -0.00693925 -0.0041313726 -0.051108256 -0.00047155053 0.01683496 -0.057952896 -0.05092954
-0.017959168 -0.08854548 0.07686362 0.14613599 0.091484874 0.054911703 0.13133371 0.034318745
0.015214691 0.12037242 -0.02864706 -0.00067092443 0.008643357 0.15227142 -0.045770034 -0.014618855
0.12841527 -0.11500442 -0.06829925 0.07510106 -0.00095927913 -0.0009352907 -0.0008774464 -0.0008431221
-0.00085969095 -0.0007948781 -0.00079263677 -0.00083890883 -0.0007991735 0.004775387 -0.043966524 0.096647635
0.0068755616 -0.22609927 0.009450737 0.15045893 -0.104608834 -0.045780834 -0.0022927027 -0.0022661234
-0.002295476 -0.0023075752 -0.0017944189 -0.0015619255 -0.0024698635 -0.0017388064 -0.0013370712 0.0017642562
0.0017495127 0.0013981399 0.0015145795 0.0014715462 0.0012008062 0.0012172948 0.001108623 0.00089370686
-0.0077506453 -0.0072418107 -0.0068554967 -0.006803372 -0.0055866134 -0.0051951963 -0.0062674107 -0.004778919
-0.004481024 0.01752552 -0.46339005 0.26238093 0.04058886 -0.46213847 0.41041416 -0.016447317
-0.35566446 0.21053214 0.038895722 -0.08927231 -0.22961138 0.07002125 -0.049942743 -0.18670124
0.09527979 -0.016953021 -0.1673275 -0.11096656 -0.07804667 0.070592634 -0.040492754 0.0077671953
0.14749807 -0.0033548835 -0.012075721 0.075987585 0.0004393669 0.00039017355 0.00036820341 0.00013958054
8.996699e-05 6.805742e-05 0.00014014932 9.055561e-05 6.8651934e-05 0.0026864745 0.0030331928 0.0028892667
0.00250952 0.003241083 0.0033274868 0.0018355667 0.002708584 0.0029893923 0.0040947 0.004041466
0.0040030214 0.003983593 0.0036297878 0.0034286205 0.0038137874 0.003267857 0.0029193463 0.0033557108
0.0034729112 0.0032819207 0.0030536377 0.0023406355 0.0019202892 0.0038934557 0.0027761527 0.0020758556
-0.089925274 -0.074465334 -0.058741633 -0.10250307 -0.09911327 -0.068469435 -0.11908949 -0.11391897
-0.08897955 -0.0050978702 -0.011367991 -0.013699971 0.00011221891 -0.008313876 -0.009425507 0.012957363
0.003224678 0.0021052563 -0.008678667 -0.017101262 0.0059274356 -0.017075926 -0.016602134 0.013706395
-0.0075725396 -0.0070146006 0.024103124 -0.0068666455 -0.03025871 -0.04804238 0.00047896293 -0.022704216
-0.039460372 0.013651877 -0.010391902 -0.026183063 -0.00040954392 -5.0157494e-05 0.00067777553 -0.00027153577
8.0223625e-05 0.0009259926 -0.00019225979 9.250728e-05 0.0009331527 -0.026274813 -0.050152913 -0.013597782
-0.021854741 -0.02765071 0.027094781 0.01453142 0.022691285 0.061855685 -0.0010970408 -0.00078890054
-0.000865413 -0.00077489903 -0.0003411293 -0.00033648257 -0.0008391961 -0.00031796095 1.9520126e-05 -0.00032382796
-0.00024406814 -4.5979312e-05 -0.00014798869 -0.00017306105 -7.1867e-05 -0.00030967285 -0.00046000068 -0.00027676648
-0.0038354602 -0.00431753 -0.0058546416 -0.002062006 -0.0023445154 -0.004486528 -0.0008031518 -0.0008708965
-0.003055541 0.00948197 -0.04729815 -0.010172217 0.021493785 -0.026812376 -0.019374957 0.018581778
-0.029882235 -0.03730129 -0.005788378 0.006595443 0.007191628 -0.010271764 0.0023047794 -0.0011670167
-0.022928013 -0.011908993 -0.015358576 0.0125298975 0.037609275 -0.0043962398 0.0019985181 0.033078905
0.0019054316 -0.001513648 0.029090088 0.010628526 -0.000786618 -0.00081688346 -0.00092155626 -0.00084693945

down_path.1.block.3.bias f4 [16]
00000000: 62c6 68bd 1718 2cbd 7ab8 e13b 96f1 a2bc
00000010: 9fe7 21be b6a8 d93a 7695 4d3d 53ad 72be
00000020: 37fa 6fbe 88ae 033d 3650 d53d 2150 ec3e
00000030: f04c c03d 7fb3 2b3c 7ce5 033c ac54 80bd
-0.056829818 -0.04201516 0.0068884464 -0.019890588 -0.15811013 0.0016606066 0.050191365 -0.2369893
-0.23435293 0.032148868 0.1041569 0.46154884 0.09389675 0.010479807 0.008050319 -0.0626615

down_path.1.block.5.weight f4 [16]
00000000: 0ebf c83e 694c 8e3d b835 6cbd bdb5 a4bc
00000010: 9110 32be f765 84bc 5599 813e d0f7 d43e
00000020: 36b1 2f3f 1b78 cebd 16b1 df3e 6c02 da3e
00000030: c39f c73e 1eb5 61bc 93ee 1ebd d377 73be
0.39208263 0.06948168 -0.057668418 -0.02010619 -0.17389132 -0.016161902 0.25312296 0.41595316
0.6862978 -0.10081502 0.43689793 0.42579973 0.38989076 -0.013776092 -0.03880174 -0.23776178

down_path.1.block.5.bias f4 [16]
00000000: 5931 a63b 3981 e3bb fee5 00bc 0a2d dbbb
00000010: 3dfd b3bc 83f9 b6ba d22f 453e 3f1d 653e
00000020: 386d ffbd 90fd 193c 32f1 c63c ad83 a4bd
00000030: a892 8ebd 7d87 153a a0b0 aebb 94a1 e1bd
0.0050718007 -0.006942895 -0.007867334 -0.0066887187 -0.02197134 -0.0013959858 0.19256523 0.22374438
-0.12472004 0.009398833 0.024284933 -0.08032928 -0.06961566 0.0005704088 -0.005331114 -0.11017147

down_path.1.block.5.running_mean f4 [16]
00000000: 00d0 7e3e c493 b03b 4b50 a53d dd59 073d
00000010: 6d46 123d d200 6c3d df07 123f ca44 cd3d
00000020: ecc3 e03e 502e 053d 63ac 9d3e 42e4 633f
00000030: a24c 873e b3bf f33c f972 c33c 1f98 8b3e
0.24884033 0.005388709 0.08071955 0.033044685 0.035711695 0.05761797 0.5704326 0.10022886
0.43899477 0.03251487 0.30795583 0.8902017 0.26425654 0.029754495 0.023858534 0.27264497

down_path.1.block.5.running_var f4 [16]
00000000: 33a5 f73e 91bb c439 f4c7 bd3b 603b c83a
00000010: 2152 a93b 7a32 323b 6740 a73e ad32 273e
00000020: e05d e83f 3d67 dc3b e4e1 273f cb67 c93e
00000030: ca46 e33e e02b 303a 7ff1 7d3a 7b6d 273e
0.48368225 0.0003752378 0.0057916585 0.0015276484 0.005167261 0.002719073 0.32666323 0.16327925
1.8153648 0.006726174 0.65579057 0.39337 0.44389945 0.0006720405 0.000968717 0.16350357

down_path.2.block.0.weight f4 [32, 16, 3, 3]
00000000: 6008 0000 9f23 0080 4b24 0080 5d1f 0080
00000010: 2609 0080 2a0f 0000 4207 0080 e114 0000
00000020: 370b 0000 7c08 0080 0a07 0000 0319 0000
00000030: 220b 0080 0219 0080 a206 0080 7816 0000
00000040: 1b26 0080 5530 0000 621a 0080 7c1a 0080
00000050: 2c0b 0000 1039 0080 2220 0080 d013 0080
00000060: 200f 0080 2a13 0080 9937 0080 e827 0000
00000070: d108 0080 bb1b 0000 751a 0080 2030 0080
00000080: af1b 0080 792e 0080 1604 0080 0119 0080
00000090: c530 0000 8a01 0000 fc10 0000 1328 0000
000000a0: 8811 0080 2c1e 0000 ae0e 0080 6009 0000
000000b0: 962a 0000 1b04 0080 da2a 0080 0424 0080
000000c0: 3a30 0000 132b 0080 6527 0080 1232 0000
000000d0: d60d 0000 662a 0080 1d12 0080 b505 0000
000000e0: c924 0000 880b 0000 eb0f 0080 6e13 0080
000000f0: 1920 0000 8c0d 0080 3014 0080 a907 0080
00000100: fc24 0080 570f 0000 5a04 0000 411d 0080
00000110: 690a 0080 e709 0080 a613 0000 9102 0000
00000120: d319 0000 010a 0000 100e 0000 7c1c 0080
00000130: 6b1f 0080 2015 0080 7900 0080 1503 0000
00000140: a724 0000 3109 0080 8f1a 0080 7808 0080
00000150: f913 0080 c61b 0080 aa39 0000 eb24 0000
00000160: a405 0080 072c 0080 ce0f 0000 9910 0000
00000170: d020 0080 c005 0000 641b 0000 2b05 0000
00000180: 9416 0000 6c23 0080 031e 0000 9a24 0080
00000190: 8606 0000 e816 0000 2f08 0000 c01b 0080
000001a0: 600d 0080 1b24 0080 e311 0080 0021 0000
000001b0: e01e 0000 c814 0080 4315 0080 8a0b 0080
000001c0: 9f0f 0000 241e 0080 5b24 0080 3a22 0080
000001d0: 541a 0080 b108 0080 801c 0080 542a 0080
000001e0: 9022 0000 b126 0080 3610 0000 e433 0080
000001f0: 520e 0000 f30d 0080 8413 0080 c830 0080
00000200: fa10 0080 850d 0080 3a31 0000 d421 0080
00000210: 4e35 0080 311d 0000 de0c 0000 0f03 0000
00000220: 2126 0000 6615 0080 5418 0080 e827 0080
00000230: fd23 0000 b922 0080 ce1c 0000 0521 0000
00000240: d837 11bc 6d7f abbb c334 4ebb f5f3 1bbb
00000250: ae36 a33a 53a8 f43a f86e 013a d67b 243b
00000260: ee3c 713b 6613 083b d140 853b 1e39 3f3b
00000270: e1d3 ce39 ceab ec3a 5efe 123a ebc5 23bb
00000280: 672d 49bb df4f 48bb 1677 b83a 8fc1 d43a
00000290: d606 763a f8f9 913b b60e 983b b61c 6d3b
000002a0: de0d 893b 6030 8a3b 2ce1 4c3b 3618 98ba
000002b0: 78aa 2dba 35aa 6eba 8da1 ddba 81e0 abba
000002c0: f483 b2ba 6206 08bb b477 c5ba 4a8f a5ba
000002d0: 3453 a43b 53bb 4f3b 62a2 163b 182a 5c3b
000002e0: e96c 163b 3470 163b 31c9 683b bc19 433b
000002f0: 2a43 893b aa85 b639 180c 6e3a ebb1 0739
00000300: efa3 c5b7 83b7 d139 508d 06ba 8fb6 1bb8
00000310: ab85 f534 9500 55ba eed0 85bc c40a 74bc
00000320: 05aa 62bc 2502 44bc 8566 38bc 9e08 46bc
00000330: c523 6dbc d18a 6bbc 87cc 77bc 741c 1cbc
00000340: 9a5f 37bc 5257 4cbc f299 5fbb 49ba 8abb
00000350: 9fb4 a0bb 02d3 9cb9 d1fe 36bb efa3 91b8
00000360: c9d6 75bb eb69 78bb 3f76 16bb c29c 4fbb
00000370: a68e 6abb c906 15bb 6b40 3bbb 2ba3 78bb
00000380: a19d 39bb 01a7 4ebc 1987 50bc 0fc0 3ebc
00000390: 5c2f 40bc 79df 45bc 589f 36bc f919 4fbc
000003a0: 1e98 4bbc 5ab5 3bbc 192c 623b 7f22 86b9
000003b0: b681 6dba 49cd a83b 92c9 8f3b 9afa 563b
000003c0: fc19 403b 897f 83bb 6880 a5ba c7b6 d5bb
000003d0: 6618 c8bb 226f 09bb 6b40 a93a e2a3 0b3b
000003e0: dde8 443b 61bd 57bb 92b9 a3ba a4a6 42bb
000003f0: 5279 abba f335 a2ba 8335 d5ba ed31 d33a
3.004e-42 -1.2778e-41 -1.302e-41 -1.1251e-41 -3.282e-42 5.44e-42 -2.604e-42 7.49e-42
4.023e-42 -3.044e-42 2.525e-42 8.973e-42 -3.994e-42 -8.971e-42 -2.38e-42 8.06e-42
-1.367e-41 1.7338e-41 -9.464e-42 -9.501e-42 4.008e-42 -2.047e-41 -1.1527e-41 -7.107e-42
-5.426e-42 -6.875e-42 -1.9945e-41 1.4316e-41 -3.163e-42 9.948e-42 -9.491e-42 -1.7264e-41
-9.931e-42 -1.6671e-41 -1.466e-42 -8.97e-42 1.7495e-41 5.52e-43 6.093e-42 1.4376e-41
-6.289e-42 1.0824e-41 -5.266e-42 3.363e-42 1.5277e-41 -1.473e-42 -1.5372e-41 -1.292e-41
1.73e-41 -1.5452e-41 -1.4132e-41 1.7962e-41 4.963e-42 -1.521e-41 -6.498e-42 2.047e-42
1.3196e-41 4.137e-42 -5.71e-42 -6.97e-42 1.1514e-41 -4.86e-42 -7.242e-42 -2.748e-42
-1.3267e-41 5.503e-42 1.561e-42 -1.0494e-41 -3.734e-42 -3.552e-42 7.049e-42 9.2e-43
9.264e-42 3.589e-42 5.045e-42 -1.0218e-41 -1.127e-41 -7.578e-42 -1.7e-43 1.106e-42
1.3148e-41 -3.297e-42 -9.527e-42 -3.038e-42 -7.165e-42 -9.963e-42 2.0686e-41 1.3244e-41
-2.023e-42 -1.5794e-41 5.67e-42 5.954e-42 -1.1771e-41 2.063e-42 9.826e-42 1.854e-42
8.1e-42 -1.2707e-41 1.0766e-41 -1.313e-41 2.34e-42 8.217e-42 2.936e-42 -9.955e-42
-4.798e-42 -1.2952e-41 -6.417e-42 1.1838e-41 1.1076e-41 -7.455e-42 -7.627e-42 -4.14e-42
5.604e-42 -1.0812e-41 -1.3042e-41 -1.2278e-41 -9.445e-42 -3.118e-42 -1.0224e-41 -1.5184e-41
1.2399e-41 -1.388e-41 5.815e-42 -1.8615e-41 5.137e-42 -5.004e-42 -7.001e-42 -1.75e-41
-6.09e-42 -4.85e-42 1.7659e-41 -1.2135e-41 -1.9122e-41 1.0472e-41 4.616e-42 1.097e-42
1.3678e-41 -7.676e-42 -8.727e-42 -1.4316e-41 1.291e-41 -1.2456e-41 1.0333e-41 1.1845e-41
-0.008863412 -0.005233696 -0.0031464554 -0.0023796533 0.0012452209 0.0018665887 0.0004937495 0.0025098226
0.0036809999 0.0020763515 0.0040665646 0.0029178332 0.00039449244 0.0018056573 0.00056073617 -0.0024989794
-0.0030697228 -0.0030565185 0.0014073576 0.0016232001 0.0009385174 0.0044548474 0.0046404256 0.0036180443
0.0041825613 0.0042171925 0.0031262143 -0.0011603895 -0.0006624828 -0.00091043423 -0.0016909108 -0.0013113172
-0.0013619647 -0.0020755758 -0.0015065582 -0.0012631204 0.0050148014 0.0031697347 0.0022984971 0.0033594426
0.00229531 0.0022955062 0.003552031 0.0029769978 0.004188915 0.00034813333 0.00090807816 0.00012940883
-2.3560568e-05 0.00040000313 -0.00051327515 -3.71249e-05 4.5732062e-07 -0.0008125392 -0.016334977 -0.014895145
-0.013834481 -0.011963402 -0.011254911 -0.012087015 -0.01447386 -0.014376358 -0.015124447 -0.009528268
-0.011192227 -0.012471991 -0.0034118858 -0.0042336327 -0.004904344 -0.00029911852 -0.0027922879 -6.944674e-05
-0.0037512055 -0.003790493 -0.0022958664 -0.0031679128 -0.0035790592 -0.002273964 -0.0028572332 -0.0037939053
-0.0028322714 -0.012613059 -0.012727522 -0.01164247 -0.011730041 -0.012077206 -0.011146389 -0.01264047
-0.012426404 -0.011456812 0.0034511148 -0.00025584173 -0.0009060161 0.005151425 0.0043880427 0.0032803179
0.0029312363 -0.004013006 -0.0012626769 -0.006522033 -0.006106424 -0.0020970781 0.0012912875 0.0021307399
0.0030046024 -0.0032919275 -0.0012491217 -0.0029701376 -0.0013082421 -0.0012375697 -0.0016266558 0.0016112902

down_path.2.block.0.bias f4 [32]
00000000: 7a0a 5893 c4ce 6b3b 0a4e 6f87 bdb4 ffa3
00000010: c6ec 7aba cddf 0ebc 0192 0f3e 6f8d 06bc
00000020: 2b82 303b 7e0f cc3e fd25 a1bd a993 b93e
00000030: 7662 2a3c 1e2f c03a 4c51 aabd d5bb 393e
00000040: ccf2 cb3d c229 8aa4 7730 b1bd 90d3 8d3c
00000050: adf1 34b8 af35 b4bc ece5 323c 3055 4388
00000060: 8b6e 243c e792 1c3c d3b1 fabc b43b acbd
00000070: e156 e5b9 f31b 15b0 bfed 19bc 334c 16bb
-2.7268198e-27 0.0035981396 -1.8003295e-34 -2.7723701e-17 -0.0009572025 -0.00872035 0.1402054 -0.008212431
0.0026933055 0.3985557 -0.07868574 0.36245468 0.0103994515 0.001466248 -0.083162874 0.18138058
0.09958419 -5.99187e-17 -0.08651822 0.017312795 -4.3140422e-05 -0.021998255 0.010919075 -5.8780815e-34
0.010036121 0.009556509 -0.030602371 -0.08409825 -0.00043743014 -5.42456e-10 -0.009395062 -0.0022933602

down_path.2.block.2.weight f4 [32]
00000000: 741f 64b7 94be 8fbc 0ac7 dfb5 073f dbb6
00000010: fab4 353a 0fa9 803c d8b2 0e3f 2125 c9bc
00000020: 1dc7 78bb 26cc 523f 1768 cfbd cb61 643f
00000030: 2a96 0bbc 5427 6f3d 4ebd f03e 3794 0a3f
00000040: d773 d93e 9b97 1d3a a8a9 e33e 09f7 cbb9
00000050: 638c aa37 a5cc 043d b332 0e3e e194 89b5
00000060: 2c14 5b3f 518f d43c 68e9 08be c1ae ccbd
00000070: 9640 a4bc 11f4 f438 33ea a23d 289a c43b
-1.3597182e-05 -0.01754693 -1.6672723e-06 -6.534046e-06 0.00069315697 0.015705613 0.55741644 -0.024553837
-0.0037960478 0.82342756 -0.101272754 0.8921172 -0.008519689 0.058387116 0.47019428 0.5413241
0.4247119 0.00060116657 0.44465375 -0.00038903233 2.0330952e-05 0.032421727 0.13886528 -1.0250625e-06
0.85577655 0.025947245 -0.13370287 -0.09994269 -0.020050328 0.000116802876 0.07954826 0.005999822

down_path.2.block.2.bias f4 [32]
00000000: 4263 d2b7 ee01 dabb 1054 2c35 11e9 f9b8
00000010: 566c f4ba 2cc9 143b 81de d73e 820f 343a
00000020: e7ce c9bb 849d 5ebe b63a 3d3c 42c7 463e
00000030: 26cc 0e3b 164e ddbb ddb4 cd3e 6f47 81bd
00000040: 6f03 073e bb3b 6a39 b81f dd3d bc27 aab8
00000050: 14d7 77b9 0742 fe3b e847 0e3d a31d abb9
00000060: fec7 473e a71d ae3b 1015 acbb 0301 8dbb
00000070: bc69 c53b 5190 4739 c278 153c 62fc 2cba
-2.5080171e-05 -0.006653062 6.419732e-07 -0.00011916657 -0.0018648009 0.0022702916 0.42161945 0.0006868766
-0.006158698 -0.21739775 0.011549642 0.19411948 0.0021789162 -0.0067536933 0.4017705 -0.06312453
0.13184904 0.0002233823 0.107970655 -8.113633e-05 -0.00023635878 0.007759336 0.034736544 -0.00032637743
0.19509885 0.0053135934 -0.0052515343 -0.004303099 0.0060245674 0.00019031881 0.009123029 -0.0006598887

down_path.2.block.2.running_mean f4 [32]
00000000: 0400 0000 02ad cd3a 0400 0000 0400 0000
00000010: ee74 5f39 8349 0a3b 0d6d 243f 0d24 923d
00000020: 18c8 0f3b 73a5 c43e da61 003c e168 013f
00000030: 6c73 843d ded3 113c 2e55 473e 95f1 8e3e
00000040: 9bbd eb3e 0400 0000 2099 ac3d e713 853c
00000050: 0400 0000 d085 a73b 188a 7c3d 0400 0000
00000060: a8e4 fc3d 1912 1a3d 8db8 903a d90b 073c
00000070: d129 c23b 0400 0000 5132 6a3b d458 4e3a
6e-45 0.0015691819 6e-45 6e-45 0.00021310497 0.0021100945 0.642289 0.071357824
0.0021939334 0.38407478 0.00783583 0.5055066 0.064673275 0.008900611 0.19466087 0.27918687
0.46043095 6e-45 0.08427644 0.016244842 6e-45 0.0051123872 0.061655134 6e-45
0.123483 0.037614916 0.0011041329 0.008242571 0.005925395 6e-45 0.0035735557 0.0007871513

down_path.2.block.2.running_var f4 [32]
00000000: 0400 0000 e8a8 1638 0400 0000 0400 0000
00000010: 2794 8435 fbad 7a38 aab6 a43e 3409 913b
00000020: e003 1a38 35f0 623e 9d8d 583a 5d78 543e
00000030: 8ffd bb3a 51ff a739 2c7a 3d3e 883c e53d
00000040: bef2 933e 0400 0000 a2cd a63d 9dcf 3139
00000050: 0400 0000 779f 8e39 8005 c13b 0400 0000
00000060: 5a4a 503e 395f 753a 941a d738 3532 033a
00000070: 7997 0939 0400 0000 5804 5639 1f8b 4d37
6e-45 3.5920093e-05 6e-45 6e-45 9.877884e-07 5.9766677e-05 0.32170612 0.004426146
3.672007e-05 0.22161944 0.0008260848 0.2074904 0.0014342534 0.00032042948 0.18503636 0.11193186
0.28896135 6e-45 0.0814469 0.00016957377 6e-45 0.0002720316 0.005890548 6e-45
0.20340863 0.00093601976 0.000102569495 0.0005004735 0.00013121766 6e-45 0.00020410249 1.2251344e-05

down_path.2.block.3.weight f4 [32, 32, 3, 3]
00000000: 2040 6bba eea9 68ba 67c3 57ba 370e 6eba
00000010: 1d7d 6bba 9e92 5aba 010d 6eba ef7b 6bba
00000020: 8c91 5aba 4f62 efbb ad27 f5bb b1e5 eebb
00000030: a0b6 dcbb 3204 d9bb 50e9 dabb 86a0 bdbb
00000040: c116 c9bb 75c2 cebb 890b 8639 c883 8439
00000050: 9b0a 7539 dd3c 8739 dcb6 8539 c870 7739
00000060: 183c 8739 1ab6 8539 7f6f 7739 c175 9936
00000070: adea a636 dc12 0ab7 2ba9 f436 79a6 0137
00000080: 30f5 b7b6 4c60 f536 9d01 0237 1c3d b7b6
00000090: 4156 663a a33f 603a 7526 903a 2e6d 5e3a
000000a0: 1d36 573a 0902 8a3a 3011 553a 9eae 493a
000000b0: 1b70 843a 8f68 983b b39b bc3b b773 913b
000000c0: 5442 983a a8b9 183b bcb8 163b 9a63 373b
000000d0: 8e2a 873b 6e0a 903b 33f8 ac3a d854 bc39
000000e0: 7248 41ba 218e 8e3b 5ef5 f83a 3991 293a
000000f0: 8d56 b53b 0076 0d3b f69a 4cb9 1eb2 32b9
00000100: c4e2 3839 54bb 94b8 3186 1fba ddcd 4cba
00000110: b7b5 c2ba d7c4 a9b8 3bab bab9 c286 48b9
00000120: 8324 0fb9 ae69 ddb9 42b2 42b9 3fa8 a938
00000130: 3d01 99b9 5487 89b9 14cf 34b9 df61 22ba
00000140: 9019 d1b9 2202 223c e399 323b adc6 ffb9
00000150: 87ed afbb ebf1 adba 4957 0d3c 946d 543b
00000160: 7ae6 e53b b50d 59bb 1519 443b 3206 faba
00000170: 57d4 5bbb 9a43 c6ba 9694 20bb 923b 6aba
00000180: 8e99 a5ba c8bf cfba 2c9c e4ba 4b8a c339
00000190: 6024 173c 01e4 e33a 0d35 123c 73f0 b3bb
000001a0: db4f 2cbb ebfa f5bb b149 853b 0f9f 753a
000001b0: a681 c8ba 83df daba f590 2abb 1d42 cab8
000001c0: 6ba2 83b6 865a 33ba f7e8 9039 766b 413a
000001d0: 3483 a539 1159 ec3b d5b2 053c a90b c73b
000001e0: 1212 e83b bde1 163c 2d27 053c dcac 133c
000001f0: 305e 363c 0a1a 263c 2a7c ebb9 6d9f 76bb
00000200: c5dc 7dbb 95a3 a8bb 29a5 69bb be26 dfb8
00000210: 9d20 0bbb f018 323b d4b7 53ba 226a 713b
00000220: 8c22 40b8 4f0f ac39 0772 b2bb 4533 0bbc
00000230: 099c e6bb bf29 d7ba bfaa e3ba 20d8 813b
00000240: 2e41 683b 592a c93b 525e 0b3c 5b93 333b
00000250: 5d7b 5d39 31fd 0f3a 1a9c 983b 6680 543a
00000260: 25b1 31bb a1a9 f239 faf8 f139 4416 ea39
00000270: 5cae f339 bef9 f239 7a12 eb39 96aa f339
00000280: fff5 f239 af0e eb39 4f94 cfbb f199 a0bb
00000290: be76 5fb9 43ef 88bb 6d9a 1dbb 9436 8bbb
000002a0: 5927 11bb 36f1 fcbb e2d4 3abc 5fd4 033b
000002b0: fb3a f53a 1404 fc3a 5867 de3a fd7c ce3a
000002c0: eb65 cf3a d42e c03a 1d96 933a 59a7 793a
000002d0: 0ddd a8b9 d915 a8b9 7702 a3b9 346d a9b9
000002e0: 52a2 a8b9 928c a3b9 3a69 a9b9 619e a8b9
000002f0: 9b88 a3b9 99a4 883b 656f be3a bd9e 833a
00000300: ec23 283a 7981 26ba 23f4 d4b9 23f4 9939
00000310: 4f60 43b9 8ff5 35b7 fd1e cb3b 7932 263a
00000320: 639c 76b9 a912 083b 8449 17bb 8dcf 04bb
00000330: c5ec 37bb c0e5 8dbb 68c6 a9bb bec9 2339
00000340: 69e3 2339 50f2 1139 17c8 2639 5ce6 2639
00000350: ccf4 1439 4bd0 2639 7cee 2639 18fd 1439
00000360: 2068 7dbc fcec 94bc b180 1dbc b1c9 0ebc
00000370: cf03 62bc 0e17 78bc e4ba 41bc 66d0 6cbc
00000380: 8c4d 38bc a4ad d73b eba6 f73b 4a58 af3b
00000390: 4db2 be3b a5d9 c63b bf9f 8c3b e6c9 a93b
000003a0: 7975 bd3b 0343 b43b c6e0 2cbc 7bd2 3ebc
000003b0: ce29 22bc 697e b93b 885d 6d3b e3d6 c1ba
000003c0: a8d9 963b 6546 fd3b f807 d53b a756 45bc
000003d0: 3709 3abc ffa1 59bc f0ee 32bc 5d5c 23bc
000003e0: b418 15bc 20b2 1dbc 8460 3bbc 8614 4fbc
000003f0: 54f3 1bbc 3a05 19bc d98d 13bc d922 f9bb
-0.0008974094 -0.0008875419 -0.00082307163 -0.00090810977 -0.0008983182 -0.00083378877 -0.0009080917 -0.0008983006
-0.0008337728 -0.0073054205 -0.0074815364 -0.007290565 -0.006735638 -0.0066228146 -0.006680645 -0.005786958
-0.0061367457 -0.006309802 0.00025567066 0.00025275187 0.00023368972 0.00025794553 0.00025503978 0.0002359777
0.0002579398 0.00025503413 0.00023597291 4.5734637e-06 4.9745054e-06 -8.229832e-06 7.2914604e-06 7.727759e-06
-5.4823686e-06 7.3127794e-06 7.748979e-06 -5.460939e-06 0.00087866565 0.00085544045 0.0010997789 0.0008484897
0.00082096626 0.0010529171 0.00081278663 0.00076935615 0.0010104211 0.004651136 0.0057558655 0.004438843
0.0011616447 0.002330402 0.0022998294 0.002798295 0.004124946 0.0043957746 0.0013196528 0.00035921368
-0.0007373161 0.004350439 0.0018994024 0.0006468478 0.0055339993 0.0021585226 -0.00019512684 -0.00017041757
0.00017632084 -7.0920825e-05 -0.0006085365 -0.00078126584 -0.0014855181 -8.095212e-05 -0.0003560426 -0.00019123688
-0.00013651144 -0.00042231142 -0.00018567688 8.089886e-05 -0.00029183357 -0.00026231504 -0.0001724328 -0.00061943935
-0.00039882632 0.009888204 0.0027252368 -0.00048785415 -0.0053688916 -0.001327095 0.008626767 0.0032413946
0.0070160003 -0.0033119742 0.0029922177 -0.0019075333 -0.0033543312 -0.0015126348 -0.0024502627 -0.0008935268
-0.0012634264 -0.0015850002 -0.0017441562 0.00037296335 0.009224981 0.0017386676 0.008923781 -0.0054913103
-0.0026292715 -0.0075067184 0.0040676226 0.000936971 -0.0015297427 -0.0016698692 -0.0026026343 -9.644425e-05
-3.923012e-06 -0.0006841797 0.00027639393 0.00073783787 0.00031569006 0.007212766 0.008160313 0.006074388
0.0070822323 0.009209094 0.008127016 0.009013381 0.0111308545 0.010138044 -0.00044915202 -0.0037631646
-0.0038736325 -0.0051464536 -0.0035651422 -0.00010640685 -0.0021229156 0.0027175508 -0.0008076404 0.0036836942
-4.580854e-05 0.00032817802 -0.005445722 -0.00849611 -0.007037644 -0.001641564 -0.0017369612 0.0039625317
0.003543924 0.0061390814 0.008506374 0.0027401063 0.00021122159 0.00054927455 0.0046572806 0.0008106291
-0.0027113643 0.0004628422 0.00046152604 0.00044648547 0.0004647848 0.0004634391 0.0004483646 0.00046475668
0.00046341118 0.00044833633 -0.0063348184 -0.0049011637 -0.00021311172 -0.004178913 -0.0024048344 -0.0042484496
-0.0022148697 -0.0077191843 -0.011403294 0.0020115597 0.0018709594 0.001922729 0.0016968055 0.0015753802
0.0015823221 0.0014662393 0.0011259947 0.0009523533 -0.00032208153 -0.00032059735 -0.0003109162 -0.00032315555
-0.00032164395 -0.00031194516 -0.00032312592 -0.00032161459 -0.00031191562 0.004170012 0.0014529048 0.0010041815
0.0006414044 -0.00063516904 -0.00040617687 0.0002936433 -0.00018632527 -1.0845614e-05 0.0061987625 0.00063399185
-0.00023518647 0.0020763075 -0.002308459 -0.0020265311 -0.002806471 -0.004330367 -0.0051811226 0.00015620046
0.00015629608 0.00013918546 0.00015905533 0.00015916809 0.00014205574 0.00015908589 0.00015919836 0.00014208665
-0.01546672 -0.01817941 -0.009613202 -0.008715079 -0.013794853 -0.015142215 -0.011824343 -0.014453983
-0.011248957 0.006581979 0.00755774 0.005351101 0.005819595 0.0060684257 0.004291504 0.005181539
0.005781826 0.0055011525 -0.010551637 -0.011646862 -0.009897662 0.005660821 0.003621908 -0.0014788773
0.0046035834 0.007729339 0.006501194 -0.012044585 -0.011354736 -0.013283252 -0.010921225 -0.009970752
-0.009100128 -0.009624988 -0.011436585 -0.0126391705 -0.009518463 -0.009339625 -0.009005987 -0.007603031

down_path.2.block.3.bias f4 [32]
00000000: b011 d6bb aa44 69a8 7bc3 813b 5f43 8a3d
00000010: cc1f 3abd e75e 6e3c 5ff9 dbbd 1c49 693c
00000020: fd06 a3bd dbc8 9abd 678f 80b9 ea3d 893d
00000030: 6583 17bc cdf6 113d 30fa 343b 6761 e53b
00000040: 4132 a33c c420 e43a 8687 53ad e81b 583a
00000050: 564f 8bb9 290b cabe 39c4 17bc 394c 90b9
00000060: e44e 353d 45d3 283e f0bc d999 f7b9 6dbb
00000070: b972 7c3d 83c8 5abc 9f44 60bd c058 1a3e
-0.0065328702 -1.2948987e-14 0.0039600707 0.06751131 -0.04544048 0.014548994 -0.10740923 0.014238622
-0.07960317 -0.075578414 -0.00024520906 0.06701262 -0.0092476355 0.03563576 0.0027614944 0.0070001367
0.019921424 0.0017404784 -1.2024054e-11 0.00082439044 -0.00026571256 -0.3946164 -0.009263092 -0.0002752261
0.04426469 0.16486843 -2.2513585e-23 -0.0036274174 0.061632846 -0.01335347 -0.054752942 0.15072918

down_path.2.block.5.weight f4 [32]
00000000: b60a e23c 4014 0b3a 0652 e0bd 21dc e93e
00000010: 097c 7b3e d6a7 20be d61b 563e e069 eebc
00000020: f6ea 353e 86c1 0e3e d98c fb3a 37d1 d33e
00000030: 8f34 4dbe 5225 1dbe c017 8fbb 5ec4 e03c
00000040: e871 5cbe f843 1a3c 0685 a8b8 27bc 1ebb
00000050: 5acd bfbc 2e90 d63e daaf 933c ac86 8abc
00000060: b578 06be a664 c13e b17a a3b7 3ded d03c
00000070: 582c 963e 809c ab3c 65cc d03e 61c0 36be
0.027592998 0.00053054467 -0.10953145 0.45675758 0.24559034 -0.15689024 0.20909056 -0.02910322
0.17765412 0.13941011 0.0019191756 0.41370556 -0.20039581 -0.15346268 -0.004366845 0.027437385
-0.21527827 0.009415619 -8.035642e-05 -0.0024221034 -0.023413349 0.41906875 0.018028188 -0.01690992
-0.13131984 0.377721 -1.9488247e-05 0.025503749 0.29330707 0.020948648 0.4078094 -0.17846824

down_path.2.block.5.bias f4 [32]
00000000: 6ba3 e13a 0b6d 79b9 f767 c03b 8d75 aa3e
00000010: e702 a3bd ab62 98bc 19eb ca3c dd44 fabb
00000020: 56bd 1c3d a054 033c 97c8 4339 f745 bb3e
00000030: 86b5 c2bd 1251 1cbd 1f61 c2b9 6a9a 15b9
00000040: c08f 67bd 3f9e 9039 5af0 c5b8 ddea 63b9
00000050: 6b53 51bb d496 643d 684e 3bba 7e30 16bb
00000060: 35cc d43b fb8e fe3d 28cc a1b9 8fe8 ed39
00000070: 50b1 033d a750 df3a 713c 5d3e 23f4 7cbd
0.001721484 -0.00023787112 0.0058717686 0.3329281 -0.07959538 -0.018601736 0.024770306 -0.0076376037
0.038266502 0.008015782 0.00018671375 0.36576816 -0.09507279 -0.038163252 -0.00037074924 -0.00014267271
-0.056533575 0.00027583723 -9.438461e-05 -0.000217359 -0.003194059 0.055807903 -0.00071451673 -0.0022917087
0.00649407 0.12429615 -0.0003086042 0.00045377432 0.03215152 0.0017037586 0.21605088 -0.061756264
