weights/old/unet-test14-8epochs-weighted-upconv.pt (torch_old, 510397 bytes, 92 tensors)

down_path.0.block.0.weight f4 [8, 3, 3, 3]
00000000: b483 84b2 8c6d 57b2 9a9c 3fb2 e222 30b2
00000010: 0869 edb1 5f75 a0b1 bdfe 11b2 788f b2b1
00000020: 25a0 43b1 95d0 4933 02d2 e833 b0dd c434
00000030: 99ba b234 6900 9a34 6519 2535 8223 b434
00000040: 8689 b034 53c9 3735 aaf9 1234 8cb8 0334
00000050: d0d1 3934 3c08 1f34 2bf0 0d34 2e5c 5134
00000060: db1a 2f34 b6f2 1d34 2e1c 5c34 9832 e33d
00000070: bb57 623e 91be 88bd c580 ee3c 58ec 8c3e
00000080: f272 223c dd33 613d 1cc2 58bd 5688 23be
00000090: 8710 8fbe 9937 22be d9ab d3be 03ac 19be
000000a0: 5fc7 2b3e 63f5 62be 11d6 3c3e a57b 1e3e
000000b0: 33e5 273e 4913 2ebe ebac dfbb 3054 8bbe
000000c0: b9e9 1a3e 308e a63e 68cb 9c3b 9bdc 983e
000000d0: 9056 d23e 422d 103e 2580 b0be 0309 b9be
000000e0: e006 bfbe 4b80 97be 510b 84be 4d21 c4bd
000000f0: 5d69 cd3e 3e09 debd 4535 cfbe 0a8d f23e
00000100: f204 513e 605d 15bd 5242 ee3e e3c0 053e
00000110: 0249 1f3e 06a4 893e f31c 793e 8d2f 013e
00000120: 6064 32be 7a36 03be ff91 90be 6d2f a8bd
00000130: 5d4a 743d fb86 c0be 60f0 d23d 7659 f53d
00000140: 19b1 753d 3962 13be 6510 a13c 2613 4e3d
00000150: 2b11 72be 00d2 0bbd fabd 25be d87b 86be
00000160: c7d3 ba3e 1776 59bd 3608 613e 65ac d93e
00000170: e8aa c83e 164a 4e3e 0602 7f3e 5037 d33e
00000180: 39f5 d03e 4e94 02bc dcf2 993e ba68 87bd
00000190: 3b9a 223c 79d2 86be 932f d0be e3c1 7fbd
000001a0: dd04 3abe 052a a2be 36d7 83bd 3811 c9be
000001b0: a812 7bbe 2798 a9bd 9c1b a73e 8983 1abf
000001c0: 15e3 713d 9caf 533e 8ca0 0fbf c014 c33c
000001d0: 80e8 8c3e 7135 423e a443 06be eaa2 d03e
000001e0: 275f 79bd 9840 bb3b 1eb4 183e 1ed3 c8be
000001f0: 7959 81bd 028f e33e da87 c3be 85c0 d03b
00000200: 3bfc a83e 0dec 7cbe 8f36 94bd ab94 f73e
00000210: 104f 0bbf 5858 6d3e 45e2 b13e 5df3 3e3d
00000220: 3f2f 223d 0bb8 5fbe d192 4f3e e71b 4e3e
00000230: 7892 813e 6f77 90be 9b78 70be 3b56 b5be
00000240: d0a4 a6be ef0b cabe 311b debe 0481 883e
00000250: ded9 d83e ab99 a33d 59a9 023e 486a a63d
00000260: aabd abbe 1358 95bd 1687 bc3c 0d96 79be
00000270: 7a84 143e efe1 883e 2229 c6bc a454 16be
00000280: bd2f 34be bd1d 88be c638 67be 6137 21bd
00000290: 62b6 fabc c501 58be 8ef6 d5be 8d56 72be
000002a0: dac8 29bf 78f5 fbbe 67ca b1be 28ec 4e3e
000002b0: 5ef1 143e d1d5 7d3e bf99 203d fbc5 46bc
000002c0: ea9d 323e d897 7a3c efb7 debd 17d0 bbbb
000002d0: dc47 fa3e e5ba c83e 1e2c ff3e 9b1a 2d3e
000002e0: d968 af3e a003 633e 50ac bd3d 207f 583d
000002f0: 4148 903e 06c3 ce3c fb0c 953d cfa5 e33d
00000300: 1486 28be a471 ac3d 6035 89bc 6e9a eabd
00000310: e926 85be 01c7 12be 8d0f 6dbe 3a4f 0e3b
00000320: 88fb 833d 1c95 9fbe 9f26 2d3e 68fe b23d
00000330: 1753 d9be 9b5d 243d 83da d9bc 5f92 cdbe
00000340: dc60 0b3d 51db 923d 300c 49bc d691 203d
00000350: e4bb f4bd 9029 82be 3d35 11be 0e24 c43c
-1.5426714e-08 -1.2539555e-08 -1.115327e-08 -1.025248e-08 -6.9095485e-09 -4.6699564e-09 -8.498032e-09 -5.1967923e-09
-2.8467266e-09 4.6988664e-08 1.0841542e-07 3.6669144e-07 3.329085e-07 2.8685034e-07 6.1504244e-07 3.3553448e-07
3.2882616e-07 6.846578e-07 1.3688137e-07 1.2267463e-07 1.7305797e-07 1.4811025e-07 1.3219021e-07 1.9498177e-07
1.6307915e-07 1.4710062e-07 2.0499348e-07 0.11093634 0.22103779 -0.06676973 0.029114136 0.27524066
0.0099151 0.0549811 -0.052919492 -0.15969977 -0.27942297 -0.15841521 -0.41342047 -0.15007024
0.16775273 -0.2216392 0.18441035 0.15476854 0.16396026 -0.16999544 -0.0068260334 -0.27212667
0.1512822 0.32530355 0.00478499 0.2985581 0.41081667 0.14079764 -0.34472767 -0.36139688
-0.37309933 -0.29590067 -0.25789884 -0.09576664 0.40119448 -0.108416066 -0.4047033 0.4737323
0.20412043 -0.036466002 0.46534973 0.13061862 0.15555194 0.26882952 0.2432745 0.12615795
-0.17421103 -0.1281375 -0.28236386 -0.08212171 0.05964123 -0.37602982 0.10299754 0.11979954
0.059983347 -0.14392938 0.019661138 0.05031123 -0.23639362 -0.03413582 -0.16185752 -0.2626636
0.36489698 -0.053091135 0.21975788 0.4251434 0.3919289 0.20145449 0.24903116 0.41253138
0.4081209 -0.007969929 0.300681 -0.06611772 0.009924467 -0.26332453 -0.40661296 -0.062440764
-0.18165918 -0.31672683 -0.064375326 -0.3927095 -0.24518836 -0.08280974 0.32638252 -0.60356957
0.059054453 0.20672458 -0.5610435 0.023813605 0.27521133 0.18965699 -0.1311174 0.40749294
-0.06088176 0.0057144873 0.14912459 -0.3922357 -0.06315894 0.44445044 -0.38189584 0.0063706064
0.33004937 -0.24699421 -0.07236969 0.48355612 -0.54417515 0.23178232 0.34742942 0.046618808
0.03959584 -0.2184755 0.2027085 0.20127831 0.2530706 -0.2821612 -0.23483507 -0.3541735
-0.32547617 -0.3946223 -0.4338012 0.2666093 0.4235372 0.07988294 0.12759914 0.0812574
-0.3354314 -0.072921894 0.023013633 -0.24373646 0.14503661 0.26734874 -0.024189536 -0.14680725
-0.17596336 -0.26585189 -0.22580251 -0.039359454 -0.030604545 -0.21094425 -0.4178967 -0.23665829
-0.663221 -0.49210715 -0.34724733 0.20207274 0.145452 0.24788596 0.039209124 -0.012132163
0.17443052 0.015294991 -0.10874926 -0.0057315934 0.4888295 0.3920509 0.49838346 0.1690468
0.3425968 0.22169352 0.092613816 0.05285561 0.28180125 0.025239479 0.072778665 0.1111561
-0.16457397 0.08420113 -0.016749084 -0.114552364 -0.2600625 -0.14333726 -0.23150463 0.0021714703
0.0644446 -0.3116845 0.16909264 0.087399304 -0.42446205 0.04012833 -0.026593452 -0.40150735
0.03402792 0.071707375 -0.012270972 0.03920158 -0.119499 -0.25422335 -0.14180465 0.023942973

down_path.0.block.0.bias f4 [8]
00000000: 6e20 db3c ddf4 633c efe5 e43e e5e0 313e
00000010: 550e 813d 6d31 8a3d 3cae 123e b96c 8c3d
0.026748862 0.01391336 0.44706675 0.17370947 0.06301562 0.067477085 0.14324278 0.06856675

down_path.0.block.2.weight f4 [8]
00000000: 95b4 01b6 33fe 563f 5227 683f 08eb 593f
00000010: 2b8e 5b3f 2187 373f 4e21 433f 55c5 413f
-1.932761e-06 0.8398163 0.90685 0.85124254 0.85763806 0.71690565 0.76222694 0.7569173

down_path.0.block.2.bias f4 [8]
00000000: 9765 b4b0 a148 39be e3c7 51bd f8ae d23d
00000010: 0a42 adbc 1b59 d63d 9045 df3e 1d63 e83c
-1.3125597e-09 -0.18094112 -0.051216017 0.10287279 -0.021149654 0.10466214 0.4360776 0.028367573

down_path.0.block.2.running_mean f4 [8]
00000000: 6785 db3c 066b 4e3e 1a91 c33e 31e5 cf3e
00000010: e68a 013e 5973 ce39 92f6 a93e 07f1 ac38
0.02679701 0.20158014 0.3819664 0.40604547 0.12650642 0.00039377323 0.3319593 8.246494e-05

down_path.0.block.2.running_var f4 [8]
00000000: 9b73 e52b e6b4 a13c 2fdc 233c 2358 3a3c
00000010: ac83 dc3b 2413 9338 2fa6 c73c 5711 1c37
1.6303516e-12 0.01973958 0.010001226 0.0113735525 0.0067295637 7.0130714e-05 0.024371235 9.302362e-06

down_path.0.block.3.weight f4 [8, 8, 3, 3]
00000000: bbf8 41b1 e541 37b1 883f 21b1 a20f 46b1
00000010: c63d 3fb1 a6a6 2fb1 2ebd 49b1 3570 47b1
00000020: c390 3fb1 c879 94be 8334 93be 4a3d 87be
00000030: a22c 55be 282b 22be 8ebd 90bd 0240 853d
00000040: ad41 c93d 7df9 353e a459 b13e e58f 9f3e
00000050: 8fdc bb3e 1b61 0f3e 836c b83d 8db4 103e
00000060: 1e2c 893b 2e7a 26be 6ab4 20be 9e00 5f3e
00000070: 5697 4c3d 77de 213e fd51 8abd 344d 42be
00000080: f00c 1abe 5906 47be 5b88 ccbd ef8a 3abe
00000090: 3893 513e 2f42 0f3d dcd9 253d 026b 32bd
000000a0: caed 813c 9e93 bc3d d6cc f1bd bd27 143d
000000b0: 404c 473e 4709 47bc 9723 14bc f5aa 873d
000000c0: 4bab da3c b8c6 75bc 7797 893d e2ca f33c
000000d0: d9d8 24bd f301 003e e85c 333e f13d 2c3e
000000e0: c8dd b63d 524a 6bbc ad06 98bd efe1 a2bd
000000f0: a06d 4bbe a9ca 39be a2c6 1fbe 9e30 b23d
00000100: 294a 083d ae4a 933d ae78 8c3c b94b 313c
00000110: d4f4 2e3d 38ce 03bd 13b8 0d3d c9b6 a73c
00000120: eaa4 0db5 bec0 3e33 27cc 21b3 82a9 38b4
00000130: ed58 1635 827e ee33 0716 b3b3 9720 2634
00000140: 7bdd 9432 c2dd 05be da92 b5bc 1108 c9bd
00000150: fe7f 00bf c81d 5cbe f758 29be 574a c3be
00000160: d5d4 75be c08d 46bd 955f c2be ad41 74be
00000170: 4ced edbe 8b1a 2c3e 634e eebd e0c6 65be
00000180: f555 933e 3ba1 3b3d efb2 b0bd 893c 22be
00000190: a26f 143d d005 ee3e 9a57 49be dfb8 ad3d
000001a0: d908 a4bd 661d eabe 6572 e3bd 28f8 a53e
000001b0: 612e d8be c087 023d 273f 4f3e 680f cabe
000001c0: 3b05 14bd b303 023f f12f 14be fec6 ccbc
000001d0: 971d d43e 0d92 1e3c 844e b83d b35c a2bd
000001e0: 816d 113e 86f4 603e 5448 b8bd 272c 263d
000001f0: 8a40 d53d e127 c5bd a619 de3e 2c5b 083e
00000200: e05a 5d3e fef8 c93d 123f 1b3e b862 403e
00000210: 090a 44be 2e53 99be a853 4fbd cc5a 263e
00000220: 1621 6c3c 3a99 e63c e9ae 063d ffc5 773c
00000230: 3531 733c e4da 8ebb 3af1 b7bd 723c 703b
00000240: f6f2 0031 002b 0331 24e2 0b31 39db f530
00000250: 4abe f630 ca53 0131 dedc dd30 8a7a db30
00000260: dc69 e230 b54f 2d3e ae8b 223e 5866 173e
00000270: 5db6 183e 830d 053e 26f1 f63d 1bd3 0bbd
00000280: c42c 8ebd 9e43 92bd 9560 0d3e bceb f83d
00000290: bac5 183e f1ce 883e 875f 6d3e bd43 7f3e
000002a0: 167e 513e 4e9c 1a3e ff3a 4d3e dde0 813e
000002b0: 71df 263e b92b 5f3d 01ee 443e 7ed8 f53d
000002c0: 743b 2b3d ce8b 2a3e 2de9 9d3d ade0 7d3c
000002d0: 7d1a bcbd fe5b b3bd ca67 1abd 7870 973c
000002e0: 051f 1d3e ca75 633e 8ddc 173e dec0 493e
000002f0: aca3 153e ef31 413b 02de 75bd c12d 88bd
00000300: fc84 293e eb7a 043e ffd6 da3d 6104 923d
00000310: 9c82 893b 9120 26bc 1c87 4a3e b824 1e3e
00000320: 71e2 e53d a0cf 273e 9da2 073e 1164 ef3d
00000330: 2af1 e43c 966a 7c3b 1fa4 073d 9981 343d
00000340: e541 d53d 73a1 083e b107 963d 2ebd b83d
00000350: 0229 233e 007a 4d3d b4f3 013d 6d54 0f3e
00000360: bad8 b8af 948d c2af d66d c0af fe39 f4af
00000370: ebb4 f4af efe3 e6af 0590 08b0 8234 07b0
00000380: 9cf0 fcaf 24ea f03d 58d3 033e 2c5a 553d
00000390: 60b4 133d 4bdc 103d 5235 1d3b c759 d23d
000003a0: 7195 e8bb b845 413d e46d 0dbd d40b 093e
000003b0: cd84 103e 98cf 123e 4c58 0b3e f570 d1bc
000003c0: f7bf 903d 33a9 493e 02b2 443e a0ee b2be
000003d0: 9599 ffbd 3388 94bd da07 a5bd 08e8 34bd
000003e0: bcfa 4dbe 7b5a 8ebe 1a75 3dbe 7c9a 1dbe
000003f0: 6147 84bd bd93 e5bd 1bf2 443d df15 3fbc
-2.8226583e-09 -2.6667462e-09 -2.3464697e-09 -2.8821678e-09 -2.7829272e-09 -2.556058e-09 -2.9356886e-09 -2.9022094e-09
-2.7876446e-09 -0.28999162 -0.28751 -0.26413947 -0.20817807 -0.15836775 -0.07067405 0.06506349
0.0982698 0.17770953 0.34638703 0.3116447 0.3669171 0.14001887 0.09005072 0.14131375
0.0041861674 -0.16257545 -0.15693823 0.21777579 0.049949013 0.1580752 -0.06753919 -0.18974763
-0.15043998 -0.19436015 -0.09986945 -0.18217061 0.20466316 0.034975227 0.04049097 -0.04355908
0.015860457 0.09207843 -0.118066475 0.03617071 0.19462681 -0.012148208 -0.009041688 0.06624404
0.026693007 -0.0150009915 0.06718343 0.029759828 -0.040245865 0.12500744 0.1751591 0.16820504
0.0892902 -0.014360981 -0.07423148 -0.0795325 -0.19866037 -0.18143715 -0.15603116 0.08700679
0.03327385 0.071919784 0.017147388 0.010821276 0.042713955 -0.032179087 0.034599375 0.020472901
-5.2766575e-07 4.441312e-08 -3.767141e-08 -1.7198002e-07 5.600876e-07 1.110575e-07 -8.339344e-08 1.5471811e-07
1.7330185e-08 -0.13072875 -0.02216475 -0.09815992 -0.501953 -0.21495736 -0.16537844 -0.38142654
-0.2400697 -0.048475027 -0.37963548 -0.23853178 -0.46470106 0.16807 -0.11636045 -0.22439146
0.28776518 0.04580806 -0.08627879 -0.15843405 0.036239274 0.4648881 -0.19662324 0.08482527
-0.080095 -0.45725554 -0.111058034 0.3241589 -0.42222884 0.031867743 0.20238934 -0.3946488
-0.0361378 0.50786895 -0.14471413 -0.02499723 0.41428825 0.009678376 0.08999351 -0.07927837
0.14201929 0.21968278 -0.089981705 0.04056945 0.104127005 -0.09626747 0.43378943 0.1331603
0.21616697 0.098619446 0.15160778 0.18787658 -0.19144453 -0.29946274 -0.05061689 0.16245574
0.014412185 0.028149236 0.03288165 0.01512289 0.014843275 -0.00435959 -0.08981557 0.0036657122
1.8764559e-09 1.9087452e-09 2.0355708e-09 1.7888403e-09 1.7952939e-09 1.88196e-09 1.6142641e-09 1.5969175e-09
1.6473751e-09 0.16924937 0.15873596 0.14785135 0.14913316 0.12993436 0.12057714 -0.034136873
-0.06942132 -0.07141803 0.13806374 0.12154338 0.14919177 0.26720384 0.23180972 0.24928184
0.20458254 0.15098688 0.20042036 0.2536687 0.16296174 0.054485057 0.19231416 0.12004183
0.041804746 0.16654894 0.077104904 0.015495461 -0.0918474 -0.087577805 -0.037696637 0.018486246
0.15343864 0.22212902 0.14830227 0.19702479 0.14613217 0.0029479226 -0.060026176 -0.06649352
0.16554636 0.12937514 0.106855385 0.071297415 0.004196478 -0.0101396 0.19778103 0.15443695
0.11224831 0.16387796 0.13245626 0.11689008 0.027947027 0.0038515679 0.033115502 0.044068906
0.10412959 0.13342838 0.07325686 0.09020458 0.15933612 0.050165176 0.031726554 0.1399705
-3.3623399e-10 -3.5388992e-10 -3.500264e-10 -4.4424547e-10 -4.4511891e-10 -4.1998713e-10 -4.9681176e-10 -4.918733e-10
-4.6009496e-10 0.11763409 0.1287359 0.052087948 0.03606069 0.035366338 0.002398808 0.1027103
-0.007097893 0.04718563 -0.034528628 0.13383418 0.1411316 0.14337003 0.13607901 -0.025566557
0.070678644 0.1969345 0.1920853 -0.3494768 -0.12480465 -0.072525404 -0.08058138 -0.044166595
-0.20115179 -0.27803406 -0.18501702 -0.15390962 -0.06458927 -0.112098195 0.048082452 -0.011662929

down_path.0.block.3.bias f4 [8]
00000000: 4b0c f2bc 0e72 283e 3ab5 9fbd 786d c33e
00000010: 59a1 813e 0d40 0dbc 9fce c33e f432 96bd
-0.029546877 0.16449758 -0.07798238 0.38169456 0.2531841 -0.008621228 0.38243577 -0.07333937

down_path.0.block.5.weight f4 [8]
00000000: c192 013f a3d8 793f ac19 ee3e 581a ae3e
00000010: d07e f63e ca50 173f bd50 083f 272d ab3e
0.50614554 0.97596186 0.4650396 0.34004474 0.48143625 0.5910765 0.53248197 0.33432886

down_path.0.block.5.bias f4 [8]
00000000: b0af f8bd 2397 35be a4d4 91bd e04c a63e
00000010: f2de 963d eb88 1d3e c19d 34be 85bc c83d
-0.12142885 -0.17733435 -0.07120636 0.32480526 0.07366742 0.15384261 -0.17638303 0.09801582

down_path.0.block.5.running_mean f4 [8]
00000000: c90a 263f 31ae 8d3f 8d1b 283f 37c9 d33f
00000010: c2f8 063f 485c ac3e 24dd 783f c820 de3e
0.64860207 1.1068784 0.6566704 1.6545781 0.52723324 0.33664155 0.97212434 0.43384385

down_path.0.block.5.running_var f4 [8]
00000000: 014a 093f f881 d03f 0bc4 993f bf24 1c40
00000010: b338 eb3e bac9 3d3f 0ab9 9d3f 43d0 813f
0.53628546 1.6289663 1.2012953 2.4397428 0.45941696 0.74135935 1.2322094 1.0141681

down_path.1.block.0.weight f4 [16, 8, 3, 3]
00000000: 2363 8cbc ed41 993c 80e5 613c 9efe 023e
00000010: 9f03 3f3e 7406 213e da04 473e e04d 883e
00000020: c88e 6c3e cea2 71bd 19f2 b43c 9c50 abbd
00000030: 43bc d03d a528 663e cbc1 233d 1410 8d3d
00000040: 8288 623e 71e6 f4bc c49b a93d 8c01 7d3d
00000050: 14da 9a3c 15b2 923d e852 9e3d ab7b 373d
00000060: 02e7 10ba a040 e33b afc2 a0bc 556a 003e
00000070: c4e7 d33d 890f bb3d 5820 0f3e 7e14 013e
00000080: 9aef e53d 8a5f 803d f92b 2f3d 226b 1e3d
00000090: c780 673d e3be cdbc d44f babc 5bb0 b63d
000000a0: e15e 60bd 3aaa 0abd 6fa8 ee3d 91a2 4dbd
000000b0: 246d bcbc 1fd3 0cbe 7bdd d4bd 1b42 1fbd
000000c0: 5ee7 1dbe 5f03 10be 6df7 c5bd 9857 d6bb
000000d0: 86b1 ffbb a56b 173b 63ab a73d 5a27 873d
000000e0: a453 683d 2d8e 073e 6918 913d e656 c93d
000000f0: f2c8 0c3d 6b96 8c3b d5d4 153e 9eaf 3bbc
00000100: cf18 46bc 230d 3bbc 8264 29bd 0fe9 1dbd
00000110: f001 0dbd 416b 7abd bcae 51bd ad10 31bd
00000120: 7038 b4bd 0df9 e2bd 6654 96bd 1bb4 35bd
00000130: b2d9 9bbd 9663 86bd 277d 6e3d 3496 9e3d
00000140: cb86 bc3d 99bc 54bd 3162 3bbe 50c2 49be
00000150: 77ed 843d bfc4 393d df8e b9bb 72e9 dd3d
00000160: 3fc0 3e3e dcfc 863e b9d5 b33d c76a 973c
00000170: 28a3 1d3d 96e0 e73d 98b9 5c3d fb56 a63d
00000180: 3625 9c3d e278 353c 94fd 613d d58e 583d
00000190: cee4 703d 21cb af3d 9d8f 053d f49f 453d
000001a0: ded7 a83d 8116 af3b e7b7 653c 8e0a 863d
000001b0: 1a3c e0bd fd56 613d c0a8 193e 0f63 38be
000001c0: 2cdb 3fbd 3271 603d 1acd 3bbe 5306 c1bd
000001d0: 90a0 37bd b398 d73c af59 763d 32c0 423d
000001e0: 1c06 e3bd f212 b0bd 36c3 b2bd 1103 1f3d
000001f0: ed38 023d e30e 8d3c 6795 eebd 36fa e9bd
00000200: cc25 f3bd 6d88 00bc 84ad 9ebc 6225 80bb
00000210: 38e2 b63d b8f1 e83d 3606 003e a005 d33c
00000220: 0148 c13c 36c8 c23c 3aa4 cc3c bb54 e53c
00000230: 0149 103d 250f c13c 830c b43c 4668 003d
00000240: 8122 193d d4a4 d93c e7f0 24bc 6ef1 22bd
00000250: f946 ac3b a91a edbd 30fa 26bb 4ff6 653d
00000260: 55e7 2ebd 45cf 68bd bfef 063e e2cb f1bc
00000270: f890 44be 6692 683e dd93 e1bd 95f6 5ebd
00000280: abe9 d23e a35f 28bd e17d e5bd 0607 1ebe
00000290: 8432 0cbe 0b50 e73c 4ba5 943c be2b 9f3c
000002a0: b0b7 cc3d ccf2 fc3d 9f80 163e d9a5 9f3b
000002b0: 31ab 61bd adfe 71bd 3cd0 4bbd c27f dfbd
000002c0: 7860 c6bd e262 9abb 1a95 80bd 4d77 79bd
000002d0: 5c83 4b3e 15ef 4a3e 53a9 c23d c25b b73d
000002e0: 209d 913d dc32 29bd 677f aa3d 78a8 923d
000002f0: 5eb2 b9bd 76fc 043e 4a1f 733e 59c7 753e
00000300: a65e 62be 5ad8 a2bd 6e5d 08be ee4c 6cbe
00000310: 44aa c2bd 1ae3 22be 39e8 7dbc 239a 8abd
00000320: f007 63bc 26f6 023d b944 9dbd fb5c debc
00000330: c319 cd3c a84e 37bd cd4d 023d bb55 6d3b
00000340: bb19 3dbd 302f 1cbd b410 cdbb c47b e0bc
00000350: a6dd ebbb 4edf 023c 7ded 57bc a3bd d63b
00000360: 0859 2d3a f98a 4d3a f3ba 4e3a 8435 a639
00000370: 602b b839 27d1 c039 b46c 9ab8 ecf3 bab8
00000380: 8d84 da36 1bb7 fcba 50f5 d8ba 2384 afba
00000390: 67aa f2ba 1bb8 c9ba 8bf4 96ba 5bba e3ba
000003a0: 5955 c7ba 9327 a7ba d26c 1eb7 e511 1d38
000003b0: 78b5 8638 b24f b1b8 17e4 b7b8 6491 04b8
000003c0: 966a 28b9 4fcb 35b9 44d0 e3b8 dc7b 8cba
000003d0: d710 8cba 7579 88ba d8ba 84ba a357 85ba
000003e0: f25e 7fba d785 80ba d6a8 7dba d346 6eba
000003f0: 4822 943a e88e af3a 2ad2 a73a 0426 053a
-0.017137116 0.018708194 0.013787627 0.12792441 0.18653725 0.15725118 0.19435444 0.26621914
0.23101342 -0.058993153 0.022088097 -0.083649844 0.10192158 0.22476442 0.039979737 0.06887832
0.22122386 -0.02989504 0.08281663 0.061769053 0.018902816 0.07162873 0.07730657 0.044795673
-0.0005527587 0.006935194 -0.019624082 0.12540562 0.1034694 0.091338225 0.13977182 0.12605473
0.11227341 0.06268223 0.042766545 0.03867639 0.056519296 -0.025115436 -0.022743143 0.08920356
-0.054777984 -0.033853747 0.1165322 -0.050203864 -0.023001261 -0.13752411 -0.103938065 -0.038881402
-0.15420291 -0.14063786 -0.09666333 -0.0065412037 -0.007803145 0.0023104933 0.08186986 0.065993026
0.05672039 0.1323783 0.07084734 0.09831028 0.034371324 0.004290392 0.1463197 -0.011455445
-0.012090876 -0.011416706 -0.041355617 -0.03855234 -0.034425676 -0.06113744 -0.05119203 -0.043228794
-0.08799827 -0.11082659 -0.073403165 -0.044361215 -0.076098815 -0.06561963 0.058224823 0.07743493
0.09205397 -0.051937673 -0.18299176 -0.1970303 0.06490605 0.045353647 -0.0056627835 0.10835542
0.18628024 0.2636479 0.08780999 0.018483533 0.038485676 0.11322133 0.053887933 0.08122059
0.07624285 0.011076184 0.05517347 0.05287059 0.058811955 0.08583666 0.032607663 0.048248246
0.082442984 0.005343259 0.0140208965 0.06544982 -0.109489635 0.0550146 0.1500578 -0.18006538
-0.046839878 0.05479545 -0.18339959 -0.094250344 -0.04483086 0.02631793 0.060144123 0.047546573
-0.1108515 -0.085973635 -0.0872864 0.038821284 0.03179257 0.017219013 -0.1164959 -0.11424677
-0.118724436 -0.007845026 -0.019369848 -0.0039107064 0.089298666 0.11374229 0.1250237 0.025759518
0.023593904 0.023777109 0.024980653 0.027994504 0.035225872 0.023566792 0.021978622 0.031349443
0.03738642 0.026567854 -0.010067201 -0.039781027 0.005257484 -0.11577351 -0.0025478713 0.0561431
-0.042701084 -0.056838293 0.13177393 -0.029516164 -0.19195926 0.22712097 -0.11014531 -0.054434378
0.411939 -0.04110683 -0.1120565 -0.15432367 -0.13691145 0.02823641 0.018145224 0.019430038
0.09995973 0.12350997 0.14697503 0.0048720655 -0.0550949 -0.05908077 -0.049759135 -0.1091304
-0.09686369 -0.004711495 -0.06278439 -0.06090479 0.19874328 0.19817765 0.09504952 0.08953048
0.07110047 -0.04130827 0.08325081 0.07161039 -0.09067224 0.12986931 0.23742405 0.24001826
-0.22106418 -0.07951422 -0.1331689 -0.23076221 -0.09505132 -0.15906945 -0.015497261 -0.067676805
-0.013856873 0.031973027 -0.076791234 -0.027143946 0.025036698 -0.044752747 0.031812478 0.003621443
-0.046167117 -0.03813094 -0.0062580947 -0.027402766 -0.0071980534 0.00798781 -0.01317918 0.006553368
0.0006612693 0.0007840838 0.0007886134 0.0003170186 0.00035127532 0.00036776924 -7.36354e-05 -8.914605e-05
6.512337e-06 -0.0019280644 -0.0016552601 -0.001339082 -0.0018513919 -0.0015389951 -0.0011516971 -0.0017374264
-0.0015207931 -0.0012752883 -9.442871e-06 3.7448382e-05 6.423419e-05 -8.454862e-05 -8.768605e-05 -3.1606658e-05
-0.00016061435 -0.00017337243 -0.00010862996 -0.0010718065 -0.0010686171 -0.0010412174 -0.0010126485 -0.0010173213
-0.0009741626 -0.0009805512 -0.00096763426 -0.0009089533 0.001130172 0.001339403 0.0012803723 0.0005079212

down_path.1.block.0.bias f4 [16]
00000000: 5be4 cdbc 9c42 99be a0ea 883c d63c 79ba
00000010: 0569 1cbb 2580 4cbd f4b0 5fbe 3c5a af3d
00000020: f255 04bb 8b95 37be cbca 003b 1c39 8abd
00000030: c1ff 643e 9476 fb3b 3475 bdbd bb4e 063f
-0.025133302 -0.2993363 0.01671344 -0.00095076615 -0.0023866307 -0.049926896 -0.21844846 0.08562133
-0.002019283 -0.1792814 0.0019652124 -0.06749174 0.22363187 0.0076740477 -0.0925087 0.52463883

down_path.1.block.2.weight f4 [16]
00000000: 50e7 6a3e 8250 993e 71d8 133f 58e1 1b38
00000010: 344c 8cb8 7ad2 723e 1ec9 293f e98b 413f
00000020: 19cd b93e e27a fa3e 0a47 af3e a307 993e
00000030: 81b1 623f a6a7 363e 16e6 c73e 0c86 8e3f
0.22939801 0.29944235 0.5775214 3.7164747e-05 -6.689914e-05 0.23713103 0.66322505 0.7560411
0.3628929 0.48921877 0.34233886 0.2988864 0.885521 0.1783739 0.3904273 1.1134658

down_path.1.block.2.bias f4 [16]
00000000: 5249 e93d 523e 303e 1099 513e 420c b039
00000010: c5ff f8b5 98a5 713d f568 8d3e b66c fc3d
00000020: b60a 7ebe b414 8b3d e02c fbbb 8abb 9a3d
00000030: 832a 08bd aa62 1e3d 15f4 1a3e 2c1f cf3d
0.11390938 0.17211273 0.20468545 0.0003357847 -1.8551879e-06 0.058995813 0.27619138 0.123254225
-0.24808773 0.06791058 -0.0076652616 0.075553015 -0.033243667 0.038668312 0.15132172 0.101133674

down_path.1.block.2.running_mean f4 [16]
00000000: 8e0a d73e e5e1 653e c488 533e ad67 dc3a
00000010: d3bf f838 fabe 143f e6ff f43d 9a6c e13e
00000020: c064 273f 25c2 823e e9a7 943e 1067 7e3e
00000030: 6cdb 0a3f da52 4a3e 0620 483d 8ae9 803f
0.4200024 0.22449453 0.2065764 0.0016815566 0.000118612916 0.5810391 0.11962871 0.4402817
0.6538811 0.25538746 0.29034355 0.24844003 0.5424106 0.19758168 0.048858665 1.007127

down_path.1.block.2.running_var f4 [16]
00000000: 45cc 2a3f 3c25 bb3e 494d bb3e 966d 7637
00000010: aa6c ea34 fd71 bc3e 8c94 133e 8c86 cb3e
00000020: 3419 dc3f b3cf 543e db4b 323e 2794 a33e
00000030: be50 203f 852d 893e 17d3 2a3d 4dcc 1c3f
0.6671794 0.36551845 0.365824 1.4688258e-05 4.366496e-07 0.36805716 0.14412135 0.3975109
1.7195191 0.20782356 0.17411749 0.3194897 0.626232 0.2679254 0.041705217 0.6124924

down_path.1.block.3.weight f4 [16, 16, 3, 3]
00000000: 15fc 313d 7506 1dbd 7adc 07bd 449e ea3d
00000010: 5837 0e3c 4987 a13c 657e fe3d c2da 133d
00000020: 935d 3c3d da5f 29be 7ab5 33be 8dd6 12be
00000030: 50bf 6ebd 396a fabd 19e4 fbbd 96e7 63bd
00000040: 6e72 09be dc72 28be 2af9 113d 881a d6bd
00000050: cc18 d8bd 8b9e 843d 0504 09be c577 f8bd
00000060: 1d03 5a3d 50ed 00bd 0ab2 0fbe 00d7 acb7
00000070: fa22 39b8 6272 63b8 10d3 bf38 4576 9138
00000080: 326e 6637 8775 b638 7ff1 e337 f3c4 29b8
00000090: 1df8 01b8 839d 0836 9a07 15b8 5b1a 60b8
000000a0: ad62 86b7 da34 7ab8 9386 44b8 9b30 20b8
000000b0: c24a 8eb8 fb5b 3f3e f06b 323e 7034 533e
000000c0: ef01 233e 849b 453e 93bc 643e b5f7 f23d
000000d0: 4873 1c3e e9ee 1e3e e7ac bc3c 20db 533a
000000e0: 3f5e 6abc 722f f83d a2b9 42ba 5c7e edbc
000000f0: 3c94 873b c222 a8bd cbde a5bd 453e bbbd
00000100: 93ae 693c 2587 bdbd ce59 e73c 05a2 873b
00000110: 273b dbbd 1dd4 373e 64bf ed3c 64a7 8bbc
00000120: e990 ad3d 1fea 5f3d ce04 c83c bccc 383e
00000130: b13c ca3d 6152 873d ff00 843e 1a0e 1f3e
00000140: 62a0 c83d 3566 e3bb 03ff 213e 466b 103e
00000150: 1278 1bbd 7b80 d03d 58f6 c23d dd09 58bd
00000160: c50d 8c3d 8fbf 973d 54bf a1bd d5bd b7bd
00000170: 3bc6 73bc 58cb b5bd b502 93bd b7db 3a3b
00000180: 6b4f 3ebd 65a9 13bd cb6f 8e3d ec42 4a3e
00000190: 429e 1b3e 6e7c 5b3e fa5c ec3d a470 e83d
000001a0: 044e 243e bc9a a13d 002b d93d bbde 053e
000001b0: 925a 403d 1581 1a3d d511 003d af5c 733d
000001c0: 7704 4c3d 7194 fe3d 21fa f63d 6979 3f3e
000001d0: 2a43 0c3e aa6a b43d ae37 443d 2579 afbb
000001e0: f1f3 083d 25c2 10bc c976 67bd 5de7 b63c
000001f0: 03b3 00bd 19de 98bd 3119 0abe bf13 b9bd
00000200: c1c7 f2bd 4cdc c3bd fb06 cebd f914 29be
00000210: 1ccf ce3c 3124 73bd 27f6 15be fcad 053e
00000220: c057 9e3c 9d43 9e3c 7dc2 9a3d 36fb 16bd
00000230: f0ec 003c 28b0 693c f546 89bc 80f8 2ebc
00000240: 61d6 373c ba7f 113d 3ba7 993d 4d71 49bc
00000250: 051d c1b8 7210 403d b535 54bd 0168 a9bd
00000260: 48fc 18bd 4557 86bd 88cc b6bc 6f57 4839
00000270: 31c6 2fbd 7be1 8cb9 0add 74bb 67df 4a3c
00000280: a9c3 0f3d 0720 c13c 04e2 053e b650 d03d
00000290: 7411 c63d 2bbd 273d 7e7d b0bb 0ab3 89bc
000002a0: fbc9 4e3d 2bae 933c 287e 3bb9 ac4e 593a
000002b0: 3aa7 7d3a c273 8c3a 0d25 4e3a 60cb 533a
000002c0: 1c96 5a3a f91b 103a 48c3 183a fadf 243a
000002d0: bcf6 6438 9577 3d37 6df4 9bb8 2551 c637
000002e0: 8664 15b7 424a adb8 d274 3c38 8f3e 3038
000002f0: fd1c 74b8 fba1 5f3e d95a 163e 224c dc3d
00000300: 3729 223e 2d6b e83d 7687 713d c210 a73d
00000310: 2122 563d d4b9 80ba 0d60 353e 8317 223e
00000320: 54fa 823e a640 603d 812b ab3c a3d0 2b3d
00000330: 66ac 423e a809 1c3e 3a9d 483e 8c41 d73d
00000340: 5b44 053d 546f 523c 9f1a d83d b18f fc3a
00000350: 6556 7dbb 0dfa 9d3d 818a 313d 771d aa3d
00000360: eee7 a1bd c785 95bd efee 67bd e56a ebbd
00000370: d957 f7bd db62 9dbd a5bc ebbd 108b 1dbe
00000380: 89e2 f0bd d3ae 03bd a934 2bbb d175 6c3c
00000390: 3e71 56bd a312 ddba 0b31 793c cb2f cdbd
000003a0: c1d1 a3bd 108b 61bd 1b71 1c3e 275e dc3d
000003b0: 240e d43d e4f7 b23d d935 953c 55e3 853c
000003c0: bd05 1ebb 4510 a2bd aa42 8cbd 76c0 b7bd
000003d0: 2e71 20be 9215 12be 5368 9ebd e099 fabd
000003e0: 193c f8bd 9548 d8bd e118 f5bd 14ed d4bd
000003f0: 5ab0 48ba ddea 36bc 97a9 f0bc 2bf3 cb3c
0.043453295 -0.038336236 -0.033169247 0.11455968 0.008680187 0.01971783 0.124264516 0.036097296
0.045987677 -0.1654047 -0.17549697 -0.14339657 -0.05828792 -0.122272916 -0.122993656 -0.05564078
-0.13422558 -0.16450065 0.035638012 -0.10454279 -0.10551605 0.06475552 -0.1338044 -0.12132219
0.053225625 -0.03147632 -0.1403276 -2.0604115e-05 -4.414001e-05 -5.4227545e-05 9.146903e-05 6.936168e-05
1.3734725e-05 8.7003275e-05 2.7172964e-05 -4.0476163e-05 -3.098707e-05 2.0357263e-06 -3.5531448e-05 -5.3430307e-05
-1.6019994e-05 -5.9653867e-05 -4.6855374e-05 -3.819224e-05 -6.7850124e-05 0.18687432 0.17423987 0.20625472
0.15918706 0.19297606 0.2233756 0.118636526 0.15278351 0.15520824 0.023031665 0.00080816634
-0.014304697 0.121184245 -0.0007428174 -0.028990917 0.004137544 -0.082097545 -0.08099135 -0.09142736
0.014262813 -0.092542924 0.028241064 0.0041391873 -0.10704642 0.17952009 0.029021926 -0.017047592
0.08474905 0.054666635 0.024416354 0.1804685 0.09874857 0.066075094 0.2578201 0.15532723
0.097962156 -0.0069396743 0.15819936 0.14103422 -0.037956305 0.10180756 0.095196426 -0.05274378
0.06838564 0.07409584 -0.07897821 -0.089717545 -0.014878805 -0.08876675 -0.07178251 0.0028512308
-0.046462458 -0.03605022 0.069549166 0.19752091 0.1519709 0.21434185 0.11541171 0.113496095
0.16045386 0.07890841 0.10603905 0.13073246 0.046961375 0.03772076 0.031267006 0.05941456
0.049808946 0.12430657 0.12059427 0.18698658 0.13697496 0.08809407 0.047904663 -0.0053550177
0.033435766 -0.00883535 -0.056509767 0.02232712 -0.03142072 -0.07464237 -0.13486172 -0.090369694
-0.11854506 -0.09563503 -0.10059925 -0.16511907 0.025245242 -0.059360687 -0.14644681 0.13054651
0.019328952 0.01931935 0.07556627 -0.036860667 0.00786899 0.01426319 -0.016757468 -0.010679364
0.0112205455 0.0355222 0.075026 -0.012295079 -9.2083625e-05 0.046890683 -0.05180903 -0.0827179
-0.03734997 -0.06559614 -0.022314325 0.00019106058 -0.04291362 -0.00026870877 -0.0037363195 0.012382365
0.035098705 0.023574842 0.130745 0.101716444 0.09671298 0.04095189 -0.0053860536 -0.016809005
0.050485592 0.018027386 -0.00017880707 0.0008289616 0.0009676103 0.0010715651 0.00078637974 0.00080793165
0.0008338408 0.00054973323 0.0005827439 0.00062894786 5.4589225e-05 1.129312e-05 -7.436504e-05 2.3641225e-05
-8.904497e-06 -8.2631144e-05 4.493149e-05 4.2019932e-05 -5.820113e-05 0.21839134 0.14683093 0.10756709
0.15836035 0.11348567 0.058967076 0.08157493 0.05227864 -0.0009821006 0.17712422 0.15829282
0.2558161 0.054749154 0.020894768 0.04194702 0.19011077 0.15238059 0.19591227 0.10510549
0.032535892 0.0128439255 0.105519526 0.0019268898 -0.0038656231 0.07713709 0.04334498 0.08306401
-0.07905565 -0.07300907 -0.05662435 -0.11494998 -0.120773025 -0.07684871 -0.115105905 -0.1538508
-0.11761958 -0.032149147 -0.0026123917 0.0144323865 -0.05235409 -0.0016866516 0.015209447 -0.100188814
-0.07998992 -0.05506426 0.15277521 0.10760146 0.103542596 0.08738688 0.018214153 0.016343752
-0.0024112307 -0.079132594 -0.06848653 -0.08972256 -0.15668175 -0.14266041 -0.07734742 -0.122363806
-0.12120838 -0.10560719 -0.11967636 -0.103967816 -0.0007655673 -0.011164394 -0.029377742 0.024896225

down_path.1.block.3.bias f4 [16]
00000000: ca3e 76be 3a61 2e3e 92b8 0abe d53d 2abd
00000010: b825 2bbe fd77 0d3e afc7 a33d ae6d 1abe
00000020: 54ce 66bd b656 833c 076c 82be 6d07 923c
00000030: 4245 07be e368 52be 8211 32bd 12d7 973c
-0.2404739 0.17029276 -0.1354697 -0.041562874 -0.16713607 0.13815303 0.07997071 -0.15080902
-0.056349114 0.016032558 -0.25473043 0.017825807 -0.13210014 -0.20547824 -0.043473728 0.01853517

down_path.1.block.5.weight f4 [16]
00000000: da74 8b3e 1204 803e c0d4 2f3e 453f 7a3e
00000010: 4cf0 233f 4ece c13e e288 893e 6f83 e23e
00000020: 3572 d63e 3b9e be3e fc4a 9e3e 4c77 5d3e
00000030: 542f 0fbe e4ff 9a3e e574 0b3f 9719 c63e
0.27237588 0.25003105 0.17171001 0.24438198 0.6403854 0.3785271 0.26862246 0.442409
0.41884008 0.37230095 0.30916584 0.2162754 -0.13982898 0.30273354 0.5447524 0.38691399

down_path.1.block.5.bias f4 [16]
00000000: c51d 453d d7e5 ba3c fedb 533d 5404 023d
00000010: dc6b 48bc aac8 92bd 6737 f0bc f965 063e
00000020: 0339 69ba 86bd 3dbd 0983 ab3a fa66 0e3d
00000030: 4764 0cbd 7ada c6bc 0b63 ce3d ada3 2ebc
0.048124094 0.022814674 0.051723473 0.03174241 -0.012232747 -0.0716718 -0.029323293 0.13124837
-0.000889674 -0.04632332 0.0013085316 0.034766175 -0.03427532 -0.0242741 0.10077485 -0.010659141

down_path.1.block.5.running_mean f4 [16]
00000000: fc4d ea3d 5ba4 6c3f 7a71 123e fa17 cc3d
00000010: df52 053f 5b0e 9d3e 2a89 c23e f7a7 373e
00000020: 4dbb 103e 2296 a73e 6c8c 8b3d 55ab 523e
00000030: c41a f53c 2ebc 2a3e b187 1f3d ede4 793e
0.114406556 0.92438287 0.143011 0.09965511 0.52079576 0.30675015 0.37995273 0.17935167
0.1413395 0.3273173 0.06813893 0.2057317 0.02991999 0.16673347 0.038947765 0.24403735

down_path.1.block.5.running_var f4 [16]
00000000: ac7e 213e 5920 fd3e c561 033e 290c 753d
00000010: 6194 a13f 773a e33e 30e2 303e 4f6e b93e
00000020: 4fd6 a13e 1571 3b3f cf4d 803d 202b 193e
00000030: 98e7 523c c78e 633e 46b8 9f3d 1df1 ab3e
0.15770978 0.49438742 0.12830265 0.05982605 1.2623407 0.44380543 0.17273784 0.3621697
0.31608817 0.73219424 0.06264841 0.14957857 0.012872599 0.22222434 0.07798819 0.33582392

down_path.2.block.0.weight f4 [32, 16, 3, 3]
00000000: 84d2 763e 13e4 163e de66 3a3e 35ad bb3d
00000010: f41e 9a3d f040 e83d 3eaf 893a 9d83 af3c
00000020: 21cd bf3d c1b7 8f3d 82a6 0d3e 7b94 503e
00000030: 3763 2abd fd80 3f3d a047 0b3e d07e 803d
00000040: 600a 983d e480 fe3d 8fc5 25bd d201 8dbd
00000050: 3ce8 b3bd ca13 4abd 027e 1bbd cee2 97bc
00000060: d15d 57bd 77a9 17bd 397f f4bc 9245 e93c
00000070: 16d6 09bb db18 1b3c 2877 70ba 408a 72bd
00000080: a04b 93bc d603 513e 656f ca3d e1f0 133e
00000090: 6371 a53d 725d ce3d 80fd 2f3c a56a 7a3c
000000a0: 76b7 c93d 204f 80bd cab8 623b eab9 453e
000000b0: cdf6 70bc dc75 233d a51a cebb 33c9 243d
000000c0: 5436 1abd 72d4 24bc fe7c 54bc 1719 37be
000000d0: bc52 c2bd 1671 c4bd 8d28 293d d00e b5bc
000000e0: 5585 a03b 6c70 843d 2e70 373c 1033 833c
000000f0: 4b90 16bd a7d9 0bbc 9a38 fdbd addf 78be
00000100: e8a3 12be 94d0 54be f96f 24be da92 80bd
00000110: 4e6a 0abe e2af b2bd 4d7b 9fbd f2b1 c2bd
00000120: f87c 16be ea9f 2bbe ee48 31be 1462 ebbd
00000130: 93dd 05be cabb 3abe 68fd 45be ebc4 ffbd
00000140: d6eb 19be 3d76 953d 325e 8bbb afc0 90bc
00000150: 4c10 943d 0c18 993d 8e6f 0bbd 7c81 6fbc
00000160: 90dc 5b3d 25f4 e4bb 3b8b 053e 3e6f 1a3e
00000170: 9a1e e03d 6be0 a93d 8775 7c3d 9fa4 103c
00000180: 7e96 e63d 548c 4c3e a1ab 213e 8d69 cebb
00000190: 38db a13c d311 b83c 782d 66bd c68f b0bd
000001a0: 8294 6fbc 6704 12be 29fc 35be b2b3 09bd
000001b0: c014 30bc 61bf 81bc a3d2 e3bc d10b e0bb
000001c0: eea4 8cbc 9f95 9cbc 2b57 af3c 2dfa e23c
000001d0: fdb4 b33c d3f9 e33d 79f2 fb3d 7f45 103e
000001e0: c4ba 893d 5f47 103e a759 943d 8155 6d3d
000001f0: b3af 453d fe44 59bd 0412 70bd e24e 43bc
00000200: 7053 8cbc 9bbd d4bd 49f0 b8bb c125 683c
00000210: fd32 c0bd eabe e2b9 c258 8d3d 2dcb 1f3d
00000220: 53a9 19bd e07b 02bd 2050 3d3d aaa5 4c3d
00000230: 1309 51bd ed28 00bc 9b24 443c 9986 2fbd
00000240: ba5b d4ad eeb2 9fad 96aa 61ad 6afd 08ae
00000250: 9f13 dcad e9ac 90ad 3bfe 00ae 38be d0ad
00000260: 7bd1 baad d444 11b2 83e4 23b2 4b0e 49b2
00000270: 2b1e 11b2 75d1 13b2 53a3 31b2 bf4d 24b2
00000280: 4537 22b2 c312 33b2 eb57 01a7 1e82 d4a5
00000290: 6d4f 2da6 2303 84a7 7169 bc25 8617 fa25
000002a0: c911 cca8 f84d 6aa8 bac5 8da7 5daa 61b2
000002b0: 2c73 5fb2 c1cd 6bb2 928f 12b2 7c0b 06b2
000002c0: cac0 01b2 b15c 61b2 cd56 50b2 2a54 51b2
000002d0: ab3f 9aad b954 04ae b036 05ae 4d50 deac
000002e0: f0c0 47ad 89a1 80ad 68c5 37ac 61ed 35ad
000002f0: 9403 81ad a72e 6e29 1ffb 8d2c 3a31 512b
00000300: e1e1 9dab 99bd 542c 5cd8 752b 3a29 cfac
00000310: 9495 9f2c a699 412c ca48 502d af67 a82d
00000320: 1717 8e2d c9cb f82b e12b 932d 8c35 d72d
00000330: 86b0 a7ac d95f 5c2c 8c57 8a2d 5d31 cdaa
00000340: 18bd d2aa a804 92aa 89a6 f2a9 b898 87a9
00000350: 5af0 01aa fc43 30ab 0296 e5aa 7c87 f0aa
00000360: 687d 9db0 df53 7fb0 c97b 6cb0 c882 52b0
00000370: 216e 68b0 8660 b5b0 7afc 2930 77c5 38af
00000380: fa87 aeb0 91d1 46ab 7604 b7ab a392 e1a9
00000390: 1af6 d1aa d4de 8bab b5d0 20a9 48f7 6aab
000003a0: dd7e 83ab 8d4c 1bab 853f 1cac 1600 742b
000003b0: a856 892b 48bd 44ac cd0b a82b 7aca 9f2b
000003c0: 45af 20ac ede5 942b 56a5 952b 4bc7 bbb0
000003d0: caf9 0eb1 1277 35b1 ac98 1cb0 0b7d 99b0
000003e0: e71e f0b0 65cf a4b0 ba41 b2b0 3d5d ebb0
000003f0: 7722 3ba2 695c d921 635b a221 4cc1 83a2
0.24103743 0.14735441 0.18203303 0.09163896 0.07525435 0.11340511 0.0010504497 0.021425063
0.09365297 0.0701747 0.13833049 0.20369141 -0.041598525 0.046753872 0.13601542 0.062741876
0.07423854 0.12426928 -0.04047161 -0.06885113 -0.087845296 -0.04933528 -0.037961967 -0.018540766
-0.052579705 -0.03702685 -0.02984582 0.028475557 -0.0021032146 0.009466375 -0.0009173029 -0.059213877
-0.017980397 0.2041162 0.09884528 0.14447357 0.080782674 0.10076417 0.010741591 0.015284215
0.098494455 -0.06265092 0.0034595006 0.19309202 -0.014707279 0.03990732 -0.0062897974 0.04023094
-0.037649468 -0.010060417 -0.012969254 -0.17880665 -0.094884366 -0.09591882 0.041298438 -0.02210179
0.004898707 0.06466755 0.011196179 0.01601556 -0.036758702 -0.008535779 -0.123643115 -0.24304076
-0.14320338 -0.20782691 -0.16058339 -0.0627801 -0.13517115 -0.08724953 -0.0778719 -0.095065966
-0.1469611 -0.16760221 -0.17312977 -0.11493316 -0.13072805 -0.18235698 -0.19334948 -0.12488731
-0.1503137 0.07297943 -0.0042531723 -0.017670004 0.07229671 0.0747529 -0.034041934 -0.014618274
0.05367714 -0.006987112 0.13041393 0.15081498 0.10943337 0.082947575 0.06163552 0.008828311
0.11259173 0.19975406 0.15788127 -0.0062992037 0.019757852 0.022469437 -0.056195706 -0.086211726
-0.014622809 -0.14259492 -0.17771973 -0.033618636 -0.010747135 -0.015838327 -0.0278104 -0.006837346
-0.017168488 -0.019114314 0.02140387 0.027707184 0.021936888 0.111316346 0.12302107 0.1408901
0.06725076 0.14089726 0.07243662 0.05794287 0.048263263 -0.05304431 -0.05861093 -0.011920663
-0.01712963 -0.10387727 -0.0056438786 0.0141691575 -0.09384725 -0.0004324832 0.06901695 0.039012123
-0.037514996 -0.031856418 0.04621899 0.049962677 -0.051034044 -0.0078222575 0.011971618 -0.04285297
-2.4142344e-11 -1.8155668e-11 -1.2827647e-11 -3.1147897e-11 -2.5019818e-11 -1.6447692e-11 -2.9329632e-11 -2.3731336e-11
-2.123878e-11 -8.4557605e-09 -9.539806e-09 -1.170299e-08 -8.44697e-09 -8.604151e-09 -1.0339892e-08 -9.563734e-09
-9.442208e-09 -1.0423437e-08 -1.7950007e-15 -3.6864309e-16 -6.0129074e-16 -3.664076e-15 3.268425e-16 4.3384027e-16
-2.2656263e-14 -1.3006516e-14 -3.9349737e-15 -1.313546e-08 -1.3006495e-08 -1.3725583e-08 -8.530963e-09 -7.802438e-09
-7.552623e-09 -1.3117799e-08 -1.212693e-08 -1.2184538e-08 -1.7536047e-11 -3.0088574e-11 -3.028927e-11 -6.3185347e-12
-1.1354681e-11 -1.4623651e-11 -2.6115447e-12 -1.03413675e-11 -1.4667191e-11 5.288708e-14 4.035341e-12 7.432003e-13
-1.1218215e-12 3.023226e-12 8.7341744e-13 -5.887871e-12 4.5356583e-12 2.7512242e-12 1.18395935e-11 1.9145434e-11
1.6153785e-11 1.7678022e-12 1.6731451e-11 2.446645e-11 -4.7660235e-12 3.1317087e-12 1.5727662e-11 -3.6449568e-13
-3.7434704e-13 -2.593804e-13 -1.0775848e-13 -6.021697e-14 -1.154089e-13 -6.262211e-13 -4.078266e-13 -4.2726575e-13
-1.1458896e-09 -9.288765e-10 -8.603221e-10 -7.6583406e-10 -8.455761e-10 -1.3196917e-09 6.184063e-10 -1.6804856e-10
-1.2698813e-09 -7.063456e-13 -1.300417e-12 -1.00174446e-13 -3.7296625e-13 -9.938391e-13 -3.570816e-14 -8.347667e-13
-9.343321e-13 -5.51733e-13 -2.2204194e-12 8.6686333e-13 9.758487e-13 -2.7958347e-12 1.1940393e-12 1.1353828e-12
-2.2834662e-12 1.057985e-12 1.0632977e-12 -1.3662683e-09 -2.0805708e-09 -2.640665e-09 -5.696943e-10 -1.1167754e-09
-1.7471081e-09 -1.1991516e-09 -1.2969885e-09 -1.7125e-09 -2.5361471e-18 1.4728953e-18 1.1001737e-18 -3.5712282e-18

down_path.2.block.0.bias f4 [32]
00000000: bfa5 2bbe a47a 89b3 c2aa 9dae b4b5 803e
00000010: a3a4 0cbd 4167 1db2 c1a0 45bc 4eed 90be
00000020: 8cde 8dbd 2e2e 37b5 2844 aeb8 4da7 013d
00000030: adda 4fa6 f74e 428f 58d5 b63e 948f 81b4
00000040: 2610 e23d 1df9 73ab 72e6 7887 2e57 8c3e
00000050: 3ced 51bd 2a8c 609c d676 f7af 4397 8abe
00000060: 6b61 00b4 0a53 9c3d 9971 f8b2 5430 9694
00000070: f35d 3bbc 74c4 d1af 2152 bc3e 6658 6b92
-0.16762446 -6.401868e-08 -7.169866e-11 0.25138628 -0.034336697 -9.16208e-09 -0.0120622525 -0.2830605
-0.06927213 -6.824001e-07 -8.309662e-05 0.03165369 -7.2113913e-16 -9.5801466e-30 0.35709643 -2.413259e-07
0.11038236 -8.6676657e-13 -1.8725168e-34 0.27410263 -0.051251635 -7.429654e-22 -4.5013476e-10 -0.2706853
-1.195637e-07 0.07633026 -2.8922658e-08 -1.5165191e-26 -0.011435973 -3.8156467e-10 0.3678141 -7.4261885e-28

down_path.2.block.2.weight f4 [32]
00000000: 1ac4 b23e b31e f0b6 324f 84b6 ef09 233f
00000010: ace9 b03e dc29 7dba 1d06 013f c4aa 913e
00000020: e204 b13e 965f 9eba 2c7b 4a37 d495 943e
00000030: f894 94b8 907e 3eb7 d983 003f e28f a739
00000040: 530e fc3e 794b 9d38 4630 2937 27c3 013f
00000050: 5a7e a13e 36a7 2ab7 79bb a1b8 a8da c43e
00000060: 688e 273a c727 103f cd55 df38 f553 aab0
00000070: eb19 173f a009 4db2 e66c 233f 2f51 7c35
0.3491524 -7.1561312e-06 -3.943126e-06 0.6368703 0.34553277 -0.00096574216 0.50399953 0.28450596
0.34574038 -0.001208293 1.2068816e-05 0.2902056 -7.0849375e-05 -1.135435e-05 0.50201184 0.00031959923
0.4922968 7.500401e-05 1.00844245e-05 0.50688404 0.3154171 -1.0171721e-05 -7.711998e-05 0.3844807
0.00063917646 0.56310695 0.0001064945 -1.239299e-09 0.5902392 -1.1934759e-08 0.6383804 9.3995453e-07

down_path.2.block.2.bias f4 [32]
00000000: c5f6 f83d b185 ce38 c12f a0b7 933c 503e
00000010: 062f b13d 33e5 683a a473 293d ab48 7e3c
00000020: f2a2 dc3d 6f53 cfb6 53dd 9bbb 0f88 2e3e
00000030: 7f12 8038 7d3d 2833 bad8 7e3e 1644 eb34
00000040: b6fb 793e 814f d3b7 21a6 5ab4 0122 2f3e
00000050: 14c2 623c 0db1 9fb6 cfde 0f3b 2828 063e
00000060: 4be7 ceb7 bf4f 093e 6efe 80b6 7b72 f337
00000070: d1cb e43d fd0f 2939 26a7 463e 2211 3dba
0.121564426 9.8477474e-05 -1.9095723e-05 0.20335607 0.08651547 0.0008884251 0.04137005 0.015520255
0.10773267 -6.1787937e-06 -0.0047566085 0.1704409 6.106961e-05 3.917147e-08 0.24887362 4.38217e-07
0.24412426 -2.5190182e-05 -2.036327e-07 0.17102815 0.013840217 -4.7591807e-06 0.0021952873 0.13101256
-2.4664818e-05 0.13409327 -3.844317e-06 2.9021166e-05 0.111716874 0.00016123052 0.193997 -0.0007212331

down_path.2.block.2.running_mean f4 [32]
00000000: 1b27 0e3e 5bca 1810 0400 0000 869f ab3e
00000010: a077 333d 0400 0000 f632 8d3d b691 d73b
00000020: 9a19 a73d 5d26 0000 e628 0536 ab77 f53d
00000030: 0400 0000 0400 0000 b0ed f83e a020 e102
00000040: d7ed 893e 7800 0000 0400 0000 6e02 f03e
00000050: 7a48 6c3d 0400 0000 0400 0000 ab2c 303d
00000060: 0400 0000 c953 e53e 0400 0000 0400 0000
00000070: 0d59 593e 0400 0000 b68c 193f 0400 0000
0.13882105 3.0132603e-29 6e-45 0.33520144 0.043815255 6e-45 0.06894486 0.0065786494
0.0815918 1.3762e-41 1.984235e-06 0.119857155 6e-45 6e-45 0.4861884 3.3079504e-37
0.2693927 1.68e-43 6e-45 0.46876854 0.057686307 6e-45 6e-45 0.04301135
6e-45 0.44790486 6e-45 6e-45 0.21225376 6e-45 0.5998033 6e-45

down_path.2.block.2.running_var f4 [32]
00000000: 5a11 e73d 6484 dc07 0400 0000 970f f13d
00000010: 0690 8c3c 0400 0000 746d 743d 1503 0e3b
00000020: 8d91 8e3d 0400 0000 bab8 392f 577b 393d
00000030: 0400 0000 0400 0000 bf0b ee3e 5000 0000
00000040: a593 dc3d 0400 0000 0400 0000 3983 a93e
00000050: 3d57 283d 0400 0000 0400 0000 3be8 cb3c
00000060: 0400 0000 c6d2 853e 0400 0000 0400 0000
00000070: ab85 4d3e 0400 0000 b144 d33e 0400 0000
0.112826064 3.3179733e-34 6e-45 0.11770552 0.01715852 6e-45 0.059674695 0.0021669318
0.06961355 6e-45 1.689128e-10 0.04528364 6e-45 6e-45 0.46493337 1.12e-43
0.107703485 6e-45 6e-45 0.33107927 0.041098822 6e-45 6e-45 0.02489101
6e-45 0.2613737 6e-45 6e-45 0.20070522 6e-45 0.41263345 6e-45

down_path.2.block.3.weight f4 [32, 32, 3, 3]
00000000: 2582 373b 747e 5a3b d40d 3e3b c6bd 1a3b
00000010: 1faf 4a3b 8a6c 283b 764d 313b 7d53 513b
00000020: 71a7 303b 6f9c 52b4 7d06 4bb4 bf51 49b4
00000030: 59ea 5db4 ec58 58b4 f440 53b4 46e0 54b4
00000040: c0b0 50b4 9881 4db4 26e2 1a30 1d36 1530
00000050: ed92 1330 0d34 0230 4f31 f92f a799 f72f
00000060: afa0 0430 692b fd2f f158 fc2f a59f 183b
00000070: f1cf 353b 9ade 273b 6d3f f53a 7cf3 053b
00000080: 0292 ea3a 205e 233b 4675 493b 3079 373b
00000090: fa2d a13b 7c9d a53b 6d04 a23b 6680 883b
000000a0: fb97 8e3b 6f90 8d3b 6c1d 653b ea31 733b
000000b0: 8899 673b 74c5 0cb5 a652 0ab5 7789 0bb5
000000c0: 5806 0cb5 e1e8 09b5 619e 0bb5 e084 09b5
000000d0: eab5 07b5 d368 08b5 dfcd c7b6 da8d 91b7
000000e0: 0076 94b6 9a06 3c36 ea32 8cb6 7b6c 3c37
000000f0: b0e3 f736 411b dc36 5ba6 8b37 a691 6ab7
00000100: 4425 8cb7 7e31 d6b7 122a f8b6 3254 48b7
00000110: deb5 9fb7 c6f1 90b4 083a 37b6 7e5d 0fb7
00000120: 6021 f3b7 ed0e fdb7 deee 06b8 2955 b8b6
00000130: 57e8 28b7 e1ca 80b7 ed90 52b6 f234 1fb7
00000140: 9b99 1eb7 309f 2430 7443 2030 9d75 2130
00000150: c5aa 2530 d918 2130 57a0 2130 77fe 2230
00000160: ac07 1f30 fc5c 1f30 f46c 6433 0310 5a33
00000170: da0e 5533 5173 6433 306d 5933 6d1e 5533
00000180: 34f3 6533 fb1b 5d33 7cc0 5833 9b51 d2b9
00000190: 21d0 92b9 2983 a6b8 1192 13ba 17b1 cab9
000001a0: 2610 d3b9 b8c8 5cba 0018 32ba cbca 3cba
000001b0: 85f1 c1b0 cf4f bab0 30ae b6b0 9720 c1b0
000001c0: b059 b9b0 77ca b6b0 ff69 c0b0 519e b8b0
000001d0: e9f5 b6b0 e3ca 3f2e 8cbc 412e 4c10 402e
000001e0: b546 422e 739f 452e f9c9 422e 4622 402e
000001f0: 8dbc 422e 8c8c 422e 6595 cbb9 89e1 dcb9
00000200: 5d33 c3b9 b535 1eba adac 01ba 9798 0fba
00000210: eb04 32ba b71f 0aba e8ca 1aba c901 7dad
00000220: 7f36 88ad 4d73 8cad 66d5 68ad b5ea 7ead
00000230: 5048 84ad e728 48ad d3c4 61ad bfdc 6ead
00000240: 5cf3 7b3b fa62 883b 270f 893b c388 433b
00000250: 9959 5c3b d575 683b cef0 2f3b 4319 543b
00000260: 79f5 613b eb0d c52f 8d7f b62f 0813 b32f
00000270: 7297 c32f 6a54 b42f ff1b b12f f5df c52f
00000280: f52c b82f 99c5 b42f 2451 802c 4522 952c
00000290: 4088 9e2c d394 8e2c dfa1 a52c 9df1 b22c
000002a0: dfa5 662c f6b5 812c f25b 8f2c b256 fd39
000002b0: b5ce 0e3a eeab d639 8e49 bb39 97ee ee39
000002c0: 6c8d 4539 abc8 dbb8 804e f4b8 3851 a1b9
000002d0: 367b 2337 3cbc 3a37 d7bc 8336 c25d 9b36
000002e0: 227a d736 b7c9 37b6 8ad7 f836 ec65 2937
000002f0: f604 9c35 ae17 232f 38d5 982f e63a 5a2f
00000300: 8bd4 242f 5b60 972f 205b 5f2f a5a5 08ae
00000310: e0b1 d82e eac5 b12e 1017 97b2 50ce 15b2
00000320: 9964 8fb2 4e0e 8db2 fd01 f0b1 ccd6 61b2
00000330: 6eb1 a8b2 cb45 51b2 5767 93b2 1847 a2b7
00000340: 18be aeb7 bd0d b9b7 1282 c6b6 0472 fab6
00000350: d9df 7ab7 eaf9 4337 1d30 f936 4919 9e36
00000360: 6c88 85b0 e054 83b0 aa3a 83b0 221a 47b0
00000370: ce23 42b0 d291 44b0 4d7c 37b0 0f47 3bb0
00000380: 3f71 40b0 0508 11ba 8850 2dba bc7b aaba
00000390: 5ccd a8ba 7c22 d0ba da72 edba 8737 87ba
000003a0: 31b2 9dba 0670 bbba 7eda 262f 805f 272f
000003b0: 446a 242f 54ae 2b2f 04f0 2b2f 84b5 292f
000003c0: 4666 2d2f ebbe 2c2f 81f0 2c2f 69a5 2b30
000003d0: 32de 4530 fccc 4230 67eb 3030 d695 5130
000003e0: 04d5 4e30 02b4 1d30 4d0e 3e30 bfbe 4630
000003f0: a60f 153b a605 093b 1148 d53a 78a7 6e3a
0.0028001156 0.0033339532 0.0028999941 0.002361165 0.0030927134 0.002569946 0.0027054227 0.0031940632
0.0026955272 -1.9614684e-07 -1.8908209e-07 -1.8749323e-07 -2.0667484e-07 -2.0148917e-07 -1.9674536e-07 -1.9825629e-07
-1.9435811e-07 -1.9139259e-07 5.634625e-10 5.4282784e-10 5.368708e-10 4.7367693e-10 4.5327872e-10 4.5038215e-10
4.8249665e-10 4.6051277e-10 4.590173e-10 0.0023288515 0.002774235 0.0025614859 0.0018710919 0.0020439317
0.0017896297 0.002492793 0.0030740066 0.0027995817 0.004918811 0.005054174 0.0049443753 0.004165697
0.0043516136 0.0043201963 0.0034960164 0.0037108609 0.0035339314 -5.2441396e-07 -5.1529275e-07 -5.198157e-07
-5.2163296e-07 -5.137536e-07 -5.2012007e-07 -5.1229836e-07 -5.055614e-07 -5.081649e-07 -5.9546287e-06 -1.7351402e-05
-4.4244807e-06 2.8018026e-06 -4.1782523e-06 1.1230931e-05 7.38768e-06 6.5596837e-06 1.6647557e-05 -1.3981398e-05
-1.6706654e-05 -2.5533835e-05 -7.3958736e-06 -1.1940532e-05 -1.9038966e-05 -2.6998003e-07 -2.7302904e-06 -8.545232e-06
-2.8983399e-05 -3.01669e-05 -3.2170552e-05 -5.4935413e-06 -1.0067676e-05 -1.5353262e-05 -3.1376796e-06 -9.489466e-06
-9.453298e-06 5.988907e-10 5.830352e-10 5.87386e-10 6.026933e-10 5.860677e-10 5.8799315e-10 5.9296873e-10
5.7854765e-10 5.7976e-10 5.318448e-08 5.0771643e-08 4.9606435e-08 5.3190266e-08 5.0623555e-08 4.96206e-08
5.353941e-08 5.148102e-08 5.0466483e-08 -0.00040115122 -0.00028002358 -7.939927e-05 -0.00056293706 -0.00038660385
-0.00040257088 -0.00084222434 -0.00067937374 -0.00072018494 -1.4111242e-09 -1.3555964e-09 -1.329175e-09 -1.4051861e-09
-1.3486012e-09 -1.3299787e-09 -1.3999965e-09 -1.3432758e-09 -1.3312135e-09 4.360857e-11 4.4050583e-11 4.367022e-11
4.4173293e-11 4.4934233e-11 4.428988e-11 4.3686187e-11 4.427796e-11 4.4235324e-11 -0.00038830485 -0.00042129707
-0.00037231567 -0.00060352247 -0.000494669 -0.0005477755 -0.0006790894 -0.0005269008 -0.0005904869 -1.4381781e-11
-1.5485611e-11 -1.5967361e-11 -1.3235057e-11 -1.4490344e-11 -1.5038776e-11 -1.1377766e-11 -1.2833473e-11 -1.3577749e-11
0.0038444614 0.0041621896 0.0041827145 0.0029836155 0.003362274 0.0035470624 0.0026846412 0.003236369
0.0034478588 3.584398e-10 3.3196237e-10 3.2573433e-10 3.5577902e-10 3.280179e-10 3.2216005e-10 3.5993222e-10
3.350135e-10 3.288221e-10 3.6469872e-12 4.2386394e-12 4.505757e-12 4.0524055e-12 4.7075534e-12 5.0858887e-12
3.2777043e-12 3.6866022e-12 4.0745124e-12 0.00048320513 0.0005447672 0.00040945358 0.00035722222 0.0004557266
0.00018840068 -0.00010480111 -0.000116494484 -0.00030768826 9.744244e-06 1.1130291e-05 3.926088e-06 4.630275e-06
6.4217174e-06 -2.7386538e-06 7.416068e-06 1.00969155e-05 1.162435e-06 1.4833176e-10 2.780014e-10 1.984791e-10
1.4991224e-10 2.7535205e-10 2.0314106e-10 -3.1069942e-11 9.85414e-11 8.084185e-11 -1.7589201e-08 -8.7198515e-09
-1.6693138e-08 -1.6421065e-08 -6.9851454e-09 -1.3145563e-08 -1.963846e-08 -1.218127e-08 -1.7160046e-08 -1.934501e-05
-2.0830936e-05 -2.2060116e-05 -5.916002e-06 -7.4638538e-06 -1.495328e-05 1.1681093e-05 7.4263794e-06 4.7117105e-06
-9.715797e-10 -9.555627e-10 -9.548178e-10 -7.2432915e-10 -7.062767e-10 -7.151161e-10 -6.6751654e-10 -6.8131184e-10
-7.0010125e-10 -0.0005532506 -0.00066114264 -0.0013006846 -0.0012878585 -0.0015879418 -0.0018115893 -0.0010316231
-0.0012031255 -0.0014300353 1.5175236e-10 1.522249e-10 1.4953466e-10 1.5614293e-10 1.563763e-10 1.5434948e-10
1.5770593e-10 1.5711137e-10 1.5728753e-10 6.24445e-10 7.198394e-10 7.086809e-10 6.4362954e-10 7.6246687e-10
7.5245077e-10 5.7372074e-10 6.914192e-10 7.2303047e-10 0.0022744923 0.0020907908 0.0016272088 0.0009103934

down_path.2.block.3.bias f4 [32]
00000000: bdb4 3c3b a561 503e 383d 04b8 bae2 e9b8
00000010: 83a4 b5aa 0893 eb3a 4a03 74b4 21b9 9b3c
00000020: 440f 14b6 7375 79ad d48e 66b4 df77 88a7
00000030: 6289 8bbd bf58 819e 3bcc 10bb 1404 87bd
00000040: 9726 85be d297 0cbe 6f2a e3ba fa84 813e
00000050: ee1d 47be 87a9 64ac ad71 58b3 f44d 44bd
00000060: 365f 113d 4cd7 bcbc 3461 9abd cbb1 83bb
00000070: a998 a18b 23d7 00be 87cd 24bc 36f8 ec3a
0.0028794252 0.20349748 -3.1528267e-05 -0.00011152537 -3.2266212e-13 0.0017972896 -2.2725467e-07 0.019009175
-2.2062604e-06 -1.418009e-11 -2.147238e-07 -3.7877547e-15 -0.06813313 -1.369511e-20 -0.0022094387 -0.06592575
-0.26006004 -0.1372979 -0.0017331372 0.25296766 -0.19445011 -3.2494855e-12 -5.0394807e-08 -0.047925904
0.03549119 -0.02305188 -0.07538071 -0.0040189973 -6.224464e-32 -0.12582068 -0.010058767 0.0018079344

down_path.2.block.5.weight f4 [32]
00000000: cf43 68b8 2249 6e3e 6fa6 f9b8 b031 8cb8
00000010: 1f80 0eb8 82d2 49ba 12e9 42b6 a0ae 8d3e
00000020: 8b78 73b7 273e 59b9 ed2b 23b9 7db3 18bb
00000030: c0f7 e9bd e963 66ba f3eb bb3b d1c1 9a3e
00000040: aee6 b43e a243 823e 2e11 43ba ddff 673e
00000050: 2d63 b73e d57f bcba 8b03 44ba c296 a53c
00000060: 4a1b af3e 5a84 813e 1c97 06bd 2402 683e
00000070: f372 02ba 248b d13e b3f6 24ba fb5d 1cbe
-5.5376262e-05 0.23270085 -0.00011904246 -6.684975e-05 -3.397476e-05 -0.00076989096 -2.9043917e-06 0.2767229
-1.4511995e-05 -0.00020717886 -0.00015561255 -0.0023300343 -0.11424208 -0.00087886915 0.0057349144 0.30225995
0.35332245 0.25442225 -0.00074412196 0.22656198 0.35817853 -0.0014381359 -0.00074773346 0.020213488
0.34200507 0.2529629 -0.032858953 0.22657067 -0.0004976235 0.40926468 -0.00062928646 -0.15270226

down_path.2.block.5.bias f4 [32]
00000000: 2f28 61b9 95c3 fb3d d609 5db7 f844 70b7
00000010: d31e 3c3b 7e92 43ba c019 0236 505b ae3d
00000020: c715 efb8 c479 6b3b 6212 ca3b 8016 90b7
00000030: fe81 93bc cceb 083b 2c20 0735 912c 233e
00000040: a375 883d e427 fe3c 5754 b7b7 1ce4 44be
00000050: 5c99 eb3d 8cc7 293a 3c92 e4bb 3bb3 963b
00000060: 4c4e ff3d 710e dd3d c199 10bc 5978 143b
00000070: 95d8 4fb5 d104 1a3e c46b 433a 1f41 0ebd
-0.00021472642 0.12293164 -1.3174917e-05 -1.4321173e-05 0.0028704896 -0.00074604887 1.9386498e-06 0.0851351
-0.000114004644 0.0035930732 0.006166742 -1.7176615e-05 -0.018006321 0.00208925 5.0338235e-07 0.1593497
0.066630624 0.03102488 -2.1854574e-05 -0.19227642 0.1150386 0.0006476573 -0.0069754403 0.0045990027
0.12466106 0.1079377 -0.00882572 0.002265474 -7.742868e-07 0.150409 0.0007454718 -0.034730073
