weights/old/unet-test7.pt (torch_old, 478380 bytes, 92 tensors)

down_path.0.block.0.weight f4 [8, 3, 3, 3]
0	0xbcc48c93	-0.023992812
1	0x3e4ab0e8	0.19794047
2	0x3ebe2b39	0.3714235
3	0x3e82ed6a	0.25571758
4	0x3ea229d5	0.3167254
5	0x3f0198df	0.5062389
6	0xbbdc0ec8	-0.0067156292
7	0x3e0e75f3	0.13912182
8	0x3eb376b2	0.35051495
9	0xbece1d1d	-0.40256587
10	0xbebe0569	-0.37113503
11	0x3dcb89f4	0.09938422
12	0xbee09b32	-0.43868405
13	0xbe4f80d6	-0.20263991
14	0x3df9dacf	0.121999376
15	0xbf035649	-0.51303536
16	0xbe5d6701	-0.21621324
17	0x3d4090ab	0.047012966
18	0xbe4314ce	-0.19050905
19	0x3d8a7bee	0.06761919
20	0x3e563d65	0.20921858
21	0xbc878b2d	-0.016545856
22	0xbd754d52	-0.05988819
23	0x3db5d821	0.08879114
24	0x3d80217f	0.06256389
25	0x3e223977	0.15842234
26	0x3e59df30	0.21276546
27	0xbda88d44	-0.08230069
28	0xbe408fad	-0.18804808
29	0xbe1135db	-0.141807
30	0xbcfae402	-0.0306263
31	0xbc2813c6	-0.010258621
32	0x3c499eed	0.012305957
33	0x3df5dccc	0.12005004
34	0xbe292d17	-0.16521107
35	0xbe2806e5	-0.1640888
36	0xbe65f2bc	-0.22455877
37	0xbe4231e8	-0.1896435
38	0xbe1e222e	-0.15442726
39	0x3c1f3f8f	0.009719743
40	0x3c250b31	0.010073469
41	0xbd94ef29	-0.07272179
42	0x3db194b2	0.086709395
43	0x3dcc4e44	0.099758655
44	0x3bcfeec5	0.006345602
45	0x3bb06983	0.0053836717
46	0xbe1c921c	-0.15290111
47	0xbdd23cb2	-0.10265483
48	0xbe2c03ca	-0.1679832
49	0xb90a66f4	-0.00013199059
50	0x3d8d405a	0.0689704
51	0x3d51c297	0.051210966
52	0xbdd87ab2	-0.10570277
53	0x3d90f107	0.07077222
54	0xbddaa85e	-0.10676645
55	0xbcf2e9ec	-0.029652558
56	0xbe8dc17d	-0.27686682
57	0x3c418bdf	0.011813133
58	0xbc00182d	-0.007818264
59	0xbe843686	-0.25822848
60	0xbe92f81f	-0.28704926
61	0xbda80bce	-0.082053766
62	0xbe324b3f	-0.17411517
63	0xbdfa05cc	-0.12208137
64	0xbe0b8658	-0.13625467
65	0xbe1818d4	-0.14853221
66	0xbe4d24b5	-0.20033534
67	0xbb31ffed	-0.00271606
68	0xbcf1a3bd	-0.029497022
69	0x3d41adb5	0.0472848
70	0xbe1bbc7d	-0.15208621
71	0x3aedabf7	0.0018132915
72	0x3f25ef1e	0.6481799
73	0x3edfc182	0.43702322
74	0x3eb147d1	0.34625104
75	0x3f067bd2	0.52532685
76	0x3ea81283	0.32826623
77	0x3ef4d81d	0.4782113
78	0x3ecb3545	0.3968908
79	0x3f03c90d	0.51478654
80	0x3efa706a	0.4891389
81	0xbdf35f6b	-0.11883434
82	0x3dc38a1d	0.095478274
83	0x3d44c37e	0.048038
84	0xbd94d88b	-0.07267865
85	0xbe332c93	-0.17497472
86	0x3de8bc67	0.1136406
87	0xbda96a7a	-0.08272262
88	0xbbcf0fe3	-0.0063190325
89	0xbdf6668d	-0.12031279
90	0xbdb43b80	-0.08800411
91	0xbd796f1a	-0.06089697
92	0xbd761f13	-0.06008823
93	0xbd9214f2	-0.07132901
94	0x3d8a8a0e	0.06764613
95	0x3d988337	0.07446902
96	0xbde02b4d	-0.10945759
97	0xbdfb5894	-0.12272754
98	0xbe1ea670	-0.15493178
99	0x3d5891dc	0.052873477
100	0x3d330628	0.043707043
101	0x3d8ef53d	0.06980369
102	0xbdf545ec	-0.11976227
103	0xbd970be0	-0.07375312
104	0xbd83d142	-0.06436397
105	0xbd934750	-0.07191336
106	0x3c9c6931	0.019093128
107	0xbd9dde8a	-0.077084616
108	0xbc9336f8	-0.017970547
109	0xbd079a39	-0.033106063
110	0xbc03bb96	-0.008040329
111	0x3d8af6bd	0.06785343
112	0x3cc6c289	0.024262683
113	0x3d9f102a	0.07766755
114	0x3d0e2616	0.03470429
115	0xbe07f0ec	-0.13275498
116	0xbd480f97	-0.048842993
117	0x39a59665	0.00031583305
118	0xbe18bfcf	-0.14916919
119	0xbda963d2	-0.08270992
120	0xbe18d985	-0.14926727
121	0xbe0264ca	-0.1273376
122	0x3d6acaf3	0.057322454
123	0xbdbe61d4	-0.09296003
124	0xbdbd270c	-0.09235963
125	0xbe0c738e	-0.13715956
126	0xbd7a3b3a	-0.06109164
127	0xbd93334f	-0.07187521
128	0xbc2c2eb2	-0.01050918
129	0xbd12ee9b	-0.035872083
130	0x3dac6266	0.084172055
131	0xbc3cdbb4	-0.011526991
132	0xbd3644f2	-0.044499345
133	0xbc8b0f76	-0.016975146
134	0x3d1cc99d	0.03827821
135	0xbdd58ed5	-0.10427634
136	0xbdf218ec	-0.1182116
137	0xbe35fad8	-0.1777147
138	0x3e24d147	0.16095458
139	0xbd6725d5	-0.056432564
140	0xbe884e63	-0.26622304
141	0x3e2e9808	0.17050183
142	0xbd8bb34c	-0.068213075
143	0xbc1199b2	-0.0088867415
144	0x3f0f7702	0.56040967
145	0x3e195047	0.1497203
146	0xbe1357f8	-0.14389026
147	0x3f3077ae	0.68932617
148	0x3e81c3ab	0.25344595
149	0xbcbdc660	-0.023165882
150	0x3ef79a2a	0.48359805
151	0x3e3d863a	0.18508235
152	0x3e1efc44	0.15525919
153	0xbd6d4651	-0.057928387
154	0xbe5160a2	-0.20447019
155	0xbe8e9adc	-0.27852523
156	0xbe590a34	-0.21195298
157	0xbdaf9515	-0.08573357
158	0xbe957a39	-0.2919481
159	0x3d9e833d	0.077398755
160	0xbe6b3f5c	-0.22973388
161	0xbea8d280	-0.329731
162	0xbe4ababe	-0.19797799
163	0xbe2e66cf	-0.17031406
164	0xbe4652d9	-0.19367541
165	0x3d444dcb	0.04792575
166	0xbdcc7596	-0.09983365
167	0xbe0b32f2	-0.13593653
168	0xbd1e2d29	-0.038617287
169	0xbde74b3a	-0.11293645
170	0xbddb0136	-0.1069359
171	0xbe5bbafd	-0.21458049
172	0xbe3a766e	-0.1820924
173	0xbe7d614f	-0.24744152
174	0xbcdb52da	-0.026772905
175	0xbe5fe10f	-0.21863197
176	0xbe2abe6a	-0.166742
177	0x3d2cb0fd	0.042160977
178	0xbd82dfd4	-0.06390348
179	0xbe6e183d	-0.23251434
180	0xbe2d8d4b	-0.1694843
181	0xbe2e8ae4	-0.1704517
182	0xbe7edb69	-0.24888386
183	0xbb7f6ee0	-0.0038975999
184	0xbdd53842	-0.10411121
185	0xbe3f9ef9	-0.18712987
186	0xbe28e1ec	-0.16492432
187	0xbe774a65	-0.24149473
188	0xbe078114	-0.13232833
189	0xbd9b38ac	-0.07579169
190	0xbe8c5e2b	-0.27415594
191	0xbd5af62a	-0.053457417
192	0xbe0392a1	-0.12848903
193	0x3d8ffb11	0.07030309
194	0xbe9ad0cd	-0.30237427
195	0xbd8a9304	-0.06766322
196	0x3da72bb1	0.0816263
197	0xbe72536f	-0.2366464
198	0x3d8adffa	0.067810014
199	0xbe29a789	-0.16567816
200	0xbdf59509	-0.11991317
201	0x3dddc93c	0.10829398
202	0x3defbdf4	0.117061526
203	0xbe29407e	-0.16528508
204	0x3e3b28c2	0.18277267
205	0x3d50fd71	0.05102295
206	0xbd7b38cd	-0.061333466
207	0xbe168e71	-0.14702775
208	0x3d86b414	0.06577316
209	0xbdf738b3	-0.120713614
210	0xbd00a9ed	-0.031412054
211	0xbdda58cc	-0.10661468
212	0xbe94cde2	-0.29063326
213	0xbe8cf1bb	-0.27528176
214	0xbe91355c	-0.28361022
215	0xbdfff014	-0.12496963

down_path.0.block.0.bias f4 [8]
0	0x3e022b2a	0.12711778
1	0xbe0cf4d1	-0.13765265
2	0x3db504bd	0.088387944
3	0xbe0130cf	-0.12616275
4	0xbe1c947d	-0.15291019
5	0x3dfe73bd	0.12424419
6	0x3d34b9a2	0.044122346
7	0x3ea45011	0.32092336

down_path.0.block.2.weight f4 [8]
0	0x3f923432	1.1422179
1	0x3eafbf98	0.34325862
2	0x3fa11281	1.2583772
3	0xb235cf46	-1.0582715e-08
4	0x3411db9e	1.3584074e-07
5	0x3f9836d4	1.1891732
6	0x3ef137a3	0.4711276
7	0x3ed8da61	0.4235411

down_path.0.block.2.bias f4 [8]
0	0xbec82143	-0.39087877
1	0x3e32a45c	0.1744551
2	0x3e1a9cf3	0.15098934
3	0x3b72dab8	0.0037056636
4	0x3c8d51f8	0.017251
5	0x3ef96297	0.4870803
6	0x3d812bb9	0.063071676
7	0x3eb16888	0.34650064

down_path.0.block.2.running_mean f4 [8]
0	0x3e807b21	0.2509394
1	0x2c88454e	3.873047e-12
2	0x3f409b89	0.7523733
3	0x1f8e88d4	6.03657e-20
4	0x14411e0b	9.749935e-27
5	0x3ea471ee	0.3211817
6	0x2ea3a502	7.441693e-11
7	0x3cbda40f	0.023149518

down_path.0.block.2.running_var f4 [8]
0	0x3cec6df0	0.028861016
1	0x28d88892	2.4040045e-14
2	0x3e69c9d0	0.22830892
3	0x1c823711	8.616913e-22
4	0x1156fa57	1.6958765e-28
5	0x3c6171f0	0.013760075
6	0x2b278500	5.9514893e-13
7	0x3b3524c7	0.002764033

down_path.0.block.3.weight f4 [8, 8, 3, 3]
0	0xbea506e6	-0.32231826
1	0xbf2657e1	-0.6497784
2	0xbf4ac909	-0.79213005
3	0xbdf919f3	-0.121631525
4	0xbed94e0f	-0.42442366
5	0xbf3e63dd	-0.7437113
6	0xbe072463	-0.13197474
7	0xbec85c3f	-0.39132878
8	0xbf4549f1	-0.7706595
9	0x3e44c769	0.19216694
10	0x3e29615d	0.16541047
11	0x3e23ac64	0.1598373
12	0x3da1ba9f	0.07896923
13	0x3e40e584	0.18837553
14	0x3dfcd4de	0.12345289
15	0x3e1c97e1	0.15292312
16	0x3e254be6	0.16142234
17	0x3e1a7dfc	0.15087122
18	0x3f674cc1	0.9035149
19	0x3f21a142	0.63136685
20	0x3ea1e8f6	0.31623048
21	0x3f7aaa2f	0.9791593
22	0x3f0d8b68	0.5529084
23	0x3e5ee5dd	0.21767373
24	0x3f6b1d40	0.91841507
25	0x3f344050	0.70410633
26	0x3ececdab	0.40391287
27	0xba7db443	-0.0009678045
28	0xba7bceeb	-0.00096057233
29	0xba879bb5	-0.0010346087
30	0xba2785b6	-0.0006390469
31	0xba0a0305	-0.0005264732
32	0xba349d8a	-0.000688993
33	0xb9b6a4e5	-0.000348366
34	0xb9703288	-0.00022907008
35	0xb9aef8b6	-0.0003337317
36	0xbbcd630c	-0.006267911
37	0xbbe7d54e	-0.0070749884
38	0xbb56946a	-0.003274227
39	0x3caf846d	0.02142545
40	0x3cfced82	0.030874971
41	0x3d1a968d	0.037741233
42	0xbaeb2631	-0.0017940459
43	0xbb5c4c30	-0.0033614747
44	0xbb076a89	-0.0020662865
45	0x3dc05885	0.09391884
46	0x3db98667	0.09058838
47	0xbde856e2	-0.113446966
48	0x3dc14d81	0.09438611
49	0x3ea5c4e1	0.3237677
50	0xbd4d8319	-0.050173853
51	0x3e0070da	0.1254305
52	0x3d44611c	0.047944173
53	0xbd948e16	-0.07253663
54	0x3ddd0806	0.10792546
55	0x3deb845d	0.11499856
56	0x3dabfd35	0.08397905
57	0x3e654ca6	0.2239252
58	0x3e5c2041	0.21496679
59	0x3e46b39a	0.1940445
60	0x3e07bf51	0.13256575
61	0x3daff645	0.08591894
62	0x3d91b6fe	0.07114981
63	0x3e0d90c8	0.13824761
64	0x3e861289	0.26186016
65	0x3e77f6c9	0.24215235
66	0x3dd50cd0	0.104028344
67	0x3e61e983	0.22061734
68	0x3ea03a97	0.312947
69	0x3de13ace	0.10997544
70	0x3e82f79a	0.2557953
71	0x3e8a1820	0.2697153
72	0xbed75458	-0.42056537
73	0xbf1126a4	-0.56699586
74	0xbed5db31	-0.41768792
75	0xbed9464d	-0.42436448
76	0xbf01c25c	-0.50687194
77	0xbeb906ab	-0.361379
78	0xbedf8dc2	-0.4366284
79	0xbf06c26b	-0.5264041
80	0xbee82158	-0.4533794
81	0x3e8e2d5d	0.27768984
82	0x3e8d6e85	0.27623382
83	0x3e9718ff	0.29511258
84	0x3ea25d10	0.31711626
85	0x3e80d26e	0.25160545
86	0x3eac3fd6	0.33642453
87	0x3ec2a87c	0.38019168
88	0x3e977ad2	0.29585892
89	0x3e9358bf	0.28778645
90	0x3de049e3	0.10951593
91	0xbe008ec2	-0.12554458
92	0x3d6b3eea	0.057433046
93	0x3d3b9052	0.04579193
94	0xbd011a77	-0.03151938
95	0x3d7bde61	0.061491374
96	0xbd5a4650	-0.05328971
97	0xbe02e5f6	-0.12783036
98	0xbded3203	-0.115818046
99	0x3bb59386	0.005541268
100	0x3b897d0f	0.0041958163
101	0x3c20aa1c	0.009806182
102	0xbab60b2d	-0.0013888829
103	0x39cbad5d	0.00038848343
104	0x3c0c8a61	0.008577914
105	0x3bc3387d	0.0059576617
106	0x3c30711a	0.010769153
107	0x3b7bc097	0.0038414353
108	0x3cc9b515	0.02462248
109	0x3cc83572	0.024439547
110	0x3cb89eb7	0.022536619
111	0x3cc96e85	0.024588833
112	0x3cd9bd6b	0.02657958
113	0x3ccf986a	0.025341231
114	0x3ccad6e7	0.024760677
115	0x3ccb19de	0.024792608
116	0x3cc08577	0.023501141
117	0x3ef4c8c3	0.4780942
118	0x3f2f709f	0.6853122
119	0x3ea59792	0.323422
120	0x3f0a3790	0.5399103
121	0x3f1c75c3	0.6111719
122	0x3dec2128	0.115297616
123	0x3f06187e	0.5238112
124	0x3f183f43	0.5947153
125	0x3e1d1a8b	0.15342157
126	0xbddd02e6	-0.107915685
127	0xbbb8c6b8	-0.0056389235
128	0x3dfb22ec	0.1226252
129	0xbd0ef748	-0.034903795
130	0x3c2b8e94	0.010471005
131	0x3e30373d	0.17208572
132	0xbd655664	-0.05599059
133	0x3d2417a9	0.040061627
134	0x3e4b2950	0.19839978
135	0xbdaf94ef	-0.08573329
136	0x3dad2ef6	0.08456223
137	0x3e20e4de	0.15712306
138	0xbcad5663	-0.021159356
139	0x3aeeec8f	0.0018228459
140	0x3e022289	0.12708487
141	0xba1377df	-0.0005625467
142	0xbd77de84	-0.06051494
143	0x3e46530e	0.1936762
144	0x3da4d75b	0.08048888
145	0x3d8c2105	0.068422355
146	0xbd9b64a6	-0.075875565
147	0xbca4fd29	-0.020140247
148	0xbdce8c26	-0.10085325
149	0xbd2206bd	-0.039557207
150	0xbd3a54e5	-0.045491118
151	0xbdd598ce	-0.10429536
152	0x3d54e77f	0.051978584
153	0xbc98d128	-0.018654421
154	0xbbfec151	-0.00777451
155	0x3d5e5279	0.05427787
156	0x3d810073	0.06298914
157	0x3c00591b	0.007833744
158	0x3db7f88b	0.08982953
159	0xbc76321f	-0.015026598
160	0x3db460f3	0.08807554
161	0x3db76cb1	0.08956278
162	0x3e44a505	0.19203575
163	0x3ec0468f	0.37553832
164	0x3ef39949	0.47577885
165	0x3e9277ac	0.28606927
166	0x3ecc8a78	0.39949393
167	0x3e6bbf16	0.23022112
168	0x3e3b7e82	0.18309978
169	0x3e56a5c1	0.20961668
170	0x3e88e230	0.26735067
171	0xbbd44566	-0.0064779995
172	0xbbd7cde1	-0.006585822
173	0xbb7191cd	-0.0036860586
174	0xbb39c51e	-0.002834625
175	0xb9d06cc8	-0.000397539
176	0xbb9e7761	-0.0048360084
177	0xbb8bca2c	-0.004266044
178	0xbaf7711e	-0.0018878316
179	0xbb7606b5	-0.0037540619
180	0xbd83e7ef	-0.06440722
181	0x3a94df34	0.0011358024
182	0x3d04c1aa	0.032411255
183	0x3c97ca3d	0.018529052
184	0x3cc69efb	0.02424573
185	0x3c0bcee0	0.00853321
186	0xbc8950c3	-0.016762143
187	0xbd17b616	-0.037038885
188	0xbcec091c	-0.028812937
189	0xbec806d5	-0.39067712
190	0xbec609eb	-0.38679442
191	0xbe9bad48	-0.3040564
192	0xbea256cf	-0.31706855
193	0xbe95afd2	-0.29235703
194	0xbeb55b74	-0.35421336
195	0xbed9a82e	-0.42511123
196	0xbee996b2	-0.45622784
197	0xbe8c845d	-0.27444735
198	0xbd9ed32a	-0.0775512
199	0xbc4965c1	-0.012292326
200	0xbd5b2a49	-0.053507123
201	0xbd4fe7dd	-0.05075823
202	0xbdcb57c3	-0.099288486
203	0xbd14cdfd	-0.03632926
204	0x3d4f2e62	0.050581343
205	0xbd7726b7	-0.060339656
206	0xbd44e2fd	-0.048068035
207	0x3dab4aec	0.083638996
208	0x3b11a14f	0.0022221392
209	0xbe2feba7	-0.17179738
210	0x3d8897bf	0.06669568
211	0x3e09e62b	0.13466708
212	0xbdaeb3db	-0.085303985
213	0x3e36fc3c	0.17869657
214	0x3db3362c	0.08750567
215	0xbe06f80c	-0.1318056
216	0x3da41c0a	0.080131605
217	0x3dfe0229	0.12402756
218	0x3e2bee6c	0.1679017
219	0x3e117560	0.14204931
220	0x3e39cf7c	0.18145555
221	0x3d9623ce	0.07331048
222	0x3e0e7fba	0.13915911
223	0x3dc055ac	0.093913406
224	0x3e0c2b8e	0.1368849
225	0xbdde16ca	-0.108441904
226	0xbda50bb3	-0.08058872
227	0xbd5e6cad	-0.05430286
228	0xbe0fccaa	-0.14042917
229	0xbd8dacc6	-0.069177195
230	0xbd916002	-0.0709839
231	0xbe3d3dee	-0.18480656
232	0xbdf2a195	-0.118472256
233	0xbe04caab	-0.12967937
234	0x3eae40bf	0.34033772
235	0x3eb938cd	0.36176148
236	0x3ecbd49e	0.39810652
237	0x3e5a9983	0.21347623
238	0x3e3f1a0f	0.18662284
239	0x3e46e087	0.19421588
240	0x3e115c1c	0.14195293
241	0x3e98111e	0.2970056
242	0x3e91c7f9	0.2847288
243	0x3c52b486	0.012860423
244	0x3c63abb3	0.013895917
245	0x3c69a005	0.014259343
246	0x3c3bf13c	0.011471089
247	0x3c4e6e43	0.012599531
248	0x3c5a2128	0.013313569
249	0x3c489675	0.012242903
250	0x3c51fd38	0.01281672
251	0x3c5a378d	0.013318908
252	0x3d77a6a5	0.06046166
253	0x3d7304d2	0.05933077
254	0x3d66db8a	0.056361713
255	0x3b89d7db	0.00420664

down_path.0.block.3.bias f4 [8]
0	0x3e922b3d	0.28548613
1	0x3e9d0ede	0.30675405
2	0xbc8f65c9	-0.01750459
3	0xbe18c9ec	-0.14920777
4	0xbacba7a9	-0.0015537638
5	0xbe37fb1a	-0.17966881
6	0xbd9b0a81	-0.07570363
7	0x3d34ca41	0.044138197

down_path.0.block.5.weight f4 [8]
0	0x3f984733	1.1896728
1	0x400be791	2.1860087
2	0x3f6a6eca	0.915753
3	0x3f437005	0.76342803
4	0x3f6d99aa	0.928126
5	0x3f27c3d3	0.6553318
6	0x3f948148	1.1601954
7	0x3e5c272a	0.21499315

down_path.0.block.5.bias f4 [8]
0	0x3f296677	0.66171974
1	0x3d6cf8a6	0.057854317
2	0xbe8a1bc3	-0.26974306
3	0xbe9ca261	-0.30592635
4	0x3e4b67b5	0.1986378
5	0x3eb1ab4c	0.34701002
6	0xbe29a729	-0.16567673
7	0x3f2a7d45	0.66597396

down_path.0.block.5.running_mean f4 [8]
0	0x408ccae0	4.399765
1	0x409f367f	4.9754024
2	0x3f1c1099	0.60962826
3	0x3f17c361	0.592825
4	0x3fbf19f5	1.4929796
5	0x3fb38644	1.402535
6	0x407ad22f	3.9190786
7	0x3f89d4f5	1.0768114

down_path.0.block.5.running_var f4 [8]
0	0x4178525f	15.52011
1	0x41667c09	14.405282
2	0x4006c9f2	2.1060758
3	0x40840e52	4.126748
4	0x415d0869	13.814553
5	0x4108be3c	8.546444
6	0x414b9090	12.722794
7	0x3fa65021	1.2993203

down_path.1.block.0.weight f4 [16, 8, 3, 3]
0	0x3babade8	0.005239237
1	0x3d813990	0.06309807
2	0x3e14aae3	0.14518313
3	0xbdc6f94f	-0.097155206
4	0x3d2a123b	0.041521292
5	0x3dac1de7	0.08404141
6	0xbd9a582c	-0.07536349
7	0x3c7ab278	0.015301339
8	0x3d078e28	0.033094555
9	0x3c4b18af	0.012396022
10	0xbe46f7d8	-0.19430482
11	0xbca886d0	-0.020572096
12	0x3e0f57fb	0.13998406
13	0x3afd87c2	0.0019342827
14	0x3d4f16a8	0.050558716
15	0x3e4de8a6	0.2010828
16	0x3dfcd82e	0.123459205
17	0x3e845560	0.25846386
18	0x3e6a4568	0.22878039
19	0x3ea8dd85	0.32981506
20	0x3e8e28e0	0.2776556
21	0x3df558d6	0.11979835
22	0x3e81ab17	0.25325844
23	0x3e619f0e	0.22033331
24	0x3e0e4b90	0.13896012
25	0x3e433566	0.19063339
26	0x3e0b8273	0.13623981
27	0x3e9ce203	0.30641183
28	0x3eb1ded0	0.34740305
29	0x3ec889c3	0.39167604
30	0x3e610792	0.21975544
31	0x3ea39cce	0.3195557
32	0x3eb72866	0.3577301
33	0x3e886461	0.26639083
34	0x3ea32c21	0.31869605
35	0x3ea03b2d	0.31295148
36	0xbc913263	-0.017724222
37	0x3d0dcbed	0.034618307
38	0x3e00548f	0.12532257
39	0xbd9b13f1	-0.07572163
40	0xbb4459a7	-0.0029960664
41	0x3d7cf41f	0.06175625
42	0xbdb77cf6	-0.08959381
43	0xbba645be	-0.005074232
44	0x3c97e5f0	0.01854226
45	0xbe25e54b	-0.1620075
46	0xbe050a11	-0.12992121
47	0xbc5a873f	-0.013337909
48	0xbe171aef	-0.14756368
49	0xbdeb5c9b	-0.114922725
50	0xbdb2984e	-0.08720456
51	0xbdf78829	-0.12086517
52	0xbdeed5e1	-0.11661888
53	0xbd26f5cf	-0.040761765
54	0x3e047073	0.12933521
55	0xbd502742	-0.05081869
56	0xbdc829b7	-0.097735815
57	0x3d85a728	0.06526023
58	0xbd2db7ce	-0.042411618
59	0xbdea2dbd	-0.11434505
60	0x3e05511a	0.13019219
61	0x3de7d654	0.11320177
62	0xbc589a61	-0.013220401
63	0xbe21b4a3	-0.15791564
64	0xbd8e9c18	-0.06963366
65	0xbd8f1e0e	-0.06988154
66	0xbe344478	-0.17604244
67	0xbd82835d	-0.06372712
68	0xbdf1327c	-0.11777207
69	0xbe1b9e5d	-0.1519713
70	0xbdb66b7e	-0.08907221
71	0xbdcf9572	-0.10135926
72	0x3d924dba	0.071437314
73	0xbd1e7753	-0.038688015
74	0xbbafaeaa	-0.0053613978
75	0xbe6b32c6	-0.22968587
76	0xbe7a1611	-0.2442248
77	0xbe0858ac	-0.13315076
78	0xbea43d56	-0.32078046
79	0xbe96840f	-0.29397628
80	0xbe1d67d0	-0.15371633
81	0x3eeda242	0.46412855
82	0x3ecc001a	0.39843827
83	0x3edc6ec4	0.43053257
84	0xbeb7325b	-0.35780606
85	0xbec1bf56	-0.3784129
86	0xbd868e57	-0.06570118
87	0xbf6e1052	-0.9299365
88	0xbf4ce82c	-0.80041766
89	0xbe8d54a7	-0.27603647
90	0xbe26850a	-0.16261688
91	0xbe324f66	-0.174131
92	0xbe86228b	-0.2619823
93	0xbd61c36b	-0.055118006
94	0xbe1dccf5	-0.15410216
95	0xbe6c7029	-0.2308966
96	0xbe058f60	-0.13042974
97	0xbe65a56d	-0.22426386
98	0xbe9663fc	-0.29373157
99	0xbd954d6a	-0.07290156
100	0xbe3458cf	-0.17612003
101	0xbe1ba159	-0.15198268
102	0xbdec7cf1	-0.11547268
103	0xbe67c5e3	-0.22634082
104	0xbe5aae15	-0.2135547
105	0xbdf8cdae	-0.12148605
106	0xbe9b145b	-0.30288967
107	0xbe999979	-0.29999903
108	0xbd2f870d	-0.042853404
109	0xbe0b703d	-0.13617034
110	0xbdeedc3b	-0.116630994
111	0xbe182333	-0.14857177
112	0xbe09e58a	-0.13466468
113	0xbdee1f36	-0.11627047
114	0xbe846215	-0.2585608
115	0xbe6e4383	-0.23267941
116	0xbe765843	-0.24057107
117	0xbe1de49d	-0.1541924
118	0xbe1097b8	-0.14120376
119	0xbe3c4a24	-0.18387657
120	0xbe947df9	-0.2900236
121	0xbe8db175	-0.2767445
122	0xbe889aca	-0.26680595
123	0xbec2c1dd	-0.3803853
124	0xbeb3eb82	-0.35140616
125	0xbea03019	-0.31286696
126	0xbe634fcd	-0.2219841
127	0xbdb6efc6	-0.08932452
128	0xbe396e69	-0.18108524
129	0xbe8233f5	-0.25430265
130	0xbe3f881a	-0.18704262
131	0xbde3fc2a	-0.11132081
132	0xbe641ea0	-0.22277308
133	0xbe74577a	-0.23861495
134	0xbe12bdd1	-0.14330222
135	0x3dcdd434	0.1005024
136	0x3dc44184	0.095828086
137	0x3cc56954	0.024098076
138	0x3d60cdbe	0.05488371
139	0x3cfa7c43	0.03057683
140	0x3d57d71b	0.052695375
141	0x3e319bd3	0.17344598
142	0x3ddaeb65	0.10689429
143	0x3dd1b8ea	0.10240348
144	0x3e04a431	0.12953259
145	0x3dd4d852	0.10392822
146	0x3e0bf7d2	0.13668755
147	0x3dc5ba28	0.09654647
148	0x3db3529b	0.0875599
149	0xba4b117f	-0.00077464426
150	0x3d7c58f4	0.06160827
151	0x3d052488	0.032505542
152	0x3d18edbc	0.037336096
153	0x3ea7df3d	0.32787505
154	0x3effe61a	0.4998024
155	0xbf03e178	-0.51515913
156	0x3f4e74ed	0.80647165
157	0x3f70cbef	0.9406118
158	0xbe90a2e4	-0.28249276
159	0x3f6cc34a	0.9248549
160	0x3f966227	1.1748704
161	0x3d93ccea	0.07216819
162	0xbe48337e	-0.19550893
163	0xbe7a2c0d	-0.24430867
164	0x3a98b52a	0.0011650671
165	0xbe589061	-0.21148826
166	0xbe937fc2	-0.2880841
167	0x3da4b615	0.08042542
168	0xbe838516	-0.25687474
169	0xbe594f2a	-0.21221605
170	0x3d995619	0.07487125
171	0xbe8e1bd9	-0.2775562
172	0xbe80c3fd	-0.25149527
173	0xbded06d5	-0.11573569
174	0xbe9b3136	-0.30310982
175	0xbe86463f	-0.2622547
176	0xbdb4047b	-0.08789917
177	0xbe96ff57	-0.29491684
178	0xbe939297	-0.28822777
179	0xbd8cfa6d	-0.068837024
180	0x3d64d4b5	0.055866916
181	0x3dc19b7e	0.09453486
182	0x3db678a9	0.08909733
183	0x3d3e7cf5	0.046505887
184	0xbcfb8936	-0.030705076
185	0x3d1761f8	0.036958665
186	0x3db8299e	0.08992313
187	0x3db976b0	0.09055841
188	0x3ced70e6	0.028984498
189	0x3e6820ce	0.22668764
190	0x3e10eb5b	0.14152281
191	0x3df30498	0.118661106
192	0x3e622a6f	0.220865
193	0x3e2b22af	0.1671245
194	0x3bfcf3f7	0.0077195126
195	0x3e8147a7	0.2524998
196	0x3e1d5329	0.15363754
197	0x3e012c84	0.12614638
198	0xbe0157f4	-0.12631208
199	0x3c2c5e61	0.010520549
200	0xbdade431	-0.0849079
201	0x3b3b074d	0.0028538287
202	0x3da73438	0.08164257
203	0xbddf5a66	-0.10905914
204	0x3d109ff1	0.035308782
205	0x3e053803	0.13009648
206	0x3dbec082	0.09314062
207	0x3de49c68	0.111626446
208	0x3d5592ec	0.05214207
209	0x3d9cc4bf	0.07654714
210	0x3d510c09	0.05103687
211	0xbcde3ea3	-0.027129477
212	0x3d77e82f	0.060524162
213	0x3db6106e	0.088898525
214	0x3d7943bc	0.060855612
215	0x3d2e914d	0.04261904
216	0x3e48797f	0.19577597
217	0x3e5941d2	0.21216515
218	0x3e89745f	0.26846597
219	0x3e5d7bbb	0.2162923
220	0x3dd81a70	0.105519176
221	0x3e72da30	0.23716044
222	0x3c028d22	0.007968219
223	0xbc071779	-0.008245342
224	0x3ce22dae	0.027609672
225	0x3f5e7d5f	0.8691005
226	0xbea07381	-0.31338122
227	0xbf9466de	-1.1593893
228	0x3f11bf43	0.5693247
229	0xbe1b9ed7	-0.15197311
230	0xbf347a11	-0.7049876
231	0x3f59d9eb	0.8509814
232	0xbdafa108	-0.08575636
233	0xbf7363e7	-0.95074314
234	0xbf1bdab6	-0.608806
235	0x3e2f4fd1	0.17120291
236	0x3ebdba1a	0.37056047
237	0xbf179e50	-0.5922594
238	0x3dbcd611	0.092205174
239	0x3e291eff	0.1651573
240	0xbf07b20c	-0.5300605
241	0x3cc9af74	0.024619795
242	0x3e9358df	0.2877874
243	0xbd9d5d79	-0.07683844
244	0x3de392ae	0.11111961
245	0x3e95763c	0.29191768
246	0xbde653ce	-0.11246453
247	0x3d20bb43	0.039241087
248	0x3e2a9633	0.16658859
249	0xbe29052f	-0.16505884
250	0x3be16604	0.0068786163
251	0x3e8c3f08	0.2739184
252	0x3ce2a097	0.027664466
253	0x3d431f95	0.04763754
254	0x3d8e2a10	0.069416165
255	0x3db30715	0.08741585

down_path.1.block.0.bias f4 [16]
0	0xbed041d6	-0.4067523
1	0x3e1bc718	0.15212667
2	0x3e9cb0fa	0.30603772
3	0xbd99088d	-0.07472334
4	0xbed493ff	-0.41519162
5	0xbdb1caa5	-0.086812295
6	0xbf149ec7	-0.58054775
7	0x3cf48c79	0.029852139
8	0x3d123246	0.035692476
9	0xbdbea3eb	-0.093086086
10	0x3e2513d4	0.16120845
11	0xbe966f72	-0.293819
12	0x3ebe85c5	0.37211433
13	0x3e95dfbb	0.29272255
14	0xbd8b5839	-0.068039365
15	0xbf4ba506	-0.7954868

down_path.1.block.2.weight f4 [16]
0	0x3e8454dd	0.25845996
1	0x3f1fdf35	0.6244996
2	0x3f7477ad	0.9549511
3	0x3fc592c2	1.5435412
4	0x3eaddc54	0.3395716
5	0x3e9df1d5	0.30848566
6	0x3ea68227	0.32521173
7	0x3f53fa78	0.8280406
8	0x3f19e5c2	0.6011621
9	0x3f251ed9	0.64500195
10	0x3e17b07d	0.14813419
11	0x3f1ebdeb	0.6200854
12	0x40241dac	2.564311
13	0x3f697922	0.9120046
14	0x3f01d051	0.5070849
15	0x3f7a653e	0.97810733

down_path.1.block.2.bias f4 [16]
0	0x3eb9cd26	0.36289328
1	0x3f2eacf2	0.68232644
2	0x3e7e3026	0.24823055
3	0xbf2ee6d1	-0.6832095
4	0xbc962082	-0.018326048
5	0x3f044c67	0.5167908
6	0x3e26a186	0.16272554
7	0xbf3e5252	-0.7434436
8	0xbe28dd49	-0.16490664
9	0xbe40934a	-0.18806186
10	0xbf000431	-0.50006396
11	0x3ed471ae	0.4149298
12	0x3cf45bba	0.029828895
13	0x3e9da2e3	0.30788335
14	0xbe37266f	-0.17885755
15	0x3dc7311e	0.09726165

down_path.1.block.2.running_mean f4 [16]
0	0x3f27adcd	0.65499574
1	0x3fcdfb0d	1.609224
2	0x40a42c70	5.1304245
3	0x400c32f9	2.1906111
4	0x3f4e73a7	0.8064522
5	0x4005491f	2.082588
6	0x3fcb8969	1.5901309
7	0x4054efe2	3.3271413
8	0x4053f81c	3.3120184
9	0x3ea5a0d3	0.32349262
10	0x401df542	2.4680943
11	0x3f79df92	0.97606766
12	0x4096e0eb	4.714956
13	0x3ff6e646	1.9289024
14	0x4080e19c	4.02754
15	0x3f1f5bbb	0.62249345

down_path.1.block.2.running_var f4 [16]
0	0x40c31357	6.096111
1	0x40498e22	3.1493
2	0x4295148b	74.54012
3	0x418c0cf0	17.506317
4	0x40b13210	5.537361
5	0x41847d7a	16.561268
6	0x41aa2272	21.266819
7	0x41c5fd21	24.748598
8	0x41e9e5ab	29.237143
9	0x3fe0c6e7	1.75607
10	0x41588482	13.532351
11	0x41412df4	12.073719
12	0x4194b423	18.587957
13	0x41009572	8.036486
14	0x4210eccd	36.23125
15	0x40818767	4.0477786

down_path.1.block.3.weight f4 [16, 16, 3, 3]
0	0xbc520edf	-0.012820928
1	0xbd087dc2	-0.033323057
2	0x3d425a08	0.04744914
3	0xbd87cb41	-0.066305645
4	0xbd88fb4d	-0.06688557
5	0xbb5df5a6	-0.0033868342
6	0xbd454aed	-0.048167158
7	0xbd393479	-0.045216057
8	0x3b746383	0.003729076
9	0xbe4f008f	-0.20215057
10	0xbeb5ea66	-0.35530394
11	0x3dd89e76	0.10577099
12	0xbdd2e4f7	-0.10297578
13	0xbe292ae4	-0.16520268
14	0x3dcc1295	0.09964482
15	0xbdf3f175	-0.11911289
16	0xbda25135	-0.07925645
17	0x3d2ecc9f	0.04267561
18	0x3bbd8daa	0.00578471
19	0x3e936626	0.2878887
20	0xbed0ddf4	-0.40794337
21	0xbe82e0f9	-0.25562266
22	0x3df3174c	0.11869678
23	0xbed5cf0c	-0.41759527
24	0xbe23633e	-0.15955827
25	0x3e0bb9ed	0.13645144
26	0xbe9ab497	-0.30215904
27	0xbf3220fc	-0.6958158
28	0x3e4b91af	0.19879793
29	0x3eefa91f	0.46808717
30	0xbf1e4f86	-0.61840093
31	0x3e069154	0.13141376
32	0x3e98fe7d	0.2988166
33	0xbeeaea1b	-0.45881733
34	0x3e65c00b	0.2243654
35	0x3e9ca6d4	0.3059603
36	0xbd93bbc9	-0.072135516
37	0xbc203de5	-0.009780382
38	0x3d0836a7	0.033255246
39	0xbd2520e9	-0.04031459
40	0xbd386006	-0.04501345
41	0xbc749106	-0.014927154
42	0xbbf1bf29	-0.0073775244
43	0xbb64b0a3	-0.0034895323
44	0x3bfee7e3	0.007779108
45	0xbd8ed6d7	-0.06974571
46	0xbdfde56f	-0.123972766
47	0xbe087065	-0.13324125
48	0xbe11591c	-0.14194149
49	0xbe19050d	-0.14943333
50	0xbe090568	-0.13380969
51	0xbdfd6ab4	-0.12373868
52	0xbe0ceff7	-0.13763414
53	0xbdc161e9	-0.09442503
54	0x3da81099	0.08206291
55	0x3b3783d6	0.0028002164
56	0x3db2293c	0.08699271
57	0x3d84364d	0.064556696
58	0x3c07ad0f	0.0082810065
59	0x3d2b0f2b	0.041762512
60	0x3d9dd6ba	0.077069715
61	0x3d1114c6	0.0354202
62	0x3d86ce83	0.06582358
63	0xbe1c5db1	-0.15270115
64	0x3e5d52ce	0.21613619
65	0x3bb9b150	0.0056668893
66	0xbe095610	-0.13411736
67	0x3e3a6a71	0.18204667
68	0xbc7c2a6d	-0.0153909745
69	0x3d4ff847	0.050773885
70	0x3eb0a722	0.34502512
71	0x3e321b4a	0.17393222
72	0x3dbc03c6	0.09180407
73	0xbc7890a5	-0.015171205
74	0xbe8aa2d1	-0.27077344
75	0xbda20b52	-0.079123154
76	0xbe0b1651	-0.13582732
77	0xbea915f1	-0.33024552
78	0x3d182d4f	0.037152585
79	0xbab60bb6	-0.0013888988
80	0xbe11b8e6	-0.1423069
81	0xbe32d344	-0.17463404
82	0xbd3dd13e	-0.046342127
83	0xbecec188	-0.40382028
84	0xbeb17802	-0.3466187
85	0xbe335f5b	-0.17516844
86	0xbee2864d	-0.44243088
87	0xbe1c7ef0	-0.15282798
88	0x3d7e5521	0.062092904
89	0xbe832323	-0.25612745
90	0x3e207bf9	0.15672292
91	0x3d8cc299	0.06873054
92	0xbe20dfaf	-0.15710329
93	0xbc5c36a7	-0.0134407645
94	0xbd8084ac	-0.06275305
95	0xbe18a069	-0.14904942
96	0x3d62cd2a	0.05537144
97	0x3d57571f	0.05257332
98	0xbc936817	-0.01799397
99	0xbcf114a4	-0.029428788
100	0xbcec4e8e	-0.028846052
101	0xbc194845	-0.009355609
102	0xbd4168c8	-0.047219068
103	0xbd640d2c	-0.055676624
104	0xbce197a0	-0.02753812
105	0xbc78de0c	-0.015189659
106	0xbd3f1b29	-0.04665676
107	0xbd453a1c	-0.04815112
108	0x3fcabad6	1.5838268
109	0xbda96d5d	-0.082728125
110	0xbfc1285d	-1.5090443
111	0x3fbede09	1.491151
112	0xbe97ffad	-0.29687253
113	0xbfd715a8	-1.6803484
114	0x3f969ab1	1.1765958
115	0xbe4d5c19	-0.20054664
116	0xbf82ac94	-1.0208917
117	0xbe7e0ca7	-0.24809514
118	0xbe6cf80b	-0.23141496
119	0x3e6ba41b	0.2301182
120	0xbe3df985	-0.18552215
121	0xbe1d79b8	-0.15378463
122	0x3eb77d9b	0.35838017
123	0xbdc102ec	-0.094243854
124	0x3a9c3722	0.0011918286
125	0x3ed60d7d	0.41807166
126	0xbd85a27c	-0.06525132
127	0xbd461d64	-0.048367873
128	0xbe069396	-0.13142237
129	0xbdb8b1d6	-0.090182945
130	0xbd4e6b55	-0.05039533
131	0xbdad9d32	-0.08477248
132	0xbc77cb91	-0.015124218
133	0x3c1f2411	0.009713189
134	0xbc523055	-0.012828906
135	0xbeba789c	-0.36420143
136	0xbe78b73f	-0.24288653
137	0x3e3a8abd	0.18216987
138	0xbec47daf	-0.3837714
139	0xbe6aa98c	-0.2291624
140	0x3d927bec	0.071525425
141	0xbe818584	-0.25297177
142	0xbdc37553	-0.09543862
143	0x3e1c7f81	0.15283014
144	0x3c2023c2	0.00977415
145	0x3bf92513	0.0076032965
146	0x3b5d08ab	0.003372709
147	0xbc3bcd66	-0.011462545
148	0xbbfe412a	-0.007759233
149	0xbba9ba93	-0.005179712
150	0xbc36d45d	-0.01115903
151	0xbc021047	-0.007938451
152	0xbbaa91ac	-0.0052053537
153	0xbc1da6dc	-0.009622302
154	0xbc2f3b7c	-0.0106953345
155	0xbb96a6ed	-0.004597536
156	0xbbb46e6e	-0.0055063283
157	0xbbef14c4	-0.0072961766
158	0xbbe2a00c	-0.0069160517
159	0xbc488cab	-0.012240569
160	0xbbe04a00	-0.006844759
161	0xbc1126ec	-0.008859377
162	0x3c3469da	0.011011565
163	0xba7281fd	-0.0009250937
164	0xbb349952	-0.0027557206
165	0x3c4b19bd	0.012396273
166	0xbaa04ee5	-0.0012230544
167	0xbb80c3ae	-0.003929577
168	0x3c60ecc1	0.0137283215
169	0x3b104bbb	0.0022017795
170	0xbad6e617	-0.0016395476
171	0x3d647004	0.05577089
172	0x3d096d8d	0.03355174
173	0x3c4ca6dd	0.012490955
174	0x3d6f8f1f	0.0584861
175	0x3d18e6e4	0.03732957
176	0x3c5b574e	0.013387514
177	0x3d4e1a03	0.050317775
178	0x3d27ec9f	0.040997144
179	0x3c8ddae3	0.017316287
180	0xbb8c9a67	-0.004290867
181	0x3903ac27	0.00012557265
182	0x3ae8437d	0.0017720308
183	0xbc16cf7a	-0.00920474
184	0xbb5fd3e4	-0.0034153396
185	0xbab2caee	-0.00136408
186	0xbc3b8f61	-0.011447758
187	0xbbbf1fef	-0.005832664
188	0xbb317ff9	-0.0027084334
189	0xbba364fa	-0.0049864026
190	0xbbc7ec60	-0.006101176
191	0xbbac6edb	-0.0052622384
192	0xbbb4b994	-0.0055152867
193	0xbbd844b0	-0.006599985
194	0xbbc48512	-0.0059973085
195	0xbba36561	-0.0049864505
196	0xbbbf00b1	-0.00582894
197	0xbba5f380	-0.005064428
198	0xbb33393c	-0.0027347347
199	0x3ba8f9d5	0.0051567354
200	0x3be9d3ad	0.0071358294
201	0xbc507eab	-0.0127255125
202	0xbbd19424	-0.0063958336
203	0xbb2cf5e5	-0.0026391682
204	0xbc413475	-0.011792292
205	0xbbe876f4	-0.0070942584
206	0xbb85d39f	-0.004084065
207	0x3c732acb	0.014841746
208	0x3b454950	0.0030103512
209	0xbaccf02f	-0.0015635545
210	0x3c80ce0c	0.01572325
211	0x3b4957a3	0.0030722402
212	0xbad9c973	-0.0016615823
213	0x3c863577	0.016382916
214	0x3bc7b3a3	0.0060944124
215	0x3a96443a	0.0011464425
216	0x3be64a90	0.0070279315
217	0x3b86423a	0.0040972503
218	0x3bc29986	0.0059387116
219	0x3b23bbd1	0.0024983773
220	0xb9e743ab	-0.0004411017
221	0xb94b4436	-0.00019384999
222	0x3b8155d8	0.003947001
223	0x3a8a0d96	0.0010532613
224	0x3a696329	0.00089030206
225	0x3c623bc6	0.013808196
226	0x3c65baa8	0.014021553
227	0x3c4a944a	0.012364456
228	0x3c59ce0f	0.013293757
229	0x3c6cfed4	0.014465053
230	0x3c5d3c9e	0.013503222
231	0x3c48a6f5	0.012246837
232	0x3c61e734	0.013788033
233	0x3c67ee5d	0.014155951
234	0x3c0f33ae	0.008740349
235	0x3bfd0141	0.0077210967
236	0x3c0176d1	0.007901863
237	0x3c0e90ea	0.008701542
238	0x3bf8dcc7	0.007594678
239	0x3c00aa26	0.007853067
240	0x3c175024	0.009235416
241	0x3c075f77	0.008262507
242	0x3c060e73	0.008182156
243	0xbbf549e6	-0.007485616
244	0xbb545a5b	-0.003240249
245	0xbb9e6828	-0.0048341937
246	0xbc91ef95	-0.017814437
247	0xbc4f9bf3	-0.012671459
248	0xbc1ce9a9	-0.009577193
249	0xbc8f04ca	-0.017458338
250	0xbc71d649	-0.014760562
251	0xbc3ffd36	-0.011718085
252	0xbc102fea	-0.008800486
253	0x3baa3dae	0.005195341
254	0x3c4bfdbe	0.012450634
255	0xbc08b4b0	-0.0083438605

down_path.1.block.3.bias f4 [16]
0	0xbe85bb03	-0.2611924
1	0xbc82fc51	-0.015989454
2	0xbb28a3af	-0.0025732329
3	0xbe2f7de3	-0.17137866
4	0xbd8127b4	-0.06306401
5	0xbec0a38d	-0.3762478
6	0xbe41229e	-0.18860862
7	0x3d79be50	0.06097251
8	0x3c03b217	0.008038065
9	0xbe87410c	-0.26416814
10	0x3c896fd4	0.016776957
11	0xbe5ce724	-0.21572548
12	0xbdb59303	-0.08865931
13	0x3cfc4423	0.030794209
14	0xbe6456d3	-0.22298746
15	0xbba43665	-0.005011367

down_path.1.block.5.weight f4 [16]
0	0x3fd09dda	1.6298172
1	0xbad2a855	-0.0016071895
2	0x3e807952	0.2509256
3	0x3ffe6cb4	1.9876924
4	0xbcb96a02	-0.022633556
5	0x3f0d9ad7	0.5531439
6	0x3f560b9e	0.83611476
7	0x3f19d1f7	0.60086006
8	0x3f19004d	0.59766084
9	0x3ddaac72	0.106774226
10	0xbd05c8ed	-0.03266232
11	0x3ea3247c	0.31863773
12	0x3e872e88	0.26402688
13	0x3f2738c7	0.6532101
14	0x3f106eca	0.5641905
15	0x3f26a3fd	0.65093976

down_path.1.block.5.bias f4 [16]
0	0xbee1e693	-0.44121227
1	0xbd66a48c	-0.056309268
2	0x3ea4e9d8	0.3220966
3	0xbf022389	-0.5083547
4	0xbe4d19f9	-0.20029439
5	0xbe31cec7	-0.17364036
6	0x3e09b671	0.13448502
7	0x3f00f4f9	0.503738
8	0x3e497231	0.19672467
9	0xbe5c8379	-0.21534528
10	0xbce91a48	-0.028454915
11	0xbf10030e	-0.5625466
12	0xbea64904	-0.32477582
13	0x3d7c7940	0.06163907
14	0xbf241ce8	-0.6410661
15	0x3da92515	0.08259026

down_path.1.block.5.running_mean f4 [16]
0	0x407de556	3.9671226
1	0x3d7c6611	0.061620776
2	0x3fae2a5e	1.360668
3	0x3fa31fe3	1.2744106
4	0x3e8cda0f	0.27510116
5	0x4001f6d7	2.030691
6	0x40a7e184	5.246279
7	0x3f952a0f	1.165346
8	0x3fc1aa9d	1.5130192
9	0x3ea85dda	0.32884103
10	0x3e883a0c	0.26606786
11	0x3f507ac0	0.814373
12	0x3f0920c9	0.5356565
13	0x409db2d6	4.9280806
14	0x402e9eef	2.7284505
15	0x40c6f4aa	6.217366

down_path.1.block.5.running_var f4 [16]
0	0x42f36898	121.704285
1	0x3d8d927e	0.06912707
2	0x4161e172	14.11754
3	0x41c584ef	24.689909
4	0x3f5effab	0.8710887
5	0x41ead95f	29.356138
6	0x41c8f456	25.119305
7	0x4143e141	12.242494
8	0x41a8945d	21.072443
9	0x400da74a	2.2133355
10	0x3f69ad8f	0.91280454
11	0x40db8163	6.8595443
12	0x40b5d41f	5.6821437
13	0x4194577a	18.542713
14	0x4201ed8e	32.481987
15	0x42167c8e	37.621635

down_path.2.block.0.weight f4 [32, 16, 3, 3]
0	0x3d1be38c	0.038058802
1	0xbf1e2185	-0.61769897
2	0xbd632e47	-0.055464055
3	0x3ce69236	0.02814589
4	0xbe022a82	-0.12711528
5	0xbdba430e	-0.09094821
6	0xbc32a56d	-0.010903698
7	0x3f02621d	0.5093096
8	0xbd1e64d2	-0.03867037
9	0xbc8822a5	-0.016618082
10	0xbc848ba0	-0.01617986
11	0xbc7d8b52	-0.015475111
12	0xbc8589e6	-0.016301107
13	0xbc8a7556	-0.016901653
14	0xbc732bfe	-0.0148420315
15	0xbc408a01	-0.011751653
16	0xbc201c8b	-0.00977243
17	0xbc29ff48	-0.010375805
18	0x3df363b8	0.11884254
19	0x3ddb3daf	0.107051246
20	0xbb57365d	-0.00328388
21	0x3db0aca1	0.08626676
22	0x3dfef9fe	0.12450026
23	0x3c3974df	0.011319368
24	0x3cfb8fd9	0.03070824
25	0x3e022f19	0.12713279
26	0x3cb9e645	0.022692809
27	0xbc915ba0	-0.017743886
28	0xbf40e19b	-0.75344247
29	0xbedb48b9	-0.4282892
30	0x3e806f18	0.25084758
31	0x3d76dba2	0.060268052
32	0x3dafcad8	0.08583611
33	0xbf3e18e0	-0.74256706
34	0xbe00ddfc	-0.1258468
35	0xbea1157c	-0.31461704
36	0xbdde9779	-0.10868735
37	0xbdf9d92c	-0.121996254
38	0xbdf0167e	-0.1172304
39	0xbd972121	-0.07379366
40	0xbda7b7fc	-0.08189389
41	0xbd9454b3	-0.072427176
42	0xbd4fb133	-0.0507061
43	0xbd60ea60	-0.054911017
44	0xbd30adbd	-0.04313444
45	0xbda1598d	-0.078784086
46	0xbe249f01	-0.1607628
47	0xbed26c24	-0.4109813
48	0xbcd79f36	-0.026321035
49	0xbcc5e32f	-0.024156181
50	0xbe37cf50	-0.17950177
51	0xbd148ffd	-0.03627013
52	0xbcd007b3	-0.025394296
53	0xbd7f4a3a	-0.062326647
54	0x3e8a3843	0.2699605
55	0x3ebc8d04	0.36826336
56	0x3e92fd06	0.28708667
57	0xbda876aa	-0.082257584
58	0xbe17ea2a	-0.1483542
59	0xbd90ee61	-0.07076717
60	0x3df744a8	0.12073642
61	0xbdac35d3	-0.08408704
62	0xbd0e3ac9	-0.03472403
63	0x3dca90ef	0.09890925
64	0x3cee86fd	0.029117102
65	0xbe5bc172	-0.21460512
66	0x3dbb0983	0.091326736
67	0x3d9049a9	0.070452996
68	0xbe3dbd80	-0.1852932
69	0x3dafe42a	0.08588441
70	0x3d97f125	0.074190415
71	0xbe41f59f	-0.18941353
72	0x3dc50f45	0.09622053
73	0x3b100eb4	0.002198142
74	0xbeb5e2be	-0.35524553
75	0x3df616ea	0.12016089
76	0x3dbab9a7	0.091174416
77	0xbe4cd8d5	-0.2000459
78	0x3e165e20	0.14684343
79	0x3d9caba0	0.07649922
80	0xbde8f8ea	-0.113756016
81	0xbe1f6c5c	-0.1556868
82	0xbe2df8fd	-0.16989513
83	0xbe29e347	-0.16590606
84	0xbde78fc0	-0.11306715
85	0xbdf1302d	-0.11776767
86	0xbdd5a37f	-0.10431575
87	0xbdbd08c3	-0.09230187
88	0xbdb36c6c	-0.08760914
89	0xbd805443	-0.06266072
90	0xbcd03d90	-0.02541998
91	0xbd088465	-0.033329386
92	0xbd0703b6	-0.032962523
93	0xbc63f36b	-0.013913016
94	0xbca0085c	-0.019535236
95	0xbcb1d01d	-0.021705681
96	0xbb7bf06a	-0.0038442858
97	0xbc116ad8	-0.008875571
98	0xbc6e6945	-0.014551465
99	0xbe528f22	-0.20562413
100	0xbe6db75b	-0.23214476
101	0xbe84e78c	-0.25957906
102	0xbe35cd19	-0.1775402
103	0xbe2deb5e	-0.16984317
104	0xbe3e6dca	-0.18596569
105	0xbe1a8d70	-0.15093017
106	0xbe0747e5	-0.1321102
107	0xbdfc7c3e	-0.12328385
108	0xbe797668	-0.24361575
109	0xbe8a1401	-0.26968387
110	0xbe7136f9	-0.23556127
111	0xbde339c9	-0.11095006
112	0xbe1cdea5	-0.15319307
113	0xbe07f192	-0.13275746
114	0xbd15ef18	-0.03660497
115	0xbd1da673	-0.038488816
116	0xbda27a00	-0.07933426
117	0x3eabc09b	0.33545384
118	0x3ef65b25	0.48116413
119	0x3e39a21c	0.18128246
120	0x3ca06383	0.0195787
121	0xbaa2c57b	-0.0012418473
122	0xbe0b98c6	-0.13632497
123	0x3e859016	0.2608649
124	0x3d165b83	0.036708366
125	0xbd88051a	-0.06641598
126	0x3e6bca58	0.23026407
127	0x3ccc8d14	0.024969615
128	0xbe833176	-0.25623673
129	0xbdfb009f	-0.12255978
130	0xbe4d5b46	-0.2005435
131	0xbeadbbdd	-0.3393239
132	0x3d07dfcd	0.033172417
133	0xbdace66a	-0.084423855
134	0xbdb2aa6f	-0.08723914
135	0x3eaa4952	0.33259064
136	0x3f09bb43	0.53801364
137	0x3d945a2f	0.07243764
138	0x3dab8182	0.08374311
139	0x3d8bc9a1	0.06825567
140	0xbe475105	-0.194645
141	0x3e9d4f0e	0.30724376
142	0x3d132a45	0.035928983
143	0xbe32e4f0	-0.17470145
144	0x3d5131f9	0.05107305
145	0xbe188044	-0.1489268
146	0xbdce06b4	-0.10059872
147	0x3e0453c0	0.12922573
148	0x3cd85b06	0.02641059
149	0x3d152b4e	0.03641825
150	0x3e25df2f	0.16198419
151	0x3e94d6f1	0.29070237
152	0x3e8842a6	0.2661335
153	0xbc8479b6	-0.016171318
154	0xbc79a2ff	-0.015236615
155	0xbc7cab51	-0.015421704
156	0xbc8d6912	-0.017262015
157	0xbc840681	-0.016116383
158	0xbc872088	-0.016495004
159	0xbc8085c7	-0.01568879
160	0xbc6e09f6	-0.014528742
161	0xbc72872c	-0.014802735
162	0x3e170857	0.14749275
163	0x3e2eb5f3	0.17061596
164	0x3dc7b70c	0.0975171
165	0x3df3cf0d	0.11904726
166	0x3e269d29	0.1627089
167	0x3dc95989	0.098315306
168	0x3dabe648	0.08393532
169	0x3e1cdf92	0.1531966
170	0x3dd67578	0.10471624
171	0xbe8f2c69	-0.2796357
172	0xbecfa8a3	-0.40558347
173	0xbf023a3f	-0.50870126
174	0x3ca73482	0.02041078
175	0xbd8eafc9	-0.06967122
176	0xbca38023	-0.019958561
177	0xbf38b5d9	-0.7215248
178	0xbefaf739	-0.4901674
179	0xbea4d9b5	-0.32197347
180	0xbde5813c	-0.1120629
181	0xbdff8c13	-0.12477889
182	0xbe003e7a	-0.12523833
183	0xbda46ca5	-0.08028535
184	0xbdb41020	-0.08792138
185	0xbdaf677e	-0.085646614
186	0xbd7f8c61	-0.062389735
187	0xbd8dfa08	-0.06932455
188	0xbd8625d1	-0.06550182
189	0xbe1fa5c4	-0.15590578
190	0xbe005311	-0.12531687
191	0xbe9091d3	-0.28236255
192	0xbe00557b	-0.12532608
193	0xbd4de014	-0.050262526
194	0xbe244a78	-0.16044033
195	0xbe2bb94a	-0.16769901
196	0xbdb96f21	-0.09054399
197	0xbe17b8bb	-0.14816563
198	0x3e8e72be	0.27821916
199	0x3e6ab566	0.2292076
200	0x3e8ad761	0.27117446
201	0x3d6b9d17	0.05752286
202	0xbd6c7153	-0.057725262
203	0xbccb352f	-0.024805633
204	0x3e8b194d	0.2716774
205	0x3e144379	0.14478864
206	0x3d879e80	0.06622028
207	0x3cdbd084	0.026832826
208	0xbc973cfa	-0.018461693
209	0xbe226635	-0.15859301
210	0x3c96f189	0.01842572
211	0xb98e2a95	-0.00027116077
212	0xbe0b1147	-0.1358081
213	0xbb81c666	-0.0039604185
214	0xbc260e98	-0.010135315
215	0xbe24c99a	-0.1609253
216	0x3d6faccb	0.058514398
217	0x3d4f7ad8	0.050654262
218	0xbe3fd6ad	-0.18734236
219	0x3dc0e54c	0.09418735
220	0x3e06cb1d	0.13163419
221	0xbda4714f	-0.080294244
222	0x3ded3ed4	0.11584249
223	0x3e168cdb	0.1470217
224	0xbd2b0b58	-0.041758865
225	0xbe1f8dc3	-0.15581422
226	0xbe35bd86	-0.17748079
227	0xbe22998e	-0.15878889
228	0xbdef92ef	-0.11697947
229	0xbe080da0	-0.13286448
230	0xbde02637	-0.10944789
231	0xbdc1eaad	-0.09468589
232	0xbde221b7	-0.11041587
233	0xbdb19458	-0.086708724
234	0xbcb9d5c6	-0.022684943
235	0xbcfbc615	-0.030734101
236	0xbcfc3038	-0.030784711
237	0xbc4febe8	-0.012690522
238	0xbca2718c	-0.019829534
239	0xbcb243fc	-0.021760933
240	0xbbcaf3c4	-0.00619361
241	0xbc53f876	-0.012937656
242	0xbc839725	-0.016063282
243	0xbe78b6bd	-0.24288459
244	0xbe705cbe	-0.23472878
245	0xbe81cdca	-0.25352317
246	0xbe6f8bd1	-0.2339318
247	0xbe5193cb	-0.20466535
248	0xbe5078a6	-0.20358524
249	0xbe7d4d0b	-0.24736421
250	0xbe612343	-0.21986108
251	0xbe46a3e6	-0.1939846
252	0xbe809e00	-0.25120544
253	0xbe997b2f	-0.29976794
254	0xbe904171	-0.28174928
255	0xbe210188	-0.1572324

down_path.2.block.0.bias f4 [32]
0	0x3e899f5f	0.26879403
1	0x3ecdc649	0.40190342
2	0xbef0bb0b	-0.47017702
3	0xbef3cdd1	-0.47617963
4	0xbc6b75ec	-0.0143713765
5	0x3d0ef42b	0.034900825
6	0x3e80e891	0.25177434
7	0xbba12ac5	-0.0049184286
8	0x3dacf0fd	0.08444402
9	0xbda3d39d	-0.079993464
10	0xbd900839	-0.07032818
11	0x3d36e5f4	0.044652894
12	0xbd56fb59	-0.052485798
13	0x3bb28f09	0.00544918
14	0x3cb25e78	0.021773562
15	0xbcdaaa71	-0.0266926
16	0xbce00238	-0.027344808
17	0x3d3a4498	0.045475572
18	0x3e3d41d7	0.18482147
19	0xbc84e6b7	-0.016223295
20	0xbe08ea6e	-0.13370678
21	0xbbc2b5b1	-0.0059420695
22	0x3d859445	0.06522421
23	0x3f226da7	0.63448566
24	0xbec3593b	-0.38154015
25	0x3c12e522	0.008965762
26	0xbcbea353	-0.023271238
27	0xbda4a5d5	-0.080394424
28	0xba9a55d1	-0.0011774843
29	0xbde9b8e0	-0.11412215
30	0x3a504e84	0.000794627
31	0x3f412da2	0.75460255

down_path.2.block.2.weight f4 [32]
0	0x3f138977	0.5763163
1	0x3f0da72f	0.55333227
2	0x3f11bcb0	0.5692854
3	0x3f9db2fa	1.2320244
4	0xbba95a37	-0.005168225
5	0x3d91c7c2	0.07118179
6	0x3f4f13d7	0.8088965
7	0xbcf41d94	-0.02979926
8	0x3caa5521	0.020792546
9	0x3f49799c	0.78701186
10	0x3d685713	0.056723665
11	0x3dd2e18c	0.10296926
12	0x3eb87c55	0.36032358
13	0x3d98609b	0.07440301
14	0x3d74fc67	0.059811022
15	0x3efbfc58	0.4921596
16	0x3d821f5e	0.06353639
17	0x3dc7cb46	0.09755568
18	0x3f5a2f2b	0.8522822
19	0x3d01fce8	0.03173533
20	0x3f4749c7	0.7784695
21	0xbd0a3742	-0.033744104
22	0x3dfce3b5	0.12348119
23	0x3f776ddb	0.96652
24	0x3ef67eaf	0.48143527
25	0x3d89ecfb	0.067346536
26	0x3f70102c	0.93774676
27	0x3f31a796	0.6939634
28	0xbc85653f	-0.01628363
29	0x3f66f2b4	0.90214086
30	0x3a0e1908	0.00054206
31	0x3f87692f	1.0578974

down_path.2.block.2.bias f4 [32]
0	0xbe46871d	-0.19387479
1	0xbe7a28a8	-0.24429572
2	0x3e13850a	0.14406219
3	0x3e60b5c6	0.21944341
4	0xbcfed216	-0.031106036
5	0xbcc5ed7e	-0.024161097
6	0xbe56c402	-0.20973209
7	0xbc9b8727	-0.018985344
8	0xbd3db0ec	-0.046311304
9	0x3e280405	0.16407783
10	0x3e6a63fc	0.22889704
11	0x3c9b5746	0.018962514
12	0x3e66861f	0.225121
13	0xbda69628	-0.08134109
14	0x3ca05171	0.019570084
15	0x3e7239da	0.23654881
16	0x3db01106	0.08596997
17	0xbd7e015b	-0.06201301
18	0x3f4b30f1	0.79371554
19	0x3d4b1dda	0.049589016
20	0x3f2b4c6b	0.6691348
21	0xbc50a41e	-0.012734441
22	0x3e87ad5d	0.26499453
23	0x3ef0bcdc	0.47019088
24	0x3ee599cd	0.44843903
25	0xbd1f1334	-0.038836673
26	0x3f1a443c	0.6026037
27	0xbf700e8c	-0.93772197
28	0xbc0f22a1	-0.0087362835
29	0x3f1304a7	0.57428974
30	0x3ad8a85b	0.0016529666
31	0xbed83d00	-0.4223404

down_path.2.block.2.running_mean f4 [32]
0	0x408a7247	4.32645
1	0x40aa0a54	5.3137608
2	0x3d6c7b4e	0.05773478
3	0x3f34a81b	0.7056901
4	0x3e2d841b	0.16944925
5	0x3fe92b3c	1.8216319
6	0x409ce5f0	4.9030685
7	0x3dd783ca	0.10523184
8	0x3fbad09f	1.4594916
9	0x400d3779	2.2065108
10	0x3f404fc3	0.75121707
11	0x3fb22726	1.3918197
12	0x3ff5c296	1.9200008
13	0x3fade2f8	1.358489
14	0x3f151445	0.58234054
15	0x4033be2c	2.8084822
16	0x3f1b4178	0.6064677
17	0x3fe10c2d	1.7581841
18	0x40f32a58	7.598919
19	0x3e57c51c	0.21071285
20	0x40439b54	3.0563555
21	0x3ef328e5	0.47492138
22	0x3f1fbb3c	0.6239507
23	0x4093f653	4.623819
24	0x3d791756	0.06081327
25	0x3f5ee313	0.8706524
26	0x408d4232	4.4143305
27	0x40953c32	4.663598
28	0x3ecfa397	0.40554497
29	0x3fa8fe16	1.3202541
30	0x3d45608d	0.04818778
31	0x40c449f4	6.1340275

down_path.2.block.2.running_var f4 [32]
0	0x411df3b4	9.871998
1	0x41598afd	13.596433
2	0x3e890faa	0.26769763
3	0x40309361	2.7589953
4	0x3def3e09	0.11681754
5	0x403e77b7	2.9760568
6	0x413d635a	11.836756
7	0x3e3be50b	0.18349092
8	0x3fb98303	1.4493107
9	0x40a5afd0	5.1777115
10	0x400e1149	2.219805
11	0x410d6cb1	8.839036
12	0x415b211a	13.695581
13	0x3fa20407	1.2657479
14	0x3f7249de	0.9464396
15	0x41ac00c3	21.500372
16	0x40377fa8	2.8671665
17	0x402ce605	2.7015393
18	0x42231948	40.77469
19	0x3f24e3d8	0.6441016
20	0x416251c8	14.144966
21	0x4015a5f3	2.3382537
22	0x3f9226b8	1.1418066
23	0x413aee2a	11.6831455
24	0x3e69140a	0.2276155
25	0x40057167	2.0850465
26	0x416bd103	14.738528
27	0x41b7975f	22.948912
28	0x3fd74829	1.6818897
29	0x4194925a	18.57146
30	0x3c8156d9	0.015788483
31	0x418202df	16.251402

down_path.2.block.3.weight f4 [32, 32, 3, 3]
0	0x3e1859b1	0.14877965
1	0x3e107850	0.14108396
2	0x3ddf27f3	0.108962916
3	0x3e19b109	0.1500894
4	0x3e0c3050	0.13690305
5	0x3de1d3fd	0.11026762
6	0x3e01eb50	0.12687421
7	0x3dd61276	0.1045274
8	0x3db33333	0.0875
9	0x3de9735e	0.11398958
10	0x3ddfe06e	0.109314784
11	0x3dc25823	0.09489467
12	0x3df008bf	0.11720418
13	0x3dcb973f	0.09940957
14	0x3dc696f7	0.09696763
15	0x3db07820	0.08616662
16	0x3d908878	0.07057279
17	0x3d87e334	0.066351324
18	0xbd510bd6	-0.05103668
19	0xbd4f6b09	-0.050639186
20	0xbd843955	-0.06456248
21	0xbd61c726	-0.055121563
22	0xbd58e0bc	-0.0529487
23	0xbd6ba2e3	-0.057528388
24	0xbd700dbc	-0.058606848
25	0xbd5cb1e5	-0.05388059
26	0xbd726644	-0.05917956
27	0xbce49b88	-0.027906194
28	0xbd623a2d	-0.055231262
29	0xbd1c70d0	-0.038193524
30	0xbd369159	-0.044572208
31	0xbd8cc713	-0.06873908
32	0xbd65ca67	-0.05610123
33	0xbce59832	-0.028026674
34	0xbd874d09	-0.0660649
35	0xbdce0b54	-0.100607544
36	0xbc36303b	-0.0111198975
37	0xbc436102	-0.011924984
38	0xbc2d6866	-0.010583973
39	0xbc30c879	-0.010789984
40	0xbc07ccd3	-0.00828858
41	0xbc2c3d3c	-0.010512646
42	0xbbcb4712	-0.0062035406
43	0xbba446b9	-0.0050133136
44	0xbbe40961	-0.006959126
45	0x3c46f7bf	0.012144028
46	0x3c5bf537	0.013425163
47	0x3c6567ae	0.01400177
48	0x3c29a50c	0.010354292
49	0x3c39772c	0.011319917
50	0x3c34effb	0.011043544
51	0x3c2de90b	0.010614644
52	0x3c414ffc	0.011798855
53	0x3c34f3cc	0.011044454
54	0x3e29f35f	0.16596745
55	0x3e0f9514	0.14021713
56	0x3ded84f1	0.11597622
57	0x3e282eb0	0.1642406
58	0x3de5ebc1	0.11226607
59	0x3de8d6e7	0.11369114
60	0x3dbf9ecc	0.0935646
61	0x3d44e449	0.048069272
62	0x3d92b2f2	0.07163037
63	0x3c002f78	0.007823817
64	0x3c05716c	0.008144718
65	0x3c05aacc	0.008158397
66	0x3bdad5f2	0.0066783363
67	0x3ba75d08	0.0051075257
68	0x3bd87600	0.0066058636
69	0x3bc4b647	0.0060031745
70	0x3bc6721f	0.0060560848
71	0x3bf8fc9d	0.007598473
72	0x3cd42c4b	0.025900027
73	0x3cbbf557	0.022944136
74	0x3caced3a	0.021109212
75	0x3cc4c1b7	0.024018152
76	0x3ca45daa	0.020064194
77	0x3ca2be67	0.019866182
78	0x3caeff8e	0.021362092
79	0x3c8fbd35	0.017546276
80	0x3c82290e	0.015888717
81	0x3d2161ec	0.039400026
82	0x3d376902	0.044777878
83	0x3cf59c2f	0.0299817
84	0x3d955984	0.072924644
85	0x3d96cfbc	0.07363841
86	0x3d8c86a1	0.06861616
87	0x3db9d142	0.09073116
88	0x3dd098c3	0.10185387
89	0x3deee5c8	0.11664921
90	0x3cdddad2	0.02708188
91	0x3cd5f004	0.026115425
92	0x3cd9b641	0.026576163
93	0x3cc973b2	0.0245913
94	0x3cc8126e	0.02442285
95	0x3cc8ab30	0.024495691
96	0x3ccb6347	0.024827613
97	0x3cd4c31e	0.025971945
98	0x3cc46155	0.023972193
99	0xbce2a472	-0.027666304
100	0xbce4f938	-0.027950868
101	0xbcf07254	-0.02935139
102	0xbcef97a4	-0.029247113
103	0xbcf92bf8	-0.030416474
104	0xbcf05180	-0.029335737
105	0xbceb95ec	-0.028758012
106	0xbcf665a3	-0.030077761
107	0xbce7e3c5	-0.028306851
108	0xbc2b0ec2	-0.01044053
109	0xbc1a38bc	-0.009412941
110	0xbc24f58f	-0.010068311
111	0xbc0af33c	-0.008480843
112	0xbc04cfac	-0.008106153
113	0xbbfed7ba	-0.0077771815
114	0xbb71593d	-0.0036826872
115	0xbb2a2ce8	-0.0025966708
116	0xbb11d67e	-0.0022253091
117	0x3cb91dbe	0.02259719
118	0x3cb3b7ec	0.021938287
119	0x3cc70e50	0.024298817
120	0x3c99472a	0.018710691
121	0x3c9c6c1f	0.019094525
122	0x3cb1e363	0.021714872
123	0x3c9e089b	0.019291213
124	0x3caff581	0.02147937
125	0x3cbdcfcf	0.02317038
126	0xba9a125e	-0.0011754741
127	0xbac469cf	-0.0014985147
128	0x3a097736	0.0005243899
129	0xbb2fa871	-0.002680328
130	0xbb65a812	-0.0035042805
131	0xba8843d4	-0.0010396191
132	0xbb060d76	-0.00204548
133	0xbb0b6e1b	-0.0021275345
134	0x39c71902	0.0003797487
135	0x39c0bb5f	0.00036760696
136	0x3b95e576	0.004574473
137	0x3b863e8e	0.0040968126
138	0x3b23cff7	0.0024995783
139	0x3b8f3a05	0.00437093
140	0x3b9cb923	0.004782812
141	0x3c3c8685	0.011506681
142	0x3c684097	0.014175556
143	0x3c80e7bf	0.015735505
144	0xb9acd81c	-0.0003296741
145	0xba04fe11	-0.0005073259
146	0xbaca5d61	-0.0015439206
147	0xbacb8744	-0.0015527983
148	0xbab45e92	-0.0013761094
149	0xbb1ec158	-0.0024224129
150	0xba17c705	-0.0005789849
151	0x39b800ed	0.00035095905
152	0xba8e0e95	-0.0010838086
153	0xbc05dde5	-0.00817058
154	0xbbfb1440	-0.007662326
155	0xbbded161	-0.0067998623
156	0xbc38d322	-0.011280807
157	0xbc2265e9	-0.009911993
158	0xbc211f7c	-0.009834167
159	0xbc4f2aa8	-0.012644447
160	0xbc3423d2	-0.010994868
161	0xbc39e305	-0.01134563
162	0xbd95c7f4	-0.07313529
163	0xbd839842	-0.06425525
164	0xbd6a048c	-0.057133242
165	0xbd6faeb5	-0.058516223
166	0xbd4fa143	-0.0506909
167	0xbd2b5d23	-0.04183687
168	0xbd291245	-0.04127719
169	0xbd01856a	-0.031621374
170	0xbcaa5479	-0.020792233
171	0xbb8f1b1d	-0.004367246
172	0xbba092aa	-0.004900296
173	0xbb81a55d	-0.0039564804
174	0xbba06cac	-0.004895767
175	0xbbbf93a8	-0.0058464594
176	0xbb92099c	-0.004456712
177	0xbb6a28b3	-0.0035729825
178	0xbb6e481d	-0.00363589
179	0xbb4a1d9b	-0.00308404
180	0x3e2860f9	0.16443242
181	0x3e007a32	0.12546614
182	0x3e09e225	0.13465174
183	0x3e6406d2	0.22268227
184	0x3e3cf6c1	0.18453504
185	0x3e4540f4	0.19263059
186	0x3e997591	0.2997251
187	0x3e8a5529	0.27018097
188	0x3e84f32d	0.25966778
189	0x3be485ac	0.0069739427
190	0x3bd99f7c	0.0066413265
191	0x3bf5dd8a	0.007503216
192	0x3b9e4823	0.0048303767
193	0x3b75ecd4	0.0037525194
194	0x3bb23448	0.0054383613
195	0x3b7a6647	0.0038207935
196	0x3b7a6ccc	0.003821182
197	0x3b92d666	0.0044811247
198	0xbce3f83d	-0.02782833
199	0xbce79313	-0.028268373
200	0xbce21a9f	-0.027600585
201	0xbcfc103d	-0.030769462
202	0xbcfe0495	-0.031008044
203	0xbcf42e1f	-0.029807149
204	0xbce5b49a	-0.02804022
205	0xbcdf436f	-0.027253835
206	0xbce2f3a6	-0.027704071
207	0x3caa0293	0.02075318
208	0x3c110d16	0.008853218
209	0xbbe00f8e	-0.0068377918
210	0x3cd0f2ac	0.02550634
211	0xbc1a65ed	-0.009423715
212	0xbd2e7933	-0.042596053
213	0x3d4cfdb6	0.050046645
214	0xbc85280c	-0.016254447
215	0xbd733cc5	-0.059384126
216	0xbd08f2f8	-0.033434838
217	0xbcdca8e2	-0.026935998
218	0xbd08f1d4	-0.03343375
219	0xbce1517a	-0.027504671
220	0xbcc1bac7	-0.023648633
221	0xbcd4a738	-0.025958642
222	0xbcb7faf1	-0.022458525
223	0xbca5a3c3	-0.02021969
224	0xbc80017e	-0.015625712
225	0x3c5b2671	0.013375864
226	0x3c5dc42c	0.013535541
227	0x3c6eaa2d	0.01456694
228	0x3c4a8db7	0.012362889
229	0x3c4e5024	0.012592349
230	0x3c5e4d1a	0.013568187
231	0x3c6686b4	0.014070202
232	0x3c733785	0.01484478
233	0x3c85d405	0.01633645
234	0x3e6a6875	0.2289141
235	0x3e4c0504	0.19923788
236	0x3e40d233	0.18830185
237	0x3e884a39	0.26619127
238	0x3e7ccdae	0.24687836
239	0x3e723427	0.23652707
240	0x3e99caf3	0.3003765
241	0x3e995cf3	0.29953727
242	0x3e865054	0.2623316
243	0x3d6823d1	0.056674782
244	0x3d4505c7	0.048101213
245	0x3d0e46df	0.034735557
246	0x3d2cceb2	0.042189308
247	0x3ce64415	0.028108636
248	0x3c86ed95	0.01647071
249	0x3c2534d3	0.010083395
250	0xbc100903	-0.008791211
251	0xbca72154	-0.020401634
252	0x3b51098e	0.0031896564
253	0x3b44317e	0.0029936726
254	0x3b5c869f	0.0033649576
255	0x3aaf6e83	0.0013384375
