weights/old/unet-test14-4epochs-weighted.pt (torch_old, 478380 bytes, 92 tensors)

down_path.0.block.0.weight f4 [8, 3, 3, 3]
1.1456e-41 8.495e-42 -7.766e-42 3.422e-42 -2.604628e-39 -1.244e-42 4.32e-42 4.247791e-39
2.182e-42 -1.3336e-41 1.931e-42 -1.4009e-41 -2.483e-42 1.4855e-41 2.133e-42 1.2022e-41
7.447e-42 1.3797e-41 1.3719e-41 -6.424e-42 3.636e-42 9.579e-42 -2.768e-42 -1.2e-42
-8.883e-42 1.0346e-41 -6.764e-42 -0.33108678 -0.2359998 -0.3870782 0.4105916 -0.09608109
-0.17484151 0.10399336 -0.11169939 -0.26116583 0.1394393 0.1990498 -0.18709753 0.29060656
0.34716865 -0.3470177 -0.10469864 0.12684451 -0.108693644 -0.31316254 -0.45962012 -0.4625345
0.21880467 0.1852612 -0.3867029 -0.13907595 0.1656098 -0.48847347 -9.212e-42 -0.00024667013
-0.00096352404 4.1430026e-19 0.00068733026 0.00013761352 4.0166575e-20 -0.00079195143 -0.00082886004 1.2701e-41
0.0021920723 -0.001885316 2.3949443e-18 0.00073298113 0.0009856047 2.054851e-18 -5.553242e-05 0.0026381742
-1.58e-43 -0.0009819238 -7.647471e-05 2.5487363e-19 0.00032943918 -0.00051567773 7.6398027e-20 -0.00037587396
-0.0004344821 -0.045098424 0.025050009 -0.07409836 -0.14469603 0.071059495 0.1981116 -0.25469607
0.07995693 -0.13130781 0.11068479 0.53405976 0.57057816 0.4197679 0.65097463 0.46727258
0.06531642 0.18713911 0.38366142 -0.2962902 0.19077866 -0.01551634 -0.12116907 0.108586214
-0.09520602 -0.6320612 -0.17704828 -0.5425549 -2.782e-42 -1.3343e-41 -4.647e-42 1.3824e-41
2.378e-42 -4.252e-42 -5.202e-42 1.302e-42 4.533e-42 -1.518e-41 1.15e-42 1.0717e-41
-1.2535e-41 1.2532e-41 4.86e-43 4.98e-42 -1.0843e-41 -1.3137e-41 1.009e-41 -5.992e-42
4.344e-42 1.5441e-41 1.1219e-41 3.83e-42 -4.33e-43 -4.117e-42 -5.06e-43 0.1900273
0.27618182 0.3247522 0.2424524 -0.005375056 0.03448484 0.25467137 -0.020641308 0.0680439
-0.37006864 -0.2834187 -0.24027234 -0.4674967 -0.36521602 -0.211269 -0.11664232 -0.24112901
-0.093852535 0.48904738 0.3496812 0.17236651 0.43596086 0.1427127 0.07805316 0.40509555
0.48979816 0.26281443 -0.2613709 0.03703096 0.062183965 -0.29322615 -0.12054568 0.150329
-0.164688 -0.11167155 -0.017583778 -0.0073664016 0.05384851 0.04414052 -0.26076147 0.013411748
0.13059033 -0.016894832 0.101022795 0.16358733 -0.21492974 0.11556949 0.01682656 -0.09323551
-0.36489835 -0.041054774 -0.3380625 -0.11379002 -0.13104086 -0.0779169 -0.19009987 -0.17627177
-0.3021783 -0.23451185 -0.30506414 0.031375278 -0.15301898 -0.06867473 -0.33374387 -0.5034039
-0.260049 -0.27986386 -0.24862875 -0.24187961 -0.22104846 -0.2961958 -0.28085098 -0.10198641
-0.08451797 -0.10745979 0.039171316 0.19628043 0.102469765 0.04842837 0.15355322 0.14025305
00000000: ef1f 0000 ae17 0000 a615 0080 8a09 0000
00000010: a55c 1c80 7803 0080 0b0c 0000 1d41 2e00
00000020: 1506 0000 2d25 0080 6205 0000 0d27 0080
00000030: ec06 0080 6929 0000 f205 0000 8321 0000
00000040: c214 0000 7626 0000 3e26 0000 e811 0080
00000050: 230a 0000 b41a 0000 b707 0080 5803 0080
00000060: c318 0080 d71c 0000 db12 0080 3584 a9be
00000070: eea9 71be 1d2f c6be 1039 d23e 2ac6 c4bd
00000080: a709 33be 79fa d43d a6c2 e4bd 87b7 85be
00000090: 2dc9 0e3e b6d3 4b3e 7f96 3fbe 62ca 943e
000000a0: 17c0 b13e 4eac b1be 3e6c d6bd 87e3 013e
000000b0: c69a debd d756 a0be 5453 ebbe 52d1 ecbe
000000c0: 550e 603e 1db5 3d3e ecfd c5be ed69 0ebe
000000d0: 9e95 293e 3219 fabe ae19 0080 8153 81b9
000000e0: 0195 7cba 498f f420 f42d 343a 594c 1039
000000f0: 69ae 3d1f f69a 4fba db47 59ba 6823 0000
00000100: dfa8 0f3b b51c f7ba 38b7 3022 8825 403a
00000110: 682f 813a 0a9f 1722 7beb 68b8 38e5 2c3b
00000120: 7100 0080 e5b3 80ba 0c61 a0b8 6a73 9620
00000130: 94b8 ac39 8c2e 07ba c663 b41f f310 c5b9
00000140: 33cb e3b9 20b9 38bd ad35 cd3c e2c0 97bd
00000150: 322b 14be a487 913d c4dd 4a3e 8667 82be
00000160: 75c0 a33d 8e75 06be b5ae e23d 24b8 083f
00000170: 6911 123f d1eb d63e 46a6 263f 5a3e ef3e
00000180: 9dc4 853d 65a1 3f3e 456f c43e 59b3 97be
00000190: 7b5b 433e 3f38 7ebc 7d27 f8bd 7362 de3d
000001a0: 60fb c2bd c3ce 21bf 254c 35be e1e4 0abf
000001b0: c107 0080 3225 0080 f40c 0080 8926 0000
000001c0: a106 0000 da0b 0080 800e 0080 a103 0000
000001d0: a30c 0000 512a 0080 3503 0000 e01d 0000
000001e0: f122 0080 ef22 0000 5b01 0000 e20d 0000
000001f0: 3a1e 0080 9f24 0080 201c 0000 b410 0080
00000200: 1c0c 0000 0b2b 0000 461f 0000 ad0a 0000
00000210: 3501 0080 7a0b 0080 6901 0080 8496 423e
00000220: b467 8d3e ec45 a63e 7145 783e 3d21 b0bb
00000230: fa3f 0d3d 4964 823e f617 a9bc 9a5a 8b3d
00000240: a379 bdbe 411c 91be f409 76be ba5b efbe
00000250: 98fd babe e756 58be 2be2 eebd 86ea 76be
00000260: c235 c0bd 6b64 fa3e 6a09 b33e d980 303e
00000270: 4336 df3e 4723 123e 56da 9f3d af68 cf3e
00000280: d3c6 fa3e 9d8f 863e 68d2 85be c7ad 173d
00000290: 9db4 7e3d bd21 96be a7e0 f6bd d8ef 193e
000002a0: f9a3 28be 0eb4 e4bd db0b 90bc db61 f1bb
000002b0: 4190 5c3d b1cc 343d 8782 85be f3bc 5b3c
000002c0: 79b9 053e 0867 8abc 0ae5 ce3d 7083 273e
000002d0: 8b16 5cbe b2af ec3d dbd7 893c 42f2 bebd
000002e0: f5d3 babe 0d29 28bd 8716 adbe be0a e9bd
000002f0: 932f 06be e592 9fbd 8aa9 42be 9680 34be
00000300: 1db7 9abe e023 70be 5e31 9cbe 5d83 003d
00000310: 02b1 1cbe 56a5 8cbd 7ae0 aabe 14df 00bf
00000320: 2425 85be 514a 8fbe 8998 7ebe 4aaf 77be
00000330: 875a 62be faa6 97be b3cb 8fbe 40de d0bd
00000340: c217 adbd e113 dcbd 1a72 203d bdfd 483e
00000350: abdb d13d d45c 463d 0e3d 1d3e 7f9e 0f3e

down_path.0.block.0.bias f4 [8]
-1.1356045e-23 0.061690997 -0.021270264 0.30914104 -1.0326475e-14 0.08522041 0.060776245 -0.13924223
00000000: 69a8 5b99 b3af 7c3d fa3e aebc bc47 9e3e
00000010: 7606 3aa8 0a88 ae3d 83f0 783d 8495 0ebe

down_path.0.block.2.weight f4 [8]
1.0399e-41 0.91721064 2.8819931e-08 0.8031193 -9.81e-43 0.9210919 0.2988142 0.68422866
00000000: fd1c 0000 51ce 6a3f b38f f732 3a99 4d3f
00000010: bc02 0080 aecc 6b3f 2dfe 983e 9c29 2f3f

down_path.0.block.2.bias f4 [8]
0.26658928 0.057333197 0.01022262 0.24613014 0.0031554764 0.14007026 -0.18353476 -0.009528039
00000000: 647e 883e 37d6 6a3d c77c 273c 8a09 7c3e
00000010: 1ccc 4e3b 946e 0f3e 89f0 3bbe 7e1b 1cbc

down_path.0.block.2.running_mean f4 [8]
6e-45 0.000114734314 6e-45 0.9231252 6e-45 0.51750636 4.626465e-05 2.2778776e-19
00000000: 0400 0000 849d f038 0400 0000 ef51 6c3f
00000010: 0400 0000 4c7b 043f 4a0c 4238 5076 8620

down_path.0.block.2.running_var f4 [8]
6e-45 2.5963176e-05 6e-45 0.12420132 6e-45 0.1291722 3.6842384e-06 8.61013e-21
00000000: 0400 0000 7fcb d937 0400 0000 435d fe3d
00000010: 0400 0000 b845 043e bc3e 7736 09a4 221e

down_path.0.block.3.weight f4 [8, 8, 3, 3]
-0.23864973 -0.18729733 -0.19870734 -0.23036729 -0.17973062 -0.19136794 -0.24597596 -0.19590092
-0.20840696 -0.009606384 0.24553421 -0.07907084 0.23830283 0.21304291 -0.09093336 -0.0034860382
0.17599054 -0.24025457 0.029761275 0.029866844 0.030793445 0.028721614 0.028839875 0.029752856
0.028723875 0.028838957 0.029758193 -0.27499786 0.23498027 0.21622768 -0.16045497 -0.03508969
0.13754213 -0.082256064 0.1935337 0.47780186 0.011436343 0.011455265 0.011851131 0.011100933
0.011119802 0.011513797 0.011096267 0.011114698 0.011508986 -0.32771862 -0.075243555 0.23106274
-0.11041777 -0.106965385 0.080535084 -0.21389483 -0.011340914 -0.0070287166 0.08267971 0.07565871
0.12823397 0.076785855 0.075989984 0.12522589 0.09115325 0.09286336 0.15875942 0.030369308
-0.09716237 -0.054836463 0.019003257 0.020570261 -0.07913498 0.05043785 -0.17300124 0.046871334
0.021155186 0.02688915 0.011999623 0.012012547 0.026443131 0.03896318 0.021878231 0.027529642
0.033104535 0.00943001 -0.074806914 -0.012778531 0.038710255 0.11557345 -0.047732305 0.025638089
-0.06782342 0.017832788 0.016382266 0.014027671 0.016413195 0.016397495 0.014030849 0.016426211
0.016397404 0.014046025 0.016426092 -0.14286575 -0.14057313 -0.15229034 -0.32526588 -0.28723845
-0.4158134 -0.41447672 -0.47861132 -0.4989554 0.00365647 0.0036584728 0.0036703118 0.0036861035
0.0036872525 0.0037025842 0.0036823542 0.003681436 0.0036997073 0.40752542 0.5427311 0.46543214
0.288553 0.20479089 0.38735467 0.30043027 0.26709363 0.1474893 -0.054396525 -0.0629054
-0.07803036 -0.1042888 -0.0719912 -0.08453796 -0.05589826 -0.036323268 -0.027463146 0.03568774
-0.040911805 -0.016491234 -0.015888728 0.004516202 -0.022367485 0.054337773 -0.018900309 -0.028520264
0.053396765 0.04206451 0.04407003 0.04069778 0.04313052 0.05168004 0.052608527 0.058045335
0.0502486 -0.12149755 -0.08370262 0.09953595 -0.024337787 -0.042518828 0.0664803 0.17838995
0.0532789 0.015303601 -0.018461313 -0.018626269 -0.018623479 -0.018613862 -0.018773647 -0.018773386
-0.019231293 -0.019388014 -0.01938626 0.15403272 -0.008222423 -0.053716514 0.16421686 -0.10170277
-0.19364941 0.017204754 -0.16765916 -0.23470363 -0.011386755 -0.011536437 -0.011533331 -0.011488892
-0.011621669 -0.01162027 -0.011841282 -0.011963224 -0.011960311 0.40338844 0.23585446 0.15548272
0.26849428 0.13550268 0.017070558 0.3126061 0.041017152 -0.12268956 -0.024283491 -0.018780814
-0.026117193 -0.0132366605 -0.01990642 -0.008162623 -0.036352742 -0.0061028935 -0.018839424 -0.0016052391
0.009570238 0.036213756 0.060211193 0.0064452644 0.007530163 0.027826807 0.024262287 -0.026004719
0.18967606 0.194093 0.18681249 0.19875559 0.19799231 0.19554587 0.15815389 0.16494404
0.15524091 -0.04124279 -0.046741758 -0.05626615 0.20677643 0.29159448 -0.10097454 0.2162239
0.21019945 0.0014742698 -0.00051527395 -0.004493093 0.0011445242 -0.0010258453 -0.005120924 0.0007132769
0.0034428977 -0.0016774337 0.0052567082 0.03471075 0.09517019 0.04956181 0.33290038 0.063064784
0.1293258 0.6547805 0.55201507 0.07258809 -0.0005494608 -0.0005856058 -0.00067015167 -0.0007087534
00000000: 9860 74be dfca 3fbe f079 4bbe 67e5 6bbe
00000010: 4e0b 38be f5f5 43be 1fe1 7bbe 409a 48be
00000020: a268 55be 1864 1dbc 526d 7b3e e4ef a1bd
00000030: a805 743e ec27 5a3e 453b babd 0476 64bb
00000040: dd36 343e 4b05 76be ebcd f33c 50ab f43c
00000050: 8942 fc3c 9749 eb3c 9a41 ec3c 43bc f33c
00000060: 554e eb3c ad3f ec3c 74c7 f33c 85cc 8cbe
00000070: ab9e 703e ca6a 5d3e 4f4e 24be 35ba 0fbd
00000080: d8d7 0c3e de75 a8bd b32d 463e 72a2 f43e
00000090: 805f 3b3c ddae 3b3c 3f2b 423c b0e0 353c
000000a0: d42f 363c 5da4 3c3c 1ecd 353c 6c1a 363c
000000b0: 3090 3c3c bcca a7be 4b19 9abd b69b 6c3e
000000c0: b622 e2bd ab10 dbbd 94ef a43d 3f07 5bbe
000000d0: 3ecf 39bc 2651 e6bb fb53 a93d f4f2 9a3d
000000e0: c44f 033e e741 9d3d a3a0 9b3d 373b 003e
000000f0: 8eae ba3d 252f be3d d491 223e 0ec9 f83c
00000100: 11fd c6bd 339c 60bd b8ac 9b3c f782 a83c
00000110: 8511 a2bd eb97 4e3d 3d27 31be 28fc 3f3d
00000120: a44d ad3c a246 dc3c 119a 443c 46d0 443c
00000130: 449f d83c db97 1f3d fa39 b33c d885 e13c
00000140: 9f98 073d 5480 1a3c 5e34 99bd 0b5d 51bc
00000150: a58e 1e3d c6b1 ec3d f382 43bd f806 d23c
00000160: 01e7 8abd 1116 923c 1a34 863c 51d4 653c
00000170: f774 863c 0a54 863c a5e1 653c 4390 863c
00000180: d953 863c 4d21 663c 0390 863c 664b 12be
00000190: 67f2 0fbe 00f2 1bbe 4089 a6be eb10 93be
000001a0: 7ee5 d4be 4b36 d4be 8b0c f5be 1577 ffbe
000001b0: 63a1 6f3b fdc2 6f3b 9d89 703b 8e92 713b
000001c0: d5a5 713b 0ea7 723b a753 713b 3f44 713b
000001d0: ca76 723b 2ca7 d03e 6df0 0a3f 1f4d ee3e
000001e0: 38bd 933e b4b4 513e 5a53 c63e ffd1 993e
000001f0: 7fc0 883e 6f07 173e e4ce 5ebd 8cd4 80bd
00000200: 62ce 9fbd 5e95 d5bd 1f70 93bd 3d22 adbd
00000210: 93f5 64bd b5c7 14bd 64fa e0bc 4f2d 123d
00000220: 2393 27bd a018 87bc 1429 82bc a6fc 933b
00000230: 043c b7bc 4991 5e3d d2d4 9abc 54a3 e9bc
00000240: 91b6 5a3d d64b 2c3d c782 343d b7b2 263d
00000250: a1a9 303d 73ae 533d 0a7c 573d f2c0 6d3d
00000260: 7ad1 4d3d b5d3 f8bd 476c abbd 81d9 cb3d
00000270: 0a60 c7bc 3928 2ebd d326 883d dbab 363e
00000280: fa3a 5a3d f4bb 7a3c 2e3c 97bc 1e96 98bc
00000290: 4490 98bc 197c 98bc 31cb 99bc a5ca 99bc
000002a0: f28a 9dbc 9dd3 9ebc efcf 9ebc c1ba 1d3e
000002b0: 57b7 06bc d905 5cbd 7728 283e 8b49 d0bd
000002c0: 084c 46be fcf0 8c3c d8ae 2bbe 2656 70be
000002d0: 838f 3abc 5303 3dbc 4cf6 3cbc e83b 3cbc
000002e0: d068 3ebc f262 3ebc f001 42bc 6601 44bc
000002f0: 2ef5 43bc ee88 ce3e d583 713e dd36 1f3e
00000300: 1578 893e 37c1 0a3e 8ed7 8b3c e80d a03e
00000310: 9a01 283d aa44 fbbd 2cee c6bc 39da 99bc
00000320: b9f3 d5bc 94de 58bc ca12 a3bc 86bc 05bc
00000330: 9de6 14bd c8fa c7bb 2355 9abc e366 d2ba
00000340: 7dcc 1c3c e054 143d 03a0 763d cc32 d33b
00000350: 96bf f63b 0bf5 e33c b4c1 c63c d907 d5bc
00000360: 713a 423e 51c0 463e c64b 3f3e 9686 4b3e
00000370: 7fbe 4a3e 2d3d 483e 18f3 213e 17e7 283e
00000380: 79f7 1e3e 33ee 28bd 4974 3fbd 5677 66bd
00000390: 33bd 533e df4b 953e bdcb cebd cc69 5d3e
000003a0: 863e 573e 493c c13a 7313 07ba cc3a 93bb
000003b0: dc03 963a a875 86ba 6dcd a7bb 34fb 3a3a
000003c0: 3da2 613b 56dd dbba 7740 ac3b dc2c 0e3d
000003d0: 97e8 c23d 5301 4b3d eb71 aa3e 1c28 813d
000003e0: fc6d 043e b29f 273f dc50 0d3f 11a9 943d
000003f0: b109 10ba 5783 19ba 1ead 2fba a3cb 39ba

down_path.0.block.3.bias f4 [8]
-0.101026334 -0.089969285 0.056324627 0.49236462 0.28631902 -0.34030443 0.3011239 0.0135339955
00000000: e5e6 cebd d141 b8bd a7b4 663d 3717 fc3e
00000010: 6898 923e 623c aebe e92c 9a3e b1bd 5d3c

down_path.0.block.5.weight f4 [8]
0.61024237 0.766423 0.65230894 0.70284283 0.92914826 0.3748822 1.2387589 0.8595029
00000000: d838 1c3f 4c34 443f b8fd 263f 82ed 333f
00000010: a9dc 6d3f 8ff0 bf3e a78f 9e3f 6208 5c3f

down_path.0.block.5.bias f4 [8]
0.2852094 -0.12530202 0.114858165 -0.098464444 -0.23110989 -0.15343903 -0.13321 -0.09734352
00000000: f706 923e 2c4f 00be c23a eb3d baa7 c9bd
00000010: 12a8 6cbe 1f1f 1dbe 3468 08be 0a5c c7bd

down_path.0.block.5.running_mean f4 [8]
0.02236845 0.30111465 0.48333701 1.4887831 0.95487934 0.0020764626 0.370344 0.41925624
00000000: 0a3e b73c b32b 9a3e f377 f73e 7290 be3f
00000010: f972 743f 4315 083b bb9d bd3e c1a8 d63e

down_path.0.block.5.running_var f4 [8]
0.22544077 0.45794937 0.89834625 0.65568906 1.1292728 0.006744272 0.079348005 0.34822708
00000000: f2d9 663e 5778 ea3e 05fa 653f 3ddb 273f
00000010: 038c 903f 0eff dc3b 3581 a23d d24a b23e

down_path.1.block.0.weight f4 [16, 8, 3, 3]
-0.07339162 -0.08869755 -0.077535726 -0.09610399 -0.11989076 -0.110034175 -0.07409826 -0.09924467
-0.114713766 0.058057956 0.032021273 -0.02973492 0.02969635 0.015957367 -0.045224972 -0.028539708
-0.028343374 -0.07677096 -0.0004505216 -0.016394017 -0.07350417 -0.04311809 -0.049840547 -0.09434525
-0.08540356 -0.097183906 -0.12669452 -0.03360506 -0.016504375 0.020841597 -0.014923257 0.0017664895
0.009463376 0.030042438 0.032789577 0.019227372 -0.033971403 0.0037682436 0.04929064 0.05528924
0.07502396 0.07560506 0.13081808 0.14979592 0.11248695 0.03763278 0.03915106 0.039052185
0.026487319 0.039031286 0.037508253 0.021181334 0.051267136 0.038245626 -0.09969571 -0.033773426
-0.14096813 -0.123178296 -0.005195252 -0.08759487 0.023991996 0.09367862 0.0031021917 -0.09941211
-0.08582247 -0.05316171 -0.065944076 -0.074755915 -0.04348621 0.0005819466 0.017572004 0.003356162
-0.30125308 0.14583105 0.15538634 -0.0853271 -0.0010591972 0.3093186 -0.022663245 0.11967943
0.2596052 0.029538264 -0.03956362 0.10116552 -0.10155171 -0.02796446 0.034432855 0.0009707121
-0.1272478 -0.02801945 0.060734473 -0.04664197 -0.0628143 -0.21673071 -0.0528613 -0.10160567
-0.2743575 -0.086763896 -0.16987796 -0.26778892 -0.23044507 0.018512676 -0.14612544 -0.1774651
-0.08361029 -0.03545163 -0.17939906 0.024806062 -0.3109829 -0.29425922 -0.24621104 -0.048738237
-0.08326153 -0.14144795 0.3049023 0.33874872 0.17731066 -0.0694703 -0.16209885 -0.02109831
-0.012831372 -0.11281129 0.012091921 0.004980858 -0.0017391708 -0.020824917 0.40386748 -0.10741007
-0.5494834 0.21166892 -0.1485532 -0.5564032 0.39723703 -0.0596512 -0.63026476 -0.29394138
-0.25436988 -0.20921738 -0.089977875 0.060891397 0.057755835 0.48022044 0.3597377 0.26997712
-0.0322156 -0.020670688 -0.021250896 -0.051513586 -0.038130257 -0.05708502 -0.032694325 -0.02627122
-0.042578593 0.10077726 0.12859827 0.12195576 0.18360506 0.19960769 0.19505577 0.17518646
0.17904289 0.18532468 -0.072378926 -0.06367959 -0.057917222 -0.02844806 -0.02172747 -0.018602587
-0.043936163 -0.027511735 -0.01256327 -0.077694595 -0.059132706 -0.035653148 -0.13878275 -0.121145606
-0.1176482 -0.09553126 -0.08449584 -0.08763113 -0.033263475 0.09009397 0.029314216 -0.060172737
0.0037405926 0.012395572 0.008733211 0.024609381 -0.008699523 -0.005374309 0.0047207167 0.015822385
-0.025327217 -0.0060811876 0.013858743 -0.008705656 0.006057187 0.016673874 0.06468199 0.016068477
0.049372688 0.09042548 -0.008270816 0.04099355 0.01907675 -0.015274869 0.041477133 0.047338575
0.034259833 -0.008359309 0.050729632 0.040536437 -0.024272675 0.099867426 0.02115089 0.014309273
-0.041492436 -0.12992069 -0.05761158 -0.07429839 -0.09633047 -0.11884343 -0.05637252 -0.13416025
-0.15814483 -0.04171423 -0.027864607 0.0148768695 -0.053877164 0.12289562 0.12600823 -0.0054502077
0.05622925 0.09347786 -0.09485779 -0.07473979 -0.058826063 -0.058367383 -0.006469139 -0.005374168
-0.019645369 -0.036435276 -0.060698044 0.09662062 -0.04651456 -0.13547407 -0.03482373 -0.1361161
-0.17927237 0.02186559 -0.13697003 -0.19349341 -0.051118705 -0.031379532 -0.065751046 -0.08431204
00000000: 584e 96bd 10a7 b5bd 0dcb 9ebd 2bd2 c4bd
00000010: 4989 f5bd 9959 e1bd d4c0 97bd ca40 cbbd
00000020: 0def eabd 2ece 6d3d bd28 033d a696 f3bc
00000030: c345 f33c 06b9 823c d23d 39bd 1bcc e9bc
00000040: 5d30 e8bc 183a 9dbd fc33 ecb9 bf4c 86bc
00000050: 5b89 96bd 989c 30bd 9a25 4cbd 1538 c1bd
00000060: 10e8 aebd 5b08 c7bd 35bc 01be 76a5 09bd
00000070: 2f34 87bc ffbb aa3c ad80 74bc 8d89 e73a
00000080: 470c 1b3c 8f1b f63c 5d4e 063d b982 9d3c
00000090: 9925 0bbd a3f4 763b fbe4 493d f876 623d
000000a0: 29a6 993d d3d6 9a3d 2df5 053e 1a64 193e
000000b0: 8f5f e63d d424 1a3d dd5c 203d 2ff5 1f3d
000000c0: effb d83c 45df 1f3d 41a2 193d 7a84 ad3c
000000d0: 7dfd 513d 72a7 1c3d 442d ccbd 0156 0abd
000000e0: f359 10be e744 fcbd ef3c aabb f064 b3bd
000000f0: dd8a c43c 94da bf3d 244e 4b3b 9498 cbbd
00000100: b1c3 afbd 18c0 59bd b00d 87bd a119 99bd
00000110: 991e 32bd c68d 183a 2af3 8f3c 0ef3 5b3b
00000120: d83d 9abe bc54 153e 991d 1f3e f9bf aebd
00000130: c3d4 8aba 025f 9e3e 45a8 b9bc 7d1a f53d
00000140: f9ea 843e 3bfa f13c 760d 22bd de2f cf3d
00000150: 58fa cfbd b915 e5bc 7709 0d3d 6377 7e3a
00000160: 3f4d 02be 0c89 e5bc b6c4 783d a60b 3fbd
00000170: c9a4 80bd a8ee 5dbe 1785 58bd a216 d0bd
00000180: 9678 8cbe 45b1 b1bd 7df4 2dbe a11b 89be
00000190: cbf9 6bbe e5a7 973c e8a1 15be 69b9 35be
000001a0: df3b abbd ba35 11bd 63b4 37be 1536 cb3c
000001b0: 2739 9fbe 25a9 96be bf1e 7cbe bfa1 47bd
000001c0: 0585 aabd bbd7 10be 271c 9c3e 7970 ad3e
000001d0: ed90 353e 7246 8ebd 3efd 25be 5dd6 acbc
000001e0: ad3a 52bc 9b09 e7bd 311d 463c 7736 a33b
000001f0: e3f4 e3ba 0499 aabc b8c7 ce3e d0f9 dbbd
00000200: f2aa 0cbf bdbf 583e 541e 18be 7170 0ebf
00000210: a762 cb3e d154 74bd 0859 21bf 7c7f 96be
00000220: c53c 82be 153d 56be 5246 b8bd 4269 793d
00000230: 6291 6c3d 74df f53e 8a2f b83e 713a 8a3e
00000240: 81f4 03bd 9355 a9bc 5c16 aebc e9ff 52bd
00000250: 792e 1cbd fbd1 69bd 7cea 05bd be36 d7bc
00000260: e466 2ebd 4f64 ce3d 44af 033e f1c3 f93d
00000270: f702 3c3e f565 4c3e b3bc 473e 1464 333e
00000280: 0557 373e c1c5 3d3e 673b 94bd 726a 82bd
00000290: 9c3a 6dbd e80b e9bc cffd b1bc 7464 98bc
000002a0: 68f6 33bd 4a60 e1bc 2cd6 4dbc 581e 9fbd
000002b0: 2335 72bd 0909 12bd 111d 0ebe 301b f8bd
000002c0: 8af1 f0bd e5a5 c3bd 280c adbd f377 b3bd
000002d0: 483f 08bd 3083 b83d 5e24 f03c b077 76bd
000002e0: bb24 753b cc16 4b3c be15 0f3c 9d99 c93c
000002f0: 7288 0ebc f91a b0bb 3eb0 9a3b f29d 813c
00000300: 067b cfbc b344 c7bb c80f 633c 2ba2 0ebc
00000310: 5e7b c63b a697 883c fe77 843d 0aa2 833c
00000320: 043b 4a3d fe30 b93d 5182 07bc dae8 273d
00000330: d846 9c3c 7243 7abc ede3 293d 18e6 413d
00000340: 0a54 0c3d 7cf5 08bc e0c9 4f3d 8909 263d
00000350: 7dd7 c6bc 4b87 cc3d a244 ad3c 7171 6a3c
00000360: f9f3 29bd ee09 05be 1ffa 6bbd c129 98bd
00000370: e948 c5bd 2f64 f3bd dfe6 66bd 4e61 09be
00000380: b8f0 21be 8adc 2abd 5144 e4bc 1dbe 733c
00000390: 4dae 5cbd b3b0 fb3d 4d08 013e a897 b2bb
000003a0: a450 663d 5271 bf3d cd44 c2bd 2d11 99bd
000003b0: 99f3 70bd a312 6fbd 12fb d3bb ca19 b0bb
000003c0: 53ef a0bc 283d 15bd 839e 78bd 08e1 c53d
000003d0: 0d86 3ebd b7b9 0abe 54a3 0ebd 0562 0bbe
000003e0: 2d93 37be 771f b33c df41 0cbe 2323 46be
000003f0: d961 51bd d387 00bd 7ca8 86bd caab acbd

down_path.1.block.0.bias f4 [16]
-0.18895862 0.0697023 -0.19826473 -0.05269082 -0.054534867 0.19597137 -0.016730243 -0.10641353
-0.18893711 -0.036692455 -0.36313692 0.052247476 -0.040641405 -0.13225912 -0.16870499 -0.30125922
00000000: 5e7e 41be 14c0 8e3d e905 4bbe 54d2 57bd
00000010: f45f 5fbd b8ac 483e dd0d 89bc 56ef d9bd
00000020: bb78 41be d44a 16bd 15ed b9be 7301 563d
00000030: 9a77 26bd ef6e 07be 00c1 2cbe a63e 9abe

down_path.1.block.2.weight f4 [16]
0.12650177 1.3453102 0.20713565 0.42410675 0.3234946 1.2363207 0.073808916 0.37022248
0.42526042 0.003857971 1.0369786 0.57181776 0.35466927 0.9338846 0.296796 0.45443717
00000000: ae89 013e 2033 ac3f 5e1b 543e 8524 d93e
00000010: 16a1 a53e c23f 9e3f 2129 973d cd8d bd3e
00000020: bcbb d93e 03d6 7c3b b7bb 843f a662 123f
00000030: 3697 b53e 1013 6f3f a5f5 973e fdab e83e

down_path.1.block.2.bias f4 [16]
0.081951976 -0.43332353 -0.0046601165 0.28043774 0.25238112 -0.0860647 0.092521444 -0.15485495
-0.03345565 0.0070064957 0.417902 -0.17819586 0.26194063 -0.2603478 -0.34447983 0.17567614
00000000: 70d6 a73d 95dc ddbe e4b3 98bb 8995 8f3e
00000010: 1938 813e b042 b0bd e27b bd3d 4c92 1ebe
00000020: cb08 09bd bf96 e53b 40f7 d53e fa78 36be
00000030: 151d 863e 4f4c 85be a95f b0be 72e4 333e

down_path.1.block.2.running_mean f4 [16]
0.05930953 0.7640528 0.3703232 0.5273275 0.50134474 0.91884565 0.47828966 0.36416465
0.48663172 0.13454585 0.42243293 0.93855464 0.39066714 0.59926116 0.34674275 0.072281174
00000000: 8dee 723d f798 433f 019b bd3e effe 063f
00000010: 2158 003f 7839 6b3f 62e2 f43e ca73 ba3e
00000020: cb27 f93e 63c6 093e 2149 d83e 1e45 703f
00000030: 8605 c83e 2e69 193f 4488 b13e 2708 943d

down_path.1.block.2.running_var f4 [16]
0.045887984 1.3152357 0.6220232 0.89031374 1.1971238 1.1880026 0.41120023 0.56793
1.9908117 0.1262907 1.4547672 4.6992955 0.723706 2.2626324 0.2678488 0.14071377
00000000: 0af5 3b3d a559 a83f ea3c 1f3f 9aeb 633f
00000010: 5a3b 993f 7810 983f d688 d23e dc63 113f
00000020: ebd2 fe3f 5952 013e d035 ba3f a160 9640
00000030: cc44 393f f8ce 1040 7a23 893e 4517 103e

down_path.1.block.3.weight f4 [16, 16, 3, 3]
-0.014484954 -0.024584414 -0.043378618 -0.014785772 -0.03562069 -0.06230633 -0.013888908 -0.022933457
-0.05698696 -0.02832308 0.0003460465 -0.020345002 -0.041881945 0.0036559731 -0.05085107 -0.07222102
-0.07208297 -0.04425904 0.10761733 0.11913598 0.13377096 0.10867639 0.10277129 0.099594735
0.10802823 0.09189243 0.11037484 0.04685198 0.06425787 0.031904884 0.031520426 0.06358328
0.05225788 0.07963983 0.14264888 0.104318805 -0.11078167 -0.13163748 -0.11036809 -0.062570475
-0.08679427 -0.09911661 -0.05146711 -0.08048352 -0.09997862 -0.32439578 -0.12420354 0.11068928
-0.20064335 -0.1059674 0.026647057 -0.24349327 -0.1415862 0.07724788 0.022230722 0.031673048
0.05114395 0.0064421613 0.0036739595 0.035083454 0.02195795 -0.0023160556 0.032024506 0.05940988
0.019163659 0.0050332947 -0.02684268 -0.01262683 -0.030742941 0.002630261 0.041595574 0.050725423
0.1409975 0.123094276 0.12818456 0.114304975 0.10547374 0.1251785 0.11394953 0.12165751
0.12056818 -1.3312724e-05 -0.00014479527 -0.00031391197 -0.0013678767 -0.0014823822 -0.0010186515 -0.0015471056
-0.0016773209 -0.0003707042 0.1817165 -0.06039034 -0.0824341 0.16896051 0.010117239 -0.0057483576
0.2011882 0.049894094 -0.036837216 0.06662214 0.008928331 -0.038968205 0.067878775 0.015950322
-0.021974882 0.085370906 0.04204343 -0.0020666565 0.065501586 0.10107981 0.094860084 0.043100014
0.051058132 0.025485506 -0.02982938 0.068904564 0.044034082 0.40159795 0.18864612 0.08312172
0.29865023 0.18115883 0.10839315 0.3980726 0.29089245 0.16242377 0.08455338 0.12639484
0.12383553 0.053799022 0.1104951 0.09081091 0.035848185 0.12606329 0.18181962 0.052530367
0.012776072 -0.0410832 0.0327891 -0.023053607 -0.10031961 -0.0016841724 -0.04753438 -0.09399448
-0.04328092 -0.001345196 -0.002847805 -0.04180518 -0.029390216 -0.021077808 -0.037081003 -0.051089805
-0.04721216 -0.20897418 -0.15541701 0.29190305 0.028842753 0.028411802 0.0061447555 0.18937153
0.097363696 -0.3413106 -0.015495402 -0.0065004798 0.0047628786 -0.020181572 -0.015062507 -0.0019417034
-0.019132147 -0.012231396 0.0010089737 0.061045386 0.0776663 0.010463877 -0.003871345 -0.01442354
-0.0024448298 -0.03371778 -0.050706837 0.02073455 -0.018402705 -0.05056351 -0.073835835 -0.070918635
-0.05134441 -0.020943899 -0.08756541 -0.032071907 0.010580998 -0.2641115 -0.22200054 0.24032491
-0.0098362835 -0.009520126 0.007969409 0.3039387 0.20469543 -0.17571625 -0.016832247 0.023300093
0.02498924 -0.0064800503 -0.0068947477 0.006449195 0.00023769797 -0.021519806 -0.008790313 -0.03980192
-0.03912622 -0.06851056 -0.031497758 -0.056758557 -0.064389355 -0.08191417 -0.08740694 -0.067430146
-0.024157973 -0.027701402 -0.023114884 -0.036379278 -0.034979954 -0.026542405 -0.039140735 -0.042244166
-0.03143019 0.0010209418 0.0007956347 0.0011678799 0.0007460333 0.001910525 0.0024592436 0.00086749555
0.0029655204 0.0042139683 -0.03446081 0.0026791336 -0.018786106 -0.13511962 -0.08720123 -0.03789224
-0.17708397 -0.13559279 -0.04844172 -0.061211847 -0.04103123 -0.052285045 -0.04452089 -0.024448872
-0.026984153 -0.06253682 -0.04326661 -0.037846394 -0.063789375 0.06160051 0.0645224 5.8699374e-05
00000000: 4d52 6dbc 4165 c9bc c7ad 31bd 0640 72bc
00000010: 00e7 11bd ec34 7fbd 4d8e 63bc f2de bbbc
00000020: 296b 69bd ce05 e8bc 936d b539 90aa a6bc
00000030: 678c 2bbd 0d99 6f3b 3649 50bd 9de8 93bd
00000040: 3ca0 93bd f848 35bd 7a66 dc3d 91fd f33d
00000050: 41fb 083e ba91 de3d c179 d23d 53f8 cb3d
00000060: e83d dd3d 1932 bc3d 340c e23d dde7 3f3d
00000070: a199 833d b2ae 023d 901b 013d f337 823d
00000080: 5c0c 563d 351a a33d 8c12 123e 19a5 d53d
00000090: 80e1 e2bd facb 06be aa08 e2bd f324 80bd
000000a0: 32c1 b1bd a6fd cabd 2dcf 52bd 8bd4 a4bd
000000b0: 97c1 ccbd 3417 a6be 6d5e febd 10b1 e23d
000000c0: 7375 4dbe 7005 d9bd ee4a da3c 4d56 79be
000000d0: f9fb 10be 2334 9e3d 341d b63c 99bb 013d
000000e0: 527c 513d c418 d33b d0c6 703b abb3 0f3d
000000f0: 29e1 b33c f7c8 17bb 212c 033d c657 733d
00000100: 1bfd 9c3c 56ee a43b 2ee5 dbbc c3e0 4ebc
00000110: 9fd8 fbbc 7560 2c3b 1f60 2a3d 76c5 4f3d
00000120: a661 103e da18 fc3d d042 033e ba18 ea3d
00000130: 9e02 d83d cb2e 003e 5f5e e93d 9327 f93d
00000140: 73ec f63d b759 5fb7 2fd4 17b9 8d94 a4b9
00000150: 534a b3ba 7e4c c2ba 4684 85ba 40c8 caba
00000160: 8dd9 dbba 135b c2b9 e413 3a3e dc5b 77bd
00000170: 36d3 a8bd fc03 2d3e c7c2 253c b85c bcbb
00000180: 4804 4e3e c05d 4c3d 9fe2 16bd 3071 883d
00000190: 2248 123c 209d 1fbd 0704 8b3d 40aa 823c
000001a0: ab04 b4bc f1d6 ae3d bb35 2c3d be70 07bb
000001b0: b225 863d ee02 cf3d 0146 c23d a489 303d
000001c0: 5522 513d fbc6 d03c be5c f4bc d61d 8d3d
000001d0: 155d 343d 3f9e cd3e 732c 413e b83b aa3d
000001e0: afe8 983e b381 393e 3afd dd3d 2cd0 cb3e
000001f0: dbef 943e 6b52 263e 532a ad3d a66d 013e
00000200: 7b9d fd3d 5d5c 5c3d 414b e23d 12fb b93d
00000210: 8cd5 123d bc16 013e ec2e 3a3e 152a 573d
00000220: bb52 513c dc46 28bd dd4d 063d ebda bcbc
00000230: 5e74 cdbd 73bf dcba 69b3 42bd 2e80 c0bd
00000240: 5547 31bd 4a51 b0ba 3da2 3abb e93b 2bbd
00000250: c0c3 f0bc 5eab acbc 40e2 17bd 8b43 51bd
00000260: 8a61 41bd 54fd 55be a325 1fbe 5174 953e
00000270: a347 ec3c debf e83c f259 c93b 9cea 413e
00000280: 9e66 c73d 43c0 aebe 6de0 7dbc fa01 d5bb
00000290: ec11 9c3b d353 a5bc bcc8 76bc c180 feba
000002a0: 05bb 9cbc 3166 48bc 8a3f 843a ba0a 7a3d
000002b0: 820f 9f3d ae70 2b3c 64b6 7dbb b650 6cbc
000002c0: 7039 20bb a81b 0abd f9b1 4fbd 81db a93c
000002d0: 45c1 96bc af1b 4fbd 3e37 97bd ca3d 91bd
000002e0: 844e 52bd 8a92 abbc 7e55 b3bd d55d 03bd
000002f0: ec5b 2d3c 9f39 87be 1c54 63be bc17 763e
00000300: 5d28 21bc 4dfa 1bbc 2092 023c da9d 9b3e
00000310: ae9b 513e f6ee 33be c8e3 89bc d6df be3c
00000320: 3cb6 cc3c 9a56 d4bb 56ed e1bb c553 d33b
00000330: 903e 7939 4e4a b0bc 3f05 10bc 5707 23bd
00000340: d142 20bd 444f 8cbd cb03 01bd a97b 68bd
00000350: 91de 83bd 9ec2 a7bd 6902 b3bd d118 8abd
00000360: f1e6 c5bc 0dee e2bc 6d5b bdbc 7002 15bd
00000370: 2447 0fbd 756f d9bc 0952 20bd 3808 2dbd
00000380: f1bc 00bd 1fd1 853a 2492 503a 8c13 993a
00000390: 7391 433a 956a fa3a 432b 213b a468 633a
000003a0: 2d59 423b 5415 8a3b c726 0dbd 6794 2f3b
000003b0: 52e5 99bc cc5c 0abe 8f96 b2bd e534 1bbd
000003c0: 8055 35be d6d8 0abe d36a 46bd 46b9 7abd
000003d0: 5d10 28bd d828 56bd 895b 36bd 0049 c8bc
000003e0: df0d ddbc 4e13 80bd 5438 31bd d204 1bbd
000003f0: 01a4 82bd d150 7c3d 5224 843d f933 7638

down_path.1.block.3.bias f4 [16]
-0.15110587 -0.1460374 0.046873707 -0.11447431 -0.0401719 -0.099894136 -0.075165644 0.023415418
-0.067544475 -0.12156468 -0.22184776 -0.039490875 -0.20853466 -0.013879882 -0.29423553 -0.16025518
00000000: 7fbb 1abe d48a 15be a5fe 3f3d 8271 eabd
00000010: 4a8b 24bd 4c95 ccbd 72f0 99bd b1d1 bf3c
00000020: c254 8abd e7f6 f8bd 0f2c 63be 2fc1 21bd
00000030: 1c8a 55be 7268 63bc 0aa6 96be ef19 24be

down_path.1.block.5.weight f4 [16]
0.5213492 0.19273292 0.17821656 0.5362593 0.37812397 0.37585402 0.16418666 0.23700914
0.17638926 0.3832763 0.4960738 0.6712038 0.37438914 0.0014187836 1.2941098 0.32474732
00000000: 2477 053f c75b 453e 677e 363e 4a48 093f
00000010: 7799 c13e f06f c03e 8c20 283e 86b2 723e
00000020: 639f 343e cb3c c43e 63fd fd3e 03d4 2b3f
00000030: efaf bf3e 7af6 b93a 64a5 a53f 4845 a63e

down_path.1.block.5.bias f4 [16]
-0.03865105 0.015103168 0.001757403 0.0034616548 -0.18512349 0.042248037 -0.12423067 0.055066228
-0.006337132 0.08155928 -0.15947965 -0.004191348 0.132097 -0.00068225554 -0.37459132 -0.12813199
00000000: 9050 1ebd 4773 773c a958 e63a eedc 623b
00000010: 0391 3dbe 470c 2d3d a66c febd 208d 613d
00000020: b7a7 cfbb 8d08 a73d a24e 23be 9357 89bb
00000030: 7044 073e 65d9 32ba 6fca bfbe 0835 03be

down_path.1.block.5.running_mean f4 [16]
0.71953005 0.15975086 0.5937265 0.17774461 0.21468367 0.14789341 0.2711836 0.8685675
0.3240257 0.049647182 0.3329569 0.036284406 0.106980965 0.012336154 1.2060939 0.06551447
00000000: 1f33 383f bb95 233e 76fe 173f af02 363e
00000010: 09d6 5b3e 5f71 173e 94d8 8a3e 715a 5e3f
00000020: b2e6 a53e d85a 4b3d 5479 aa3e f59e 143d
00000030: d618 db3d 941d 4a3c 4961 9a3f 732c 863d

down_path.1.block.5.running_var f4 [16]
4.321161 0.15220916 1.4048057 0.26241606 0.7051544 0.47101477 0.8833471 0.70367604
0.656993 0.09978193 1.8108793 0.07053935 0.2810572 0.0037739852 10.776843 0.09640604
00000000: f346 8a40 b8dc 1b3e acd0 b33f 665b 863e
00000010: 0085 343f d928 f13e 0923 623f 1d24 343f
00000020: b130 283f 785a cc3d e5ca e73f ef76 903d
00000030: bbe6 8f3e f754 773b f36d 2c41 8870 c53d

down_path.2.block.0.weight f4 [32, 16, 3, 3]
0.000695755 0.002577053 0.0035971263 0.00152174 0.0040793912 0.004795873 0.0021589736 0.004232438
0.0051222304 0.00027221817 0.00018856248 0.00024479785 0.00044823432 6.3618616e-05 0.00038340135 -5.3168238e-05
-3.8162823e-05 0.00028261953 0.0019311198 0.0017541279 0.00094905234 0.0011174727 0.00089782506 -0.00013861258
0.0005325822 0.00045454685 -0.0003343165 7.256333e-05 -0.0003702354 -0.002126876 0.0018162003 0.0008081252
-0.0006541823 0.0011526361 0.0008165917 2.015696e-05 -5.3446678e-05 -0.000111943926 -0.00091175287 0.0017118613
0.00015062104 -0.0006199556 0.0016111846 -0.000123938 -0.0007225169 -0.0010424313 -0.00076107704 0.00031998576
-0.0008175754 -0.00043574904 0.00081077806 -0.0007885899 -0.00034005597 0.001038021 0.00022958743 0.00025186304
1.368448e-05 0.0007105305 0.00039053394 9.5451745e-05 0.0010886984 0.000565852 0.00015862296 0.0009850059
0.00061558676 0.0009297262 0.00096402125 0.00038898338 0.00090516405 0.00029471095 8.87667e-05 0.0006085419
-0.00088698487 3.572606e-05 0.00014040354 -0.00015319206 0.00083034346 0.0008284708 3.2347267e-05 0.00095643284
0.0009463022 -0.0016605668 -0.0006932879 -0.0013020387 -0.0011408788 -0.00022010322 -0.00062587217 -0.00086847506
2.4736717e-06 -0.00033099338 -4.87811e-05 -0.0007755024 0.0004996592 0.0007927202 -0.00070926436 0.001249838
0.00111775 -0.0008761445 0.001549459 0.0041081575 0.0019559371 0.0011514963 0.0027017342 0.0005801663
0.00045645106 0.00289219 0.001833239 0.0008912904 -0.0004329951 -0.0006491571 0.00012240169 -0.00018078118
-0.00041287803 0.00076400454 -0.00039015405 -0.0006183569 0.00097479875 -6.560625e-08 -1.9428612e-06 -3.1148488e-06
3.7880972e-07 -1.7106623e-06 -5.2219416e-06 -1.0224891e-06 -2.8033085e-06 -5.3697445e-06 0.0012570433 0.00034308492
-0.004793936 0.010380816 0.0017931022 -0.0053318343 0.0086891735 0.0018547807 -0.0057341573 -0.0014794123
-0.0007392143 -0.0005078067 -0.00015392745 0.00088275614 0.001256713 -0.00010518055 0.0007382424 0.0014409008
0.016861167 0.008904444 0.0047517824 0.024134513 0.019049771 0.014549565 0.026169155 0.020921404
0.012243049 -0.0020269987 -0.0010710382 -0.00092233066 -0.00569105 -0.006946384 -0.0034273225 -0.008866251
-0.008781767 0.0008317711 0.007854802 0.008679376 0.006204475 0.0074477103 0.009930071 0.007968453
0.0057916315 0.0075479327 0.004294409 -0.0006935712 0.003164363 0.0021517992 0.002926861 0.0030041025
0.0025034412 7.921621e-05 -0.0028733397 -0.00050391856 -0.007825645 -0.0077502257 -0.008133193 -0.003418025
-0.0021800478 -0.0026889013 -0.005792225 -0.0069981655 -0.0048238994 -0.00825486 -0.011171735 -0.0032180625
-0.008993084 -0.010284179 0.0012915703 -0.0095311105 -0.010892867 0.0027142144 -0.0034615684 -0.003888392
-0.004492013 -0.0024364016 -0.0017024096 -0.0023294454 -0.0027001284 -0.0022435938 -0.00275225 -0.004513893
-0.004224066 -0.004253519 -0.014935893 -0.018042762 -0.016144812 -0.01842545 -0.020247566 -0.013141778
-0.004384481 -0.004576022 -0.006149752 -0.001585973 -0.00013637313 -0.0028671785 -0.00088343635 -0.0010430721
-0.005952833 -0.0009927481 -0.0010343476 0.0015079315 0.00051261106 0.00085020205 0.0035857675 -0.00037799307
-0.0008227889 0.0015360082 -0.010085259 -0.0064709308 -0.0051760827 -0.005109266 -0.0013901258 0.003063392
-0.009121798 -0.0077301883 0.005190532 0.010242777 0.007229023 -0.0037759808 -0.010476367 -0.0072306595
-0.012176484 0.0019414095 0.001300649 -0.002689636 -0.00022148492 -0.0015467893 0.00091243867 5.145764e-05
00000000: 5463 363a c6e3 283b c4bd 6b3b 1f75 c73a
00000010: 6aac 853b b326 9d3b 917d 0d3b 43b0 8a3b
00000020: 62d8 a73b 81b8 8e39 dbb8 4539 3658 8039
00000030: fe00 eb39 fc6a 8538 4203 c939 f600 5fb8
00000040: 0511 20b8 8d2c 9439 a11d fd3a c4ea e53a
00000050: d3c9 783a 2978 923a 055c 6b3a 8858 11b9
00000060: fd9c 0b3a 3f50 ee39 3347 afb9 242d 9838
00000070: 271c c2b9 0f63 0bbb 920d ee3a 5dd8 533a
00000080: 6e7d 2bba 0d14 973a 8b10 563a be16 a937
00000090: ef2b 60b8 70c3 eab8 b302 6fba 8960 e03a
000000a0: 07f0 1d39 8484 22ba 622e d33a 5bf5 01b9
000000b0: 4a67 3dba 31a2 88ba 0483 47ba c3c3 a739
000000c0: 8e52 56ba 3f75 e4b9 658a 543a 5fb9 4eba
000000d0: 8a49 b2b9 340e 883a 68bd 7039 7c0c 8439
000000e0: 6596 6537 e542 3a3a 94c0 cc39 442d c838
000000f0: a8b2 8e3a af55 143a 0754 2639 501b 813a
00000100: 545f 213a deb8 733a 5fb6 7c3a 77f0 cb39
00000110: 8848 6d3a 6f83 9a39 4228 ba38 8e86 1f3a
00000120: 8c84 68ba 91d8 1538 4a39 1339 2ea2 20b9
00000130: 68ab 593a bc2d 593a 9dac 0738 1fb9 7a3a
00000140: 4411 783a 60a7 d9ba c3bd 35ba 2ba9 aaba
00000150: 8a89 95ba 82cb 66b9 9211 24ba 60aa 63ba
00000160: 5b01 2636 2e89 adb9 4f9a 4cb8 164b 4bba
00000170: 90fb 023a 8dce 4f3a eded 39ba 9bd1 a33a
00000180: 7781 923a 10ad 65ba 3717 cb3a b99d 863b
00000190: 2e2f 003b ceed 963a 940f 313b 4d16 183a
000001a0: d34f ef39 e58a 3d3b 4b49 f03a 7ca5 693a
000001b0: 9e03 e3b9 322c 2aba f458 0039 1490 3db9
000001c0: 8d77 d8b9 7a47 483a 978d ccb9 3b19 22ba
000001d0: a389 7f3a 6be3 8cb3 1a62 02b6 b208 51b6
000001e0: 365f cb34 e999 e5b5 2338 afb6 753c 89b5
000001f0: 7920 3cb6 c12d b4b6 60c3 a43a 14e0 b339
00000200: 7316 9dbb 4c14 2a3c 8706 eb3a abb6 aebb
00000210: 095d 0e3c 1d1c f33a 99e5 bbbb d7e8 c1ba
00000220: d5c7 41ba 551e 05ba 9667 21b9 c368 673a
00000230: 4ab8 a43a 6194 dcb8 9c86 413a 9cdc bc3a
00000240: 6e20 8a3c f2e3 113c d7b4 9b3b beb5 c53c
00000250: 440e 9c3c 4c61 6e3c b260 d63c 5d63 ab3c
00000260: 1297 483c 65d7 04bb 1462 8cba 90c8 71ba
00000270: fd7b babb 7e9e e3bb ee9c 60bb c143 11bc
00000280: 67e1 0fbc 370b 5a3a 6db1 003c f133 0e3c
00000290: e94e cb3b ec0b f43b bdb1 223c 1d8e 023c
000002a0: bac7 bd3b a654 f73b 1db8 8c3b c6d0 35ba
000002b0: 3461 4f3b 3305 0d3b 94d0 3f3b 7ae0 443b
000002c0: c610 243b e120 a638 a44e 3cbb 6719 04ba
000002d0: 2237 00bc 9bf5 fdbb 1541 05bc f200 60bb
000002e0: 22df 0ebb 4738 30bb b4cc bdbb de50 e5bb
000002f0: cd11 9ebb 643f 07bc a709 37bc 21e6 52bb
00000300: ba57 13bc f97e 28bc e849 a93a 6028 1cbc
00000310: ff77 32bc f6e0 313b 7bdb 62bb 64d4 7ebb
00000320: bc31 93bb 09ac 1fbb 6323 dfba 9ca9 18bb
00000330: a3f4 30bb 4209 13bb 185f 34bb 47e9 93bb
00000340: 096a 8abb 1a61 8bbb adb5 74bc 6ace 93bc
00000350: 2042 84bc f8f0 96bc 39de a5bc 9d50 57bc
00000360: b1ab 8fbb 74f2 95bb dc83 c9bb 6ce0 cfba
00000370: 62ff 0eb9 46e7 3bbb 6996 67ba b1b7 88ba
00000380: fc0f c3bb 191f 82ba f292 87ba c9a5 c53a
00000390: bf60 063a 18e0 5e3a 32ff 6a3b 5f2d c6b9
000003a0: 6eb0 57ba e253 c93a a43c 25bc 1a0a d4bb
000003b0: 219c a9bb a16b a7bb e234 b6ba 30c3 483b
000003c0: 9873 15bc 854d fdbb 5715 aa3b 52d1 273c
000003d0: 71e1 ec3b 7276 77bb 11a5 2bbc 2bef ecbb
000003e0: e07f 47bc e576 fe3a 8a7a aa3a 9b44 30bb
000003f0: 683e 68b9 a3bd caba b930 6f3a 38d4 5738

down_path.2.block.0.bias f4 [32]
-0.0017338815 0.01544913 -0.010506776 -0.07650988 0.0020155453 -0.058035355 0.00605859 -0.065202
-0.1285246 -0.0011590883 -0.0013040047 -0.0076046456 -0.115100086 -3.5157118e-06 -0.0010228864 -0.0010877493
-0.009269281 -0.0048701614 -0.00082057243 0.004226546 -0.08564224 -0.10176241 0.0003286962 0.00597521
0.04879479 0.21297884 -0.011941307 -0.010988155 -0.2838803 -0.0018043331 -0.014607727 -0.0035671876
00000000: 6943 e3ba 591e 7d3c 9d24 2cbc 36b1 9cbd
00000010: 3d17 043b 7bb6 6dbd 2387 c63b a088 85bd
00000020: f49b 03be 8dec 97ba 23eb aaba 6430 f9bb
00000030: 98b9 ebbd 78ef 6bb6 5f12 86ba cf92 8eba
00000040: 2fde 17bc e095 9fbb af1b 57ba d67e 8a3b
00000050: 3365 afbd cf68 d0bd db54 ac39 b2cb c33b
00000060: 0cdd 473d 2017 5a3e 79a5 43bc aa07 34bc
00000070: c258 91be 5f7f ecba 3f55 6fbc 7ac7 69bb

down_path.2.block.2.weight f4 [32]
-0.001053489 -0.0042438484 0.018152056 -0.052848846 0.0038683305 0.27263543 0.0024468992 0.36507142
0.32749632 0.00023594659 -0.00016183389 0.13239825 0.6354259 1.0237249e-05 0.0014121222 5.3509128e-05
0.58743465 0.09195808 -6.676625e-05 -0.005599373 0.72075135 0.70389867 0.00052847975 0.018257795
0.52810246 0.76543665 0.0026368026 -0.0007554576 0.56726426 -0.00014646797 -0.0010582906 0.0017514601
00000000: 3a15 8aba fb0f 8bbb 9fb3 943c 0878 58bd
00000010: d183 7d3b df96 8b3e 285c 203b a4ea ba3e
00000020: 99ad a73e 6e68 7739 f4b1 29b9 6893 073e
00000030: 46ab 223f a6c0 2b37 f516 b93a fd6e 6038
00000040: 1e62 163f 8554 bc3d dc04 8cb8 f27a b7bb
00000050: 2983 383f b432 343f ad89 0a3a 5f91 953c
00000060: b931 073f a8f3 433f 35ce 2c3b e709 46ba
00000070: 3b38 113f 3295 19b9 57b6 8aba 4091 e53a

down_path.2.block.2.bias f4 [32]
0.0022071295 -0.026816117 0.014871231 -0.04861714 0.015593177 -0.05782711 0.0019146444 -0.08087394
-0.14380613 0.0012475605 0.0017769556 -0.054438617 -0.10392428 0.0008751491 -0.0011442129 -0.00011827904
0.24272436 0.0027145047 -0.005124391 0.0025359092 0.112315886 0.11764399 -0.0013824344 0.009724262
-0.13473089 0.22108732 0.004838305 -0.016860653 0.042372987 0.0029773985 -0.0052596517 0.00021336791
00000000: 7da5 103b 79ad dbbc 77a6 733c c422 47bd
00000010: 867a 7f3c 1fdc 6cbd cef4 fa3a 3ca1 a5bd
00000020: ea41 13be 2f85 a33a bce8 e83a 07fb 5ebd
00000030: 41d6 d4bd 436a 653a 6af9 95ba 930c f8b8
00000040: bc8c 783e d5e5 313b 82ea a7bb 7f31 263b
00000050: df05 e63d 55ef f03d cd32 b5ba 8352 1f3c
00000060: e5f6 09be b764 623e a58a 9e3b 5a1f 8abc
00000070: 4c8f 2d3d 7520 433b 2859 acbb 83bb 5f39

down_path.2.block.2.running_mean f4 [32]
0.015189283 0.08836627 0.023850441 0.032627128 0.12284649 0.11605042 0.025950326 0.27154693
0.28034344 0.0033083821 1.1665026e-05 0.1951419 0.69136596 2.1799555e-05 0.027835125 0.004648184
0.60474503 0.1900884 0.017496571 0.035233796 1.0346202 0.53194726 0.0022048615 0.069660164
0.91582215 0.76572937 0.028059058 0.049987916 0.16472222 0.009347412 0.03710753 0.012694654
00000000: 78dc 783c 60f9 b43d 0062 c33c 06a4 053d
00000010: f196 fb3d d8ab ed3d c795 d43c 3308 8b3e
00000020: 2d89 8f3e 71d1 583b e8b4 4337 47d3 473e
00000030: 5cfd 303f 30de b637 7d06 e43c cb4f 983b
00000040: 92d0 1a3f 89a6 423e f854 8f3c 5051 103d
00000050: 6f6e 843f b22d 083f 707f 103b fda9 8e3d
00000060: 5273 6a3f d706 443f 1cdc e53c 21c0 4c3d
00000070: f1ac 283e e325 193c 11fe 173d 3dfd 4f3c

down_path.2.block.2.running_var f4 [32]
0.0015484795 0.008734921 0.006511553 0.017188797 0.057773918 0.08868828 0.0006414875 0.5344326
0.090202436 0.00010323214 4.101908e-08 0.09931747 0.5889199 4.662103e-09 0.004884071 0.0001908366
1.7487615 0.063166685 0.001307048 0.0023022944 0.7185491 1.790335 2.7513042e-05 0.009001174
0.48622105 1.4676204 0.007957416 0.0033104243 0.23140994 0.0005948243 0.0076472233 0.0012547396
00000000: 5af6 ca3a ea1c 0f3c de5e d53b 85cf 8c3c
00000010: 58a4 6c3d 33a2 b53d 7f29 283a 93d0 083f
00000020: 0ebc b83d 557e d838 f52c 3033 f566 cb3d
00000030: 74c3 163f 4b30 a031 8f0a a03b 4f1b 4839
00000040: 6bd7 df3f 895d 813d 4151 ab3a 17e2 163b
00000050: d5f2 373f b329 e53f cfcb e637 a979 133c
00000060: f7f1 f83e fcda bb3f d25f 023c b4f3 583b
00000070: baf6 6c3e fced 1b3a 8f95 fa3b 1376 a43a

down_path.2.block.3.weight f4 [32, 32, 3, 3]
1.1428482e-08 8.530322e-09 8.001252e-09 2.4939018e-08 1.538445e-08 1.8633868e-08 9.862587e-09 8.557433e-09
7.834293e-09 8.026951e-09 2.25252e-08 2.3318032e-08 6.5006813e-09 1.3309954e-08 1.7466599e-08 4.1768105e-09
1.5493935e-08 2.4454524e-08 4.6147505e-10 4.5021334e-10 5.200946e-10 1.6472554e-10 1.1288407e-10 2.2290175e-10
7.900564e-11 -1.7607601e-11 8.951232e-11 1.949051e-09 2.3889896e-10 -1.0395839e-09 1.7718057e-09 -5.9174276e-12
-1.2121812e-09 3.718211e-09 1.4573183e-09 3.455331e-09 7.465218e-10 1.0401868e-09 1.0113115e-09 1.1294464e-09
1.1289988e-09 1.3458477e-09 1.2141267e-09 1.1935344e-09 1.2623127e-09 5.1268367e-09 1.5251695e-08 4.0564682e-08
-3.2295528e-09 1.5923318e-08 2.1133095e-08 -1.6835116e-08 -1.9160604e-08 -2.425791e-09 -1.7142462e-10 -1.3702013e-10
-1.4073034e-10 -1.8290562e-10 -1.2362175e-10 -1.6883035e-10 -1.624537e-10 -5.153082e-11 -1.5286934e-10 -1.0067721e-09
-2.875159e-09 4.5955595e-09 3.881597e-08 6.172493e-09 1.0965039e-08 3.4052466e-08 1.4336772e-08 2.532802e-08
4.2930633e-08 7.482105e-08 1.0098843e-07 -1.1708958e-08 1.6517124e-08 4.2228322e-08 -5.886438e-08 -3.7197612e-08
-1.093061e-09 -3.3391763e-09 -7.384651e-09 -5.8157403e-09 -7.3180555e-09 -1.2344727e-08 -6.870527e-09 -5.433961e-09
-1.3396427e-08 -9.0552e-09 -9.433984e-12 -5.5021326e-12 -5.4215066e-12 -3.429303e-12 2.8685593e-13 -1.0999665e-12
-2.6591901e-12 1.2829633e-12 1.1202983e-12 -4.902979e-07 -2.6363884e-07 -3.0538725e-08 -2.4904392e-07 -3.927152e-08
2.4475818e-07 1.2989746e-07 3.4887785e-07 6.361657e-07 -2.2422968e-07 -1.3262823e-07 -7.855935e-08 -2.1272264e-07
-1.0650973e-07 -5.9597973e-08 -1.2228939e-07 5.825042e-09 3.8900673e-08 2.0875086e-10 5.6581757e-11 8.5718085e-11
2.860883e-10 7.298955e-11 1.2731598e-10 2.55709e-10 1.2116122e-10 1.4125262e-10 1.7243196e-10 2.9435895e-10
9.2292195e-11 -3.2941327e-09 -5.270729e-09 -6.1541052e-09 -1.8208764e-10 -5.3321714e-10 -3.6650025e-10 -2.010088e-11
-1.9964945e-11 -2.659586e-11 -2.5789638e-11 -3.0896785e-11 -3.018724e-11 2.9604957e-11 4.4564172e-11 1.7034396e-11
4.6068237e-08 4.288131e-08 5.6648464e-08 6.104076e-08 5.5775356e-08 6.5780796e-08 6.041429e-08 6.0637674e-08
6.6678304e-08 -1.1911891e-08 -1.0523841e-08 -6.952991e-09 -2.0466791e-08 -1.7118243e-08 -1.2510815e-08 -1.4533843e-08
-1.04830296e-08 -6.2310574e-09 -6.9773043e-10 -7.2362827e-10 -7.440142e-10 -6.3151145e-10 -7.005695e-10 -7.224305e-10
-8.5866064e-10 -9.199403e-10 -9.541969e-10 -2.1625496e-10 -2.1278104e-10 -2.4051452e-10 1.0885102e-09 6.732978e-10
7.3047995e-10 -2.351547e-11 -4.7303213e-11 1.1535911e-10 -4.368483e-08 -2.1533635e-08 8.288411e-09 -6.132537e-08
-5.522707e-08 -4.483671e-08 -1.04799184e-07 -8.090682e-08 -7.788572e-08 -1.2943487e-08 2.0529288e-08 6.459988e-09
1.513633e-08 1.1641507e-08 5.8157856e-09 -2.641324e-08 -8.8945505e-08 -4.2256524e-08 -2.2919777e-09 -2.697039e-09
-1.5694636e-09 -1.0929966e-08 -1.3756539e-08 -1.25806885e-08 -4.12362e-09 -4.076651e-09 -4.2490584e-09 2.2738575e-08
-7.20296e-09 6.7765638e-09 3.139455e-08 -7.2680817e-09 4.0351087e-09 5.2459924e-08 -4.194042e-09 5.437162e-09
-6.658409e-08 2.3599954e-08 5.1332805e-08 -1.2393413e-07 -1.9959643e-08 1.6001426e-08 -1.5501247e-07 -4.3445308e-08
-1.4054433e-08 1.496294e-08 2.1016916e-08 2.0985416e-09 2.343547e-07 2.47509e-07 2.3054963e-07 -2.5015982e-08
-1.5581255e-09 1.209051e-08 2.0167756e-09 2.0182147e-09 1.876591e-09 2.0719368e-09 2.3066817e-09 1.6538052e-09
3.3376075e-09 3.215559e-09 2.6549445e-09 4.339029e-09 4.2402992e-09 6.471728e-09 6.5628476e-09 9.168736e-09
1.1181232e-08 9.292316e-09 1.6959033e-08 2.4384265e-08 -8.580086e-09 1.5175406e-08 -3.1111714e-08 -3.6039353e-08
00000000: ff56 4432 c18c 1232 e175 0932 7b39 d632
00000010: c326 8432 4f10 a032 1e70 2932 fd03 1332
00000020: 9697 0632 e7e6 0932 707d c132 e54c c832
00000030: 995c df31 cca9 6432 7509 9632 9d83 8f31
00000040: 8617 8532 1110 d232 d7b2 fd2f e581 f72f
00000050: 67f6 0e30 1e1e 352f 153c f82e 4415 752f
00000060: 39bc ad2e cbe0 9aad f5d6 c42e 11f0 0531
00000070: 0a56 832f 1be1 8eb0 df83 f330 7333 d0ac
00000080: d699 a6b0 7683 7f31 d44a c830 d372 6d31
00000090: cd33 4d30 52f6 8e30 5cfe 8a30 dd3a 9b30
000000a0: 1d2b 9b30 cef8 b830 49de a630 c209 a430
000000b0: ae7d ad30 2228 b031 d502 8332 5739 2e33
000000c0: e5ee 5db1 bfc7 8832 2b88 b532 d09c 90b2
000000d0: 9d96 a4b2 f7b2 26b1 be7b 3caf bda7 16af
000000e0: 12bc 1aaf 5b1b 49af 6eec 07af 85a1 39af
000000f0: a79e 32af 8ca2 62ae e514 28af a55e 8ab0
00000100: 5594 45b1 f8e6 9d31 9cb6 2633 d315 d431
00000110: c060 3c32 1541 1233 ca4d 7632 e890 d932
00000120: bb62 3833 4fad a033 fade d833 8b28 49b2
00000130: 8ae1 8d32 885e 3533 12d2 7cb3 35c3 1fb3
00000140: aa3a 96b0 6977 65b1 14bc fdb1 cbd3 c7b1
00000150: 4c72 fbb1 af14 54b2 cb11 ecb1 a0b5 bab1
00000160: 1c26 66b2 3191 1bb2 e3f6 25ad ce96 c1ac
00000170: 97c0 beac d550 71ac 4c7c a12a 78ce 9aab
00000180: b61f 3bac a08f b42b 00ab 9d2b 049d 03b5
00000190: 3f8a 8db4 af29 03b3 56b4 85b4 7eab 28b3
000001a0: 4f67 8334 f179 0b34 684d bb34 f9c4 2a35
000001b0: c9c3 70b4 9268 0eb4 76b4 a8b3 c168 64b4
000001c0: 58ba e4b3 aaf8 7fb3 a74e 03b4 9c25 c831
000001d0: be13 2733 2586 652f 65d9 782e fe7e bc2e
000001e0: 5947 9d2f 7781 a02e 43fc 0b2f d893 8c2f
000001f0: da37 052f 144f 1b2f 4897 3d2f 57d3 a12f
00000200: e3f3 ca2e ff5e 62b1 d319 b5b1 1574 d3b1
00000210: 1d35 48af d291 12b0 537c c9af 28cf b0ad
00000220: 0f9d afad 8df0 e9ad 1ad9 e2ad b0e2 07ae
00000230: d0c3 04ae 3834 022e ccfe 432e 0dd6 952d
00000240: 90dc 4533 802c 3833 a54d 7333 8315 8333
00000250: a78d 6f33 6043 8d33 1bbd 8133 ea37 8233
00000260: c930 8f33 0da5 4cb2 58cc 34b2 28e7 eeb1
00000270: f3ce afb2 6a0b 93b2 25ef 56b2 84b0 79b2
00000280: da18 34b2 f618 d6b1 6aca 3fb0 d0e8 46b0
00000290: 5883 4cb0 ab96 2db0 3292 40b0 8794 46b0
000002a0: df06 6cb0 0bdf 7cb0 d224 83b0 5cc6 6daf
000002b0: 8af4 69af 6939 84af 8c9a 9530 1f13 3930
000002c0: f5ca 4830 22d8 cead af0a 50ae 68ad fd2e
000002d0: fb9f 3bb3 f7f8 b8b2 d164 0e32 fbb1 83b3
000002e0: ce32 6db3 7c92 40b3 f60d e1b3 ffbe adb3
000002f0: 2142 a7b3 0f5e 5eb2 6258 b032 a8f6 dd31
00000300: 2405 8232 e4ff 4732 31d4 c731 54e3 e2b2
00000310: 4f02 bfb3 8a7d 35b3 e680 1db1 d056 39b1
00000320: 97b4 d7b0 80c6 3bb2 e655 6cb2 7422 58b2
00000330: bfaf 8db1 9a12 8cb1 1dff 91b1 a852 c332
00000340: e87d f7b1 49d7 e831 acd6 0633 b9ba f9b1
00000350: 31a5 8a31 4c50 6133 2f1b 90b1 c8d1 ba31
00000360: fefc 8eb3 d9b8 ca32 0479 5c33 c112 05b4
00000370: b873 abb2 8273 8932 8171 26b4 9f98 3ab3
00000380: 0d74 71b2 da87 8032 b088 b432 ef35 1031
00000390: eea2 7b34 61e1 8434 008d 7734 bae2 d6b2
000003a0: ab25 d6b0 a0b6 4f32 7e97 0a31 cfb0 0a31
000003b0: 57f5 0031 e661 0e31 9383 1e31 194c e330
000003c0: d05b 6531 b6f8 5c31 4772 3631 8116 9531
000003d0: 11b2 9131 ec5d de31 6b7f e131 8784 1d32
000003e0: 9417 4032 0aa4 1f32 4fad 9132 9175 d132
000003f0: 9e67 13b2 125b 8232 b19f 05b3 b0c9 1ab3

down_path.2.block.3.bias f4 [32]
-1.8143794e-07 -0.05915734 0.21955426 -0.20727041 -0.11517872 -1.1539557e-06 -0.040442772 -0.10567583
-0.027979046 -0.25070682 -0.020208176 -0.1530935 -0.016515221 -4.2952556e-06 -0.03726714 -0.20395964
-0.00023014107 -0.013497369 -0.2922092 0.017389303 0.06968419 -4.4425364e-05 -0.17212787 -0.034646608
-0.013738613 -0.0048568067 -0.00073133403 -1.3547868e-06 -0.010352147 -0.15256853 -0.063681416 -0.00018301247
00000000: 48d1 42b4 f84e 72bd d5d2 603e b23e 54be
00000010: d2e2 ebbd 9ee1 9ab5 52a7 25bd 926c d8bd
00000020: 5034 e5bc a55c 80be 9e8b a5bc 8bc4 1cbe
00000030: ee4a 87bc f71f 90b6 6ea5 18bd ccda 50be
00000040: 0652 71b9 1224 5dbc 729c 95be 0374 8e3c
00000050: 96b6 8e3d 5f55 3ab8 4a42 30be 9ae9 0dbd
00000060: eb17 61bc d925 9fbb ffb6 3fba 1fd6 b5b5
00000070: 0d9c 29bc ed3a 1cbe 676b 82bd 09e7 3fb9

down_path.2.block.5.weight f4 [32]
-1.1094465e-05 -0.0007291724 0.53917146 0.55812526 0.06419681 0.00012957689 0.049529616 0.08223197
-0.0011328132 0.30369955 0.08485978 -0.08145613 0.000512807 1.6915652e-05 0.017354552 0.12999181
6.848416e-05 -0.0006130086 0.48248947 -0.010983712 0.2012312 7.822889e-05 -0.057581887 0.1188477
-0.0028516073 0.0010175701 0.00045890876 1.6710192e-05 0.48949635 -0.061497115 -0.07082274 7.070587e-05
00000000: 5d22 3ab7 ee25 3fba 2407 0a3f 4ce1 0e3f
00000010: 9e79 833d 08df 0739 91df 4a3d 3c69 a83d
00000020: e77a 94ba 827e 9b3e f7ca ad3d 79d2 a6bd
00000030: e56d 063a 16e6 8d37 222b 8e3c 931c 053e
00000040: 279f 8f38 50b2 20ba dc08 f73e 07f5 33bc
00000050: 8d0f 4e3e d10e a438 fcda 6bbd 6c66 f33d
00000060: 08e2 3abb fd5f 853a b199 f039 dd2c 8c37
00000070: 449f fa3e 66e4 7bbd 830b 91bd ed47 9438

down_path.2.block.5.bias f4 [32]
1.2835746e-06 0.00206888 -0.085525475 -0.09746684 0.027098011 1.2850775e-07 0.23430626 0.055749957
0.027418014 -0.10511038 0.05399426 0.044098496 -0.00010641226 -5.7505702e-05 0.0035798855 0.010315502
-4.782021e-05 0.007548663 -0.17527409 0.13982119 0.13741823 6.8294205e-05 0.014310243 0.38983446
-0.0022712457 -0.0012281268 0.01218818 -1.3798697e-05 0.1369428 -0.054718904 0.07161207 4.8646634e-05
00000000: 4a47 ac35 0c96 073b fb27 afbd b29c c7bd
00000010: a6fc dd3c f1fb 0934 fbed 6f3e 115a 643d
00000020: be9b e03c 1c44 d7bd 1629 5d3d a0a0 343d
00000030: a629 dfb8 4732 71b8 839c 6a3b 5a02 293c
00000040: 8f92 48b8 c65a f73b 0d7b 33be 492d 0f3e
00000050: 5db7 0c3e 2c39 8f38 8275 6a3c 6298 c73e
00000060: 2ed9 14bb 19f9 a0ba efb0 473c f480 67b7
00000070: bc3a 0c3e ee20 60bd 59a9 923d ed09 4c38
