weights/old/unet-test14-40epochs-weighted-upconv.pt (torch_old, 510397 bytes, 92 tensors)

down_path.0.block.0.weight f4 [8, 3, 3, 3]
00000000: e540 0000 4910 0000 ac36 0080 0e15 0000
00000010: 3215 0080 cd0e 0000 213d 0000 b72b 0000
00000020: 2523 0000 9c0c 0080 a601 0000 182c 0000
00000030: 383f 0000 5c39 0080 a01b 0000 f714 0080
00000040: 4a05 0080 563a 0000 1543 0080 552b 0000
00000050: 3c40 0080 bd10 0080 a820 0080 f435 0080
00000060: 0432 0080 0746 0080 3433 0080 7718 94bd
00000070: d689 0dbe 6f68 89be 7d0b dabd cad0 c2be
00000080: 07af 17bf 3990 7fbe be14 82be 5456 3cbf
00000090: 31bd 7d3e 9606 043e f391 cd3d d0a4 14be
000000a0: 84bb 043e d8d0 ab3d 9fcd 063c 1e29 4cbe
000000b0: bcfe 1bbe eb7b f83e 96da 013f 77d3 c43e
000000c0: 8742 d43e dc0c 7a3e 1beb 783e d2a0 023f
000000d0: 5ee2 613e 9533 5d3e 1e9a 24bf e69b 3abe
000000e0: 9b05 a2bd e93c 4dbe 8569 a63d 0421 083f
000000f0: d48c 95be f196 953e 961f 3d3f 08d1 07bf
00000100: cbf9 d9be 801e 3dbe 6342 bcbe 9411 7dbb
00000110: a8fe b63e 89b0 8cbe 4ff7 2d3e 401a e23e
00000120: 2a7f b5be d0ad b4bd aed2 1e3d 0d8a 08be
00000130: 0541 b23e c23e 0b3f 485b e0bd d2fd c23e
00000140: db95 0b3f b497 6d3e 1511 1bbd f2e9 933d
00000150: 7002 f93e 2436 203c 1960 9c3e 8b1e ff3e
00000160: b8f7 c53d 21e4 1d3d 3d52 c6bd f0ae e6bd
00000170: f527 3ebd 1e26 a6be c2fd 30bf 7971 aabe
00000180: aeaa 013d 8e37 c6be 1f18 59bc 87f2 813e
00000190: 6e3f 36bd 09c6 a53e 54b0 483e 7e87 cfbd
000001a0: d5f8 40be 25ca 0a3f 691a 943d 2d29 a43d
000001b0: e707 0000 a527 0080 3f1e 0000 ba3f 0080
000001c0: da2e 0080 9625 0000 b527 0080 f110 0000
000001d0: 0535 0080 6134 0000 bf1f 0000 4525 0080
000001e0: 5309 0000 0509 0000 7401 0000 2b30 0080
000001f0: ed1f 0000 0b1a 0000 aa2d 0000 7114 0000
00000200: 3032 0080 c02a 0000 8615 0080 d919 0000
00000210: 7220 0080 9825 0080 f10d 0000 f431 ee3d
00000220: 017c 4abe 69b4 38bf e7ca 69be 0e6d 2cbd
00000230: 1ef3 c7be 45a8 af3d 5b9b b33e ca14 ee3d
00000240: 2d9e 753e aca1 b93e 12f4 493e 0e9d e03e
00000250: a360 0f3f 99ae c93e 21d2 12bc b33f 4e3e
00000260: ab82 863e 5bc6 37be 236d 1ebe e4d9 afbe
00000270: 2704 363d 7d95 7a3e abd4 5bbe ce4b 96be
00000280: a811 253c e44c efbd b221 91b9 519f a7b9
00000290: 583a b9b9 a84c 8fb9 5345 a0b9 04d3 b0b9
000002a0: b158 8ab9 dbad 92b9 f512 9eb9 3063 b8b6
000002b0: 9dda 5fb8 fd8b dbb8 e01b 23b7 f3ce 43b8
000002c0: d8d2 beb8 8d2b 13b8 d0f2 7db8 2ded c2b8
000002d0: 42f5 b738 b724 5638 f330 b837 8154 ad38
000002e0: ec80 8638 6434 3938 45f9 c038 e54f bd38
000002f0: 8498 ab38 3731 0000 bd29 0000 7712 0080
00000300: b938 0080 ad0e 0080 7d35 0000 2537 0080
00000310: c032 0080 9d0a 0080 4c08 0000 1312 0000
00000320: 681b 0000 c315 0080 ec3d 0000 3326 0080
00000330: 9602 0080 ab0a 0000 4d2e 0080 ea3e 0000
00000340: 3332 0000 2236 0000 c93e 0000 db08 0000
00000350: 6233 0000 c02c 0000 4f14 0000 581a 0080
2.328e-41 5.842e-42 -1.9613e-41 7.553e-42 -7.603e-42 5.31e-42 2.1929e-41 1.5682e-41
1.2607e-41 -4.523e-42 5.91e-43 1.5818e-41 2.2679e-41 -2.0577e-41 9.91e-42 -7.521e-42
-1.897e-42 2.0927e-41 -2.4064e-41 1.5545e-41 -2.3043e-41 -6.005e-42 -1.1715e-41 -1.9355e-41
-1.7942e-41 -2.5121e-41 -1.8368e-41 -0.07231229 -0.13822111 -0.2683749 -0.106467225 -0.38049918
-0.59251446 -0.2495736 -0.2540645 -0.73569226 0.24779202 0.12893137 0.10037603 -0.14515996
0.12962157 0.08389443 0.008227735 -0.1993756 -0.15233892 0.48532042 0.5072416 0.38442585
0.41457006 0.24418968 0.24308436 0.5102664 0.22059008 0.21601708 -0.64297664 -0.18223533
-0.079112254 -0.20042767 0.08125595 0.5317538 -0.29209006 0.29216722 0.7387632 -0.5305333
-0.4257339 -0.18468666 -0.367694 -0.0038615214 0.35741162 -0.27478436 0.16988872 0.44160652
-0.3544858 -0.088222146 0.03877514 -0.13333912 0.3481523 0.54392636 -0.109549105 0.38084275
0.54525536 0.23202401 -0.037858088 0.07222356 0.48634672 0.009778533 0.30542067 0.4982799
0.09666389 0.03854764 -0.096836545 -0.112638354 -0.046424825 -0.32450956 -0.69137204 -0.33289698
0.031656913 -0.3871426 -0.01325038 0.25380346 -0.044494085 0.3237765 0.19598514 -0.10133265
-0.18844922 0.542147 0.072316 0.08015666 2.835e-42 -1.4222e-41 1.085e-41 -2.2861e-41
-1.6807e-41 1.3483e-41 -1.4244e-41 6.077e-42 -1.902e-41 1.879e-41 1.1388e-41 -1.337e-41
3.345e-42 3.236e-42 5.21e-43 -1.728e-41 1.1453e-41 9.342e-42 1.6381e-41 7.333e-42
-1.8004e-41 1.5336e-41 -7.721e-42 9.272e-42 -1.1639e-41 -1.3486e-41 5.001e-42 0.116306216
-0.19773866 -0.72150284 -0.22831307 -0.04209619 -0.3905267 0.08577017 0.35079464 0.11625059
0.2398612 0.36256158 0.19722012 0.43869823 0.5600683 0.3939102 -0.008961231 0.20141487
0.26271567 -0.1794676 -0.1547132 -0.34345925 0.044437554 0.24471088 -0.21467845 -0.2935471
0.01007501 -0.116845876 -0.0002768166 -0.00031971422 -0.0003532942 -0.000273322 -0.0003056923 -0.00033726555
-0.0002638749 -0.00027976822 -0.00030150232 -5.4951743e-06 -5.3370943e-05 -0.000104688086 -9.722047e-06 -4.668436e-05
-9.099179e-05 -3.508809e-05 -6.0546037e-05 -9.294818e-05 8.771803e-05 5.105577e-05 2.1957303e-05 8.265023e-05
6.4136315e-05 4.415623e-05 9.2017035e-05 9.027104e-05 8.182324e-05 1.7655e-41 1.4973e-41 -6.624e-42
-2.0348e-41 -5.265e-42 1.9188e-41 -1.9782e-41 -1.8206e-41 -3.807e-42 2.976e-42 6.484e-42
9.832e-42 -7.807e-42 2.2213e-41 -1.3703e-41 -9.28e-43 3.827e-42 -1.661e-41 2.257e-41
1.8008e-41 1.9419e-41 2.2523e-41 3.177e-42 1.8433e-41 1.6053e-41 7.285e-42 -9.45e-42

down_path.0.block.0.bias f4 [8]
00000000: 4537 0380 aa0b 8d3e b8e6 3d3d 011d 2d3e
00000010: 5b14 0000 fc05 9e3c b78b 29b9 6b61 0080
-2.95333e-40 0.2754796 0.04636261 0.16905595 7.302e-42 0.019289963 -0.00016169144 -3.4947e-41

down_path.0.block.2.weight f4 [8]
00000000: a631 0000 d08c 273f 16bc 663f a03f 673f
00000010: ac04 0000 84ba 423f c513 a7b7 2c0e 0080
1.781e-41 0.6544924 0.90130746 0.9033146 1.676e-42 0.7606585 -1.9917157e-05 -5.084e-42

down_path.0.block.2.bias f4 [8]
00000000: 9a73 a3ba 5f89 b33e 5ab7 383e 9e9c c8bd
00000010: 2392 0938 5b85 b43c cb2e 913d ceba 0e3a
-0.0012470365 0.35065743 0.18038693 -0.09795497 3.2799446e-05 0.022036245 0.07089003 0.0005444706

down_path.0.block.2.running_mean f4 [8]
00000000: 9f24 0100 9376 e63e 404a 463e ad29 b03e
00000010: 405e 0000 7583 ad3e 2c76 9230 670c 0000
1.04973e-40 0.4501234 0.19364262 0.34406796 3.381e-41 0.33889356 1.0656485e-09 4.449e-42

down_path.0.block.2.running_var f4 [8]
00000000: 0400 0000 598a ea3c 9b80 d73c caa1 d93c
00000010: 0400 0000 74e6 d23c 6402 ab2a 0400 0000
6e-45 0.028630422 0.026306441 0.026566405 6e-45 0.025744654 3.037736e-13 6e-45

down_path.0.block.3.weight f4 [8, 8, 3, 3]
00000000: 50d9 7a36 1250 c335 7f67 2a38 1252 7936
00000010: 3fe9 be35 114c 2a38 496a 7039 321f 6e39
00000020: 8580 8b39 3450 1abe 3a02 febd cead 32be
00000030: 8818 e43d f3b0 9d3d 2622 b33c a2e9 513d
00000040: 0dec 193d 0b8a 393d ceb4 1f3d d3e6 58be
00000050: 629f c73d f367 04be 6858 6bbe 6581 f33c
00000060: d3f5 973c add2 e33b 634e dc3d b407 09be
00000070: 397d 9abd 1c41 b0bd dc87 57be eefd 3dbe
00000080: 786e 6fbe cf96 9b3a e988 e8bd efa0 0abe
00000090: 3cb9 c138 d681 c238 879f ba38 b3be c138
000000a0: 2b88 c238 28a4 ba38 add7 6b38 485b 6d38
000000b0: ee6a 5d38 1577 8ebc 73b1 b5bc c5c0 f1bb
000000c0: 7bec 92bd 19ea 3fbd 590c 51bd fb87 01be
000000d0: c114 42be 5938 31be dd0f 7b3a 3c4d 9f3a
000000e0: f503 93ba 4bd2 9a3a 7a55 b93a eb9d 82ba
000000f0: 80b1 a3bb e2e8 9dbb e681 efbb d9ee c339
00000100: 84c5 c439 17b4 b939 55e2 c339 04ba c439
00000110: d0a7 b939 8dd3 5739 6b6e 5939 2174 4339
00000120: a47f b639 2f32 bb39 5316 be39 95dc af39
00000130: d98b b439 c572 b739 00eb f339 b174 f839
00000140: 2c48 fb39 721d 81bd 3686 743c d37c 013c
00000150: 56c6 2c3e 54d6 9f3e 7429 583e 0b28 b5be
00000160: 5304 aebd 42b7 28bd 2e6f 633d ab3b acbd
00000170: 6715 85be 2306 353e adac 1c3c fed5 8bbd
00000180: 423b f5bd 4157 983a 2935 bbbd 8d17 bdbe
00000190: cd09 67be a189 62be 981f ccbe f7ea 91be
000001a0: ffd2 83be 87b1 7bbd 6444 643e 6e97 503e
000001b0: ebb5 cab8 adb7 ccb8 9535 cfb8 c94a d1b8
000001c0: a052 d3b8 7ed6 d5b8 f9ea 17b9 04e3 18b9
000001d0: 0e4c 1ab9 5d27 10be f7eb 29bd 0593 b53c
000001e0: 00d2 ac3e d5e8 693e 69e2 7e3e 5737 363e
000001f0: 0375 1a3e a3b2 b83e 8850 60bb ad15 85bb
00000200: 110e 8bbb be97 b0bb 8da9 c8bb 547b d0bb
00000210: 3d16 49bc 6a1f 55bc a95b 59bc 78d7 c7b9
00000220: f515 cbb9 08c1 cdb9 20dd c3b9 a51c c7b9
00000230: 10bf c9b9 91d4 09ba cc60 0bba f8ad 0cba
00000240: 6a2e f4b9 d47a f6b9 2feb f5b9 c3b0 03ba
00000250: b5d7 04ba 1d8f 04ba 6323 09b9 6d4d 0db9
00000260: be4f 0cb9 5b22 13be eb2a b2be 059d 86be
00000270: 930f dc3d 671e c9bd 0a6f 66bd db8b 5f3d
00000280: 97ec bbbc 0265 ab3d 7ae7 243e 5449 e53d
00000290: d7a9 2fbd 3206 14be 8319 c6bc e561 b5bd
000002a0: 3d0e 573e e4bf db3d 89b3 0abd c92f b93e
000002b0: 6852 5abd f3b1 ba3e 0cac 903b 1264 11bf
000002c0: 1ec4 67be e34a 8d3e 339f 06be 727a 8ebd
000002d0: 2b66 06b8 6b1c f2b7 5b92 f5b7 72d7 acb7
000002e0: 1e00 92b7 e47a 95b7 9d31 b7b8 e963 b1b8
000002f0: 5231 b2b8 8a5a aebd a838 7fbe 77e1 79be
00000300: 3327 f7bd ebc9 acbe 9f72 aabe 8219 f23e
00000310: afd7 b33e f869 cf3e b472 823c ae97 203d
00000320: 4cb0 163d 6701 383c 9fdc 173d 93a5 0c3d
00000330: 7f5e 47bd 3b9c 66bc 0dbe 96bc fd4a 09ba
00000340: cb2c 08ba 6170 08ba ceb6 02ba 2596 01ba
00000350: 34da 01ba 27ac 2eba 4396 2dba a3d3 2dba
00000360: f4ae 7bba d4c4 7bba a9de 7bba 6c3c 7fba
00000370: f845 7fba d95f 7fba 1f20 80ba c224 80ba
00000380: b231 80ba 07c5 083e 4dc4 d53d 63f5 df3d
00000390: aa43 503d d3a1 5c3c cf37 873c f6d5 44bd
000003a0: ba7a ddbd 1d40 a2bd da4a 84bd 1da7 b9bc
000003b0: 9aed 9cbd 377e 0fbe 47aa ea3c 71c9 433d
000003c0: 8eb8 e0bc a935 563e a157 1f3e 7bac 0d3d
000003d0: 49fc 7f3d f302 84bd 3461 343e d5b2 1f3e
000003e0: 1034 13ba e8f4 7a3d 35d7 e93c 68e8 09be
000003f0: 3566 d938 a92e dc38 9c4d dc38 cb0f df38
3.7379396e-06 1.4551936e-06 4.0627547e-05 3.7151663e-06 1.4223987e-06 4.0602e-05 0.00022927778 0.0002270907
0.000266079 -0.15069658 -0.124027684 -0.17449114 0.111374915 0.07699766 0.02186687 0.0512482
0.03757863 0.045297664 0.03899079 -0.21181802 0.09747197 -0.12930278 -0.22982943 0.029724786
0.018549835 0.0069526047 0.107571386 -0.13381845 -0.075434156 -0.08606169 -0.2104792 -0.18553898
-0.23381984 0.0011870506 -0.113542385 -0.13537954 9.23746e-05 9.274825e-05 8.8988854e-05 9.238478e-05
9.276004e-05 8.8997476e-05 5.622923e-05 5.6590216e-05 5.2790092e-05 -0.017390767 -0.022179341 -0.0073777162
-0.07174011 -0.046854112 -0.051037166 -0.12649529 -0.1895323 -0.17306651 0.0009577254 0.0012153755
-0.0011216389 0.001181194 0.0014139854 -0.0009965276 -0.004995525 -0.0048190216 -0.0073091863 0.00037371254
0.00037531194 0.00035420127 0.0003736193 0.00037522626 0.0003541098 0.00020582807 0.00020735867 0.0001863991
0.00034808845 0.0003570481 0.00036256257 0.00033542947 0.0003443647 0.0003498999 0.0004652366 0.00047389188
0.00047928223 -0.063044444 0.0149245765 0.007903296 0.16872534 0.31218207 0.21109563 -0.35382113
-0.084969185 -0.041190393 0.05552595 -0.08409818 -0.2599289 0.17678122 0.0095626535 -0.06827925
-0.11974193 0.0011622683 -0.09140999 -0.3693203 -0.22562332 -0.22122814 -0.39867854 -0.28499576
-0.25746915 -0.0614486 0.22291714 0.20370266 -9.6659955e-05 -9.76169e-05 -9.8805096e-05 -9.9798264e-05
-0.00010076654 -0.00010196584 -0.00014488016 -0.0001458042 -0.00014714917 -0.14077516 -0.0414848 0.022164831
0.33753967 0.22842725 0.24891056 0.17794548 0.15083699 0.3607379 -0.0034227688 -0.004061422
-0.00424362 -0.005389183 -0.0061237277 -0.006362358 -0.012273368 -0.013007978 -0.013266482 -0.00038116775
-0.00038735537 -0.00039244466 -0.0003735805 -0.0003797758 -0.0003848006 -0.000525781 -0.0005316853 -0.00053664995
-0.00046573888 -0.0004701229 -0.00046905267 -0.0005023593 -0.0005067543 -0.0005056726 -0.0001307852 -0.00013475651
-0.00013381147 -0.14368574 -0.3479837 -0.2629167 0.10745158 -0.09820252 -0.05625824 0.054576736
-0.022939963 0.08368875 0.16103926 0.11195627 -0.04288658 -0.14455488 -0.024182087 -0.088565625
0.21001525 0.107299596 -0.033862624 0.3616927 -0.053301245 0.3646389 0.004415041 -0.5679332
-0.22633407 0.27596197 -0.13146667 -0.06956948 -3.204324e-05 -2.8861881e-05 -2.9274428e-05 -2.0604322e-05
-1.740461e-05 -1.781941e-05 -8.735361e-05 -8.4586274e-05 -8.496888e-05 -0.08513363 -0.24923956 -0.24402414
-0.120680235 -0.337478 -0.33290574 0.47285086 0.3512549 0.40510535 0.015923835 0.039207153
0.036789224 0.011230803 0.037075635 0.03433759 -0.048674103 -0.014075334 -0.01840117 -0.00052373094
-0.0005194663 -0.0005204734 -0.00049863465 -0.0004943333 -0.0004953474 -0.0006663226 -0.0006621817 -0.00066309626
-0.000960096 -0.000960422 -0.0009608069 -0.00097364816 -0.0009737904 -0.00097417604 -0.0009775198 -0.000977658
-0.0009780435 0.1335641 0.10437832 0.10935476 0.05084578 0.013466316 0.016506104 -0.04805561
-0.10814424 -0.07922385 -0.06459589 -0.022662694 -0.076625064 -0.14012991 0.028645648 0.04779953
-0.027431753 0.20918907 0.15560772 0.03458832 0.062496457 -0.06445875 0.17615205 0.15595563
-0.0005615363 0.061268717 0.028545002 -0.13467562 0.00010366404 0.000104991086 0.00010504873 0.0001063641

down_path.0.block.3.bias f4 [8]
00000000: ac6c 84be c85f 093f 09cb cb3d 8dcc d3bd
00000010: 8099 853e a0c4 823e f3bf ba3e 63c0 e33e
-0.2586416 0.53661776 0.09950835 -0.10341749 0.26093674 0.25540638 0.3647457 0.44482717

down_path.0.block.5.weight f4 [8]
00000000: 73a5 a03e 8c01 b13e 45d3 9b3e 1def aa3e
00000010: 748c af3e ae24 3e3f d44d 9d3e e7d0 e13e
0.31376228 0.34571493 0.30434623 0.33385554 0.34286845 0.7427472 0.3072344 0.44104692

down_path.0.block.5.bias f4 [8]
00000000: d72b 62be 5fba d63b 40fd 5b3d feb5 303e
00000010: 084d 2b3c e4e1 bc3d 86e3 11be 0bdc cfbd
-0.22087036 0.006552979 0.053708315 0.17256925 0.010455377 0.09222773 -0.1424695 -0.10149392

down_path.0.block.5.running_mean f4 [8]
00000000: 1ddb f33e 9742 4a3f ff11 fa3d 2b67 953e
00000010: 9447 ac3f b736 493f 9e84 0c3f 4542 dc3e
0.47628108 0.7900786 0.12210464 0.29180273 1.3459344 0.78599113 0.5488986 0.4301931

down_path.0.block.5.running_var f4 [8]
00000000: 94bf a43e fa9d ad3e 483b 853d 92e2 cc3e
00000010: 792d 8c3f cddf e83f af06 ca3e f797 183e
0.32177413 0.3390959 0.065054476 0.4001661 1.0951377 1.8193299 0.39458224 0.1490172

down_path.1.block.0.weight f4 [16, 8, 3, 3]
00000000: f20d c3bc ba43 adbd eb79 98bc d5bf 693d
00000010: cbb6 63bc 7cf5 1b3a 59e7 d43d 141b 5e3d
00000020: 9a3c 3a3d d985 fc3d 32b9 113e 38a9 9dbc
00000030: 6d1b 4b3c eb34 643d 01d3 8abd a405 5fbd
00000040: 9a43 bdbb e950 74bc 3b52 203e 5f8d 8d3d
00000050: 7907 973c efc6 cc3d 29b0 abbb 0bc0 99bd
00000060: de83 8e3b dd97 a6bb edbb 853b 2acb 39bd
00000070: f4ed afbd c20a cabd e5a6 5bbd 42cd ccbd
00000080: 1a84 5fbd 9f1b 033b 86a3 75bc c86c b0bb
00000090: 4d63 223c b968 4e3d 8fd5 ef3d 2dae b23b
000000a0: 0918 bc3c ecde 0e3d b52d a6bd df4f f6bc
000000b0: c3b1 943c 3dce 953d 4e46 87bd 8d7b 22be
000000c0: a55e e5bc 51ae d3bc 4008 e9bd b61f d7bd
000000d0: 34bb 613d fe29 1d3e ab34 02be cbd8 43be
000000e0: 1c9f 4b3e b505 043d a7f6 81bd 3a8b 263e
000000f0: f125 e83d 4288 01bb a65b 833d 7822 b4bd
00000100: f50b 393b 2a26 103e f6a4 9ebd 1e39 2dbe
00000110: 1ba1 1e3d 014b 3a3e efea 333c 53b4 bc3d
00000120: e15c 013b 4448 073b af86 123b b130 133b
00000130: 0570 093b 62f7 0c3b f282 3e3b bb7b 273b
00000140: dcfc 233b 8528 f8bb 65bf ffbb 0e96 e0bb
00000150: e559 febb 9361 04bc d248 e1bb 6efd 07bc
00000160: 38ee 0dbc f923 00bc 3e08 c63b 2a70 603b
00000170: d548 9c3a c70b 823b ec17 1e3b 1f9b 5b39
00000180: 0521 893b fbde 7b3b d2fe 1a3b 6398 dfba
00000190: 8e9b 0bb9 4c14 5a3a cd0d baba d2ad 6a38
000001a0: 1db3 953a 9bde 7eba c775 a739 7dcd c43a
000001b0: 97a3 a3bb 476f 8bbb e68b 90bb 99b0 23bb
000001c0: f3d3 06bb d83a 3cbb 6468 deba 6ca2 edba
000001d0: 548f 5bbb 4b40 de3a 71ec 113a fb37 9eba
000001e0: 6b8e 5039 8e10 f938 1f1a 36ba 7658 78b9
000001f0: 4f98 e1b9 430b 26ba f942 87b8 dce0 3cba
00000200: 1019 0ebb 15b1 c63a f9c8 8d3a d282 96b9
00000210: 09ab 0e3b 9024 003b 0c7b a53a b672 2dba
00000220: 4709 80b8 e9f9 0039 1460 d4b9 f89f f439
00000230: 4d76 543a 0697 8eba 1554 afb9 41a1 2f3a
00000240: 22ac 333d fbd1 343d f249 9a3b e46f e23c
00000250: ef73 b73c 5fa4 7abc 5017 d1b9 4667 7abb
00000260: 1eec 26bd f47a 8b3d 6e2a b33d 361d 123e
00000270: fff4 ba3d 9ed5 a83d fa74 0e3e 8ce4 513c
00000280: cc7f d339 99cf b03d bd1d a43d 86ab 383d
00000290: 5bf4 25bc 5514 273e 7dee 363e b445 003e
000002a0: aa9c 7d3c 8e51 8e3d 046e 713d ce4f 7e3d
000002b0: 9d0e 973d 2ce2 5a3d d2ec c83d cfbf d23d
000002c0: a59e 9f3d 26ec 653d a3ba ae3d 42e1 a03d
000002d0: f808 b6bd b5b2 a2bd c051 8dbd 95a3 efbd
000002e0: d03e e6bd dcbe a8bd d75c 50bd b605 65bd
000002f0: fdfa 81bc d76d 51be 98df 2fbd 3bae 81bd
00000300: 8927 2cbd b5fc 0f3e b5a3 023e a142 afbc
00000310: d5d6 fb3d b7ef 133e c275 623c 0654 bc3b
00000320: aec6 a7bd c80d 29bd b6fa febc bf22 00be
00000330: f4c7 f9bd 95ca dbbd 0f10 21be 288e 0c3e
00000340: b4f2 c73c d1a9 133d 4970 503e b4bf bd3d
00000350: 9119 823d 0fa8 ba3d df9e 643c dcef a83b
00000360: 4697 11be ec95 74be 6c2d 80be d938 123e
00000370: 969d 0fbc 2ad1 e5bd e6e3 a23e 556f 813e
00000380: 5668 ff3d 99a1 0c3e eb22 763e 5a11 843e
00000390: 025a 13be b44c 4dbe a160 293d b282 353d
000003a0: 0f4a 26be 9728 07bd da82 09be 6bc9 84bb
000003b0: ecb9 a53d a233 ccbd bed2 b03c 264f 053d
000003c0: 29b2 ae3d ae1e ae3c 376e 9fbc f288 68bd
000003d0: e7da 013c 6e1b adbb 77e3 02bd 0015 ef3c
000003e0: 9263 883d fd1b b33c 7412 8f3c 98b6 8e3d
000003f0: 19e2 1e3d 4ce0 053d cf1f 7cbd 54a9 1a3a
-0.02381036 -0.084601834 -0.018612823 0.05706771 -0.013898562 0.0005949361 0.103956886 0.054225042
0.04546795 0.12330217 0.14230803 -0.019245729 0.012396676 0.05571453 -0.06778527 -0.05444874
-0.005775881 -0.014911869 0.15656368 0.0691173 0.01843618 0.09998881 -0.005239506 -0.075073324
0.004349216 -0.0050840215 0.0040812404 -0.045359768 -0.08590308 -0.09865333 -0.05362596 -0.10000087
-0.05456934 0.0020005477 -0.0149926 -0.0053840615 0.00991137 0.05039284 0.11710655 0.0054528923
0.02296068 0.034880564 -0.08114187 -0.030067382 0.01815117 0.073147275 -0.066052064 -0.15867443
-0.027999232 -0.025839956 -0.11378527 -0.10504095 0.05511017 0.1534805 -0.12715404 -0.19125669
0.19884914 0.032232005 -0.06345873 0.16264048 0.11335362 -0.0019765054 0.06413965 -0.08795637
0.0028235887 0.14077058 -0.077463076 -0.1691632 0.03872786 0.18192674 0.0109813055 0.092140816
0.0019739198 0.002064244 0.002235811 0.0022459442 0.002097131 0.0021509756 0.0029069749 0.0025555927
0.0025022542 -0.0075731897 -0.0078047984 -0.0068538254 -0.007762181 -0.008079904 -0.006875136 -0.008300168
-0.008662753 -0.007821077 0.006043463 0.0034246542 0.0011923561 0.003968689 0.0024123145 0.00020943255
0.0041848444 0.0038432467 0.002365042 -0.0017058965 -0.00013314022 0.00083190645 -0.0014194787 5.595183e-05
0.0011421178 -0.0009722502 0.00031940473 0.0015014854 -0.0049938667 -0.0042552087 -0.0044112084 -0.0024977087
-0.002057311 -0.0028721597 -0.0016968367 -0.001813007 -0.0033502178 0.0016956417 0.00055665436 -0.0012071127
0.0001988948 0.00011876329 -0.00069466414 -0.00023684077 -0.00043028823 -0.00063340756 -6.449776e-05 -0.00072051375
-0.002168242 0.0015158976 0.0010817341 -0.00028707698 0.0021769425 0.0019553043 0.0012625172 -0.00066165195
-6.105244e-05 0.0001230013 -0.00040507375 0.00046658493 0.00081047864 -0.0010878749 -0.00033441247 0.0006699749
0.04386533 0.044145565 0.004708522 0.027641244 0.022394149 -0.015297978 -0.00039880956 -0.0038208528
-0.040752523 0.06810561 0.08748327 0.14268956 0.091287605 0.08243869 0.1391181 0.0128108375
0.00040340272 0.08633346 0.080134846 0.045085452 -0.01012906 0.1631635 0.17864414 0.1252659
0.015479246 0.06949149 0.05894281 0.062087826 0.07375834 0.05343835 0.09810795 0.10290491
0.07793931 0.05613341 0.08531692 0.078554645 -0.088884294 -0.07944242 -0.06900358 -0.11701123
-0.11242449 -0.082395285 -0.05086979 -0.05591365 -0.01586675 -0.20452057 -0.042937845 -0.0633206
-0.04202989 0.14061244 0.12757762 -0.021394076 0.12296835 0.14446913 0.013822021 0.005747321
-0.08192192 -0.04127291 -0.031125408 -0.12513255 -0.12196341 -0.10731999 -0.15728782 0.13726103
0.024407722 0.03605062 0.20355333 0.0926508 0.06352533 0.09114086 0.013953893 0.0051555466
-0.14217862 -0.23885316 -0.25034654 0.14279498 -0.008765599 -0.112215355 0.31814498 0.25280252
0.124710724 0.1373352 0.24036758 0.25794488 -0.14389804 -0.20048791 0.041351918 0.044314094
-0.16239189 -0.032997694 -0.13428822 -0.004052331 0.080921024 -0.09970786 0.021584865 0.032546185
0.08530075 0.021254864 -0.019461734 -0.056771226 0.007925726 -0.005282811 -0.03195521 0.029184818
0.066596165 0.021863932 0.017464854 0.06968421 0.038789842 0.03268461 -0.061553773 0.00058998656

down_path.1.block.0.bias f4 [16]
00000000: 78de 8bbe 4a82 7ebc 36f9 49be ece1 053e
00000010: 994d 793c 17e3 14be ea8d 6ea1 5ab6 25bc
00000020: 1411 9d3e 73b5 813e 01ff 38be b256 47be
00000030: 2c97 d7be 5ac5 9f3e adb3 82bd be03 1b3e
-0.27318168 -0.015533993 -0.19723973 0.13074464 0.015216255 -0.14539753 -8.082536e-19 -0.010114277
0.30677092 0.25333747 -0.18066026 -0.19466665 -0.42107522 0.31205255 -0.06381927 0.15138146

down_path.1.block.2.weight f4 [16]
00000000: 51c1 d63e cb56 65bc 9eb6 8d3e ef61 0d3f
00000010: 322d f83e 7e96 4c3e d898 46b8 bd75 44bc
00000020: b178 473f 25c0 313f 68a3 363f 357b 003f
00000030: f97e af3e 838c 273f 75e5 973e bd55 a03e
0.41944364 -0.013997744 0.27678388 0.5522756 0.4847198 0.19979283 -4.7349225e-05 -0.011990962
0.77918535 0.69433814 0.7134309 0.50188 0.3427656 0.6544878 0.2966725 0.31315413

down_path.1.block.2.bias f4 [16]
00000000: 2935 c23d 0e5e 8539 bdff 3a3e ca72 ed3d
00000010: b876 2e3d f635 513d 95a9 acb8 2d94 23ba
00000020: deec 3e3e 6c49 1abe 23ee a73d 81c2 403e
00000030: dbf6 913d e044 303e 567e d43c 941e 8dbd
0.09482796 0.00025437813 0.18261619 0.1159416 0.042593688 0.05107685 -8.233186e-05 -0.00062400365
0.18645045 -0.1506707 0.08199718 0.18824197 0.07127162 0.17213774 0.025939148 -0.06890598

down_path.1.block.2.running_mean f4 [16]
00000000: e239 ba3c 280f 073b 2a6c 9a3e a1fd 733e
00000010: 5748 953d 7f98 8b3d 0400 0000 7cc4 753b
00000020: 2e4e e33e 995a 793e 5aec 173c 87b5 983d
00000030: 2001 be3d cb55 bf3e f43f 2e3d 7486 1a3e
0.022732679 0.00206084 0.30160648 0.2382722 0.07289188 0.06816196 6e-45 0.0037501147
0.44395584 0.24350967 0.009272659 0.074564986 0.09277558 0.37370142 0.04254146 0.15090352

down_path.1.block.2.running_var f4 [16]
00000000: 67b5 3b3c 0ec9 7038 e799 b73e 9964 fb3d
00000010: 4e72 153d 688a f73c 0400 0000 0e6c 1d38
00000020: 7f5e 763e a1b2 e63d 4f7e e53b a84f 793d
00000030: 25b9 bb3d e609 123e d411 a53c 2835 4b3d
0.011456824 5.7407706e-05 0.35859606 0.12275047 0.036485963 0.030217364 6e-45 3.753235e-05
0.24059485 0.112645395 0.0070035825 0.06086698 0.09166173 0.14261588 0.020150103 0.04961124

down_path.1.block.3.weight f4 [16, 16, 3, 3]
00000000: c0fb 1fbd 8376 a33c f2c6 91bd 1676 12bd
00000010: 4e37 50bd cffc b3bd 9482 be3d 64e5 c0bd
00000020: 26ba 0bbe 41f0 c43b 6669 c73b 48c4 d03b
00000030: 6e24 ce3b a3a5 cf3b a88b d63b 8c6a d13b
00000040: 235f d03b bf27 d63b c0f8 91be 149d 0cbe
00000050: 29f7 09be cfaa 1abe b7d3 27bd 339a 69bd
00000060: cc6b 963c f447 ae3d 66fa 3c3d bc15 a93d
00000070: a93c 123d cb8f afbc b43b 2bbe cc49 833e
00000080: 0017 c33c 44b6 f5bd 0fa8 26bd 47f0 2abe
00000090: 54ae 8c3d 461d a7bd 8e48 7abd 87bd d33c
000000a0: 0b46 2bbd 6f77 113e 53eb 6abd 0693 ce3d
000000b0: c006 ddbd 59b7 fd3d d868 82bd 641e 08be
000000c0: 52df 88bd a4d6 7e3c 9fd1 b53d 79e7 22be
000000d0: 1ee0 183d 90e3 2abc 2ea9 b238 69fa b238
000000e0: 4fd5 b438 f1db b338 4d2f b438 0e08 b638
000000f0: dc08 b938 3c61 b938 cf2f bb38 615a 833b
00000100: 8adb 7e3b 4d24 723b 05da 8a3b 6ee6 853b
00000110: c60b 833b e6a2 903b db53 883b 2f44 893b
00000120: 1fbd 14bf d79b 2abe 720d 233f a65a c93d
00000130: b6b3 aa3c 4557 dabe edbf f83e 297d 243e
00000140: 85bd 36bf 2a25 d33d 03fb 813e d9a7 d2be
00000150: 3649 493c 7057 893e 99f0 e43d 8991 babd
00000160: 5bfb abbe fa33 9e3e c99d 973d 9a60 bf3d
00000170: b7ae a7be 22aa 163e 1927 933e e47b 8f3d
00000180: 5715 42be b78a 2c3d 0372 0ebe a2df 81be
00000190: b934 ebbd 3b42 0dbd ec9e 00bd c421 ce3d
000001a0: 4c04 8bbd 74a5 ae3e 4f8e 033e d91c 40bd
000001b0: 19be 123d bc52 cf3d c902 813d 2de2 71bd
000001c0: 2b95 0dbd c7f6 00bd 58c9 acbd 186e f9bd
000001d0: 605f 09bd a47d dfbd 3ced ef3d 843c 253d
000001e0: ab72 debe 9b5b bf3d b4c4 9d3d be37 903d
000001f0: e563 f3bc 715e 30be 296d b23d 48e2 b9bd
00000200: 4cac c3bd 0bb0 09be 895e 25bd 6117 39bd
00000210: a266 8dbe 5a23 cb3d be10 923e 9393 6e3d
00000220: 515e 55be 4192 c73c e732 79be 0b5f cbbd
00000230: a1c9 823e 2672 983d d0b0 8a3e 78fb 503e
00000240: a87f 8e3d 9d7b 68bb 1116 f03d acf1 3a3d
00000250: f8fe 2b3b 8dbc 203d 14ee b83c 2534 04bd
00000260: 5540 2abd 7a8c 6cbc 5dff 82bc e872 8abc
00000270: 1e9c 64bc a91a 80bc 1a06 88bc 40f6 4ebc
00000280: ceb7 62bc 8a67 73bc 4b05 003a 9eb2 943b
00000290: 7f16 1dbd 2ec6 c4bd 5b8f 25bd 9fd0 35bd
000002a0: 4a64 10be 809d 42bd dbc4 1bbe 9a6a 993e
000002b0: 1fcc 21bb 5ecb 6f3d 41e1 75be e9aa fb3c
000002c0: d1f1 0abd 61e3 a6be 66fd 9a3c e67f 3fbd
000002d0: 875e 06be 543d e9bd 38b2 f8bd 427f 53be
000002e0: 5bec 39be 1d7b a9bd a341 95bc 828f 8f3e
000002f0: 9724 233e 43bd a0bd 6d3f f3bd ad62 57be
00000300: d942 873c 3f60 e13d 977a e53d 1e9f afbc
00000310: 1845 273e 16a3 653e c626 1c38 f6ed 1b38
00000320: 5f24 1c38 ceab 1b38 6777 1b38 5caf 1b38
00000330: c3d8 1a38 a197 1a38 5cd4 1a38 b985 b2bb
00000340: 5823 a8bb f9f0 9cbb 8484 d5bb 30be cbbb
00000350: bfa3 c1bb b1c4 d4bb cc30 c9bb b583 c0bb
00000360: b291 933e 0f67 833d a6c5 023e bce0 1c3e
00000370: c1c9 773d 03a6 023d 6a13 22be 2ee3 83be
00000380: c594 43be f3d2 813e b564 0d3e b86f 243e
00000390: 4df5 843d 82c2 273e e8ba 403e 6876 18be
000003a0: fb25 a4be 70b6 d0be f081 f03d d7e4 963e
000003b0: f158 3c3e a50e 23be 9bb8 94bd c546 34bd
000003c0: 0345 05be 512a 263d d071 f7bd dbf6 1bbe
000003d0: 1846 57bd 6d0b 063e bb1f ccbe 45ea a7bc
000003e0: 77d5 fb3d 21d8 1cbe 0083 a4bd 82c3 843d
000003f0: 057a 12be e2ca 2cbc 305c 09be dcf5 b8bc
-0.039058447 0.019953972 -0.07118024 -0.035757147 -0.050833993 -0.08788454 0.093022496 -0.09418753
-0.13645229 0.006010086 0.0060855625 0.006371055 0.006290964 0.006336884 0.00654741 0.006390875
0.0063589974 0.0065355 -0.28510094 -0.13731796 -0.1347319 -0.15104221 -0.04097339 -0.05703182
0.018361948 0.08509818 0.046137236 0.08256099 0.03570238 -0.02143087 -0.16721994 0.2564224
0.023814678 -0.11997655 -0.040687617 -0.16693221 0.06869188 -0.0815988 -0.06110435 0.02584721
-0.041814845 0.14205717 -0.05735333 0.10086636 -0.10792303 0.123884864 -0.063676536 -0.13292843
-0.0668322 0.015554104 0.08877873 -0.15908612 0.03732311 -0.010430232 8.5192136e-05 8.534344e-05
8.622801e-05 8.5763524e-05 8.591879e-05 8.6799366e-05 8.8231376e-05 8.839599e-05 8.92576e-05 0.0040085767
0.003888818 0.0036947906 0.0042374157 0.0040863072 0.0039992062 0.0044139503 0.004160387 0.0041890363
-0.58101076 -0.1666101 0.6369239 0.09831743 0.020837646 -0.42644706 0.48583928 0.1606337
-0.71382934 0.10309823 0.2538682 -0.41143683 0.012285521 0.26824522 0.11178703 -0.0910979
-0.33590207 0.3089903 0.07403142 0.09344597 -0.32750484 0.14713338 0.28740767 0.07006052
-0.18953453 0.042124476 -0.1391068 -0.2536593 -0.114846654 -0.03448699 -0.03140156 0.10065034
-0.06787929 0.34110606 0.12847255 -0.04690251 0.035825823 0.10123202 0.06299359 -0.05905359
-0.034566086 -0.031485345 -0.08436841 -0.12179202 -0.033538222 -0.10912636 0.11715171 0.040340915
-0.4344686 0.09343644 0.07703534 0.07041882 -0.02971072 -0.17223527 0.08712227 -0.09076363
-0.095543474 -0.13446061 -0.04037336 -0.04518831 -0.27617365 0.09918852 0.28528398 0.058246206
-0.2083676 0.024361731 -0.24335824 -0.099302374 0.25544456 0.07443647 0.27088022 0.20408428
0.06957942 -0.003547407 0.11722959 0.045640633 0.0026244503 0.039242316 0.022574462 -0.03227629
-0.041565258 -0.014437789 -0.015990907 -0.016900495 -0.013953237 -0.015637713 -0.016604472 -0.012631953
-0.013837768 -0.014856229 0.0004883601 0.0045378944 -0.038351532 -0.09608112 -0.040419918 -0.04438841
-0.14100757 -0.047513485 -0.15211813 0.29964143 -0.0024688316 0.058543555 -0.24011709 0.030721145
-0.03392202 -0.3259535 0.018919658 -0.046752833 -0.13121997 -0.113886505 -0.121433675 -0.20654014
-0.18156569 -0.08275435 -0.018219775 0.28039175 0.15931927 -0.07848599 -0.11877332 -0.21033736
0.016511368 0.110046856 0.11205023 -0.021438178 0.16334951 0.22425494 3.722941e-05 3.7176498e-05
3.722717e-05 3.7114885e-05 3.7066082e-05 3.7118196e-05 3.6918336e-05 3.6857677e-05 3.6914236e-05 -0.00544807
-0.0051311664 -0.0047894684 -0.0065160412 -0.0062177405 -0.0059094126 -0.006493174 -0.0061398502 -0.0058750757
0.28822094 0.06416141 0.1277071 0.15320104 0.060495142 0.031896602 -0.15827718 -0.25759262
-0.1909972 0.25356254 0.13807948 0.16058242 0.064921 0.16382793 0.18821299 -0.14888918
-0.32060227 -0.4076419 0.117435336 0.29471466 0.18393303 -0.15923555 -0.07261773 -0.044012804
-0.13014607 0.0405677 -0.12082255 -0.15230887 -0.05255708 0.13090296 -0.39867958 -0.02049745
0.122965746 -0.15316822 -0.08032799 0.06482603 -0.1430436 -0.010546418 -0.13414073 -0.022578172

down_path.1.block.3.bias f4 [16]
00000000: 95e0 3e3c f43a 98be bd15 4fbe 63ca 1cbd
00000010: 249f d6b9 0abb f3bd 0526 95bc d1fb ffbc
00000020: cb97 12be e73d 153e 8b6d a1bd 7522 43bd
00000030: 51d5 11bd 2926 843d 28fa e1bc 5c9f cebd
0.011650224 -0.29732478 -0.20223136 -0.03827895 -0.0004093583 -0.11900909 -0.018206606 -0.031248005
-0.14315717 0.14574395 -0.07882222 -0.047640283 -0.035603825 0.06452591 -0.027585104 -0.10088989

down_path.1.block.5.weight f4 [16]
00000000: 6c83 e23e 7847 ec3e 9560 b73e f098 733e
00000010: d015 67be 1120 7f3e c973 843e ab5c 8cbd
00000020: 5973 8c3e 32ee 743e fe62 47be 1096 a03e
00000030: 4584 813e 72ad d3be c077 07be 4665 003f
0.44240892 0.46148276 0.35815874 0.2378881 -0.22566915 0.24914576 0.25869587 -0.068536125
0.27431753 0.2391899 -0.19471356 0.3136449 0.25296226 -0.41343266 -0.13229275 0.5015453

down_path.1.block.5.bias f4 [16]
00000000: e2ab 0a3e 4a2b b33d 69e2 163e bf36 013e
00000010: e91a c2bd 64a6 c13d 71d3 343d f19d 80bb
00000020: 264a be3d 3224 bd3d 7afa 71bd 3e2b f83d
00000030: 304f 8f3d 94c8 f0bd 1c13 1fbd bcba e63d
0.1354213 0.08748491 0.14734806 0.1261854 -0.09477789 0.094555646 0.04414696 -0.003925078
0.092914864 0.09235419 -0.059076764 0.12117623 0.06997526 -0.11757007 -0.038836583 0.112660855

down_path.1.block.5.running_mean f4 [16]
00000000: 4c17 803e 84d8 1b3e 5eea 283e 776e 123d
00000010: 7d8d 963d 1634 bd3d 8e8e 4a3e a5c6 b33a
00000020: fed9 c23d bc13 453e 3bae 263d ac09 3c3d
00000030: 86da 0d3e 583c d33d fef2 823d 4d3a 4a3e
0.25017774 0.15219313 0.16495654 0.03574988 0.073512055 0.0923845 0.19780943 0.0013715817
0.09514235 0.1924581 0.040693503 0.04590766 0.13852891 0.10314244 0.06394003 0.19748802

down_path.1.block.5.running_var f4 [16]
00000000: 4121 be3e bed3 883e c50b 593e d4c4 a43c
00000010: d263 673c f41f 833d 82d9 023e b484 df38
00000020: 1c6f 8a3d 3034 763d 3b2b 1a3c f324 3c3d
00000030: 8d2e 753d ab3d 413d eb6d 783c e5df 963e
0.37134746 0.26724046 0.21195896 0.020113386 0.01412292 0.06402579 0.12778285 0.000106581865
0.06759474 0.060108364 0.009409721 0.045933675 0.059858847 0.04717795 0.015162925 0.29467693

down_path.2.block.0.weight f4 [32, 16, 3, 3]
00000000: 3998 c13b 4c43 583b f534 8f3b 87f6 043b
00000010: f1ce 22bb 5514 443b 551e c73a 6140 25bb
00000020: 8cf5 bdb9 950a e6bb 152f 9cbb b7f7 83bc
00000030: 8c23 abba f823 a9ba 5e2c 91bc 375f cdbb
00000040: c99f 43bb 2b23 9ebc a1e5 b93b c885 203b
00000050: 39c0 bd3a 936f 033c f4d3 e33a 04bc a5ba
00000060: 3cf0 313c 745c fb3a 5ab0 2dbb a1ff 213c
00000070: 5f1a 243b 0489 7e39 3d2a d53b 7ed3 6b3b
00000080: 9516 2d3b 45db 8d3b 22b1 083c e2b1 933b
00000090: 8623 90bc 48ac 84bc e8a9 0ebc b955 31bc
000000a0: 9621 e9bb d5c0 90ba 773b 55bc 8bfb 2abc
000000b0: fb4a cbbb 3a53 f2bb 0adb b6bc 1b68 24bc
000000c0: 48b5 40bc de4d a3bc d7d4 07bc dade afbc
000000d0: 4e02 94bc 9acc e2bb 9c20 273b 8a95 6dbb
000000e0: 9516 20bc 6eb7 0fbb 3b8f 95bb 2fb2 32bc
000000f0: a3e2 ca37 cad9 bcbb fc62 65bc fac2 7bbb
00000100: 19d2 0f3c 721a 993c efda 0d3b aa56 533c
00000110: f7e4 9a3c 3596 a83b 1dfd 663c 451e 813c
00000120: f95f a0bb 393e bcbb e09b 46bc 5fbc b9bb
00000130: 40f0 2bbc bd6c 59bc 2553 10bc 48c0 76bc
00000140: 4fe3 7fbc 6b9a ccbb 6961 40bb ff8d c8ba
00000150: 5a4c 18bc 6c44 88bb e031 c9bb 265b 52bb
00000160: 8b34 1939 452e 07bc 3190 2f3c 3cbd 1f3c
00000170: 66d7 463c f0dd fb3b d450 063c 0a29 6b3c
00000180: b55d 123c f921 043c 11bc 643c 2f28 91bb
00000190: 99e9 0a3b 995e cfbb 9d6a 19bb 6dcf 863b
000001a0: 55ab d1bb d0d2 3cba 45f6 b33b 1728 e1ba
000001b0: 4778 37bb 1a96 b03a 4213 d8bb d0d6 5f3b
000001c0: 9feb c93b f598 b1bb 45ba 0c3b 0e16 743b
000001d0: a0e7 10bc 72ee acba 719e 2ebb 4850 bcbb
000001e0: fd3c 403c 7c23 13bc 0413 f0bb d977 813b
000001f0: 96b6 51bc 3d7e e4bb 84b1 95bc 6967 65bc
00000200: 8775 00bc 327e 84bc 4277 16bc ff4c faba
00000210: c560 0dbc cbce 82b9 1d7a b73b 5e35 fa3b
00000220: 15fe 203b cafc 31bb 696f d23b 3ebe 16bb
00000230: a09d 4cbb 462d 4e3c e95d d3ba 6b39 08bb
00000240: 1fe3 503d 2c56 d4bd c0ce b3bc 81e1 d53d
00000250: b396 de3b a702 2c3c 2c71 9abc 15af ab3c
00000260: d7ec f338 aa1c dc3c 3252 75bd f4d6 fb3b
00000270: cc7d d4bd 160d c13c 4fa3 873c 4d19 09bd
00000280: 642d 6c3e 0a9f 8a3d 1bcb 443e 3775 47bd
00000290: 16bb 273c 43ef 363e f377 9dbc a421 85bd
000002a0: 0606 063d 7aae 13bd e58b 6dbc bfc6 963d
000002b0: 3b8a c5bd 366b 8a3d c707 bf3c 2388 503d
000002c0: 1c8c f03a bd77 2a3d bca2 643b c745 f6bd
000002d0: 93e1 ebbd 2cdd e9bd 1e89 c3bd f3e8 3cbd
000002e0: d0f2 a2bd ca90 31bd 9153 12bd 4a0f 88bd
000002f0: a5e6 babd 2fa1 91bd a8ee fabc 0275 cd3c
00000300: 4470 243d 7970 843d 9405 bd3d d5b3 493e
00000310: 828a f83d 195d cb3d 3e1e 3ebd 215f 933d
00000320: 1517 283e ea18 83bd 1da9 cd3a 6f1a e13d
00000330: 6409 da3a e891 cf3d 464f 923d e933 853c
00000340: 188c f03c 34d5 153d e10f 243c fc07 b83c
00000350: 24ed 0a3d 110d 323d a294 0d3d b11e 213d
00000360: 6d08 f4bd b5f9 a9bd 28c1 79bd 46a1 9f3d
00000370: 8f06 9f3d c7de ea3b e902 e33c d74e 1e3c
00000380: 8e4a b13d c384 683e b0ea 2c3e 998d 8a3c
00000390: 1e4f 71bd 9cb2 4c3d 239a 7f3d 60fe 42be
000003a0: d243 45be ba70 22be a442 233d 5f52 343d
000003b0: 3ce1 4c3d 6aaf 563d ccbd 743d 2340 493d
000003c0: 109a 4b3d 527c 1e3d c448 593c 2b29 0dbd
000003d0: 6e0d 87bd c8f9 7fbd 433b 89bd df6d 28bd
000003e0: 71ca 26bd f307 173d 90d0 3ebd 9ecd afbd
000003f0: e609 22be 0c21 67be 9d14 8ebd 80fb 9d3d
0.005908039 0.0032999096 0.0043703266 0.0020288543 -0.0024842585 0.0029919345 0.0015191535 -0.0025215375
-0.00036231836 -0.0070203044 -0.004766355 -0.01610933 -0.0013056858 -0.0012904396 -0.017721351 -0.006267454
-0.0029849878 -0.019303879 0.005673126 0.0024493802 0.0014476842 0.008022207 0.0017381893 -0.0012644534
0.010860499 0.0019177333 -0.0026502819 0.009887607 0.0025040132 0.0002427437 0.0065052793 0.0035984213
0.0026411165 0.0043291175 0.008343013 0.0045072893 -0.017595064 -0.016195431 -0.008707501 -0.0108236605
-0.0071145995 -0.0011043797 -0.013014666 -0.010435949 -0.0062040067 -0.0073951753 -0.022321243 -0.010034586
-0.011761971 -0.01993459 -0.008290491 -0.021468569 -0.018067505 -0.006921363 0.0025501614 -0.0036252462
-0.009771009 -0.00219294 -0.0045641935 -0.01090674 2.4185812e-05 -0.005763267 -0.0140006505 -0.0038415776
0.0087781185 0.018689368 0.0021645387 0.01289908 0.018908007 0.005144859 0.014098433 0.015761504
-0.0048942533 -0.005744722 -0.012122124 -0.0056682075 -0.010494292 -0.013270554 -0.008808886 -0.015060492
-0.015618159 -0.006243994 -0.0029354936 -0.0015301107 -0.009295547 -0.004158547 -0.0061399788 -0.0032097786
0.00014610791 -0.008250778 0.01071553 0.009749707 0.012136316 0.007686369 0.008197982 0.014353046
0.008933474 0.00806474 0.013960854 -0.004429839 0.0021196364 -0.0063284156 -0.0023409494 0.0041140825
-0.006398598 -0.00072030444 0.005492004 -0.0017178085 -0.0027995275 0.0013472468 -0.0065940926 0.0034155138
0.0061621214 -0.005419845 0.002147333 0.003724459 -0.008844286 -0.0013193621 -0.0026644731 -0.005746875
0.011733291 -0.008980628 -0.0073264856 0.0039510545 -0.01279988 -0.0069730566 -0.018273123 -0.014001706
-0.007840521 -0.016173456 -0.009183707 -0.0019096433 -0.008629029 -0.00024949605 0.005599274 0.0076357564
0.0024565507 -0.002715873 0.0064219725 -0.0023001577 -0.0031221882 0.012584036 -0.001612601 -0.0020786177
0.05099785 -0.103679985 -0.021949172 0.10443402 0.006792867 0.010498679 -0.018852793 0.020957509
0.00011631258 0.026869137 -0.05989284 0.0076855365 -0.10375556 0.02356581 0.016557364 -0.033471394
0.2306419 0.067686155 0.19218104 -0.04869577 0.010237476 0.17864709 -0.019222235 -0.06500557
0.03272059 -0.036055066 -0.0144986855 0.073621266 -0.09645506 0.0675873 0.023319138 0.05091108
0.0018352303 0.041618098 0.0034887036 -0.12025028 -0.11517634 -0.11419138 -0.095476374 -0.046120595
-0.07956469 -0.043350972 -0.035724226 -0.06643541 -0.09126023 -0.071108215 -0.030631378 0.025080208
0.040146127 0.06466765 0.092295796 0.19697507 0.12135793 0.09929866 -0.04641556 0.07195879
0.16415055 -0.06401236 0.0015690658 0.1099137 0.0016634879 0.10135251 0.071440265 0.016260104
0.029363677 0.03658028 0.010013551 0.022464745 0.03391756 0.043469492 0.034565575 0.03933591
-0.119156696 -0.08299581 -0.060975224 0.07794432 0.07764923 0.0071676704 0.027711349 0.009662352
0.08656798 0.22706895 0.16886401 0.016913222 -0.058913343 0.049975023 0.062402856 -0.19042349
-0.19264153 -0.15863314 0.039858475 0.044023868 0.050019488 0.05241338 0.059751317 0.04913343
0.049707472 0.03869278 0.013261978 -0.03446309 -0.065943584 -0.06249407 -0.067007564 -0.041120406
-0.040720407 0.036872815 -0.04658562 -0.0858414 -0.15824088 -0.225712 -0.069375254 0.077139854

down_path.2.block.0.bias f4 [32]
00000000: bfbc e73a ce2b cb3e fd83 973e 55ce 043e
00000010: 1483 273d 675c 7bba 924f f5b9 61c5 2234
00000020: f4ab 9d3d dc12 94bb 6e57 023a d58e cf3c
00000030: 87eb 21af 3f19 08bd a7dd 79b0 df99 a23d
00000040: 67bd ddaf 2014 c138 7590 e73d bda2 daac
00000050: 6aaf 96b6 6139 e496 d426 2ca2 ec8e 40be
00000060: 5578 9a3a 70b6 0e80 ccb2 78bd 21e4 22bc
00000070: 86c3 94b4 e544 8d3d 25e6 77aa b7ce 1980
0.0017680152 0.39681858 0.29592887 0.12969334 0.04089649 -0.0009588659 -0.00046789326 1.5159232e-07
0.07698813 -0.00451885 0.00049721345 0.025336662 -1.4726541e-10 -0.0332272 -9.090066e-10 0.07939505
-4.0334244e-10 9.206706e-05 0.1130685 -6.2140002e-12 -4.4907692e-06 -3.6871598e-25 -2.3330902e-18 -0.1880452
0.0011785129 -1.351143e-39 -0.06071739 -0.0099420855 -2.770941e-07 0.06897906 -2.2017854e-13 -2.370043e-39

down_path.2.block.2.weight f4 [32]
00000000: 3ee1 783d 1458 db3e f614 0e3f c39d 483e
00000010: 7157 e63e 1e56 2b3c 5773 e339 a35c 4234
00000020: 7a72 c43e 38be 833d 7223 0638 404b c53e
00000030: 376d 7e38 e55c 5b3d 4474 beb7 7909 f43e
00000040: 8ab7 09b6 aeb0 09b9 40ff ef3e b26c 2e38
00000050: f1c5 17b9 97d7 a7b8 de73 1137 1e6f bfbe
00000060: fc7d 2339 d5e2 2d39 34a6 23be dd84 5c3d
00000070: 6c54 2eb8 7bc3 ec3e 4d77 80b6 2582 8b31
0.060761683 0.42840636 0.55500734 0.19591431 0.44988587 0.010457544 0.0004338275 1.8101359e-07
0.3836859 0.06432766 3.19811e-05 0.38533974 6.0660033e-05 0.053555388 -2.2703905e-05 0.47663477
-2.0521425e-06 -0.00013131156 0.46874428 4.1586063e-05 -0.00014474221 -8.003337e-05 8.669651e-06 -0.37389463
0.00015591824 0.00016583067 -0.1598137 0.053837646 -4.1563457e-05 0.4624289 -3.8285857e-06 4.060228e-09

down_path.2.block.2.bias f4 [32]
00000000: bda8 c83a aab9 7b3e 6d0a 3bbe 1069 efbe
00000010: 297e fa3d 98ea a2b9 e0ea 8438 edd0 3b37
00000020: 06b0 11be 3636 cf3a cda2 a538 0e8c 3e3d
00000030: 71a1 6e36 b2b2 54ba d8f6 25b7 3c48 f13d
00000040: ffd9 7337 ac6a a835 8fb9 5e3d 9465 b5b7
00000050: 5a77 46b9 a67e dbb6 70da ab37 7f17 9ebd
00000060: fb6a 4939 b2f4 05b6 e5e1 61bc bfc4 383b
00000070: 9d5b f4b6 53b7 5e3e 2701 38b5 3bd8 19b6
0.0015309077 0.24582544 -0.18265696 -0.46759844 0.122310944 -0.00031073834 6.3379994e-05 1.1194713e-05
-0.14227304 0.0015809003 7.898137e-05 0.046520285 3.5558735e-06 -0.0008113786 -9.892239e-06 0.11781356
1.4534685e-05 1.2548021e-06 0.05437618 -2.1624182e-05 -0.00018927213 -6.5414524e-06 2.0486506e-05 -0.07719325
0.00019208707 -1.9960976e-06 -0.013786768 0.0028193442 -7.282432e-06 0.2174962 -6.854702e-07 -2.292464e-06

down_path.2.block.2.running_mean f4 [32]
00000000: 48d5 c53a 6883 113f bd02 2c3f b6c0 ac3d
00000010: cb36 d53d 664b 0f3b d804 763b 51cb f433
00000020: 65b0 ae3e df65 133b 8881 b93a 554f 093e
00000030: 0400 0000 f156 a23b 0400 0000 f0e2 3f3d
00000040: 0400 0000 13a6 3036 5769 da3e 0400 0000
00000050: 0400 0000 0400 0000 0400 0000 d64d c53c
00000060: d66f cf3b 0400 0000 9a8a 3e3b 8343 5c3c
00000070: 6caf 0000 25d1 583e 0400 0000 0400 0000
0.001509347 0.56841135 0.6719168 0.08435194 0.104108416 0.002186501 0.0037539508 1.13991184e-07
0.34118953 0.002249114 0.0014152983 0.13409169 6e-45 0.004954212 6e-45 0.046847284
6e-45 2.6322712e-06 0.42658493 6e-45 6e-45 6e-45 6e-45 0.024084967
0.0063304706 6e-45 0.0029074312 0.01344383 6.293e-41 0.21173532 6e-45 6e-45

down_path.2.block.2.running_var f4 [32]
00000000: 4d4e 7c38 6b14 213e 72c3 b13e 9989 c03c
00000010: 8a14 543d 3777 1d38 1023 b337 fc34 ae2a
00000020: 90dd 333e 1496 8b38 4c83 7336 484d 633d
00000030: 0400 0000 eea5 3939 0400 0000 f5be 1b3d
00000040: 0400 0000 3e2f ae2f 52bc a53e 0400 0000
00000050: 0400 0000 0400 0000 0400 0000 0d88 123c
00000060: 3b91 b237 0400 0000 0736 a339 5fa2 ec39
00000070: 0400 0000 c5dc 113e 0400 0000 0400 0000
6.0154405e-05 0.15730445 0.34719425 0.023503112 0.0517774 3.7542744e-05 2.135479e-05 3.0945374e-13
0.17564988 6.655991e-05 3.6286247e-06 0.055493623 6e-45 0.00017704788 6e-45 0.038023908
6e-45 3.1683983e-10 0.3237024 6e-45 6e-45 6e-45 6e-45 0.00894357
2.1286882e-05 6e-45 0.00031130036 0.00045134404 6e-45 0.14244373 6e-45 6e-45

down_path.2.block.3.weight f4 [32, 32, 3, 3]
00000000: 0409 22bc 6067 df3a d405 84bb 1af5 fbb9
00000010: 85a3 143c 6fa7 5139 d313 6fbb 28b4 933b
00000020: c276 38bb 62ee acba 7d6e 843b 769b b7b8
00000030: e2c9 acbb abbd b6ba 98c9 07bc 0e7a 51bc
00000040: 178b d7bb 52ae 2cbc 2982 2ebc 1201 8d3b
00000050: c86e 1b3c 8a4a 67bc 97d7 0e3b 4ab4 023c
00000060: e632 41bc 8a2c 963b ce0c 013c 4716 003c
00000070: 4a62 f93b a400 273c e219 083c 3f9c 193c
00000080: 8641 1f3c 8a9d d43b 4a61 8d3b fccb dd3b
00000090: 517c 18bc 6720 e6bb a7a9 c53a 936c a5bb
000000a0: 2fae 3eba 87aa 853b 011e afbb f76f 383b
000000b0: 8bed ac3b 8270 8bbb 4123 5fbb a0d7 20bb
000000c0: 0b51 a839 cc3e a13a 347f eb3a 3832 283b
000000d0: 9dbe 523b 00a7 583b c843 753a 26e7 1439
000000e0: de18 cab7 f92e 793a eeb7 4239 eb45 a737
000000f0: 6cc0 8f3a 8eda cc39 e0cd 5239 23c4 ba37
00000100: 7d25 af37 2d44 eb37 549d 8d37 8c0e 8437
00000110: fd82 be37 32ec 9637 c520 8f37 5670 c837
00000120: abfe fcbb 0b8d 7dbc 2eed 6fbc d8a8 e6bb
00000130: 3d3e 74bc fdd6 51bc f642 0cbc 79bd 82bc
00000140: 1e69 46bc 742a 693b 27ce 7abb f17e 323c
00000150: beab 28bc 64d0 17bc 4cfa bf3b 8353 f9bb
00000160: b6ca 7ebb 176e 3c3c 4b47 c337 7e26 9038
00000170: 427a 4c38 b354 2338 a47d 9a38 5c39 5338
00000180: 3938 3b38 1137 9738 9938 5538 e317 23bc
00000190: 7190 a4ba 83e0 be3b be98 2e39 0edd c13b
000001a0: 2bb8 0e3c 2feb b6bb 872d 11ba e138 0b3c
000001b0: 0e41 aa35 0332 aa35 dd45 5ab6 5876 4636
000001c0: 16bb 4636 09bf cdb5 90ce 4236 5844 4336
000001d0: 187d d4b5 4275 243c 5c56 0b3c fc96 fc3a
000001e0: 2b58 a43b 55eb 0b3b d931 10bb 6a7e 363b
000001f0: ae1c c3b8 803d b5bb 5903 b8b7 6731 bab7
00000200: cca1 c5b7 50a5 acb7 ace3 adb7 4d0e b9b7
00000210: 79a6 adb7 bfc9 aeb7 b388 b9b7 972a 0cbc
00000220: f429 40bb b74b cc3b 91fe f1bb 4578 0dbb
00000230: 3d2a 043c e9d5 d0bb 0c0e dcbb 8813 ba3b
00000240: 9caa 9d37 3160 a537 f49a ac37 0ae7 ab37
00000250: 2dee b037 ba92 b737 d063 ad37 2097 b037
00000260: 9d62 b537 3f5c 45b7 31a2 c3b6 38af 2db5
00000270: efb6 4fb6 2c31 0436 7280 4836 1b7d 43b6
00000280: ba1c 20b6 3aed 2db6 2594 853b 741e b03a
00000290: cae0 33bb b3ff 293b 1929 203b 3a00 e5ba
000002a0: 2eb5 4f3b 2505 543b 8035 0abb 6913 59b8
000002b0: 8eff 57b8 922c 5cb8 f325 51b8 a70a 50b8
000002c0: 305c 54b8 4fdf 50b8 fbc3 4fb8 de14 54b8
000002d0: 6def b8b9 22fd b8b9 b95f beb9 c788 bbb9
000002e0: 147d bbb9 6cd5 c0b9 c0ae bbb9 cda8 bbb9
000002f0: a8f9 c0b9 0c25 1b37 5588 1a37 ca0f 8337
00000300: c8a2 bf36 ef22 be36 cccb 4937 4e51 c136
00000310: a0cf bf36 20a3 4a37 a15a 4f38 d75f 4e38
00000320: 7a40 5238 b828 4838 d62d 4738 9536 4b38
00000330: 51e6 4738 68eb 4638 b6f3 4a38 3462 263b
00000340: 2ed3 a5bb 2c55 9cba ea46 3c3c 803c 883a
00000350: 9872 203b 5652 ca3a c66f b63b 0880 0e3c
00000360: cbe2 33b8 f2b5 9e37 2e74 c3b7 d9e0 e635
00000370: ca3d 7038 09b8 a136 9c37 7038 3b73 d938
00000380: c7a1 3938 f684 5338 b9fe 5238 b499 8b38
00000390: 0971 2a38 1398 2938 3c59 6d38 e632 2a38
000003a0: 435a 2938 061b 6d38 7732 f839 026b 443b
000003b0: 95b3 223d ea09 973b 6a2d 0d3c 38f8 db3c
000003c0: 0ed7 04bb dc1f cabb 86d5 2b3c 75ef aebc
000003d0: 5c14 dfbc 6214 b0bc 1cb2 dabc 4625 0abd
000003e0: 832e dfbc f991 ebbc 673b 0bbd 767e d9bc
000003f0: 6d45 10b6 726f cdb5 1749 8fb5 3960 68b6
-0.009889845 0.0017044358 -0.004029015 -0.00048057066 0.009072189 0.00019994167 -0.0036480322 0.0045075603
-0.0028146957 -0.0013193602 0.0040414915 -8.755077e-05 -0.0052730897 -0.0013942024 -0.00828781 -0.012785448
-0.00657786 -0.010539608 -0.01065115 0.004303106 0.0094868615 -0.014116893 0.0021795982 0.007977555
-0.01179192 0.004582946 0.007876588 0.007817811 0.007610594 0.010193024 0.008306952 0.009375631
0.009720212 0.0064885067 0.0043145763 0.0067687016 -0.009306983 -0.0070229056 0.0015080468 -0.0050483434
-0.000727388 0.0040791663 -0.005344153 0.0028142908 0.0052773408 -0.0042553553 -0.0034048113 -0.0024542585
0.0003210384 0.001230204 0.0017966987 0.0025664698 0.0032157071 0.0033058524 0.00093561085 0.0001420049
-2.4091856e-05 0.00095055957 0.00018569801 1.994051e-05 0.001096738 0.00039072748 0.00020103855 2.2264261e-05
2.0879083e-05 2.804593e-05 1.6881771e-05 1.57424e-05 2.2710761e-05 1.799138e-05 1.7062188e-05 2.3894168e-05
-0.0077207885 -0.015475522 -0.01464395 -0.0070391707 -0.014907417 -0.012807605 -0.008560887 -0.015959488
-0.012110023 0.0035578283 -0.003826985 0.010894523 -0.010294853 -0.009265993 0.005858695 -0.0076088323
-0.003887815 0.011500857 2.327901e-05 6.873625e-05 4.875125e-05 3.894111e-05 7.3666946e-05 5.035974e-05
4.4636636e-05 7.210498e-05 5.0835868e-05 -0.0099544255 -0.0012555254 0.0058251037 0.00016650834 0.0059162444
0.008710901 -0.0055822353 -0.0005538095 0.008497448 1.268492e-06 1.2680542e-06 -3.2525197e-06 2.9573184e-06
2.9613198e-06 -1.5329289e-06 2.9028488e-06 2.9097046e-06 -1.5831638e-06 0.010037722 0.008504476 0.0019271071
0.0050153933 0.0021349986 -0.0022002368 0.0027846345 -9.3036666e-05 -0.005531013 -2.1936068e-05 -2.2195933e-05
-2.3559573e-05 -2.0580977e-05 -2.0729225e-05 -2.2060378e-05 -2.0700727e-05 -2.0836362e-05 -2.2117374e-05 -0.008555076
-0.002932188 0.006234612 -0.007385083 -0.0021586579 0.008066711 -0.0063731563 -0.0067155417 0.005678598
1.8795305e-05 1.9714325e-05 2.0576153e-05 2.0492374e-05 2.1091744e-05 2.1883625e-05 2.0669686e-05 2.1051208e-05
2.1622802e-05 -1.1763593e-05 -5.8303344e-06 -6.47025e-07 -3.0951885e-06 1.9698155e-06 2.9877087e-06 -2.9130085e-06
-2.385858e-06 -2.5917093e-06 0.004076498 0.001343681 -0.0027447217 0.0025939762 0.0024438559 -0.0017471381
0.0031693685 0.00323517 -0.0021089017 -5.175491e-05 -5.1498e-05 -5.2493597e-05 -4.9864826e-05 -4.9600985e-05
-5.0630595e-05 -4.9799037e-05 -4.9535167e-05 -5.0564173e-05 -0.000352736 -0.00035283813 -0.00036310943 -0.00035769326
-0.0003576061 -0.00036780105 -0.00035797618 -0.00035793186 -0.00036807102 9.247346e-06 9.210858e-06 1.562377e-05
5.711194e-06 5.666508e-06 1.2027984e-05 5.7613133e-06 5.7164143e-06 1.2078119e-05 4.943705e-05 4.9203485e-05
5.012795e-05 4.7721638e-05 4.7487985e-05 4.8449805e-05 4.7659796e-05 4.7426118e-05 4.8387526e-05 0.0025388123
-0.005060575 -0.0011927239 0.011491517 0.0010394007 0.0024482366 0.0015435915 0.0055675237 0.008697517
-4.2888143e-05 1.8919793e-05 -2.3299912e-05 1.7201775e-06 5.7278005e-05 4.8195984e-06 5.727225e-05 0.0001036883
4.4258104e-05 5.043015e-05 5.030513e-05 6.656666e-05 4.063643e-05 4.043437e-05 5.658831e-05 4.057856e-05
4.0376803e-05 5.653037e-05 0.00047339845 0.0029971008 0.039722044 0.004609336 0.008616785 0.026851758
-0.0020269784 -0.0061683487 0.01048792 -0.021354416 -0.027231388 -0.021494094 -0.026696257 -0.033726953
-0.027243858 -0.028756129 -0.033992197 -0.02654956 -2.1498083e-06 -1.5306125e-06 -1.0675602e-06 -3.4626703e-06

down_path.2.block.3.bias f4 [32]
00000000: ea4f 233b b29a ebbc a8f0 21a1 5598 f4bb
00000010: 55ce 9496 ca08 693a d1c2 89bc cbd5 0cbc
00000020: 744c 823d 8256 10b8 ff94 8b3e bdf9 68af
00000030: 3e1a c3b4 059a 0dae 887d 06b1 3bb5 133e
00000040: dddd 5f3e 1f19 543e cda9 e83b 8230 15be
00000050: eafd b9bd a4a4 133e afc4 ae39 2ea3 06b5
00000060: 83b1 e1b9 5da8 4b3b 8fe3 593c fc5d 90b6
00000070: 6bbf 093a 2c65 c8b2 3f88 2abc 49bb 60be
0.0024919459 -0.028760288 -5.486743e-19 -0.0074644485 -2.4040903e-25 0.00088895543 -0.016816529 -0.008595894
0.063622385 -3.4412842e-05 0.27262112 -2.1189002e-10 -3.6340674e-07 -3.2196485e-11 -1.9570923e-09 0.14424603
0.21861978 0.20712708 0.00710032 -0.14569286 -0.090816334 0.14418274 0.00033334407 -5.015635e-07
-0.000430476 0.0031075694 0.013298883 -4.3024756e-06 0.0005254659 -2.3329072e-08 -0.01040846 -0.21946444

down_path.2.block.5.weight f4 [32]
00000000: 2f17 413d 3b2c c43d c497 10b8 49e5 b2bd
00000010: 09b0 6db7 59f4 4fb9 6e59 6fbd dfde 32bd
00000020: 4df0 3bbe 66c3 9fbd d5f8 443e 094f f3b7
00000030: df8b 8634 b195 9637 083d b2b6 656a 19be
00000040: bc45 7a3e 45f3 5c3e cc89 e83d a467 8abe
00000050: d4ff 8d3e 5459 3c3e ed45 19ba ebd9 83b3
00000060: ab55 613e 3dde 59bd a725 f73d d868 a6b7
00000070: 1d12 01bd 2597 14b4 b099 113d 30ce 5b3e
0.04714125 0.09578749 -3.4473618e-05 -0.08735139 -1.4167287e-05 -0.00019832085 -0.058434896 -0.043669578
-0.18353386 -0.07800941 0.19235547 -2.9004661e-05 2.5061215e-07 1.7951099e-05 -5.3119184e-06 -0.14981993
0.24440664 0.21577175 0.11354408 -0.27032197 0.27734244 0.18393451 -0.00058469066 -6.139802e-08
0.22005336 -0.05319046 0.120677285 -1.9837564e-05 -0.031511415 -1.383856e-07 0.03554696 0.21465373

down_path.2.block.5.bias f4 [32]
00000000: f78c 4dbb 4a08 2dbc ef3f c438 63cd 49bc
00000010: a2c3 b437 b428 b5b8 69c4 febb 074c 88bb
00000020: 1de4 28bd 3e72 00bc 3b16 7cbd efc3 e238
00000030: c7e4 8c38 ef56 9eb8 c06a b7b8 d257 debc
00000040: ec41 2a3e a8bb 693d e50e 983b 4ae3 4ebd
00000050: ac61 aa3d f7a9 813d b5b6 8fb9 3e3c 22b8
00000060: 7309 c73d 28d2 1dbc 26b7 2fbd 9641 c836
00000070: a3ce 52bb e72d c7b8 f047 2a3b 8ba3 333d
-0.003136454 -0.010561058 9.357917e-05 -0.012317034 2.154877e-05 -8.638334e-05 -0.0077748788 -0.004159454
-0.04123317 -0.007839737 -0.061544638 0.00010813015 6.718333e-05 -7.55022e-05 -8.746004e-05 -0.027141485
0.1662671 0.05706373 0.0046404474 -0.05050973 0.08319411 0.06331246 -0.00027411213 -3.8679915e-05
0.09718599 -0.009632625 -0.042899273 5.9680997e-06 -0.0032166622 -9.4976094e-05 0.002598282 0.04385714
