weights/old/unet-test8.pt (torch_old, 478380 bytes, 92 tensors)

down_path.0.block.0.weight f4 [8, 3, 3, 3]
000000 a6 91 36 3c 30 cd 94 3e d8 96 ff bd fe 48 0e be
       0.011143124 0.29062796 -0.12479943 -0.13895032
000010 aa 1d a3 bd 25 b6 18 3e db 23 4b 3e 37 9f 36 be
       -0.07964642 0.14913233 0.19837897 -0.17834173
000020 41 03 90 bd d1 ef 94 be a0 77 aa bd ad 3d 89 3d
       -0.07031871 -0.29089215 -0.08323598 0.06701217
000030 a8 da e9 bc 96 96 b8 bb f7 31 94 3e 87 b1 64 be
       -0.028546646 -0.0056331856 0.2894437 -0.22333346
000040 f5 e0 e9 3d 34 de 28 3e ba 27 33 3e bc d5 3b 3d
       0.1141986 0.16491014 0.17495623 0.04585813
000050 ec 04 0f 3e eb 72 56 3e 39 7b 9b 3d e6 ed 2d bd
       0.13966721 0.20942275 0.07591862 -0.042463206
000060 82 b9 14 bc 99 c7 30 3e 95 3c 7f be 44 f6 cb 3d
       -0.009077432 0.1726364 -0.24925454 0.09959081
000070 8b 3f c2 bd c9 58 da bb df 85 c8 bd 70 24 97 be
       -0.09484776 -0.006663416 -0.09791159 -0.29519987
000080 dc 99 6f 3b 19 72 f2 bc 60 4e cd bb 80 60 86 be
       0.0036560213 -0.029595422 -0.0062654465 -0.262455
000090 1d c1 29 3e 55 9c e8 bc e8 e5 aa bc d3 02 9c 3e
       0.16577573 -0.028394857 -0.020861581 0.30470905
0000a0 df 4a a1 be af c1 9a be 1e aa 91 3e e8 a8 12 3e
       -0.31502435 -0.30225894 0.28450102 0.14322245
0000b0 0c 70 40 3e 53 b7 23 3e a0 70 10 3e 21 a5 89 3e
       0.18792742 0.15987901 0.14105463 0.26883796
0000c0 14 0e d5 bd 6f a3 10 be 51 43 aa be e7 fa 34 3e
       -0.10403076 -0.14124845 -0.33254483 0.17673837
0000d0 de c7 e0 bd 81 fa af bd 28 d1 e0 be 62 79 49 be
       -0.10975622 -0.08592702 -0.43909574 -0.1967521
0000e0 df 24 e3 bd 37 7a 9f be 6a 38 34 be be 9b b2 3d
       -0.11091017 -0.3114793 -0.17599645 0.08721112
0000f0 68 99 c7 bb 60 8b 8b be 40 43 77 bd 6e 4e d9 3c
       -0.0060912855 -0.27254772 -0.06036687 0.026526656
000100 9d a3 d7 3d 46 1b 51 be 92 5b 8a 3e e9 1c b6 be
       0.10529254 -0.2042056 0.27022988 -0.35568932
000110 4a 75 de bc 97 cf 17 be 53 ad e7 3d db 17 58 bb
       -0.027155537 -0.14825283 0.11312356 -0.0032973203
000120 16 d0 46 be 4c 4e b5 3d 71 e5 2c be f4 9e db 3d
       -0.19415316 0.088528246 -0.168844 0.10723677
000130 56 78 c2 bd b3 58 98 bd b9 f2 42 bd 15 23 b4 3e
       -0.094956085 -0.07438793 -0.04759476 0.35183015
000140 f5 58 e5 3b a9 5c 20 3e 1a a6 29 bd 15 e6 3b bd
       0.00699913 0.15660347 -0.041418172 -0.04587372
000150 fd 2a 23 be 64 a6 7d bd d5 be 3d bd 36 64 be 3d
       -0.15934367 -0.06192626 -0.04632457 0.092964575
000160 52 06 ca 3d 7b a6 fc bc 9b aa 78 3d d8 a8 18 3d
       0.09864487 -0.030841103 0.060709577 0.037270397
000170 ed d6 1e bd f4 bb 85 be fd a4 c5 bd 60 f5 58 bd
       -0.038779188 -0.2611996 -0.0965061 -0.052968383
000180 41 93 50 3e ef 2b 58 bd d4 01 98 3d b8 08 6e 3d
       0.20368673 -0.052776273 0.07422224 0.058113784
000190 eb 8b 46 be b9 00 9c be d4 19 61 3d 08 83 c5 bd
       -0.19389312 -0.304693 0.054956272 -0.09644133
0001a0 d7 fd 0d be 6b ad 5b 3e 24 ae 04 3e da 66 9a bd
       -0.13866363 0.21452872 0.12957054 -0.07539149
0001b0 e1 fb a5 bd 20 7c 89 be b2 c5 c4 bb 82 e1 05 be
       -0.08104683 -0.26852512 -0.0060050124 -0.13074306
0001c0 08 cf 32 be 40 78 c6 3e 9a 8f 08 3e 2b 35 c8 3b
       -0.17461789 0.38763618 0.1333603 0.0061098537
0001d0 4e f6 ca 3e 0d 13 a9 bd 32 7a 03 bf 81 6c 59 be
       0.3964104 -0.08255587 -0.5135833 -0.21232797
0001e0 a5 fd ea be f0 9d 01 be 82 66 8f 3c aa 55 79 be
       -0.4589664 -0.12657905 0.017504934 -0.24349084
0001f0 3b 2a 4d 3e 69 3f 35 3e 15 ee 4b be a2 39 6d be
       0.20035641 0.1769997 -0.1991504 -0.23166516
000200 ec 44 6a be 40 34 69 be d0 e4 2e be 58 e8 df bd
       -0.22877854 -0.22773838 -0.17079473 -0.10932988
000210 cd 2c 0c be 52 8c 29 bd 88 f6 4c 3d 7e f6 75 3e
       -0.13688965 -0.041393586 0.050039798 0.2401981
000220 46 ba e9 bc 8f 65 67 3e 9f c8 eb bd a6 86 0d be
       -0.028531205 0.22597335 -0.11512875 -0.13820896
000230 03 0f 37 3e b9 0f b3 3c f1 84 7c 3e a4 c3 1b be
       0.1787682 0.021858083 0.24660088 -0.1521135
000240 96 3a 1e 3e 45 e3 01 3e dc bd 03 bc b3 ed 60 bd
       0.15452036 0.12684353 -0.0080408715 -0.054914188
000250 b1 2f 7e bc 94 31 e6 bd ad 09 2f bc e4 95 8d 3e
       -0.0155143 -0.11239925 -0.010683459 0.2765342
000260 8a 46 3d 3e 60 f0 d0 3d ad 97 5a 3d 1a 15 91 3d
       0.1848394 0.10202098 0.053367306 0.07084103
000270 f4 56 bb 3d 3b 71 b5 3d 31 8a c3 be 9a 53 bc 3d
       0.09147444 0.088594876 -0.3819137 0.09195633
000280 ec a9 c6 3d f1 25 e5 bd ab 2f 3b 3d 0b 76 84 3b
       0.09700379 -0.111888774 0.045699757 0.004042392
000290 dd 7a 42 3e 64 7a 48 3e d0 dd 49 bd 36 4c 9b be
       0.18992181 0.19577938 -0.049283803 -0.30331582
0002a0 d2 66 4e 3e 02 e2 a5 be 61 e5 48 3d ff 36 28 3e
       0.2015641 -0.32398993 0.049046878 0.1642723
0002b0 67 bf 7d 3d cb 1e 5f 3e c2 13 b2 bd 09 4b 16 3e
       0.061950114 0.2178909 -0.08695175 0.14677061
0002c0 13 87 62 3d f0 4b 85 be 39 66 a3 3e 83 10 ed 3d
       0.055304598 -0.26034498 0.31913927 0.11575415
0002d0 f0 ef 71 be 65 f5 6c be 0f cb 3f 3d b1 68 80 be
       -0.23626685 -0.23140486 0.04682451 -0.25079873
0002e0 52 e0 8b bd b8 48 78 3e e6 e2 06 3e 4e e9 81 be
       -0.06829895 0.2424649 0.13172492 -0.2537331
0002f0 05 5d 4d 3d 51 e9 4f 3d b8 f0 c5 3c a7 1e 1f 3d
       0.05013754 0.050759617 0.024162635 0.03884759
000300 ab 07 c3 bd 9d a9 1e bd 22 34 ec bc 0b c2 72 3e
       -0.09522947 -0.038735975 -0.028833453 0.23706834
000310 50 a6 82 3e 10 41 54 3d ee c5 99 bd 38 e6 b5 3d
       0.2551751 0.05181986 -0.07508455 0.08881801
000320 d8 bd e9 3d bf f1 60 3e ae d5 c0 bd e7 e1 60 3c
       0.11413163 0.21967219 -0.09415756 0.013725734
000330 1a e5 da 3d 91 b2 34 bd a5 97 76 be 42 67 cb be
       0.10688229 -0.044115607 -0.24081285 -0.39727217
000340 77 81 10 be 71 15 80 3e 5f 3a de be d2 6d 91 3d
       -0.14111887 0.25016358 -0.4340391 0.07101025
000350 ac 0c 3f 3d aa e1 1f 3e ba 22 8e be fb 02 2a bd
       0.046642944 0.15613428 -0.2776087 -0.04150675

down_path.0.block.0.bias f4 [8]
000000 be 30 ef 3d 29 a2 3c be 42 73 ea bc 5a 93 1e be
       0.11679219 -0.18421234 -0.028619412 -0.15485898
000010 40 0c 05 be 9c 33 86 3c e7 89 24 3d 0f ca 78 bd
       -0.12992954 0.016382031 0.040170576 -0.060739573

down_path.0.block.2.weight f4 [8]
000000 35 bc 7f 3f dc 47 7e 3f 0a 4b 79 3f 70 d0 7c 3f
       0.99896556 0.993284 0.97380126 0.9875555
000010 1c 11 7c 3f ca 9d 80 3f c1 40 81 3f 1d 2c 7a 3f
       0.98463607 1.0048153 1.0097886 0.9772356

down_path.0.block.2.bias f4 [8]
000000 7a e0 17 3c 51 4b 14 3c ae 68 7c bc ac ef f8 3b
       0.009269828 0.00905116 -0.015405817 0.0075969305
000010 34 01 48 bc de 83 7e b9 81 de 5c bb 24 73 33 3b
       -0.012207318 -0.00024272452 -0.0033701959 0.0027381862

down_path.0.block.2.running_mean f4 [8]
000000 08 57 94 3e 5b 81 9f 37 86 3f 8a 31 34 b0 95 33
       0.2897265 1.9014513e-05 4.0235504e-09 6.970404e-08
000010 3e 11 00 34 02 b4 bf 3e 4b b1 fc 3d 14 88 07 39
       1.1927202e-07 0.37442023 0.123385035 0.00012925296

down_path.0.block.2.running_var f4 [8]
000000 94 94 67 3c f5 25 d4 35 f3 a7 0d 2f bd d4 53 31
       0.014134545 1.5806278e-06 1.2883543e-10 3.0825469e-09
000010 4e e1 c5 32 7c 0d 5e 3d 30 14 16 3b 29 3c 09 37
       2.3036275e-08 0.05421208 0.0022900216 8.1798435e-06

down_path.0.block.3.weight f4 [8, 8, 3, 3]
000000 03 ae cf 3d 33 2b 7a 3c ad 02 2d be 08 96 cc bd
       0.10140612 0.015269089 -0.16895552 -0.09989554
000010 61 3a 7e 3d d5 0e d0 3d 34 10 db 3d 97 36 1f be
       0.062067393 0.10159079 0.1069645 -0.15548168
000020 3e ae 73 bd 7d d3 63 be 10 be 5a 3e f2 22 a1 bd
       -0.059492342 -0.22248645 0.21361566 -0.078679934
000030 15 9f ce 3d 6e 0d b8 3e 85 00 bf 3d 6b 95 99 be
       0.10088936 0.35947746 0.09326271 -0.2999681
000040 4b 86 e5 3d 29 50 13 be 03 b5 f9 3a 58 71 64 bd
       0.11207255 -0.14386047 0.0019051138 -0.055772156
000050 8a 88 09 bd d1 68 6c 3c b6 d8 48 be f8 ed a3 3e
       -0.03357748 0.014429287 -0.19613919 0.32017493
000060 78 d9 10 be aa c9 13 3e 91 93 1a 3d a4 87 84 3d
       -0.14145458 0.14432397 0.037738387 0.06471184
000070 9e f0 06 be 6e 94 6d 3c a9 06 99 3e 16 df 11 3d
       -0.13177726 0.01450072 0.29887894 0.035613142
000080 5a df a7 3d 03 ed d1 bd 0a 46 68 3d e6 cf 2f bd
       0.08196898 -0.102502845 0.05670742 -0.042922877
000090 12 39 a8 bd 6a 7f 3a 3c 30 7b 35 be 3b 4d ff bd
       -0.0821401 0.011382917 -0.17722774 -0.124659024
0000a0 88 b2 c3 bd 87 59 4c 3e 18 65 2c 3d b0 b6 a5 3d
       -0.095555365 0.19956027 0.042088598 0.080914855
0000b0 55 fa 9f 3e 71 e3 dd 3b f7 52 f5 3d 21 66 4e 3e
       0.31245676 0.006771498 0.11978715 0.20156147
0000c0 61 ee a3 be 00 c3 fc bd f6 b5 1d 3d 6b 98 e4 3d
       -0.32017806 -0.12341881 0.03850361 0.11161884
0000d0 c0 96 c8 3d 3c 85 fe 3d 55 fa fa bd 12 d7 de 3d
       0.09794378 0.12427756 -0.12254778 0.10880865
0000e0 86 be 23 3e ba 7d 94 bd 1b e0 b3 3d 01 1d 44 3e
       0.15990648 -0.07250543 0.08782979 0.19151689
0000f0 30 aa 59 3d a6 3f c7 3e 36 9e 15 3e c0 e2 60 be
       0.05314082 0.38915747 0.14611134 -0.21961498
000100 f5 e4 7d 3d f7 1a 4a be cf e1 6d bd 84 3d 45 3c
       0.06198593 -0.19736849 -0.058076676 0.012038592
000110 4b 04 f0 bb bf 47 07 be 3d 0f 38 bc 97 99 4a 3e
       -0.0073247305 -0.13210963 -0.011234102 0.19785152
000120 bf 75 16 3e 7e f5 bf bd e8 10 88 bd 39 10 23 be
       0.14693354 -0.09372996 -0.066438496 -0.15924157
000130 5d 4a d7 bd c4 e2 dd 3b 0d be 97 3d b3 8e 26 3e
       -0.105122305 0.0067714173 0.07409296 0.16265373
000140 1a 47 c1 3e 34 f2 26 be 7b 81 87 bc 93 e2 9d bd
       0.3774956 -0.1630333 -0.016541233 -0.07709231
000150 e2 65 28 3e c0 fd 9f 3d 6e fd e7 3c 11 ae be bd
       0.16445115 0.07812071 0.028319087 -0.09310544
000160 5f a9 cf 3e c2 1d 2f 3e 1f 5c 33 3e 7f 74 2e 3e
       0.40558907 0.17101195 0.1751561 0.17036627
000170 95 7a 50 3d 60 66 8d 3b 8d 6a 82 3e 0d d2 c6 bd
       0.050898153 0.0043151826 0.25471917 -0.09708033
000180 d3 6e 02 3e 16 7d 97 3e 86 ac 02 3e 8e 06 73 be
       0.12737589 0.2958762 0.12761125 -0.23732969
000190 58 57 5b 3e de 62 9d be 0a 4a 74 be 8a 83 02 3e
       0.21420038 -0.30739492 -0.23856369 0.1274549
0001a0 2b 10 81 bd 1a 39 ec bd e6 af 4f 3d b9 d4 3f bc
       -0.06301912 -0.11534329 0.05070486 -0.011708432
0001b0 0a fe 47 be 39 3c 8f 3e 1d 1d 82 be ad dc 49 bc
       -0.19530502 0.27975634 -0.25412837 -0.01232068
0001c0 03 f7 97 3c 35 fa 27 3e 8d 18 42 3d 32 6a 3d 3e
       0.018550402 0.1640404 0.047386695 0.18497542
0001d0 34 6d c4 3b 1f 59 a9 3d 3d 5a 01 be 0a d9 cc 3d
       0.0059944633 0.082689516 -0.1263208 0.100023344
0001e0 22 5f e8 3c ed 33 56 3b bc c4 f8 bd cc 51 ad bd
       0.028365675 0.0032684759 -0.12146899 -0.08462867
0001f0 93 c1 ac 3d 80 1b 54 3d 53 d0 a7 3d af 84 72 be
       0.08435359 0.05178404 0.081940316 -0.23683427
000200 26 7d c0 bd 84 95 74 be b2 a5 2f 3d 68 82 85 be
       -0.0939887 -0.2388516 0.04288263 -0.26076055
000210 f1 8e 88 bd 44 f7 72 3c bb 21 76 ba 38 32 20 be
       -0.06667889 0.0148294605 -0.00093891815 -0.15644157
000220 42 5f 6f 3d d2 93 52 3e 5c bc cc bd 09 da 0b 3d
       0.058440454 0.20564201 -0.09996864 0.03414348
000230 be 97 93 be 15 a2 c3 bd 82 13 22 3e 2c 0e c7 bc
       -0.28826708 -0.09552399 0.15827754 -0.02429875
000240 27 78 7b 3d 49 87 53 3c 32 4b d9 bd 07 71 90 3c
       0.061393883 0.012910672 -0.106100455 0.01763202
000250 af 37 93 be 2e fb e5 bc b5 2f be be f1 8d 39 3e
       -0.2875342 -0.028073873 -0.37145773 0.18120553
000260 10 40 9e bc 5c 19 de bd a9 ad d4 3d e3 dd 44 3c
       -0.019317657 -0.10844681 0.103846855 0.012015793
000270 73 76 73 be 54 b0 24 3e 0c ec 08 3e 62 08 ce bd
       -0.23775654 0.16082889 0.13371295 -0.10060193
000280 c1 ae e2 bc 89 25 8d bd 27 ca 78 bd cc 7e 3e 3d
       -0.02767122 -0.06891925 -0.060739662 0.04650764
000290 11 7e eb 3b 57 f5 fb bd 5e 33 8a 3d f8 45 27 3e
       0.007186659 -0.12302654 0.06748079 0.16335285
0002a0 ee ae 59 bd 18 34 46 3c ac 1a ff 3d 1b 56 39 3e
       -0.05314534 0.012097381 0.12456259 0.18099253
0002b0 00 70 d2 bc 54 40 66 3e 17 d0 ba 3d 65 c6 1d 3d
       -0.025688171 0.22485477 0.09121721 0.038519282
0002c0 20 85 53 be e4 e1 b3 3d 29 49 a4 be 5f a3 cc 3d
       -0.20656252 0.087833196 -0.32087067 0.09992098
0002d0 bb f7 96 be 64 8d 5f be 47 11 4c 3e d4 a1 80 bd
       -0.29485878 -0.2183128 0.19928466 -0.06280866
0002e0 01 9f ca 3c 8a 83 df bd fa fa 57 3e f8 44 3e 3e
       0.024734022 -0.10913761 0.21091834 0.18580997
0002f0 d7 47 0e be f7 48 83 bd b8 01 d4 3c 1f 19 9e be
       -0.13894592 -0.06410401 0.025879726 -0.3087854
000300 59 4c 79 3e f1 78 4b be 76 15 18 3e 3a 2d 50 3e
       0.2434553 -0.19870354 0.14851937 0.20329753
000310 c0 9f be 3c f4 61 98 be 4b 17 0d 3e c8 2d 72 bd
       0.023269534 -0.29762232 0.13778417 -0.05912569
000320 20 8c e5 bd d4 ab 21 3e 5d 05 97 be 8d 30 d3 3d
       -0.11208367 0.15788203 -0.2949628 0.10311995
000330 14 70 68 bd d8 e6 0d 3e c5 69 64 be f6 b5 19 3d
       -0.05674751 0.13857591 -0.22305973 0.037527047
000340 41 8f bf be b5 d8 a8 bd 88 ef 37 be 11 ed 58 be
       -0.37413982 -0.082444586 -0.17962468 -0.21184184
000350 2f 02 96 bc 63 77 9c bb ac 68 fc 3d ed c5 9c be
       -0.018311588 -0.004774974 0.12324652 -0.30619755
000360 a7 2f 91 be 95 80 53 be a8 46 ee 3d 20 b0 77 be
       -0.28356668 -0.20654519 0.1163457 -0.2418828
000370 c4 7a 75 bd 5e 37 6b bd f9 df 9e be 8a 3c aa 3c
       -0.05993153 -0.05742585 -0.31030253 0.02078082
000380 01 1f 9e 3d 5c c4 51 be 3f d1 dc bd e4 bd ac bc
       0.07720757 -0.20485061 -0.10782098 -0.02108664
000390 4d 65 f8 3d 60 14 93 be cc 52 1e 3e af d9 83 be
       0.121286966 -0.28726482 0.15461272 -0.25752017
0003a0 de 4e 9a bd d0 5f 86 3e 3b 1c 08 3d 5e 0a dc bd
       -0.07534574 0.26244974 0.033230048 -0.10744165
0003b0 59 96 46 bd e3 bc ac bc 20 b9 80 be 24 e3 07 3c
       -0.048483226 -0.021086162 -0.2514124 0.008293901
0003c0 ae 14 05 3d 42 99 82 3e 8d ba 96 3d 67 b7 6c 3e
       0.032490425 0.2550755 0.073598005 0.23116837
0003d0 97 62 51 be 53 b7 8d 3d 5f ac 3e be be c4 c0 3d
       -0.20447765 0.06919732 -0.18620442 0.094125256
0003e0 f1 69 ac bd ca 09 94 bd 6c 70 db 3d 54 20 13 be
       -0.08418644 -0.072284296 0.10714802 -0.14367801
0003f0 72 11 d8 3d 40 f9 9b 3d 99 a9 2a 3e d4 3b 1d 3e
       0.105502024 0.076159 0.16666259 0.15354854

down_path.0.block.3.bias f4 [8]
000000 de 25 7e 3d 40 d5 a6 3d bc 01 a6 3d ad f2 d3 bd
       0.06204783 0.08146143 0.081057996 -0.10349021
000010 e5 89 46 3d d0 30 e3 bd 66 41 20 3d 41 7b 58 bb
       0.04847135 -0.110932946 0.03912487 -0.003303245

down_path.0.block.5.weight f4 [8]
000000 18 c6 7d 3f 2c 01 7b 3f b2 22 7f 3f b5 99 80 3f
       0.9913039 0.98048663 0.99662316 1.0046908
000010 95 dd 7e 3f 4b 1e 80 3f a6 69 7f 3f bc bf 7f 3f
       0.9955686 1.0009245 0.9977058 0.9990194

down_path.0.block.5.bias f4 [8]
000000 37 e0 53 bb 50 ef ae bc 34 1d 7f bc ee 6e c1 bc
       -0.0032329687 -0.021354347 -0.015570927 -0.023612466
000010 c4 0b 7f bb ed 02 ba ba 98 c1 9a bc 38 16 89 bc
       -0.0038916925 -0.0014191546 -0.01889114 -0.016734228

down_path.0.block.5.running_mean f4 [8]
000000 6e 14 e7 3e d6 ea 72 3e 5b e7 d1 3e 6d 3f 8f 3d
       0.45132774 0.23722395 0.40996823 0.069945194
000010 83 ca 12 3f cb 0f 1d 3e e3 8c 48 3e 86 02 ee 3e
       0.5734026 0.15338056 0.19584994 0.464863

down_path.0.block.5.running_var f4 [8]
000000 fb 89 1e 3f 9f e3 dc 3d e4 44 34 3e 65 1a 8c 3d
       0.6192929 0.10785603 0.17604405 0.06840972
000010 95 56 c7 3e 80 78 5e 3d ce 7e 91 3e 44 98 84 3f
       0.38933244 0.054314137 0.28417057 1.0358968

down_path.1.block.0.weight f4 [16, 8, 3, 3]
000000 ea c5 39 3d 73 e3 f9 bd 56 55 8a 3e fe fb 31 3e
       0.04535476 -0.122015856 0.2701823 0.17381284
000010 ef 2c 77 3c f7 45 b6 bd b5 31 0c 3e 1c 87 bb be
       0.015086397 -0.089000635 0.13690837 -0.36626518
000020 2d 6a eb 3c 1d 48 14 3e 6b 71 f6 ba a4 5d ba bd
       0.028737152 0.14480634 -0.0018802112 -0.09099892
000030 96 ca be 3d 54 21 68 3e 88 27 96 3d d3 fc a9 bc
       0.09315984 0.22668964 0.07331759 -0.020750439
000040 99 4b 19 3e bf 83 37 3e f7 61 3c be 05 4d 8e 3d
       0.14970244 0.17921351 -0.18396746 0.06948284
000050 10 b4 48 bd 32 6a 60 3d 54 8f 54 bd 45 da 45 3e
       -0.048999846 0.054788776 -0.0518945 0.19321544
000060 de e4 90 3e e7 fb 57 3b 1f 1b a6 bb ca 97 b3 3d
       0.28299612 0.0032956542 -0.005069151 0.08769186
000070 aa d1 09 3a db 42 dd 3d a1 dd f5 bc f0 91 d8 bb
       0.00052573776 0.10803767 -0.030012907 -0.006609194
000080 da 26 96 bd 0a 12 7b 3d 65 f2 15 be b0 25 c1 bd
       -0.07331629 0.0612965 -0.14643247 -0.094310164
000090 4d 9a 83 be 9d 61 80 be 29 55 3e be 54 24 96 3c
       -0.2570366 -0.25074473 -0.18587174 0.01832787
0000a0 d9 87 7c bd 4d 49 0c bb 7a 50 ca 3d 31 01 90 bc
       -0.061652992 -0.0021405995 0.09878631 -0.017578693
0000b0 d3 94 c2 3b a1 39 ad 3d c5 a8 b7 3d 4e 6d 34 3d
       0.0059381514 0.084582575 0.08967737 0.044049554
0000c0 05 34 3f ba 9b 6b 02 bd fc 0d de 3c 7c 6e e3 bd
       -0.00072938233 -0.0318409 0.027106278 -0.111050576
0000d0 d0 7a bb bd 69 b0 17 bc 21 38 f7 bc 0c 3a 56 3d
       -0.09154284 -0.009258368 -0.030178132 0.05230145
0000e0 ef 27 72 bd 74 e8 ba bd ae 83 a1 3e 1a 88 75 bd
       -0.059120115 -0.09126368 0.31545776 -0.05994425
0000f0 61 8a ca bc 1f 37 9d 3d 40 e4 24 be c7 99 58 3d
       -0.024724187 0.07676529 -0.16102695 0.05288103
000100 29 92 c2 3d fb aa 9d 3d a1 c7 76 3d 0f ca df 3d
       0.09500534 0.076986276 0.060248975 0.109272115
000110 ab c1 41 3e f4 5c c3 bc 2a 6d 75 3e dc 05 97 bd
       0.18921535 -0.023848034 0.23967424 -0.073741645
000120 4f c6 3b 3d bf 94 6b 3d 05 f2 fa 3d 36 a2 9d bd
       0.04584342 0.057514902 0.12253193 -0.07696955
000130 c9 75 35 3e 61 90 d5 3d d2 67 ea bd e5 4c 63 3e
       0.17720713 0.10427929 -0.114455834 0.22197302
000140 69 bf c1 bb a1 01 03 3b 8c 5b 68 3d d4 36 0a bb
       -0.0059127104 0.0019989985 0.05672793 -0.002108981
000150 23 89 af bc e9 d6 55 be 83 8b db 3d 71 93 62 bc
       -0.021427697 -0.20882763 0.10719969 -0.013829098
000160 ed 76 67 be b5 38 68 bc bc 7b 54 3e 4b 47 38 3e
       -0.2260396 -0.014173676 0.20750326 0.17995946
000170 0a fc 2b be bb 43 db bd 3d 58 23 3e 18 c9 f0 3d
       -0.16795364 -0.10706278 0.15951629 0.117571056
000180 c7 e4 0e ba 15 72 d5 bd 2a f7 6d 3e ab e2 fb 3c
       -0.00054509606 -0.1042215 0.23238817 0.030747732
000190 7d 60 3c be a8 d6 30 be d4 53 91 3d 32 84 7a 3d
       -0.18396182 -0.17269385 0.07096067 0.061161228
0001a0 4c a3 ca bd 58 b9 e5 3d a9 8c a2 3d 56 51 0d 3e
       -0.09894428 0.11216992 0.07936985 0.13800558
0001b0 99 0b d7 bd ec f2 35 bb e1 5e 92 bd 4d 45 5f bd
       -0.10500259 -0.00277632 -0.07147003 -0.05450945
0001c0 77 81 12 3e 32 eb 54 3e 4e 50 dc bd b8 7a 54 be
       0.143072 0.20792845 -0.107575044 -0.20749938
0001d0 60 2e 65 3b 2e 7d 41 bd bb 58 b6 bd b6 ea ea bd
       0.0034970269 -0.04723852 -0.08903643 -0.11470549
0001e0 ed 49 c5 bc 37 b3 0d bd 1d 6a 16 be b4 cf c8 bd
       -0.024083102 -0.03459474 -0.14688917 -0.09805241
0001f0 07 f6 1d 3e de 54 b1 3d 4e 9a 23 be 0a 28 5d be
       0.15425883 0.08658765 -0.15976831 -0.21597305
000200 c1 ea ee 3d 53 56 98 3d be c8 67 3d 52 27 0d 3e
       0.116658695 0.0743834 0.056587927 0.13784531
000210 a6 c2 11 3c 0c 37 a5 be ae f8 4f 3d 10 28 f2 bd
       0.008896505 -0.3226856 0.05077427 -0.118240476
000220 8e de 24 be 0e 28 ce bd c0 0c 56 be c3 b7 90 3d
       -0.16100523 -0.100662336 -0.20903301 0.070663
000230 53 49 26 3e 13 61 fb 3d c3 49 0e bd e9 c1 bb 3b
       0.16238908 0.12274375 -0.034738313 0.005729903
000240 8d bb 6f 3d a3 d4 e1 bc c5 ab d8 3b ac 95 69 bd
       0.05852847 -0.027567213 0.0066122734 -0.057027504
000250 15 28 26 3a 0b bc cf 3a 8e c8 c2 3d 71 f1 51 3d
       0.000633837 0.0015848888 0.09510909 0.051255647
000260 1a d3 8d 3c cf af 6e bd c8 d0 0d 3d ee c8 3e 3e
       0.017312575 -0.058273133 0.034622937 0.18631336
000270 c2 df f2 3d 19 3f 1c be cd 90 3f 3e d0 5e 51 be
       0.11859085 -0.15258445 0.18707581 -0.20446324
000280 b1 81 9b bc 01 57 12 be ec 18 ff bd 4f 8a 1c 3e
       -0.01898274 -0.14291002 -0.12455925 0.15287136
000290 fa 69 fc 3c 79 f3 69 be f2 f2 54 3e 1f ca b8 3c
       0.030812252 -0.22846784 0.20795801 0.022557316
0002a0 98 f2 3a 3e 57 21 1e bd 45 73 6d 3c 55 5e 93 bc
       0.18256605 -0.038606014 0.014492814 -0.017989317
0002b0 a8 83 04 3e 9b 6d 3d be 37 81 08 be b3 98 e1 bd
       0.12940848 -0.18498842 -0.13330542 -0.11015453
0002c0 5a e0 bc bd 7a 8b e3 3c 1c 88 06 be 15 87 4f bc
       -0.09222479 0.027776469 -0.13137859 -0.012666483
0002d0 48 67 4a 3d 2d 4b 08 3e 80 28 40 bd 1c 7d cb bc
       0.049414903 0.13309927 -0.046913624 -0.02483993
0002e0 be ba 8d 3e 75 05 32 bd 0f 27 de bd 3b f4 17 be
       0.27681535 -0.043462235 -0.108472936 -0.1483926
0002f0 30 4a 25 be 3f 51 cb bc 84 7d 00 3d 7b 93 68 be
       -0.16141582 -0.024819015 0.0313697 -0.2271251
000300 e5 ef 7a be 88 7b fd 3c 8d e9 b2 bc 79 02 a2 be
       -0.24505575 0.030942693 -0.021839881 -0.3164251
000310 89 2c 56 be 34 c2 6e 3d 88 c2 b5 3b 4f 72 14 bc
       -0.20915426 0.058290675 0.0055468716 -0.009060456
000320 db 53 16 bd a2 99 8c 3d 98 43 91 bd 67 98 d0 3d
       -0.036701065 0.06865241 -0.070929706 0.101853184
000330 3e e1 69 be 6b 9a dd 3c 10 85 02 3e f8 bd 36 3d
       -0.2283983 0.027051171 0.12746072 0.044614762
000340 81 39 1d bd ce 38 7b be 45 99 2f 3e f1 ad 43 be
       -0.038384918 -0.24533388 0.17148311 -0.19109322
000350 84 4a 78 bd 82 3a 1b 3d e7 34 f0 3d 30 6a 93 bd
       -0.06061794 0.037897594 0.1172884 -0.07197988
000360 b3 c8 1f be 67 a2 40 bd 0d a4 18 be ae 2c 35 be
       -0.15603904 -0.04702988 -0.1490633 -0.17692825
000370 03 be 73 3e 64 b3 37 3e 3a 36 09 3e af c0 90 3d
       0.23802952 0.17939526 0.13399592 0.070680015
000380 3e b8 97 3d 42 3b 22 3d 09 aa 0c be f4 c2 c2 3c
       0.07408188 0.039607294 -0.13736738 0.023774602
000390 e6 aa cc bd 09 07 18 3e 7f ad 2c bd 44 87 07 3d
       -0.09993534 0.14846434 -0.042157646 0.033087984
0003a0 88 7d bb 3c 47 b9 9e 3c 34 ac 58 be 15 cb 60 3e
       0.022887006 0.019375456 -0.2115944 0.2195247
0003b0 40 18 36 3e d4 09 01 bd 6b 0a 19 3e 1b 9a b6 3c
       0.17782688 -0.031503513 0.1494538 0.02229028
0003c0 e5 6e 0e 3e 29 6a 94 3d 8d e5 4f 3e 26 00 0b 3e
       0.1390949 0.07246811 0.2030241 0.13574275
0003d0 07 26 0f be 26 b5 b8 bd 40 55 6c bc 11 57 ea 3d
       -0.1397935 -0.09018926 -0.014424622 0.11442388
0003e0 82 09 a1 bd 8a c2 22 3e 2d ce 29 be c7 f0 c4 bd
       -0.078631416 0.15894523 -0.16582556 -0.09616237
0003f0 6f 22 07 be 47 e5 d2 3c 48 95 cf 3d 51 f1 84 3c
       -0.13196729 0.025744094 0.10135895 0.01622835

down_path.1.block.0.bias f4 [16]
000000 12 b3 92 3c 24 61 24 3d c1 11 b5 3d 82 f7 ca 3b
       0.017907653 0.040131703 0.08841277 0.006194056
000010 85 56 bc bd 81 5c 81 3d 27 b0 25 3d f5 c0 df bd
       -0.0919619 0.06316472 0.040451195 -0.109254755
000020 02 6a 79 3d 28 7f 96 bd 79 21 b1 bc cc 26 df 3d
       0.060892113 -0.07348472 -0.021622406 0.10896072
000030 7e 12 51 bd 6b c8 de bc 97 dc 3a bc 7a a0 8f bd
       -0.051043026 -0.027195176 -0.011405132 -0.0701303

down_path.1.block.2.weight f4 [16]
000000 ab 53 7d 3f e3 f5 7f 3f 98 4e 80 3f 5a 8b 80 3f
       0.9895579 0.9998457 1.0023985 1.0042527
000010 2c 22 7e 3f 61 6f 81 3f bb 91 7e 3f 72 2c 80 3f
       0.9927089 1.0112115 0.9944112 1.0013564
000020 8c b8 80 3f c2 41 7f 3f ee 56 7e 3f 3e 00 81 3f
       1.0056319 0.99709713 0.99351394 1.0078199
000030 89 00 7f 3f 20 14 7d 3f c4 43 81 3f 48 83 7e 3f
       0.9961019 0.98858833 1.0098805 0.9941907

down_path.1.block.2.bias f4 [16]
000000 5e 2a 22 ba 1f 90 79 39 4e 6d 1d 3c 32 a5 c4 bc
       -0.0006186123 0.0002380018 0.00960858 -0.024004553
000010 0a 4c 9f 3b 69 bc 2b 3c 3b 63 d4 3b f4 24 df bb
       0.0048613595 0.010481932 0.0064815558 -0.006809825
000020 00 a3 28 bb 7d 01 1d bb eb 95 9e 39 3d d7 e0 3b
       -0.0025731921 -0.0023957186 0.00030247806 0.006861596
000030 82 e0 9c 3c ac 4f 95 bc 7a e9 69 bc 46 a5 8f bc
       0.019150022 -0.018226467 -0.014276857 -0.017534863

down_path.1.block.2.running_mean f4 [16]
000000 c0 f4 b9 3e 8d 8d 87 3e 7f da b3 3e bd a8 90 3e
       0.36319542 0.26475182 0.35127637 0.28253737
000010 7a e7 d3 3e c7 17 81 3e ff 45 92 3e 0c 6e 36 3f
       0.4138754 0.25213453 0.28569028 0.7126167
000020 2e 0e 66 3e a9 dc 8d 3e 24 72 cc 3e 5a 20 b8 3e
       0.22466347 0.27707413 0.39930832 0.35962182
000030 f6 de d2 3e 19 74 b2 3e 78 a6 23 3e 53 4e 03 3f
       0.4118573 0.348542 0.15981472 0.5129139

down_path.1.block.2.running_var f4 [16]
000000 8d d0 97 3f f5 e7 8a 3e 65 98 37 3e 37 47 a8 3e
       1.186052 0.27130094 0.17929228 0.32866833
000010 38 54 63 3f f7 79 85 3d 55 f8 fc 3d 63 51 bb 3f
       0.8880038 0.065174036 0.12352053 1.4634212
000020 4c c1 05 3f c1 21 40 3f b7 db 18 3f 3b 84 10 3e
       0.5224807 0.75051504 0.5971026 0.14112942
000030 c2 d3 53 3f db b5 81 3f ee 56 93 3e 50 29 22 3f
       0.8274499 1.0133623 0.2877726 0.6334429

down_path.1.block.3.weight f4 [16, 16, 3, 3]
000000 33 3e ae bc 25 63 3a 3e 93 55 36 3d 7f 84 5d 3d
       -0.021269893 0.18201883 0.044515204 0.054081436
000010 6c 4d ed 3d 9b 28 37 bd d3 f8 20 3e 13 42 04 3e
       0.11587033 -0.04471646 0.15719919 0.1291583
000020 d4 b9 6b be ab 10 9f bc a5 79 b3 3d 13 f7 5c 3e
       -0.23020107 -0.019417128 0.08763436 0.21578626
000030 98 4e 79 bd da fe da bd 10 ce dd 3d c6 63 a9 3d
       -0.06086597 -0.1069314 0.10830319 0.082709834
000040 72 79 1f 3d f3 46 1a be 31 6f 7a 3d 72 93 b4 3c
       0.03893418 -0.15066127 0.061141197 0.022042964
000050 f2 be 7e be 17 f2 fe bd 68 45 26 3d ee 89 ea 3a
       -0.24877527 -0.12448519 0.040593535 0.001789389
000060 71 6c 5e 3d 34 55 07 be 6b b8 8a bc 96 f2 12 bd
       0.054302637 -0.13216096 -0.01693364 -0.03587588
000070 c9 1d 8c bd a2 b7 44 3d 34 09 6f bd 02 a4 14 3d
       -0.068416186 0.04802669 -0.058358386 0.036289223
000080 8d 87 48 be 7d fe 04 3e 4d 3b 95 3e bc 29 a3 bd
       -0.19582959 0.12987705 0.29146805 -0.079669446
000090 89 bc 7b 3e a0 23 86 3d f2 53 e9 bd 8f ef 77 bd
       0.24583639 0.06549764 -0.113929644 -0.060531195
0000a0 27 e4 53 bd 34 7e a1 bc d4 8e 85 3e 34 54 be bd
       -0.051731255 -0.019713499 0.26085532 -0.09293404
0000b0 af 49 87 bc b8 49 69 be 95 51 a6 bd df d6 25 bd
       -0.016514627 -0.22782028 -0.08121029 -0.04048812
0000c0 6b ae 76 bd a4 d6 e2 bd 5e 59 8e 3d dd 95 c2 3d
       -0.06022493 -0.11076096 0.06950639 0.095012404
0000d0 69 96 67 3e 01 51 81 bd 57 8d 5d 3d 32 c2 06 bd
       0.2261597 -0.063142784 0.05408987 -0.032900043
0000e0 6d a0 2d bc c6 0c 01 be 1b e2 ce 3b b9 8e 01 bd
       -0.0105973305 -0.12602529 0.006313575 -0.03163025
0000f0 2a 97 1b be 1e cc a6 bd e8 c8 12 3e bb 35 e2 bd
       -0.15194383 -0.08144401 0.14334452 -0.110454045
000100 1d 04 81 3c 3d ac 48 3d 9d ee bc 3d fc d5 05 be
       0.015749032 0.048992384 0.09225199 -0.1306991
000110 98 2d 5a be 21 48 98 bd ec a1 c7 3d 1b 59 56 3d
       -0.21306455 -0.074356325 0.09747681 0.05233107
000120 75 da e9 3d 95 50 1d bd 28 68 0a be c7 87 5a 3e
       0.114186205 -0.038406927 -0.13516295 0.21340857
000130 74 ef 62 bd 1e 8c ba bd 70 48 66 3d 01 2d b4 3d
       -0.05540414 -0.091087565 0.056221426 0.08797646
000140 3e b6 76 be 6f f6 8f bd 13 37 85 bd 38 e3 00 be
       -0.24092957 -0.07029425 -0.06504645 -0.12586677
000150 34 66 33 bd 2a 60 74 bd a8 e4 8a bd a2 5e 89 3d
       -0.04379864 -0.05966202 -0.06781894 0.06707503
000160 2f 3b 07 3e 76 81 2b 3e c4 b8 c0 3d 57 40 d2 3c
       0.1320617 0.16748604 0.09410241 0.025665445
000170 96 5f ad 3d 8f 52 95 3d 42 94 7e bd d8 81 d8 bd
       0.08465497 0.072911374 -0.06215311 -0.10571641
000180 c3 27 9e bd 79 ea 51 bc 78 f3 ca 3d 5f 1e 32 be
       -0.07722428 -0.01281225 0.09909719 -0.17394398
000190 5d e7 17 3d 94 1b c2 3d 60 9a 8e bd 0f 1f b5 bd
       0.03708588 0.09477916 -0.069630384 -0.088438146
0001a0 3b 09 e9 3d d9 b2 07 3e 65 96 ca 3d 57 92 b3 3b
       0.11378714 0.13251819 0.09891967 0.0054800916
0001b0 c2 e7 65 bc 6e 83 71 bd ae 59 e5 bb 35 d0 4f be
       -0.014032306 -0.05896323 -0.006999216 -0.20294268
0001c0 80 0f c8 bd d0 ca 5d 3e 89 5f 71 3d a6 f6 ba bb
       -0.097685814 0.21659398 0.058929 -0.0057056723
0001d0 a5 ca 57 3c d4 b2 3e 3c 3c 1b 1e be ef 92 50 bd
       0.013170873 0.011639316 -0.15440077 -0.050921377
0001e0 44 ea 36 bd 1d f2 07 3e 2b 6d 15 3e 38 8f 3c be
       -0.044657007 0.13275953 0.14592426 -0.18414009
0001f0 51 a5 67 3c b2 b4 85 bd 62 69 1c 3e c6 78 e8 3d
       0.014138536 -0.065286055 0.15274575 0.11351161
000200 45 25 cc 3c a8 68 06 3e 6c da aa bc 21 97 0b be
       0.024920115 0.1312586 -0.020856105 -0.1363187
000210 1b f6 b0 bd 8e 52 68 bd d8 45 f5 bd 3e 8d 14 be
       -0.08640691 -0.056719355 -0.11976212 -0.14507005
000220 86 f4 ce bd ef f6 a2 3d 88 49 20 3e ed 6e 26 be
       -0.10105233 0.07957255 0.1565305 -0.16253252
000230 12 f7 e8 3d ef 22 b2 bd b2 90 07 bd f7 3f 20 bd
       0.1137525 -0.08698069 -0.033096977 -0.0391235
000240 91 0a 1a be 96 ed 18 3e f9 ea 0e 3e df 16 79 3d
       -0.15043093 0.14934382 0.13956822 0.060812827
000250 ce 3f 71 3d 95 c9 e3 3d f7 cd c4 bc 1d 86 80 bd
       0.05889874 0.11122433 -0.024023993 -0.0627558
000260 9a d1 bf bd e2 63 a0 bd bd 09 15 3e 83 19 db 3d
       -0.0936615 -0.07831551 0.14554496 0.10698225
000270 96 65 36 be 09 04 66 bd 63 3e bf ba 1b 49 04 3d
       -0.1781219 -0.056156192 -0.0014590736 0.03229628
000280 34 7c a5 3d a2 31 97 3e d9 bf 3a bc 21 51 63 be
       0.080803305 0.29530054 -0.011398279 -0.22198917
000290 de 4a 97 be 5a 72 57 be 5a bf 72 bd a8 49 20 3e
       -0.29549307 -0.21039715 -0.05926452 0.15653098
0002a0 09 2b 92 be 5a d2 b3 3c 07 6e 7f be 43 e7 86 bc
       -0.28548458 0.02195089 -0.24944316 -0.016467696
0002b0 32 46 86 3e c8 82 dc 3d 48 a3 55 3e 3c 42 37 be
       0.2622543 0.10767132 0.20863068 -0.1789636
0002c0 a6 8f cd 3d 0a 2a 5c bd da 7e c0 bd 05 64 31 be
       0.100371644 -0.05375103 -0.09399195 -0.1732331
0002d0 a6 4d a6 3c b7 1d 74 bd 4c e5 48 be 92 fa e2 bd
       0.020300698 -0.05959865 -0.1961872 -0.11082949
0002e0 62 98 4a be a5 43 f2 bb d0 f6 01 be 3d 7a aa 3d
       -0.19784692 -0.0073933178 -0.12691808 0.08324096
0002f0 de 6b b2 bc 7a bb ae 3d 78 c5 e3 3c c0 55 a3 3d
       -0.02177995 0.08531852 0.027804121 0.0797534
000300 3a 6f c0 3c 10 db 8f 3d b9 a4 b8 3c c6 35 7e 3d
       0.023490537 0.07024205 0.022539483 0.062063
000310 a1 3e d8 bc e0 7a a6 bd 1c 15 c1 3c 20 53 70 bd
       -0.026397051 -0.08128905 0.023569636 -0.058673024
000320 62 41 a0 3d e3 99 94 bd d4 9e 13 bc 2c 68 74 bd
       0.07824971 -0.07255914 -0.009010036 -0.05966966
000330 cf b0 66 bd 9d cc 44 3c d2 bf 81 bd 54 76 78 3e
       -0.05632096 0.012011674 -0.06335415 0.24263889
000340 b7 96 1f 3d 06 90 e6 bd 1f f1 ae bd 05 9e 38 3b
       0.038962092 -0.11257939 -0.08542084 0.002817036
000350 39 6a ee 3d 46 cb fc bb c0 b7 72 be 84 8b 30 bc
       0.11641354 -0.007714662 -0.23702908 -0.010775451
000360 3e e7 24 3e ef 38 40 3e 4b b8 19 be 17 43 a0 3c
       0.16103837 0.18771718 -0.15011708 0.01956324
000370 7f a1 80 3e 5b d5 c5 3d 54 72 31 3e db 4c 74 be
       0.25123212 0.09659835 0.17328769 -0.23857443
000380 06 60 e2 3d 99 1d a6 bb cb 8a 8c 3d 36 34 2b be
       0.11053471 -0.0050694463 0.0686241 -0.16719136
000390 b2 54 9e 3c 7b 59 bf bc aa 00 ad 3d c1 a4 80 3d
       0.019327495 -0.023358097 0.08447392 0.06281424
0003a0 5f 94 9e 3d 2c 98 51 3e 25 38 8c 3d 06 3f e5 3d
       0.07743143 0.20468205 0.06846646 0.111936614
0003b0 8e 3f 7c bd 29 03 19 3d cb 3f 0f 3d db 7a 44 3e
       -0.061584048 0.03735653 0.034972947 0.1918749
0003c0 ef 01 99 3d ff 5f 51 bd 86 20 44 3e a8 15 0b 3e
       0.07471072 -0.05111694 0.19153032 0.1358248
0003d0 33 96 e4 3d c1 dd 5d bd 10 00 89 3e 8b 48 ca bd
       0.11161461 -0.05416656 0.2675786 -0.09877118
0003e0 80 8c f1 3d e2 8e b4 bc e4 e4 b1 3c 79 0b e6 3d
       0.117943764 -0.022040788 0.021715589 0.11232657
0003f0 db 33 f3 3d 2f 62 86 3d 49 e0 04 be de 9e 42 bd
       0.11875125 0.06561696 -0.12976183 -0.04751479

down_path.1.block.3.bias f4 [16]
000000 06 d6 37 3d 36 b2 84 bd 83 4f 65 bc 1d 1c 9c 3d
       0.044881843 -0.064793035 -0.013996008 0.0762255
000010 ee 61 67 3d 46 17 b9 3d f3 d2 53 bd d5 20 3e bb
       0.056489877 0.09037642 -0.05171485 -0.0029011269
000020 85 be 5e bd 7a 91 76 bd 54 ba a5 bd d2 be 09 bd
       -0.054380912 -0.06019733 -0.0809218 -0.033629246
000030 e8 27 94 3d 00 37 ff bc 58 f8 1c 3d 85 98 97 3d
       0.07234174 -0.031154156 0.038322777 0.07402138

down_path.1.block.5.weight f4 [16]
000000 f1 94 7e 3f eb b6 7c 3f 69 1b 7c 3f b5 2d 7d 3f
       0.99446017 0.9871661 0.98479325 0.9889787
000010 80 7b 81 3f be cd 7e 3f 9f c4 7d 3f c6 14 80 3f
       1.0115814 0.9953269 0.99128145 1.000634
000020 89 26 80 3f d9 10 7f 3f 6e ad 7d 3f b8 da 7d 3f
       1.001176 0.9963508 0.9909276 0.99161863
000030 d1 2c 7d 3f 3d de 7f 3f dd 33 80 3f 76 78 7d 3f
       0.9889651 0.99948484 1.0015827 0.99011934

down_path.1.block.5.bias f4 [16]
000000 4a 64 68 3b 87 f4 13 bc 84 ca 41 ba 6b 79 fd 3b
       0.0035460168 -0.009030468 -0.0007392543 0.0077354214
000010 69 7a 2e bb 69 db 92 3c c3 40 5d bc 06 9c 88 bb
       -0.0026623255 0.017926889 -0.01350421 -0.00416899
000020 4f c1 b7 3a b2 a5 ae 3b 31 50 bd bb 05 7f 46 bc
       0.0014019402 0.005329811 -0.005777382 -0.012115245
000030 dd 60 93 bb 78 e0 20 bb a6 38 81 bb f0 cc b2 3b
       -0.004497631 -0.0024547856 -0.0039435206 0.0054565594

down_path.1.block.5.running_mean f4 [16]
000000 90 5f 90 3e 2c 58 f7 3e a5 0a d4 3e 03 c0 f8 3e
       0.28197908 0.48309457 0.4141437 0.48583993
000010 14 0e bb 3e be 1f f9 3e 00 64 b6 3e fb 2c 95 3e
       0.36534178 0.4865703 0.3562317 0.2913588
000020 a5 99 f5 3e 99 99 fb 3e 9f 51 ec 3e 1c f5 92 3e
       0.47968784 0.49140623 0.46156022 0.2870263
000030 78 80 e0 3e b4 67 cb 3e 39 2c 8d 3e 43 49 00 3f
       0.43848014 0.39727557 0.27572802 0.5011179

down_path.1.block.5.running_var f4 [16]
000000 f6 3a 1b 3f b7 f6 8c 3f a3 5f 2b 3f e5 67 ad 3e
       0.6063684 1.1012791 0.66942805 0.33868328
000010 68 f3 cf 3e 38 0b 68 3e 57 06 ad 3e 90 b8 ed 3e
       0.40615392 0.2266053 0.337939 0.46429873
000020 dc 66 11 3f c9 d3 cb 3f 68 69 06 3f 4d f1 c9 3e
       0.56797576 1.5924007 0.5250459 0.3944191
000030 3d d8 29 3f 9a 3d 82 3e 9c 66 81 3e e4 f8 bd 3f
       0.6634558 0.25437623 0.25273597 1.484158

down_path.2.block.0.weight f4 [32, 16, 3, 3]
000000 7f 1f d3 bd 39 77 3c 3c e8 cc 25 be dc 70 0d be
       -0.10308742 0.011503034 -0.16191447 -0.13812584
000010 df 12 c6 bd cf 7b 2b 3d 25 48 19 bd 1d f1 c1 3d
       -0.09671568 0.04186612 -0.037422318 0.09469817
000020 13 36 98 bd d7 f5 38 bd 6c 37 d6 3d 6d e1 be 3b
       -0.07432189 -0.045156326 0.1045979 0.0058252127
000030 d1 8a be 3d 2a 7e 81 bd c6 6b 4d 3c b9 21 cb 3d
       0.09303821 -0.06322892 0.012537902 0.099185415
000040 df 9e e7 3d 55 30 c6 3d a3 78 80 3a 15 7f 0d 3d
       0.11309599 0.09677187 0.0009801578 0.034545023
000050 ad 11 06 3d 75 82 a1 bd 4a c6 e0 3d 3b 30 8c 3d
       0.0327317 -0.07886211 0.10975321 0.06845137
000060 74 e9 b5 bb 38 af 25 bc 87 81 8d 3d b5 08 ab bd
       -0.0055515114 -0.010112576 0.06909471 -0.0835127
000070 eb 4e 7f bd 07 8e 86 be 7e f9 7f 3c 9e 4f 86 3d
       -0.06233112 -0.26280233 0.015623448 0.065581545
000080 84 bc ee bd 03 4d 36 be 5d e7 5e 3c d0 04 cb 3c
       -0.1165705 -0.17802815 0.013604966 0.024782568
000090 72 cd 93 3d 5a 71 8f bd f6 9a de 3b c8 45 d0 bd
       0.0721692 -0.07004042 0.006793375 -0.1016956
0000a0 38 fa 8d 3d 43 67 8a 3d ad 66 55 be 5e 3a a1 3c
       0.06932491 0.06757977 -0.20839949 0.019681152
0000b0 8f a1 6c be b2 7c c5 3d 4a 83 a4 3d 25 d6 00 3d
       -0.23108505 0.09642924 0.08032854 0.031454224
0000c0 cd 27 d1 bc 70 1f eb bd e6 90 c3 bd 9a 55 22 3e
       -0.025531674 -0.114806056 -0.095491216 0.15852967
0000d0 5a e4 b7 3d 6f 1b 62 3c 72 b1 9c bc 4b 80 a2 3d
       0.089791015 0.013800486 -0.019127581 0.07934626
0000e0 ab dc f4 bc d6 8c 2b bd a6 54 70 bc 6c 0e 63 bd
       -0.029890379 -0.04188236 -0.014668619 -0.055433676
0000f0 b5 06 41 bd 47 f0 ce bc 2f ef 1c 3c 55 52 e7 bc
       -0.047125537 -0.025261058 0.00957851 -0.028237501
000100 e0 3c 86 3c 80 8e 55 bc e3 d5 05 3e f5 1a 55 3d
       0.01638645 -0.013034463 0.13069873 0.05202766
000110 b7 d8 6c 3d 2b 3f 4f 3d 6a 0e 0f bd 6d 6a 66 3d
       0.057823863 0.05059735 -0.034925856 0.05625384
000120 d6 be 16 be fd ce d2 3d fe 72 c5 3d c5 88 b1 bd
       -0.14721236 0.10293386 0.09641074 -0.08668665
000130 b2 03 58 3d d3 d5 d1 3c 8f d5 1f 3e 0f 52 01 3e
       0.0527379 0.025614655 0.1560881 0.12628959
000140 1c 66 30 bd ec f2 b0 bd f6 4a 23 3d 7a 83 b7 3d
       -0.04306613 -0.08640084 0.03986641 0.08960624
000150 9b b5 8c bd 02 d3 86 3d 09 a9 60 3b 07 db 8c 3a
       -0.06870576 0.06583215 0.003428044 0.0010746428
000160 72 45 4e bd 47 3f 6c bd ae ad f4 bc c9 38 42 be
       -0.050359197 -0.057677533 -0.029867973 -0.18966974
000170 77 2c 84 bd d0 7a 65 3d 1d 8f de bd 52 5a 05 be
       -0.064537935 0.056025326 -0.108671404 -0.13022736
000180 57 cd b6 3d a5 04 0a bb dc bf 36 bc cb 41 7f 3c
       0.08925884 -0.0021059897 -0.011154141 0.015579651
000190 f4 c6 05 be f1 e7 4d bb ff ac b1 bd 1e 44 9a bc
       -0.13064176 -0.0031418765 -0.086755745 -0.018831309
0001a0 6e 86 0a bd c9 fa 05 3e aa 52 89 bd 33 49 9c 3d
       -0.03381961 0.13083948 -0.0670522 0.07631149
0001b0 78 20 91 bd 68 85 21 bb 9a 5e ba 3c 53 f4 13 be
       -0.07086271 -0.0024646167 0.022750188 -0.14448671
0001c0 44 bf f4 bd 5d ee e0 bd 1e 74 ac bd 69 9b aa bd
       -0.119505435 -0.10982964 -0.08420585 -0.083304234
0001d0 1f fe bc 3d dc d5 60 3d 42 db 5d bd 9d cf 25 bd
       0.09228157 0.054891452 -0.05416418 -0.0404812
0001e0 c7 72 dc ba 5d 68 09 3d b4 47 d6 3c 31 21 7e bd
       -0.0016818874 0.033546794 0.026157238 -0.062043373
0001f0 22 9a b7 3d a7 77 26 3e 8f 72 39 bd 54 98 9d bc
       0.089649454 0.16256581 -0.045275267 -0.019237675
000200 98 bb 75 3d e5 df 0c bc a9 73 15 3e e5 d4 4a 3d
       0.059993356 -0.0085983025 0.14594902 0.04951944
000210 bf 6f 0b be 5e 1b 79 3a e6 b3 76 3e ca 82 bd 3d
       -0.13616847 0.0009502674 0.24092063 0.09253462
000220 38 96 6c 3d e0 88 9a bc 3a cb 45 3d f6 67 61 bb
       0.057760447 -0.018864095 0.048289515 -0.003439424
000230 33 db 68 bd dd 65 45 3d 92 bb 68 bd 4b 9f 05 bc
       -0.05684967 0.048192848 -0.056819506 -0.008155654
000240 ce 0e b0 38 dc 53 ed bc f0 04 5f 3d c8 25 d7 bd
       8.3950916e-05 -0.028970651 0.05444807 -0.10505253
000250 81 f3 e0 3c 1e 98 c1 bc 57 61 6b 3d 1c e1 b4 3d
       0.027459862 -0.023632105 0.057465877 0.08831999
000260 98 18 95 bd aa 25 e0 3b 24 20 08 3e b6 bf 46 3d
       -0.072800815 0.0068404274 0.1329351 0.048522674
000270 dd 27 f8 bd 19 42 de 3d 9c db b2 3d ab 87 43 3c
       -0.12116978 0.10852451 0.087332934 0.011934201
000280 01 45 1d 3e fc f1 17 be ad 25 1d bd 38 af c7 3d
       0.15358354 -0.14838403 -0.03836601 0.09750217
000290 f4 b4 0a 3e 07 dc ef 3d b6 e9 88 3a ff 61 ba 3b
       0.1354559 0.11711889 0.0010445628 0.0056879516
0002a0 94 5a 64 bd 1c 28 01 be ff c2 35 3d 33 c6 09 3e
       -0.055750445 -0.12612957 0.044375416 0.13454513
0002b0 ef de 4a 3e ca f9 4b bd f2 2e 34 3c ac 2b cf bd
       0.19811605 -0.049798764 0.010997521 -0.101157516
0002c0 16 15 b0 3d cf 5a 0c bd fd d7 10 be 81 4f d6 bd
       0.08597772 -0.03426629 -0.14144893 -0.10464383
0002d0 8a 0f 98 bd e5 37 00 bd 5b 66 ed bc e0 7a bb bd
       -0.07424839 -0.031303305 -0.028979471 -0.09154296
0002e0 1c b6 3f 3d bf bf f4 3c 06 8a 21 be 84 84 c4 bc
       0.046804532 0.029876588 -0.15775308 -0.02398897
0002f0 5a 29 32 3e 00 2b 85 3d b0 dc 09 be cc 7b 11 3c
       0.17398587 0.06502342 -0.13463092 0.008879613
000300 da 0e 9a 3d 6d 80 e2 3d 75 db 55 3d 2e 1b a2 bc
       0.07522364 0.110596515 0.052211244 -0.01978835
000310 5f 00 87 bd b5 d7 e1 3d 26 ce a9 3d ff cc 09 3e
       -0.06591868 0.11027471 0.08291273 0.13457106
000320 eb 83 b6 bc 3b 06 c4 ba a3 bd 0c bd 89 ed 44 bd
       -0.0222797 -0.001495547 -0.03436054 -0.048078094
000330 70 b1 c2 bd ab cf 85 be 89 cd 7e bb d6 d5 e9 3d
       -0.095065 -0.26135 -0.0038879833 0.11417739
000340 a4 79 02 3e 3a 6c a2 bd 87 43 f5 bb 2a cc e7 3d
       0.12741715 -0.07930799 -0.0074848565 0.11318238
000350 6e 75 0e be d0 8a 11 bd 22 7f e4 3c cd 4e 00 3d
       -0.13911983 -0.035532773 0.027892653 0.03132515
000360 a7 4a 36 3d bd 8a 57 3d 8a b5 2f be 4f 57 d6 3c
       0.044504788 0.052622546 -0.17159095 0.026164679
000370 49 00 0a 3d b2 5b c8 bc 7a 6a 0d bc b9 b3 4b bd
       0.03369168 -0.024457786 -0.008631343 -0.049731944
000380 e4 c0 7e bd f0 37 d8 3c eb af 9a 3c c5 97 9c 3d
       -0.062195674 0.02639386 0.018882712 0.07646135
000390 2b 57 5d 3d 7d 49 12 be 3b cb 08 3d a5 40 a8 3c
       0.054038208 -0.14285846 0.03339694 0.020538637
0003a0 88 7f b3 3d 87 9b 5b bd e3 1f d4 3d 26 35 4d 3c
       0.08764559 -0.05361512 0.103576444 0.012524879
0003b0 17 a6 fb bc 5d 3f 89 3d 60 56 a5 bd 93 11 30 bd
       -0.030718846 0.06701539 -0.08073115 -0.04298551
0003c0 97 a2 3d bc 6d af bb bc 6a f0 5c 3d c5 ff 08 3e
       -0.011574409 -0.022910798 0.053940214 0.13378818
0003d0 b1 06 c7 bc a9 6f 1f 3d 31 6f 86 3c b2 66 08 3e
       -0.024295183 0.038924847 0.016410442 0.13320425
0003e0 71 ee 36 bd 4d d1 94 bd 89 75 16 3e 2d 1b 9f 3d
       -0.04466099 -0.072664835 0.14693274 0.07768855
0003f0 6f b2 07 3d be 54 a9 3d 4f c3 c5 3d a5 7c 08 3d
       0.033129152 0.082681164 0.09656393 0.033321995

down_path.2.block.0.bias f4 [32]
000000 dc a5 8d 3a b2 54 8c 3d fc 05 94 3d 15 e9 a5 3d
       0.0010806876 0.06852092 0.07227704 0.081010975
000010 47 f4 4d 3d 40 12 90 bd 9f 77 9d 3c fd fe ab 3d
       0.05028179 -0.07034731 0.019222079 0.083982445
000020 fa e7 91 bc 20 58 a8 3d 15 c1 22 3d d4 0c 8c 3d
       -0.01781081 0.082199335 0.03973492 0.06838384
000030 bc 6b 65 3c ab e7 12 3d 40 3b de 3c a7 1d 7a 3d
       0.014002737 0.035865467 0.027127862 0.061063435
000040 bf 97 25 bd d9 ff 85 bd ef 59 79 3d 40 64 f0 3c
       -0.04042792 -0.0654294 0.060876783 0.029344678
000050 40 c1 7b bd 94 85 46 bd be 84 41 bd ca f9 52 bd
       -0.061463594 -0.048467234 -0.047245733 -0.05150775
000060 c7 54 18 3c f2 1b 8f 3c da 51 b4 3d 7b b0 86 3c
       0.009297556 0.01746938 0.088046744 0.016441574
000070 08 11 e9 bc e2 9a 73 bc 20 e8 ba 3c 45 6d 5c bd
       -0.028450504 -0.01486847 0.022815764 -0.053815145

down_path.2.block.2.weight f4 [32]
000000 98 86 7e 3f 8f 3f 7e 3f 51 ba 80 3f ac f5 7e 3f
       0.99424124 0.9931573 1.0056859 0.99593616
000010 ca 34 81 3f 54 ea 80 3f 63 4e 7f 3f de 82 7c 3f
       1.0094235 1.0071511 0.99728984 0.9863719
000020 58 00 80 3f a9 09 80 3f 9d 8d 7f 3f 88 e5 7d 3f
       1.0000105 1.0002948 0.9982546 0.9917836
000030 ab cd 7f 3f 58 c9 7f 3f 33 8a 7f 3f 2f 0a 80 3f
       0.999232 0.999166 0.9982025 1.0003108
000040 e3 26 80 3f f8 67 7e 3f d2 7b 7c 3f 91 fe 7e 3f
       1.0011867 0.99377394 0.98626435 0.9960719
000050 08 31 81 3f 69 51 82 3f 06 5f 80 3f e7 78 7d 3f
       1.0093088 1.0181094 1.0028999 0.9901261
000060 97 31 81 3f ba 60 81 3f 6d 19 80 3f 20 7a 80 3f
       1.0093259 1.0107644 1.0007759 1.003727
000070 eb 4e 7f 3f 4e 2d 7c 3f 01 c4 7f 3f 63 45 7e 3f
       0.99729794 0.9850663 0.99908453 0.99324626

down_path.2.block.2.bias f4 [32]
000000 b8 e3 32 bb e9 fc 48 b9 cc 36 49 bb 88 3b 8a bb
       -0.0027296375 -0.00019167703 -0.0030702827 -0.0042185225
000010 76 83 3d 3c 59 db 2b bc 8d 61 fb bb d4 62 66 ba
       0.011566987 -0.010489308 -0.007671541 -0.000878853
000020 bd 70 bb ba 09 d9 84 bc c4 40 13 bc 35 ee 1d ba
       -0.0014300566 -0.016216772 -0.008987609 -0.00060245703
000030 e5 aa 13 bc 46 3d d0 3a 8f 46 96 bc ce ee 1a bb
       -0.009012912 0.0015887402 -0.018344192 -0.0023640874
000040 e0 07 61 bc 20 6f 57 39 ad e1 73 3c 4f f9 1b 3b
       -0.013734788 0.00020545395 0.014885348 0.0023799723
000050 e8 28 e5 bb f8 5b c1 bc 89 1e 0b 3c a7 d3 05 3c
       -0.006993402 -0.023603424 0.008491167 0.008168138
000060 26 89 6f b9 fe 0f 85 bc e2 60 51 bb e0 4b 59 bc
       -0.00022843908 -0.016242977 -0.0031948616 -0.013262719
000070 a8 02 48 bc 68 cc 64 3c 4f 7e 65 ba 65 fd dd 3b
       -0.012207665 0.01396475 -0.0008754478 0.0067745917

down_path.2.block.2.running_mean f4 [32]
000000 53 6d c2 3e 16 a0 e2 3e 35 9e f4 3e 74 40 39 3e
       0.37974033 0.4426276 0.47776952 0.18090993
000010 c5 0b 8c 3e 97 09 8e 3e ef 94 0a 3f cc 9f 86 3e
       0.2735273 0.2774169 0.54133505 0.2629379
000020 86 5a 2f 3e f8 3b b3 3e cf 78 1c 3f 3b d3 8e 3e
       0.17124376 0.3500669 0.6112184 0.2789553
000030 27 29 7a 3e b3 73 3d 3f 18 38 ae 3e 5a 0d 9f 3e
       0.24429761 0.7400467 0.3402717 0.31064874
000040 c5 9a 83 3e dd 19 42 3e 55 8d ba 3e af f3 32 3f
       0.25704017 0.18955179 0.36435953 0.6990308
000050 e2 76 ef 3e 97 4b e2 3e 5d 18 e2 3e b6 52 cf 3e
       0.46770388 0.44198295 0.44159213 0.4049279
000060 df ab 26 3f a8 be c4 3e 5b 7a b2 3e d1 a1 1f 3f
       0.65106004 0.3842671 0.34858975 0.6235629
000070 0e f7 dc 3e 08 98 d3 3e 6d 11 ff 3e d0 fb 9a 3e
       0.43157238 0.41326928 0.49817982 0.30270243

down_path.2.block.2.running_var f4 [32]
000000 d3 8b eb 3e b6 85 c3 3f 95 33 e3 3e 45 01 08 3e
       0.46005115 1.527518 0.4437529 0.13281734
000010 53 ea 56 3e 66 3f 02 3f 74 c8 c8 3f 39 fa 9a 3e
       0.20987825 0.5087799 1.5686173 0.3026903
000020 9e ef 7c 3e b9 ec 99 3f 6c bd d7 3f ea fd d0 3e
       0.24700782 1.2025367 1.6854682 0.4081872
000030 c5 15 4d 3e 9c c1 f3 3f 8c 4d 38 3f 8b 1d 0e 3f
       0.20027836 1.904346 0.7199333 0.5551383
000040 4d 07 21 3f 63 3b e9 3e cf 35 c0 3e bb de ca 3f
       0.62901765 0.4555312 0.37541053 1.5849222
000050 be 92 00 40 a2 de 5e 3f 55 47 a3 3e 48 ca 80 3f
       2.0089564 0.8705846 0.3189036 1.0061731
000060 ff 8c 06 40 ce 49 63 3f 24 bd 5d 3e 8f 2c f9 3f
       2.1023557 0.8878449 0.21654183 1.9466723
000070 46 06 03 3f 9e b3 e8 3e 5c 6f 9b 3f e2 ac bb 3e
       0.5118145 0.45449537 1.2143359 0.36655337
