weights/old/unet-test1.pt (torch_old, 10195 bytes, 16 tensors)

down_path.0.block.0.weight f4 [4, 3, 3, 3]
0	0xbca8f138	-0.020622835
1	0xbe146afe	-0.1449394
2	0xbcd54a08	-0.026036277
3	0xbe10defa	-0.14147559
4	0x3c08ab80	0.00834167
5	0x3bba65c0	0.005688399
6	0x3d80403a	0.0626225
7	0x3d4ef594	0.05052717
8	0x3cb84940	0.022495866
9	0xbcf4cec0	-0.029883742
10	0x3de50612	0.111827984
11	0xbe327928	-0.1742903
12	0xbe11900c	-0.14215106
13	0xbdeb1d5b	-0.114802085
14	0x3e14389b	0.14474718
15	0x3ddcef3e	0.10787819
16	0xbe3dcd6a	-0.1853539
17	0xbd3adebc	-0.045622572
18	0x3cebcbc0	0.028783679
19	0x3e18e997	0.14932857
20	0x3e420f69	0.18951191
21	0xbcbb8570	-0.022890776
22	0x3e41455f	0.18874119
23	0x3d8e7c0e	0.06957255
24	0x3e430a2b	0.19046848
25	0x3e42300d	0.18963642
26	0x3cb1fb90	0.0217264
27	0x3dfc17ae	0.12309204
28	0x3df7a7f2	0.1209258
29	0x3c978f28	0.01850088
30	0x3d506c34	0.05088444
31	0x3db5e07e	0.08880709
32	0xbdc01396	-0.09378736
33	0xbe086264	-0.13318783
34	0x3ced3168	0.028954223
35	0x3dc56eda	0.09640284
36	0x3d50b6ec	0.050955698
37	0x3dd19912	0.10234274
38	0xbdb057dc	-0.08610508
39	0x3ca3b788	0.019984975
40	0x3d30ce0c	0.04316525
41	0xbe3bf153	-0.18353777
42	0xbdb50617	-0.08839052
43	0x3e2e54e1	0.17024566
44	0x3d825f0e	0.063657865
45	0xbe091690	-0.13387513
46	0x3e20c761	0.15701057
47	0xbd74bf68	-0.05975285
48	0xbdd2fc8a	-0.10302074
49	0x3e39a6d1	0.18130042
50	0x3dd5925e	0.10428308
51	0x3b829ce0	0.003985986
52	0xbbbece00	-0.005822897
53	0x3e00a50b	0.12562959
54	0xbddd461c	-0.10804388
55	0xbd6754d8	-0.056477398
56	0xbe1080f9	-0.14111699
57	0xb93c2000	-0.00017940998
58	0xbdf4e26a	-0.119572476
59	0x3e0f26c7	0.13979636
60	0xbddea8cb	-0.108720385
61	0xbd3d073c	-0.046149477
62	0xbc50af80	-0.012737155
63	0xbe2bfb37	-0.1679505
64	0x3d95b97a	0.073107675
65	0xbdaa1741	-0.083052166
66	0x3e12d5d9	0.14339389
67	0xbd333454	-0.043751076
68	0xbd40f104	-0.04710485
69	0xbd1376c0	-0.03600192
70	0xbd1da9c8	-0.038491994
71	0x3e1f1f29	0.1553923
72	0xbe17310c	-0.14764804
73	0x3d53f67c	0.051748738
74	0x3dcfa256	0.10138385
75	0xbd43c3ec	-0.047794268
76	0x3c464530	0.0121014565
77	0x3de11cbe	0.1099181
78	0xbdb8c33e	-0.090216145
79	0x3e203015	0.15643342
80	0x3e425f5d	0.1898169
81	0xbdc60b45	-0.09670118
82	0x3dba72e6	0.091039464
83	0xbd2bad08	-0.041913062
84	0xbbfe7760	-0.0077656955
85	0x3e313bc1	0.1730795
86	0x3dfe872e	0.12428127
87	0xbc5e5860	-0.013570875
88	0xbe2b658a	-0.16737953
89	0x3e2b1fcf	0.16711353
90	0x3c5a5480	0.01332581
91	0x3db3ce76	0.08779614
92	0x3dc2eb0a	0.095174864
93	0x3c7e55f0	0.015523419
94	0x3ddd6f36	0.108122274
95	0x3da2dcea	0.07952292
96	0xbe258eca	-0.16167751
97	0xbd15388c	-0.03643088
98	0x3c116e40	0.008876383
99	0x3e298cdb	0.16557638
100	0xbdd182ce	-0.10230027
101	0xbcf40730	-0.029788584
102	0x3dde4dce	0.10854684
103	0x3e00cdd1	0.12578513
104	0xbd0d1680	-0.034445286
105	0x3daf25e2	0.085521474
106	0xbe085b5b	-0.133161
107	0xbddd8efd	-0.108182885

down_path.0.block.0.bias f4 [4]
0	0xbd03c3bc	-0.03216909
1	0x3d969cbe	0.07354115
2	0x3dc60546	0.096689746
3	0xbd520ba8	-0.051280648

down_path.0.block.2.weight f4 [4, 4, 3, 3]
0	0x3dc8ad2a	0.097986534
1	0xbc8857a8	-0.01664336
2	0x3d50f22c	0.051012203
3	0xbe1b6abf	-0.15177439
4	0xbc9f3580	-0.01943469
5	0x3dd4eda2	0.10396887
6	0xbe1940a6	-0.14966068
7	0xbddea49e	-0.10871242
8	0xbdb12bd6	-0.08650939
9	0xbe06fe60	-0.13182974
10	0xbc305af0	-0.010763869
11	0xbe19d5eb	-0.1502301
12	0xbd2e9d46	-0.042630456
13	0xbd6f0d90	-0.058362544
14	0x3e213b9d	0.15745397
15	0x3d25c130	0.04046744
16	0xbd0d37a0	-0.034476876
17	0x3c012f30	0.0078847855
18	0x3d47a020	0.04873669
19	0x3d243504	0.040089622
20	0xbc8f12e0	-0.017465055
21	0xbdbe78bb	-0.09300371
22	0xbca3c5d8	-0.0199918
23	0xbd6b4bd6	-0.05744537
24	0xbdfef73b	-0.12449499
25	0xbe13238c	-0.14369029
26	0xbd4e3ae0	-0.050349116
27	0xbdf7e133	-0.121035
28	0x3df66962	0.12031819
29	0x3d0e4c10	0.034740508
30	0xbdb30948	-0.08742005
31	0xbd898a70	-0.06715858
32	0x3de36c2e	0.11104618
33	0x3d78647c	0.060642704
34	0xbd982846	-0.074295565
35	0xbdb560a0	-0.088563204
36	0x3e0ceb89	0.13761725
37	0xbe2446ef	-0.16042684
38	0xbd78bdd6	-0.060727917
39	0x3dfd6eea	0.12374671
40	0xbddfd806	-0.10929875
41	0x3d258944	0.04041411
42	0xbe088690	-0.13332582
43	0xbe167348	-0.14692414
44	0x3e16c011	0.14721705
45	0xbd874ef6	-0.066068575
46	0x3d8d0d22	0.068872705
47	0xbd98f446	-0.074684665
48	0x3da084ba	0.078378156
49	0xbc86dbe8	-0.016462281
50	0xbd907e30	-0.07055318
51	0xbe045e83	-0.12926678
52	0xbc42a310	-0.011879697
53	0xbc7778c0	-0.015104473
54	0x3dab9d3a	0.08379598
55	0x3e24fc75	0.1611193
56	0xbd8fd633	-0.07023277
57	0xbc522eb0	-0.012828514
58	0xbe030da8	-0.12798178
59	0xbd8c631b	-0.0685484
60	0xbc35bd80	-0.011092544
61	0x3da27890	0.07933152
62	0x3dbcc35e	0.09216951
63	0x3afc4980	0.0019247979
64	0xbdda3328	-0.106542885
65	0x3da20480	0.079110146
66	0x3e237eab	0.15966289
67	0x3c9a6378	0.018846259
68	0x3d87b848	0.06626946
69	0xbd00d590	-0.03145367
70	0xbe075888	-0.13217366
71	0x3cdc4440	0.026888013
72	0x3def493e	0.11683892
73	0x3df75d8e	0.12078391
74	0x3e020ff1	0.12701394
75	0xbdda7018	-0.106659114
76	0xbd3b70e6	-0.045761965
77	0xbe15ece3	-0.14641146
78	0x3dcbb3de	0.09946416
79	0xbda8ccb6	-0.082421705
80	0xbe229dc6	-0.15880498
81	0x3db44f2a	0.08804162
82	0xbda359f6	-0.07976143
83	0xbdaaf2be	-0.08347081
84	0x3b881720	0.0041531473
85	0xbc0b18f0	-0.008489832
86	0x3cc28e20	0.023749411
87	0x3b5062c0	0.003179714
88	0xbe0f635e	-0.1400275
89	0xbb72f4c0	-0.0037072152
90	0x3e092141	0.13391592
91	0x3d11e470	0.035618246
92	0x3de334c2	0.11094047
93	0xbdaf3fa6	-0.08557062
94	0xbd159c30	-0.036525905
95	0x3e11b2e5	0.14228399
96	0x3dd1597a	0.102221444
97	0x3e04bdf9	0.12963094
98	0x3c6bbe00	0.014388561
99	0x3daf25a2	0.085521
100	0xbd4548dc	-0.048165187
101	0xbd47953c	-0.048726305
102	0xbd99ed06	-0.07515912
103	0x3d62867c	0.055304036
104	0x3e060c2d	0.13090582
105	0xbdee5be0	-0.116386175
106	0x3d33f104	0.043931022
107	0xbd002a40	-0.031290293
108	0xbd673e2c	-0.056455776
109	0x3d37a98c	0.044839427
110	0x3e0666d1	0.13125159
111	0xbe280d76	-0.16411385
112	0xbc352a90	-0.011057511
113	0x3d975762	0.07389714
114	0xbc83c378	-0.016084418
115	0xbe0482e6	-0.12940559
116	0xbe257e7a	-0.16161528
117	0xbdc5d8c8	-0.09660488
118	0x3df0a32e	0.11749874
119	0xbc2fc290	-0.01072754
120	0x3d45f2d4	0.048327282
121	0x3de943da	0.11389895
122	0x3c090080	0.008361936
123	0x3c326540	0.010888398
124	0x3ca59e08	0.020216957
125	0xbe1094c2	-0.14119247
126	0xbe0be683	-0.13662152
127	0xbdbb273e	-0.09138344
128	0xbd89cd9b	-0.06728669
129	0x3e001965	0.12509687
130	0x3d8b7182	0.06808759
131	0x3d09cab0	0.033640563
132	0xbd107680	-0.03526926
133	0x3abd9400	0.0014463663
134	0x3e056f37	0.13030706
135	0xbd74d9c0	-0.059777975
136	0xbe0e1108	-0.13873684
137	0x3dad296e	0.08455168
138	0x3e128801	0.14309694
139	0xbdd0c7f8	-0.10194391
140	0xbd4e0b66	-0.05030384
141	0x3d806430	0.06269109
142	0xbd0bc1ec	-0.034120485
143	0xbd7f4acc	-0.06232719

down_path.0.block.2.bias f4 [4]
0	0x39bcc800	0.00036007166
1	0xbe22a4ac	-0.1588313
2	0x3e112715	0.14175065
3	0x3e21231d	0.15736051

down_path.1.block.0.weight f4 [8, 4, 3, 3]
0	0xbdba3ad8	-0.09093255
1	0xbe085844	-0.1331492
2	0x3d7e6a7c	0.06211327
3	0x3d495134	0.049149707
4	0x3dd06ade	0.10176633
5	0xbd63ca10	-0.055612624
6	0x3d612264	0.054964438
7	0xbc927018	-0.017875716
8	0x3d8780c0	0.06616354
9	0xbc34fdd0	-0.011046842
10	0xbbeb12e0	-0.007173881
11	0x3d0661dc	0.03280817
12	0x3d822e62	0.06356503
13	0x3d43dbb4	0.047816947
14	0xbde8ca16	-0.1136667
15	0x3e2373bd	0.1596212
16	0xbe199698	-0.14998853
17	0x3da1ed10	0.07906544
18	0xbd82ab68	-0.063803494
19	0xbe140587	-0.14455234
20	0x3dca2132	0.09869613
21	0x3cd2ec68	0.025747493
22	0x3de38b02	0.11110498
23	0x3d432d1c	0.04765044
24	0xbda0c958	-0.07850903
25	0xbe21c400	-0.15797424
26	0x3d17da04	0.03707315
27	0x3da0a76e	0.07844435
28	0xbe1a63a8	-0.15077078
29	0xbcc61ca0	-0.024183571
30	0x3e25b665	0.16182859
31	0x3e03ee3f	0.12883852
32	0xbdbdf626	-0.09275465
33	0x3d60f554	0.054921463
34	0xbe0693a4	-0.13142258
35	0x3ce97b68	0.028501227
36	0x3daa5270	0.08316505
37	0x3d761e40	0.060087442
38	0xbdf887a6	-0.12135248
39	0x3da9d108	0.08291823
40	0x3e06f309	0.13178648
41	0xbdb52b88	-0.088461936
42	0xbdeadd13	-0.11467948
43	0xbe26a203	-0.1627274
44	0x3cd22748	0.025653496
45	0xbd48a200	-0.04898262
46	0xbd99a760	-0.075026274
47	0xbcbde508	-0.0231805
48	0xbe1fbcd3	-0.15599374
49	0xbd50f30c	-0.051013038
50	0x3cd3e938	0.025868043
51	0xbdec389b	-0.11534234
52	0x3dc843ce	0.09778558
53	0x3da8eeba	0.082486585
54	0xbd799890	-0.06093651
55	0xbe1d0def	-0.15337346
56	0x3dc5828a	0.09644039
57	0x3dd0ffd2	0.10205044
58	0xbdf5f1ee	-0.12009035
59	0xbe1b6e53	-0.15178804
60	0xbdab910b	-0.08377274
61	0xbe089e1c	-0.13341564
62	0x3e115421	0.14192249
63	0x3e1546bf	0.14577769
64	0xbdd75410	-0.105140805
65	0xbce2d0e0	-0.02768749
66	0x3d8dd4b0	0.069253325
67	0xbd846593	-0.06464686
68	0x3dbd23ae	0.09235321
69	0x3d92acb6	0.07161848
70	0xbce54c78	-0.027990565
71	0xbcb11418	-0.021616027
72	0x3df380e2	0.11889817
73	0xbe1242ff	-0.1428337
74	0x3e0de839	0.13858117
75	0xbd4649c0	-0.048410177
76	0x3e0ff105	0.14056785
77	0x3e175c07	0.147812
78	0xbda23e43	-0.07922032
79	0xbda5ae4b	-0.08089884
80	0x3e071d51	0.13194777
81	0x3c5d3210	0.013500705
82	0xbe0fdeb0	-0.14049792
83	0xbe029143	-0.12750725
84	0x3e0d6145	0.13806637
85	0x3d0a8f00	0.03382778
86	0x3cdc9b78	0.026929602
87	0xbda266c8	-0.0792976
88	0x3e1b09e5	0.15140493
89	0xbbbe4a00	-0.0058071613
90	0xbbdc5600	-0.006724119
91	0xbdf015f3	-0.117229365
92	0xbda2ebf6	-0.07955162
93	0xbdf38be0	-0.118919134
94	0x3a86b400	0.0010277033
95	0x3e0a99e5	0.13535269
96	0xbe05b280	-0.13056374
97	0x3d0b7ad4	0.034052685
98	0x3dfc75da	0.12327166
99	0x3d955586	0.07291703
100	0xbe02f704	-0.12789541
101	0x3d9d5f50	0.07684195
102	0xbd5f6346	-0.054538034
103	0xbd89b978	-0.067248285
104	0xbddf9a8b	-0.109181486
105	0x3db63b52	0.08898033
106	0x3d38b3b4	0.045093253
107	0x3c5a71d0	0.013332799
108	0xbd89123b	-0.0669293
109	0xbdc95786	-0.09831147
110	0xbdc69aab	-0.09697469
111	0xbdd8cbb8	-0.10585731
112	0x3dd23b52	0.10265221
113	0xbd019170	-0.03163284
114	0x3d642830	0.05570239
115	0x3dc0a392	0.094061986
116	0xbdc5b7e6	-0.096542165
117	0x3a144800	0.0005656481
118	0x3dfb43e2	0.12268807
119	0xbdb9825b	-0.090580665
120	0x3decb5ba	0.11558099
121	0x3d62ea90	0.055399477
122	0x3d2674f4	0.04063888
123	0xbdd67ae8	-0.10472661
124	0x3d073b30	0.03301543
125	0xbd7eb0b0	-0.06218022
126	0xbd7ff49c	-0.062489137
127	0x3c4a3280	0.012341142
128	0x3df83826	0.121200845
129	0x3dd518d6	0.10405128
130	0xbc88bf20	-0.016692698
131	0xbe0b357e	-0.13594624
132	0x3e0defe5	0.13861044
133	0x3e07a9f1	0.13248421
134	0xbda41e66	-0.080136105
135	0xbded93fb	-0.11600491
136	0xbe05237a	-0.13001814
137	0x3d906c1e	0.07051872
138	0xbe22d3e0	-0.15901136
139	0xbc3e3130	-0.011608407
140	0x3e08869f	0.13332604
141	0xbe0b3103	-0.13592915
142	0x3e06ec03	0.13175969
143	0x3e19a649	0.15004839
144	0x3e16c7e9	0.14724697
145	0x3d5726c0	0.05252719
146	0xbe08864f	-0.13332485
147	0xbd39ada6	-0.04533162
148	0xbdc7b186	-0.09750657
149	0xbe205e1a	-0.15660897
150	0x3e26fd11	0.16307475
151	0xbcc0ce18	-0.023535773
152	0x3e1620a1	0.14660884
153	0xbd1593e0	-0.036517978
154	0xbdf34a9b	-0.11879464
155	0x3dda4986	0.10658555
156	0x3c931708	0.017955318
157	0xbc269fb0	-0.010169908
158	0x3dcfe1c6	0.10150485
159	0xbd81675b	-0.063185416
160	0x3a71c500	0.00092227757
161	0xbbb99660	-0.005663678
162	0xbd9bfb68	-0.07616311
163	0x3d1af394	0.03782995
164	0x3e1367e9	0.14395107
165	0x3d418680	0.04724741
166	0x3cda24f8	0.026628956
167	0xbd880acb	-0.066426836
168	0xbd503616	-0.05083283
169	0x3dc00d12	0.09377493
170	0x3dff5c02	0.12468721
171	0x3d82ee30	0.06393087
172	0x3dd885ce	0.10572396
173	0xbdfcb11e	-0.1233847
174	0x3d6fe22c	0.058565304
175	0x3ded3146	0.11581664
176	0xbe0b67f7	-0.13613878
177	0xbde8d163	-0.11368062
178	0x3e09e777	0.13467203
179	0x3c26a3b0	0.010170862
180	0x3dcc50da	0.09976359
181	0x3bdc3060	0.006719634
182	0x3bd99880	0.006640494
183	0x3e1d8f3b	0.1538667
184	0x3cf57120	0.029961169
185	0x3d7ab10c	0.061204
186	0x3cd0e488	0.025499597
187	0x3cfe50c0	0.031044364
188	0x3d93d5d0	0.07218516
189	0x3ddb38ca	0.10704191
190	0x3d949738	0.07255405
191	0xbe16853f	-0.14699267
192	0x3cda44e8	0.026644185
193	0x3e112c21	0.1417699
194	0xbd895f20	-0.06707597
195	0x3dbc250a	0.09186752
196	0xbbedc960	-0.007256672
197	0x3e26d991	0.16293932
198	0x3e05a38d	0.13050671
199	0x3c7220f0	0.014778361
200	0xbe259c5b	-0.16172926
201	0x3d5425b0	0.051793754
202	0xbe0293ab	-0.12751643
203	0xbe161e84	-0.14660078
204	0xbbbb0b60	-0.005708143
205	0xbd66590c	-0.056237265
206	0xbde2fbb3	-0.11083164
207	0x3bb78ce0	0.0056015104
208	0x3db884ba	0.090096906
209	0x3e0b91a9	0.13629784
210	0xbd46728c	-0.048449084
211	0x3dc31016	0.095245525
212	0xbddb7a6b	-0.10716709
213	0x3dab4fe6	0.08364849
214	0xbe0e2fef	-0.13885473
215	0xbd487626	-0.0489408
216	0xbd309d90	-0.043119013
217	0x3d872458	0.06598729
218	0x3d85cb76	0.06532948
219	0xbc8443c0	-0.016145587
220	0xbe20917a	-0.15680495
221	0xbe227ab0	-0.15867114
222	0x3e0de74f	0.13857768
223	0x3dfb1e1a	0.12261601
224	0xbdc32d18	-0.09530085
225	0x3c23a510	0.009988084
226	0x3d7eb67c	0.06218575
227	0xbdebd146	-0.11514525
228	0x3d854c80	0.06508732
229	0x3e039ee1	0.12853576
230	0xbe210460	-0.15724325
231	0xbdd8dc33	-0.10588875
232	0x3d5659c4	0.0523317
233	0x3e22965f	0.15877675
234	0xbdff16f3	-0.12455549
235	0x3d950a2e	0.07277332
236	0x3d1e9154	0.038712814
237	0xbdd23ad8	-0.1026513
238	0x3de86cbe	0.11348866
239	0xbd89f180	-0.067355156
240	0xbe04b0b8	-0.12958038
241	0x3e1c97e1	0.15292312
242	0xbe0a6043	-0.13513283
243	0xbd927da3	-0.071528696
244	0x3e1a8c67	0.15092622
245	0x3de1aa4e	0.11018811
246	0x3e149887	0.1451131
247	0xbda3ca33	-0.07997551
248	0x3d9b6e18	0.07589358
249	0xbe20b6aa	-0.15694681
250	0xbe1b614a	-0.15173832
251	0x3e24a225	0.16077478
252	0x3da08282	0.078373924
253	0xbe13709e	-0.14398429
254	0xbcfb8c68	-0.0307066
255	0xbda64428	-0.081184685

down_path.1.block.0.bias f4 [8]
0	0x3da5dac0	0.08098364
1	0x3d92d58a	0.071696356
2	0xbc7b41f0	-0.015335545
3	0xbde4f19e	-0.11178897
4	0x3d066094	0.032806948
5	0x3ddbb4a2	0.10727812
6	0xbdaa2e60	-0.083096266
7	0xbddd989b	-0.10820123

down_path.1.block.2.weight f4 [8, 8, 3, 3]
0	0x3dac3051	0.08407653
1	0x3c047ae8	0.008085944
2	0x3dd43eaf	0.103635184
3	0xbdf153b9	-0.11783547
4	0xbddba960	-0.10725665
5	0x3deedb91	0.11662973
6	0x3d030d12	0.031994887
7	0xbc5d1358	-0.013493381
8	0xbd430656	-0.047613464
9	0x3dbb8579	0.09156317
10	0x3d950a8b	0.072774015
11	0xbca933dc	-0.020654611
12	0x39a43e00	0.0003132671
13	0xbcbbf368	-0.022943214
14	0xbde5b38d	-0.11215887
15	0x3dd33707	0.1031323
16	0xbdaa8486	-0.08326058
17	0xba92ba80	-0.0011194497
18	0xbd7fdbd9	-0.062465522
19	0xbd08a36c	-0.033358976
20	0x3d15293a	0.03641627
21	0x3d64f276	0.05589529
22	0x3c4b5a48	0.012411661
23	0xbd81caba	-0.06337495
24	0xbdb291c7	-0.08719211
25	0xbd69c37a	-0.057071187
26	0xbd89f59c	-0.067362994
27	0x3df0900d	0.117462255
28	0xbcc23580	-0.023707151
29	0xbdd3f800	-0.103500366
30	0x3c9c3704	0.019069202
31	0x3dcfefbd	0.10153148
32	0xbdd8aef7	-0.10580247
33	0xbd5232e2	-0.051318057
34	0xbc4d6ef0	-0.012538657
35	0x3d83d96b	0.064379536
36	0x3daf8a21	0.08571268
37	0xbc935df0	-0.017989129
38	0xbd89daf6	-0.067312166
39	0x3dae6f6f	0.08517348
40	0x3d76dfd2	0.060272045
41	0x3c7f3108	0.015575655
42	0xbddd04a1	-0.107918985
43	0xbdd93e93	-0.10607638
44	0x3ddbea59	0.10738058
45	0xbde7febb	-0.11327883
46	0xbc13ecd0	-0.0090286285
47	0x3d39c7de	0.045356624
48	0x3d5eb352	0.054370232
49	0x3d815f3b	0.06316992
50	0x3c2169b8	0.0098518655
51	0xbc4bb5b8	-0.012433462
52	0xbc950040	-0.018188596
53	0x3d958b9b	0.07302018
54	0xbd454a62	-0.04816664
55	0xbdb17760	-0.08665347
56	0xbdb6a126	-0.089174554
57	0x3c3da278	0.01157438
58	0x3c8a0cac	0.016851746
59	0x3d998129	0.074953385
60	0x3ddd1f07	0.107969336
61	0xbda50418	-0.080574214
62	0xbd172450	-0.036899865
63	0xbdd0524e	-0.101719484
64	0x3bc19790	0.0059079602
65	0xbd29b99e	-0.041436784
66	0xbdcf0cf6	-0.10109894
67	0x3d901f15	0.070371784
68	0x3d4d4ece	0.050123982
69	0xbdb7e46c	-0.08979115
70	0xbd4085d8	-0.047002643
71	0xbd914ed0	-0.070951104
72	0x3d95d40d	0.07315836
73	0x3dae78c7	0.0851913
74	0x3da91541	0.08256007
75	0xbcf43330	-0.029809564
76	0x3da7d3bd	0.08194683
77	0x3d272ff6	0.040817223
78	0x3d733056	0.05937227
79	0x3dd305bb	0.103038274
80	0xbd1d1ab4	-0.038355544
81	0x3dcc4137	0.09973376
82	0xbccc8e08	-0.02497007
83	0xbd212880	-0.039345264
84	0x3dc89a3b	0.09795042
85	0xbd3f7d00	-0.04675007
86	0xbd486a2a	-0.04892937
87	0x3d088596	0.033330522
88	0xbd90f0f3	-0.070772074
89	0xbdd05e09	-0.10174186
90	0xbdea639c	-0.1144478
91	0xbdbb5784	-0.09147552
92	0x3dcd8db3	0.100367926
93	0xbd267656	-0.040640198
94	0x3db50d09	0.08840377
95	0xbdeedd78	-0.116633356
96	0xbd9f394c	-0.077746004
97	0xbd6635e7	-0.05620375
98	0x3d18e5c6	0.037328504
99	0xbd74aa6e	-0.059732847
100	0xbbb34bd0	-0.005471684
101	0xbd3dd66e	-0.046347074
102	0xbd84d977	-0.064867906
103	0x3ded6f5d	0.115935065
104	0x3da9aecf	0.08285295
105	0xbd3e23fa	-0.04642103
106	0x3ccf7064	0.025322147
107	0x3cbd6c94	0.023123063
108	0x3dd646ef	0.10462748
109	0x3c8fd55c	0.017557792
110	0x3d391356	0.045184456
111	0xbdd8ee1b	-0.1059229
112	0x3dc7523f	0.09732484
113	0x3cd1ae14	0.025595702
114	0xbdb00280	-0.08594227
115	0xbdb1cdd9	-0.086818404
116	0x3de27ea5	0.11059312
117	0x3d9ebf1f	0.07751297
118	0x3d0f4d8a	0.034986056
119	0xbb1d0c00	-0.0023963451
120	0xbda641c0	-0.081180096
121	0x3b1bc860	0.0023770556
122	0x3dcf3e61	0.1011932
123	0xbde1c9c6	-0.11024813
124	0xbda7ec65	-0.081993856
125	0x3ddc12d5	0.107457794
126	0xbd336476	-0.04379698
127	0x3d22d416	0.039753042
128	0x3d38ee46	0.04514911
129	0xbd93ffd4	-0.0722653
130	0x3d38999a	0.04506836
131	0xbd49e986	-0.04929497
132	0x3bf041b0	0.0073320493
133	0x3dbe9f99	0.093077846
134	0xbddcf58c	-0.10789022
135	0x3d42922e	0.04750269
136	0xbd288918	-0.041146368
137	0xbd780439	-0.060550902
138	0xbdbd5e9a	-0.092465594
139	0x3db480c7	0.08813625
140	0x3d2f36a6	0.042776726
141	0x3d6e125a	0.05812297
142	0xbd6d0d59	-0.057874057
143	0x3d09e47e	0.033665173
144	0xbd8dfa98	-0.069325626
145	0x3dd2f313	0.10300269
146	0xbb0bcd00	-0.0021331906
147	0x3d853339	0.065039106
148	0xbdc5607f	-0.09637546
149	0x3d1b3f7a	0.037902333
150	0x3dd6b85f	0.10484385
151	0x3de288dd	0.11061261
152	0x3d46ba8e	0.048517756
153	0xbde1e56d	-0.110300876
154	0xbd9f23c6	-0.07770495
155	0xbde3e079	-0.11126799
156	0x3c382498	0.011239193
157	0x3d57f526	0.052724026
158	0xbdcd0088	-0.10009867
159	0x3d64a9ea	0.055826105
160	0xbdc3fc8a	-0.095696524
161	0x3c717998	0.014738463
162	0x3d7d2cea	0.06181041
163	0x3de3a1df	0.11114859
164	0xbd278936	-0.04090234
165	0xbd155cdc	-0.03646551
166	0xbd98bee7	-0.07458287
167	0x3cfe6b6c	0.031057082
168	0xbcdd5b74	-0.027021147
169	0x3ddd3ab3	0.108022116
170	0x3de67759	0.112532325
171	0x3d6a3bda	0.057185985
172	0xbd349314	-0.044085577
173	0xbd6b5950	-0.057458222
174	0xbda14acb	-0.07875594
175	0x3d842f01	0.06454278
176	0xbd526c92	-0.051373072
177	0xbda028e9	-0.07820303
178	0xba072d00	-0.0005156547
179	0x3dec96fd	0.11552236
180	0xbdacad2e	-0.08431469
181	0x3da4a619	0.08039493
182	0x3d0c8f32	0.03431625
183	0x3bd30c80	0.006440699
184	0xbd965ccd	-0.07341919
185	0x3bed0150	0.0072328225
186	0x3cbdc284	0.023164041
187	0x3c93f074	0.018058993
188	0x3c563018	0.01307299
189	0xbdd09153	-0.101839684
190	0x3dc7ee8d	0.09762297
191	0x3cb2e57c	0.021837942
192	0xbdda0b8c	-0.10646734
193	0x3c165b18	0.009176992
194	0xbcd1edf8	-0.025626168
195	0x3d0c3fd2	0.03424055
196	0xbd6be56c	-0.05759184
197	0xbd47011e	-0.04858505
198	0x3d2f53fe	0.04280471
199	0xbd8368a0	-0.0641644
200	0xbb694940	-0.003559664
201	0x3de029dd	0.10945485
202	0x3c438928	0.011934556
203	0xbd24cc9c	-0.040234193
204	0x3d4051e2	0.04695309
205	0x3d7dfdde	0.062009685
206	0x3dcee8f3	0.10103025
207	0x3dd6801d	0.104736544
208	0xbb18bd60	-0.0023306236
209	0xbc91238c	-0.017717145
210	0xbc221ee0	-0.0098950565
211	0x3daa31ad	0.08310256
212	0x3de44a7b	0.111470185
213	0x3d55258a	0.052037753
214	0xbdc18a1a	-0.09450169
215	0x3daa59bf	0.08317899
216	0x3da17021	0.07882715
217	0xbc23e660	-0.010003656
218	0x3d6181e2	0.055055507
219	0xbdc2ef39	-0.09518284
220	0xbde485db	-0.111583434
221	0x3d4199f2	0.047265954
222	0x3d71437a	0.05890224
223	0xbd54491e	-0.051827542
224	0x3d267f36	0.04064866
225	0x3c76ec08	0.015070923
226	0x3da0df27	0.07855063
227	0x3c2000c8	0.009765811
228	0xbd6a5840	-0.057213068
229	0x3def149b	0.11673852
230	0xbded39ef	-0.115833156
231	0x3dd679a5	0.104724206
232	0x3ce7d4a4	0.028299637
233	0x3db1cffd	0.08682249
234	0xbdbd971e	-0.09257339
235	0xbde5f715	-0.11228768
236	0x3dd92a99	0.10603828
237	0x3da1051d	0.078623034
238	0x3dd434a5	0.10361604
239	0x3d8b6527	0.06806403
240	0x3d29eeaa	0.041487373
241	0xbd8d82e6	-0.069097325
242	0x3d938709	0.0720349
243	0xbd2fd77a	-0.042930104
244	0xbd3641c8	-0.044496328
245	0xbd9a354d	-0.075296976
246	0xbd82f22e	-0.06393848
247	0x3c3c07c8	0.011476465
248	0xbde570b2	-0.112031356
249	0xbd828ff0	-0.0637511
250	0xbdb77993	-0.08958735
251	0xbcf0b3f8	-0.02938269
252	0x3d7fdd36	0.062466823
253	0xbcc7f73c	-0.024409883
254	0xbc6cd138	-0.0144541785
255	0xbd92bdfe	-0.071651444

down_path.1.block.2.bias f4 [8]
0	0xbdc09d9b	-0.09405061
1	0x3d56768a	0.05235914
2	0x3b227b60	0.0024792776
3	0x3d8e1c33	0.06938972
4	0x3ce76c74	0.028249957
5	0xbdbdecc2	-0.092736736
6	0xbde3313c	-0.11093375
7	0xbd01a798	-0.03165397

up_path.0.up.1.weight f4 [4, 8, 1, 1]
0	0x3e3503fa	0.17677298
1	0xbe00423a	-0.12525263
2	0x3e9ee157	0.31031296
3	0xbe151731	-0.14559628
4	0x3dff55dc	0.12467548
5	0xbe9ad504	-0.30240643
6	0xbea3fb51	-0.32027677
7	0xbe7b5884	-0.24545485
8	0xbc74d500	-0.014943361
9	0x3e2f42a6	0.17115268
10	0xbe6c401d	-0.23071332
11	0x3e60509a	0.21905747
12	0xbe034f94	-0.12823325
13	0xbeab2a23	-0.33430585
14	0xbd3a63a8	-0.045505196
15	0xbe0daa5e	-0.13834521
16	0x3e2b1656	0.16707739
17	0x3e849d79	0.25901392
18	0x3e99189d	0.2990159
19	0x3e7fcbfa	0.24980155
20	0x3c8ba1c0	0.017044902
21	0x3e1b8746	0.15188321
22	0xbd2a0558	-0.041509002
23	0xbeaeee78	-0.34166312
24	0xbd074bd8	-0.033031315
25	0xbe5a0c72	-0.2129381
26	0xbe831c38	-0.25607467
27	0xbead3795	-0.33831468
28	0x3e9a8edf	0.30187127
29	0xbe69abd7	-0.22819458
30	0xbe9ad1e7	-0.30238268
31	0x3d094b48	0.03351906

up_path.0.up.1.bias f4 [4]
0	0xbea201e4	-0.31642067
1	0x3d3e9cb8	0.046536177
2	0xbeaedaf1	-0.34151414
3	0xbe12a931	-0.14322354

up_path.0.conv_block.block.0.weight f4 [4, 8, 3, 3]
0	0x3dad2495	0.08454243
1	0x3d8aed31	0.06783522
2	0xbddcc759	-0.1078021
3	0xbd4761e6	-0.048677348
4	0x3da69d5f	0.08135485
5	0xbd4d504e	-0.050125413
6	0xbd9397da	-0.07206698
7	0x3cd37d14	0.025816478
8	0xbd4a8700	-0.049445152
9	0x3bc01a30	0.005862497
10	0x3dd0c887	0.101944976
11	0xbdd25384	-0.102698356
12	0x3aa789c0	0.0012782142
13	0x3da3834d	0.07984028
14	0xbce743c8	-0.028230563
15	0x3dd2b7e1	0.10288978
16	0x3d42a446	0.047519945
17	0xbd92d0b1	-0.07168711
18	0xbd501572	-0.0508017
19	0x3d228d82	0.039685734
20	0x3d1acf2e	0.03779524
21	0x3cb1dae4	0.02171082
22	0x3c21a8e8	0.009866931
23	0x3dbe36d5	0.09287802
24	0x3dedb0a1	0.11605955
25	0x3db3f30f	0.08786594
26	0xbd93d064	-0.07217482
27	0xbd9beec4	-0.076139
28	0xbde9617e	-0.11395548
29	0x3db9c9ff	0.09071731
30	0xbdba4c7d	-0.0909662
31	0x3d958d43	0.07302334
32	0x3dbfa1ff	0.0935707
33	0xbdb680be	-0.089112744
34	0xbd8e151a	-0.069376186
35	0x3dee8967	0.11647301
36	0x3d36dd0e	0.044644408
37	0xbdcdd705	-0.10050777
38	0xbd7f7ca7	-0.062374737
39	0xbd8051d3	-0.06265607
40	0xbd09baca	-0.0336254
41	0x3d3164b2	0.04330892
42	0xbd8a8b01	-0.06764794
43	0xbdb5b0cb	-0.08871611
44	0x3dab1f93	0.08355632
45	0xbcfb3d58	-0.0306689
46	0xbd7cf723	-0.061759125
47	0xbdabd435	-0.08390085
48	0xbd50ff0c	-0.05102448
49	0x3bc79460	0.0060906857
50	0x3cdda204	0.027054794
51	0x3da04007	0.07824712
52	0x3debc88b	0.1151286
53	0x3d3cd892	0.046104975
54	0xbca7ce34	-0.020484067
55	0x3d38433e	0.044986002
56	0xbded2332	-0.115789786
57	0x3dd40b8d	0.10353766
58	0x3c6995d8	0.014256917
59	0x3dddbb43	0.10826733
60	0x3d2818d2	0.041039295
61	0x3dbf678b	0.09345921
62	0x3d629abe	0.055323355
63	0x3d313cd6	0.04327091
64	0xbd0f9c04	-0.035060897
65	0xbc83824c	-0.016053341
66	0xbd16ab92	-0.036784716
67	0xbda5295e	-0.08064531
68	0x3ba25720	0.0049542338
69	0x3de12ebf	0.10995244
70	0x3d9d0549	0.07667024
71	0x3dd5067d	0.10401628
72	0x3bd9aaa0	0.0066426545
73	0x3d26a802	0.04068757
74	0xbd0aedca	-0.03391818
75	0xbd931210	-0.071811795
76	0x3d0d9232	0.03456325
77	0x3df06639	0.117382474
78	0xbdbe6893	-0.0929729
79	0x3d8bb729	0.068220444
80	0xbd76a141	-0.060212377
81	0x3cf7023c	0.030152433
82	0x3db27e1b	0.08715459
83	0xbde9a7f0	-0.11408985
84	0x3d7853ba	0.060626723
85	0xbdeb1df4	-0.114803225
86	0x3cd9143c	0.026498906
87	0x3dbb5e41	0.09148837
88	0x3d83bf8b	0.06433018
89	0xbd9a6c67	-0.07540207
90	0xbd26898c	-0.04065852
91	0x3baa5f80	0.005199373
92	0x3bd1fb50	0.0064081326
93	0xbd79225e	-0.06082379
94	0x3cd015ac	0.025400959
95	0x3caf1f6c	0.021377288
96	0x3d9996eb	0.074994884
97	0x3d7fad46	0.062421106
98	0x3ddadc01	0.10686494
99	0x3da9dbdf	0.0829389
100	0x3da86129	0.08221657
101	0x3de0c6d5	0.10975424
102	0xbd5a7434	-0.053333476
103	0x3b0e8720	0.0021748021
104	0x3dbd17e1	0.0923307
105	0x3d09debe	0.03365969
106	0xbd7c690a	-0.06162361
107	0x3d13cb12	0.036082335
108	0xbda519b2	-0.080615416
109	0x3dc8b22d	0.09799609
110	0xbd972ec4	-0.07381967
111	0x3d8e17f3	0.06938162
112	0xbd35a2f6	-0.044344865
113	0xbcfa8634	-0.030581571
114	0x3c898224	0.016785689
115	0xbdc7b9be	-0.097522244
116	0xbd8266fa	-0.063672975
117	0x3cb52364	0.022111602
118	0xbdb1530a	-0.086584166
119	0x3cb855cc	0.022501849
120	0x3bb896a0	0.0056331903
121	0x3b627560	0.0034554824
122	0x3de96475	0.11396114
123	0x3da2e053	0.07952943
124	0x3d995d47	0.07488494
125	0xbd4f12c8	-0.05055502
126	0xbd142908	-0.036171943
127	0xbcb43c1c	-0.022001319
128	0x3bdecc70	0.006799273
129	0xbdd8a46b	-0.10578235
130	0x3bd392f0	0.0064567253
131	0xbdafe23e	-0.08588074
132	0x3dc032a9	0.09384663
133	0x3d0b9562	0.03407801
134	0x3dd999d5	0.10625044
135	0x3d98c703	0.074598335
136	0xbdbf00cc	-0.09326324
137	0xbddd9e03	-0.10821154
138	0xbd74b5d5	-0.05974372
139	0x3d3ba93e	0.0458157
140	0xbdb74fc8	-0.08950764
141	0x3d5b4296	0.0535303
142	0xbde99f19	-0.114072986
143	0x3c93bb3c	0.018033616
144	0x3d3d1e46	0.04617145
145	0xbdbef844	-0.09324697
146	0xbd19ff78	-0.03759715
147	0xbba6cca0	-0.005090311
148	0xbdce4298	-0.100712955
149	0x3da813a7	0.082068734
150	0x3deb07a5	0.114760675
151	0xbbf6e410	-0.0075345114
152	0x3c1e3ed8	0.009658538
153	0xbd61fd6e	-0.05517333
154	0xbcedff4c	-0.0290524
155	0x3ddf2587	0.1089583
156	0xbcdb19e4	-0.026745744
157	0xbd962930	-0.07332075
158	0x3d3df5de	0.046377055
159	0xbdc0ef21	-0.0942061
160	0x3c887d14	0.016661204
161	0xbc1ace18	-0.009448551
162	0xbc5f2848	-0.013620444
163	0xbdbcf0fc	-0.092256516
164	0x3d95a78f	0.0730735
165	0xbd51d59c	-0.051229104
166	0xbd88c02a	-0.066772774
167	0x3cfb3294	0.030663766
168	0xbde4e065	-0.11175612
169	0x3dbdb0c1	0.09262229
170	0xbd232988	-0.03983453
171	0xbde30b95	-0.110861935
172	0xbd83c0b6	-0.06433241
173	0xbd1ede22	-0.03878606
174	0x3d0ebfca	0.034850873
175	0x3db83049	0.08993585
176	0x3d892b5f	0.066977255
177	0x3d48b9ae	0.049005203
178	0x3d97ac6b	0.07405933
179	0x3db2e24b	0.08734568
180	0x3d83e3b5	0.06439916
181	0x3c83bd1c	0.016081385
182	0xbd6e3628	-0.058157116
183	0x3d78b0aa	0.060715355
184	0x3d407eba	0.046995856
185	0xbd66203c	-0.056183085
186	0xbd1b4d5c	-0.037915573
187	0x3d66e342	0.056369074
188	0x3ab5f740	0.001388289
189	0x3d70c5ee	0.05878251
190	0x3dd52ce1	0.104089506
191	0xbcf5f5b4	-0.030024387
192	0xbdeb83bd	-0.114997365
193	0x3cf12c94	0.029440202
194	0x3da5f093	0.081025265
195	0x3cc3e694	0.02391366
196	0xbdee792b	-0.11644205
197	0xbdddfffe	-0.10839842
198	0x3dcb774f	0.09934866
199	0xbd905d42	-0.070490375
200	0xbdda89e6	-0.10670833
201	0x3d8d8901	0.06910897
202	0xbdbbab42	-0.09163524
203	0x3c05ae18	0.008159183
204	0x3cf968f4	0.030445553
205	0x3d68eb56	0.05686506
206	0x3cc09194	0.023506917
207	0x3c1d9c28	0.00961975
208	0xbd46e4fa	-0.048558213
209	0x3c8b57cc	0.017009638
210	0xbd999b08	-0.07500273
211	0x3d4cdee6	0.05001726
212	0xbdef905c	-0.11697456
213	0x3d81e61d	0.06342719
214	0x3d8d0213	0.06885161
215	0x3cfa447c	0.030550234
216	0x3bec0910	0.007203229
217	0xbdcae088	-0.09906107
218	0x3d7cf90e	0.061760955
219	0x3d63fc1e	0.05566036
220	0xbaea7f80	-0.0017890781
221	0x3d71ca4a	0.05903081
222	0xbd85ed97	-0.06539457
223	0xbda889a5	-0.082293786
224	0x3de9b1a9	0.11410839
225	0xbd841c27	-0.06450682
226	0xbdd32a98	-0.103108585
227	0x3dea1edf	0.114316694
228	0x3b9b3870	0.0047369525
229	0xbd86b782	-0.0657797
230	0xbd8561b9	-0.0651278
231	0xbde1cefb	-0.110258065
232	0x3db04a19	0.08607883
233	0x3de6726f	0.11252295
234	0xbd6c8044	-0.05773951
235	0xbc4f3580	-0.012647033
236	0xbb43a020	-0.002985008
237	0x3d985b01	0.074392326
238	0xbde3193b	-0.11088797
239	0x3d86587d	0.065598466
240	0xbdaa92bf	-0.08328771
241	0x3dc16d6b	0.09444698
242	0x3da0d89f	0.07853817
243	0x3dd4f821	0.10398889
244	0xbdc20d56	-0.094752
245	0x3cacf33c	0.021112077
246	0x3cbadc84	0.022810228
247	0xbc6b5ad0	-0.014364913
248	0x3d9c2953	0.076250695
249	0x3d0045a6	0.031316422
250	0x3d6c74c2	0.057728536
251	0xbdb00217	-0.085941486
252	0x3d126896	0.035744272
253	0xbdb335aa	-0.0875047
254	0xbdb9460e	-0.09046565
255	0xbdcc1c50	-0.09966338

up_path.0.conv_block.block.0.bias f4 [4]
0	0xbdafb5a6	-0.085795686
1	0xbddc7699	-0.10764808
2	0xbd87f252	-0.06638016
3	0xbd948a9e	-0.07253002

up_path.0.conv_block.block.2.weight f4 [4, 4, 3, 3]
0	0x3cea5898	0.028606698
1	0x3c045cf0	0.008078799
2	0xbd23dcec	-0.04000561
3	0xbc73c110	-0.014877573
4	0xbdf9369e	-0.121686205
5	0x3dd0989a	0.101853564
6	0xbd9e4e0e	-0.077297315
7	0x3e0f94c5	0.14021595
8	0xbd3f5320	-0.046710134
9	0x3ca30898	0.019901559
10	0x3ca91320	0.020639002
11	0x3d494f30	0.049147785
12	0x3dcd7dbe	0.10033749
13	0xbdaef29b	-0.08542367
14	0x3c7b2940	0.015329659
15	0x3d8fd11e	0.07022308
16	0xbdd72d46	-0.10506682
17	0xbd910f56	-0.07083003
18	0xbd62f5a6	-0.05541005
19	0x3d8e5262	0.06949307
20	0xbdce37d6	-0.100692436
21	0x3e149029	0.14508118
22	0xbd508e7c	-0.050917134
23	0x3dc3b692	0.09556307
24	0xbd6f3170	-0.058396757
25	0xbcae4518	-0.02127318
26	0xbde07696	-0.109601185
27	0x3e237d4b	0.15965764
28	0x3e1a081d	0.15042157
29	0xbd84f93e	-0.06492852
30	0xbe1c21f3	-0.15247326
31	0xbd3f5ef6	-0.04672142
32	0xbda2563b	-0.079266034
33	0x3e183d91	0.14867236
34	0xbc9cb258	-0.01912801
35	0xbdb1e060	-0.08685374
36	0x3bd4bae0	0.006492004
37	0x3def7a0a	0.11693199
38	0xbd30a366	-0.04312458
39	0xbce23898	-0.027614877
40	0xbdca1510	-0.098672986
41	0xbd40ecf6	-0.047100984
42	0x3dca7506	0.09885602
43	0x3e13758f	0.14400314
44	0x3e1cbb61	0.15305854
45	0xbc073a70	-0.008253679
46	0x3e16c03f	0.14721774
47	0xbbee9c60	-0.007281825
48	0xbaf91180	-0.0019002408
49	0x3e1727a9	0.14761223
50	0x3daaadb2	0.08333911
51	0xbd2bf1dc	-0.041978702
52	0xbd9c83f6	-0.07642357
53	0xbd029d0c	-0.031888053
54	0xbdc2aacb	-0.095052324
55	0xbe1b6af0	-0.15177512
56	0xbe159f4a	-0.14611545
57	0xbdc5f7e8	-0.09666425
58	0xbe24dac0	-0.16099072
59	0xbd43a236	-0.04776212
60	0x3d7f7024	0.062362805
61	0x3db3b522	0.08774783
62	0xbdc2677b	-0.094923936
63	0xbe044994	-0.12918693
64	0x3e263e13	0.16234617
65	0xbd869c8e	-0.06572829
66	0x3d3fa73c	0.046790347
67	0xbe19299a	-0.14957276
68	0xbd196d00	-0.037457466
69	0x3c3596f0	0.01108335
70	0xbd168c30	-0.036754787
71	0x3cabc158	0.020966217
72	0xbd2d2266	-0.042269133
73	0x3e2699ef	0.16269659
74	0x3e11c0b5	0.14233668
75	0xbe19876a	-0.14993063
76	0x3db2afb2	0.087249175
77	0xbc90bc40	-0.01766789
78	0xbe1800fc	-0.14844126
79	0x3e008415	0.12550385
80	0xbd8e10d0	-0.069368005
81	0xbd4db296	-0.05021914
82	0x3db7230e	0.08942233
83	0x3d2f1d44	0.04275252
84	0x3c443e00	0.011977673
85	0xbd6ae7f0	-0.0573501
86	0x3e18200d	0.14855976
87	0x3c8f3088	0.017479196
88	0xbdff8f4e	-0.12478505
89	0x3dcf0c12	0.10109724
90	0xbd6ba9c0	-0.057534933
91	0xbe14441a	-0.14479104
92	0x3de11a32	0.109913245
93	0x3c8de4b8	0.017320976
94	0xbcd69ac0	-0.026196837
95	0xbd9a59ab	-0.07536634
96	0xbb10ff00	-0.0022124648
97	0xbd8e6f9b	-0.06954881
98	0xbce177a0	-0.027522862
99	0xbde4c94b	-0.11171206
100	0x3e107c09	0.14109816
101	0x3e0550a5	0.13019045
102	0x3b340140	0.0027466565
103	0x3e0e1ae9	0.13877453
104	0x3de971c6	0.11398654
105	0xbd568f16	-0.05238255
106	0xbe29696b	-0.1654412
107	0xbcbab148	-0.022789612
108	0xbd454ff6	-0.04817196
109	0x3c751580	0.014958739
110	0xbda22816	-0.07917802
111	0x3de9a4c2	0.11408378
112	0xbd67b9ec	-0.056573793
113	0x3db88056	0.09008853
114	0x3d4f048c	0.050541446
115	0x3cc6aa88	0.024251238
116	0x3e0c9321	0.13728
117	0xbdb6a5cb	-0.08918341
118	0xbe05d3f3	-0.13069133
119	0xbd810c38	-0.06301159
120	0x3da1cf90	0.079009175
121	0xbe0b84fa	-0.13624945
122	0xbaf9fd80	-0.0019072741
123	0x3d997ee6	0.07494907
124	0x3d94ff4a	0.07275255
125	0x3dafaf5e	0.085783705
126	0x3d20ff2c	0.03930585
127	0xbe0ac037	-0.13549887
128	0x3d0f1d7c	0.034940228
129	0xbe284e84	-0.16436201
130	0xbcc03f00	-0.02346754
131	0xbe2129be	-0.1573858
132	0x3d5ad2a4	0.05342354
133	0x3c985c00	0.018598557
134	0xbdbe128b	-0.092808805
135	0xbd476c9c	-0.048687562
136	0x3e2242fd	0.15845867
137	0x3e12de61	0.14342643
138	0x3c399c10	0.011328712
139	0x3d644100	0.05572605
140	0xbe1d1e03	-0.1534348
141	0x3ce429e0	0.027851999
142	0xbb21f2c0	-0.002471134
143	0xbdcf0ffb	-0.1011047

up_path.0.conv_block.block.2.bias f4 [4]
0	0xbe0174f7	-0.12642275
1	0xbde662de	-0.11249326
2	0xbd71549c	-0.05891858
3	0xbd3ea9e6	-0.046548747

last.weight f4 [19, 4, 1, 1]
0	0x3e035574	0.12825567
1	0x3e83996c	0.2570299
2	0xbe2d2498	-0.1690849
3	0xbd9b3158	-0.07577771
4	0x3eebf646	0.4608633
5	0xbea2aea6	-0.3177387
6	0xbe8fd2c8	-0.280905
7	0x3e93833e	0.28811067
8	0xbee838d4	-0.45355856
9	0xbdd8f808	-0.10594183
10	0xbeb305ca	-0.34965354
11	0x3d9c9800	0.07646179
12	0xbe4a1094	-0.19732887
13	0xbde16128	-0.11004859
14	0x3e85d0b2	0.26135784
15	0x3d125ed0	0.03573495
16	0xbe69c40c	-0.22828692
17	0x3eaf2bd8	0.34213138
18	0x3dbf79d0	0.09349406
19	0x3eb81390	0.35952425
20	0xbef3d518	-0.47623515
21	0xbe2e8638	-0.17043388
22	0xbefe54ba	-0.49674016
23	0xbead2952	-0.33820587
24	0x3bd7e800	0.006588936
25	0xbdcca3f8	-0.09992212
26	0x3dfbbe28	0.12292129
27	0xbefaec24	-0.49008286
28	0xbda96798	-0.08271712
29	0xbeaa5e0c	-0.33274877
30	0xbcdf7620	-0.027278006
31	0x3e467eac	0.19384259
32	0xbe920e9c	-0.2852677
33	0xbec88ce0	-0.3916998
34	0xbeaf0db2	-0.34190136
35	0xbefcb640	-0.49357796
36	0x3bd08380	0.0063633323
37	0x3ea1e1f6	0.31617707
38	0xbe695cf4	-0.22789365
39	0x3dd93dc0	0.10607481
40	0xbe7c6824	-0.24649101
41	0x3eb8e4b2	0.3611198
42	0xbd9cae60	-0.07650447
43	0x3ea8c2c2	0.32961088
44	0x3e3d9ed8	0.18517625
45	0x3eca3a92	0.3949781
46	0xbe9e0398	-0.30862117
47	0x3de20280	0.11035633
48	0xbeb24bbc	-0.34823406
49	0xbe01bc50	-0.12669492
50	0xbd851968	-0.064989865
51	0xbeaccfb0	-0.33752203
52	0x3edb0a46	0.42781276
53	0xbed2bdae	-0.4116034
54	0xbed342a8	-0.41261792
55	0x3e86e9e6	0.26350325
56	0x3e565a84	0.20932966
57	0xbe94da18	-0.29072642
58	0xbdae3668	-0.08506471
59	0x3e59c2dc	0.21265739
60	0xbd2f05e0	-0.042730212
61	0x3edf8ffe	0.43664545
62	0x3dcaebb0	0.09908235
63	0xbc2d6f00	-0.0105855465
64	0x3daac650	0.08338606
65	0x3ee36108	0.44409966
66	0xbec67d34	-0.38767397
67	0x3ec1cbcc	0.37850797
68	0xbe5d3464	-0.21602017
69	0x3ec0d4b2	0.37662274
70	0xbec536ce	-0.38518375
71	0xbdf23a10	-0.11827481
72	0xbd8a3910	-0.06749165
73	0x3dfb68b8	0.12275833
74	0xbed5f936	-0.41791695
75	0x3efee9fc	0.4978789

last.bias f4 [19]
0	0x40051499	2.0793822
1	0xc01c6db7	-2.4441965
2	0xc00f0ed6	-2.2352805
3	0xc0180719	-2.3754332
4	0xc01910c0	-2.3916473
5	0xbfe8969a	-1.817096
6	0xbff0fcd5	-1.8827158
7	0xbfe58d34	-1.7933717
8	0xc02ce364	-2.7013788
9	0xc02b6c5d	-2.678489
10	0xc0200f7b	-2.5009449
11	0xc013ad44	-2.3074503
12	0xbfec0096	-1.8437679
13	0xc00ecfa0	-2.2314224
14	0xc02669da	-2.6002107
15	0xc0048fcf	-2.0712774
16	0xc0139094	-2.3056993
17	0xc0057332	-2.085156
18	0xbff83513	-1.9391197
