weights/old/unet-test5.pt (torch_old, 460306 bytes, 36 tensors)

down_path.0.block.0.weight f4 [8, 3, 3, 3]
-0.15623191 0.010775773 -0.112878785 -0.22049582 -0.1780245 -0.07451601 -0.1962704 -0.19632302
-0.15599705 0.14989217 0.3149023 0.38830355 0.019548463 0.2243813 0.17277907 0.045226533
-0.09810381 -0.01253364 0.069609545 -0.081020474 0.12928784 -0.2389416 0.088406995 -0.18238667
-0.22322871 -0.21620868 -0.3527431 -0.017547822 -0.0068479585 0.14111255 -0.29860657 -0.2052596
-0.14699723 -0.25905317 -0.08883789 -0.114354484 -0.11885634 -0.21052958 -0.17081508 -0.014227766
-0.09432591 0.09385198 -0.31795812 0.104092546 -0.038550526 -0.021954644 0.35880244 0.23160176
-0.00796749 0.3361458 0.35652557 0.32132655 0.2601749 0.4155198 -0.03864814 -0.038695462
-0.038690083 -0.038526308 -0.038571034 -0.038564418 -0.038525585 -0.038609438 -0.038644224 -0.036423933
-0.03649279 -0.036532443 -0.036282312 -0.036340114 -0.036377974 -0.036278456 -0.036370136 -0.03644683
-0.036833543 -0.03672716 -0.036708776 -0.03663184 -0.03649362 -0.036477495 -0.03663898 -0.03655196
-0.036584888 -0.024501288 -0.024157861 -0.023849862 -0.024518523 -0.024163647 -0.02385233 -0.02455517
-0.024217661 -0.02391479 -0.023633786 -0.023273874 -0.022955233 -0.023615835 -0.023240525 -0.022929423
-0.02363771 -0.023277076 -0.022969384 -0.0216075 -0.021406554 -0.021221662 -0.02173071 -0.021538777
-0.021363067 -0.021857215 -0.021673463 -0.021492366 0.015786821 -0.17394666 -0.06148948 0.054561555
-0.17130345 0.096668735 -0.10647701 -0.012110724 -0.12385799 -0.28819573 -0.30564824 -0.35369056
-0.08172228 0.07350002 -0.16241227 -0.018770834 -0.09630604 0.05413584 -0.08439277 -0.16033277
-0.11268037 -0.012540081 0.042517677 -0.024652772 0.039529793 -0.09125375 -0.06214495 -0.00017133051
-0.00011117659 -6.7562464e-06 -0.00014010376 -6.811664e-05 -7.306592e-05 -0.00019316352 -0.00013002065 -9.9890196e-05
-0.00085388403 -0.0007103103 -0.0006422638 -0.0008448527 -0.0007155715 -0.0006332778 -0.00091724243 -0.0007705493
-0.00068191724 -0.00020485575 -0.00014312829 -0.00011127553 -0.00020974939 -0.00014085408 -0.0001079996 -0.000255085
-0.00015919295 -0.00013502779 -0.11655186 -0.17342906 -0.251378 -0.17324112 0.110894784 -0.16243681
0.048956405 0.09005972 -0.22035141 0.18503463 0.2556622 0.17384946 0.15102486 0.2925041
-0.045997396 0.3488384 0.045752943 0.076511644 -0.051443342 -0.19213636 -0.32565597 -0.030154675
0.09432019 -0.30772635 -0.022966081 -0.14657342 -0.017405612 0.41249418 0.33663204 0.09395851
0.34522295 -0.03418931 -0.00952611 0.22490378 0.09381033 -0.15364191 0.036717203 -0.26922944
-0.40155262 -0.05081 -0.16106996 -0.33149183 0.053995315 -0.29246083 -0.41350093 0.25900003
-0.0038245989 -0.19662723 -0.0011092668 0.110351324 -0.16585065 0.17488316 0.08222946 -0.04172449
00000000: 42fb 1fbe de8c 303c fe2c e7bd a8c9 61be
00000010: 0e4c 36be da9b 98bd 1cfb 48be e708 49be
00000020: b1bd 1fbe 557d 193e e03a a13e b9cf c63e
00000030: 1924 a03c 36c4 653e ffec 303e 753f 393d
00000040: a6ea c8bd e559 4dbc 738f 8e3d 10ee a5bd
00000050: 0864 043e 1bad 74be ba0e b53d 92c3 3abe
00000060: 1196 64be cf65 5dbe be9a b4be 73c0 8fbc
00000070: d764 e0bb cf7f 103e f6e2 98be 932f 52be
00000080: 7186 16be 9ea2 84be a4f0 b5bd af32 eabd
00000090: f46a f3bd 1195 57be 26ea 2ebe 931b 69bc
000000a0: f12d c1bd 7835 c03d 68cb a2be 792e d53d
000000b0: 28e7 1dbd 3ada b3bc f4b4 b73e 0329 6d3e
000000c0: 138a 02bc 4d1b ac3e 858a b63e ea84 a43e
000000d0: a535 853e 03bf d43e 834d 1ebd 227f 1ebd
000000e0: 7e79 1ebd c3cd 1dbd a9fc 1dbd b9f5 1dbd
000000f0: 01cd 1dbd ee24 1ebd 6849 1ebd 4331 15bd
00000100: 7779 15bd 0ba3 15bd c39c 14bd 5fd9 14bd
00000110: 1201 15bd b898 14bd daf8 14bd 4549 15bd
00000120: c5de 16bd 386f 16bd f15b 16bd 450b 16bd
00000130: 567a 15bd 6d69 15bd c112 16bd 82b7 15bd
00000140: 09da 15bd edb6 c8bc b5e6 c5bc c960 c3bc
00000150: 12db c8bc d7f2 c5bc f665 c3bc ed27 c9bc
00000160: 1e64 c6bc f3e8 c3bc a49b c1bc daa8 bebc
00000170: 9d0c bcbc ff75 c1bc ea62 bebc 7cd6 bbbc
00000180: dfa3 c1bc 91af bebc 4a2a bcbc 3602 b1bc
00000190: cc5c afbc 0dd9 adbc 9a04 b2bc 1772 b0bc
000001a0: 9901 afbc e70d b3bc 8c8c b1bc c210 b0bc
000001b0: 5d53 813c 131f 32be 65dc 7bbd f07b 5f3d
000001c0: 2c6a 2fbe 42fa c53d 9e10 dabd 0f6c 46bc
000001d0: 42a9 fdbd 648e 93be ed7d 9cbe ee16 b5be
000001e0: 035e a7bd 2e87 963d 674f 26be 4bc5 99bc
000001f0: 1a3c c5bd 8bbd 5d3d 1ed6 acbd 462e 24be
00000200: f7c4 e6bd e974 4dbc 0427 2e3d 9cf4 c9bc
00000210: fee9 213d 3fe3 babd b48b 7ebd 2fa7 33b9
00000220: 7a27 e9b8 b7b3 e2b6 d1e8 12b9 d8d9 8eb8
00000230: f83a 99b8 f08b 4ab9 2756 08b9 247c d1b8
00000240: 30d7 5fba 1e34 3aba 985d 28ba 1b79 5dba
00000250: 3195 3bba 8e02 26ba 1973 70ba b0fe 49ba
00000260: b1c2 32ba 8cce 56b9 b514 16b9 985c e9b8
00000270: 2cf0 5bb9 3bb2 13b9 d87d e2b8 eebc 85b9
00000280: 08ed 26b9 3f96 0db9 beb2 eebd 6397 31be
00000290: 9eb4 80be 1f66 31be ce1c e33d d655 26be
000002a0: 8386 483d 3b71 b83d cda3 61be b879 3d3e
000002b0: 28e6 823e 9805 323e 43a6 1a3e 19c3 953e
000002c0: c467 3cbd f29a b23e 7067 3b3d 23b2 9c3d
000002d0: 41b6 52bd 65bf 44be 61bc a6be f006 f7bc
000002e0: f22a c13d 4f8e 9dbe 5d23 bcbc 5817 16be
000002f0: 3796 8ebc 7032 d33e 095b ac3e 526d c03d
00000300: 10c1 b03e 170a 0cbd 6713 1cbc 2d4d 663e
00000310: a11f c03d 4e54 1dbe c764 163d 71d8 89be
00000320: 4e98 cdbe 261e 50bd 86ef 24be 4cb9 a9be
00000330: 312a 5d3d 6dbd 95be 65b6 d3be a79b 843e
00000340: 1fa6 7abb a658 49be d164 91ba e0ff e13d
00000350: c1d4 29be 9214 333e eb67 a83d 4ce7 2abd

down_path.0.block.0.bias f4 [8]
0.205207 -0.03162089 -0.025839454 -0.017872319 0.15924513 -0.02384232 0.038271032 0.117405534
00000000: c921 523e e884 01bd 43ad d3bc f868 92bc
00000010: 2811 233e f850 c3bc 16c2 1c3d 5072 f03d

down_path.0.block.2.weight f4 [8, 8, 3, 3]
-0.22388019 -0.22996719 -0.16017148 -0.026902784 0.121900275 0.1911264 0.03051115 0.09614565
0.31087938 0.043433487 0.09225389 0.0792816 0.09652224 -0.013716526 -0.03523962 -0.10174667
-0.21460265 -0.106474675 0.04493845 0.04482884 0.044310864 0.044462983 0.0445122 0.044160165
0.044213396 0.04436365 0.043658223 0.0007943368 0.0008922881 0.0009660107 0.0008420298 0.00095101306
0.0010280649 0.00089330383 0.0009934184 0.0010579258 0.01865982 0.036636762 0.056562904 -0.032458317
-0.049358938 0.025407998 -0.028300766 -0.0074706892 0.096838534 -0.0033013285 -0.0032484997 -0.0033143067
-0.0033123153 -0.003325644 -0.0033186455 -0.0033064797 -0.0033338831 -0.0033329998 0.6630595 0.5497915
0.46834084 0.3825687 0.1490041 0.100927226 0.44315827 0.28044954 0.20437826 -0.43540403
-0.07915896 -0.07742406 -0.44524392 -0.16656983 -0.1650936 -0.31647313 -0.15646316 -0.13089257
-0.40543303 -0.33915108 -0.30098724 0.3009594 0.3375749 0.3549322 -0.1617506 -0.08677562
-0.046341907 0.059978556 -0.051516943 0.06090657 0.077933855 -0.05897862 0.017309599 0.08583276
-0.08336273 -0.034582898 -0.014404373 -0.014853647 -0.014718359 -0.013854412 -0.013922784 -0.014355535
-0.013797971 -0.0143286735 -0.0142251905 -0.0063857674 -0.006361919 -0.00627457 -0.0062694703 -0.00619605
-0.00610019 -0.006070084 -0.006049208 -0.0060317824 -0.19335589 -0.09511881 0.019061102 -0.13350229
-0.034533855 0.10430043 -0.14309244 -0.036090665 0.115592934 0.0034016012 0.0030589122 0.002866427
0.004143277 0.0035338649 0.0030715696 0.004535855 0.0041701235 0.0037629632 0.15306775 0.19413051
-0.06319717 0.18377616 0.23763141 -0.043975387 0.13960426 0.17519699 -0.09248362 0.17879188
0.5309128 0.35716325 0.29041177 0.6166106 0.49784082 0.2953175 0.6693941 0.5841108
0.08261145 -0.08566105 -0.0754332 0.31312346 0.20746295 0.1913731 0.009801248 0.011488505
0.09444547 -0.1640154 -0.18678357 -0.019142013 -0.32135522 -0.37329465 -0.28579798 -0.2931382
-0.48087907 -0.20988415 0.016181506 0.016273465 0.016259031 0.016382763 0.01645708 0.016433058
0.016324785 0.01634914 0.016304843 0.00016519154 0.00015710651 0.00016906117 0.00013033871 0.00012196162
0.00013637266 0.00014761338 0.00012893956 0.00013712283 -0.020251658 -0.097813174 -0.03357358 -0.036705267
-0.034014784 -0.038975358 0.014831553 0.05379191 0.07278062 -0.00020914817 -0.00022574856 -0.00022592931
-0.00020021957 -0.00024035948 -0.0002461901 -0.00022313581 -0.00023972143 -0.00023728037 0.15726753 0.05385164
-0.12366601 0.1834453 -0.0011405237 0.000238485 0.1830854 0.14342627 -0.032695964 -0.15484181
-0.2302767 -0.26517895 -0.11932722 -0.13993986 -0.18759617 -0.2371995 -0.21822482 -0.13049404
0.18597364 0.1482028 0.14347692 0.20956767 0.18043265 0.17614405 0.29053426 0.26296222
0.2597726 -0.19283633 -0.2632411 -0.27511722 -0.14403777 -0.18812503 -0.17358968 -0.19640017
-0.20688972 -0.14354175 0.03221937 0.031832352 0.03165794 0.032355186 0.031806022 0.03160838
0.031924266 0.0317762 0.031534966 -0.0008876885 -0.00090316567 -0.000903282 -0.00092578976 -0.00094630127
-0.0009426402 -0.00093139644 -0.0009596797 -0.00095550076 -0.09822669 -0.10541188 -0.042419963 -0.06301562
00000000: d940 65be 857c 6bbe fe03 24be 3a63 dcbc
00000010: daa6 f93d a4b6 433e 85f2 f93c 03e8 c43d
00000020: 952b 9f3e 50e7 313d 9cef bc3d 645e a23d
00000030: 74ad c53d 48bb 60bc 6b57 10bd 8f60 d0bd
00000040: ccc0 5bbe 650f dabd 6111 383d 729e 373d
00000050: 4f7f 353d d11e 363d 6d52 363d 4ae1 343d
00000060: 1b19 353d a9b6 353d f7d2 323d 0a3b 503a
00000070: 71e8 693a e13b 7d3a aabb 5c3a 684d 793a
00000080: 22c0 863a 9b2c 6a3a 9735 823a 19aa 8a3a
00000090: 7bdc 983c 6e10 163d 81ae 673d 03f3 04bd
000000a0: 992c 4abd 6f24 d03c 02d7 e7bc afcc f4bb
000000b0: 4853 c63d 1a5b 58bb c8e4 54bb d734 59bb
000000c0: 6e13 59bb 0cf3 59bb a27d 59bb 86b1 58bb
000000d0: 477d 5abb 756e 5abb 44be 293f 23bf 0c3f
000000e0: 5fca ef3e 0be0 c33e 8894 183e efb2 ce3d
000000f0: a4e5 e23e 1597 8f3e 8948 513e 47ed debe
00000100: 181e a2bd 8190 9ebd 03f7 e3be 4891 2abe
00000110: 4c0e 29be c408 a2be e137 20be b408 06be
00000120: eb94 cfbe 36a5 adbe 001b 9abe 5a17 9a3e
00000130: 9ed6 ac3e acb9 b53e f3a1 25be 6bb7 b1bd
00000140: 03d1 3dbd 13ac 753d 6e03 53bd 2b79 793d
00000150: c99b 9f3d 9193 71bd dccc 8d3c 16c9 af3d
00000160: 14ba aabd cca6 0dbd 5200 6cbc b65c 73bc
00000170: 4625 71bc 9efd 62bc 631c 64bc 7a33 6bbc
00000180: e310 62bc d0c2 6abc c610 69bc b33f d1bb
00000190: a577 d0bb e89a cdbb 2170 cdbb 3c08 cbbb
000001a0: 1ae4 c7bb 8ee7 c6bb 6f38 c6bb 42a6 c5bb
000001b0: 16ff 45be a7cd c2bd 0726 9c3c d3b4 08be
000001c0: 5f73 0dbd 779b d53d d386 12be ced3 13bd
000001d0: fdbb ec3d 66ed 5e3b 0878 483b aada 3b3b
000001e0: 54c4 873b 6a98 673b 634c 493b 82a1 943b
000001f0: 88a5 883b 0c9c 763b cbbd 1c3e 26ca 463e
00000200: 856d 81bd d12f 3c3e a655 733e 891f 34bd
00000210: 6bf4 0e3e d766 333e 0d68 bdbd 3815 373e
00000220: e7e9 073f 1ade b63e dab0 943e 31da 1d3f
00000230: fee4 fe3e db33 973e 695d 2b3f 4988 153f
00000240: 3130 a93d 106f afbd b97c 9abd b851 a03e
00000250: 2b71 543e 4ff7 433e 6a95 203c 483a 3c3c
00000260: a06c c13d a7f3 27be 3144 3fbe b6cf 9cbc
00000270: ac88 a4be 7a20 bfbe 1d54 92be 3616 96be
00000280: c835 f6be dfeb 56be 148f 843c ee4f 853c
00000290: a931 853c 2535 863c 00d1 863c 9f9e 863c
000002a0: 8ebb 853c a2ee 853c bc91 853c 4437 2d39
000002b0: f5bc 2439 0346 3139 88ab 0839 a5c5 ff38
000002c0: 42ff 0e39 aac8 1a39 f333 0739 a1c8 0f39
000002d0: cee6 a5bc 4652 c8bd 7384 09bd 4358 16bd
000002e0: 1653 0bbd a0a4 1fbd 0b00 733c e854 5c3d
000002f0: 010e 953d c94e 5bb9 ebb6 6cb9 70e7 6cb9
00000300: 08f2 51b9 0209 7cb9 1313 81b9 90f9 69b9
00000310: bb5d 7bb9 77ce 78b9 bd0a 213e 8a93 5c3d
00000320: 9b44 fdbd 16d9 3b3e a07d 95ba d411 7a39
00000330: bd7a 3b3e 56de 123e 34ec 05bd da8e 1ebe
00000340: a8cd 6bbe 89c5 87be d461 f4bd 654c 0fbe
00000350: 3619 40be 6de4 72be 5476 5fbe 3ba0 05be
00000360: e06f 3e3e 7ac2 173e 9deb 123e e898 563e
00000370: 56c3 383e 1b5f 343e e8c0 943e fca2 863e
00000380: ea00 853e e376 45be 8ac7 86be 2adc 8cbe
00000390: a37e 13be d9a3 40be 7ec1 31be 201d 49be
000003a0: e6da 53be 9cfc 12be 75f8 033d a462 023d
000003b0: c2ab 013d df86 043d 0847 023d ca77 013d
000003c0: 05c3 023d c327 023d cf2a 013d c4b3 68ba
000003d0: 6cc2 6cba 3bca 6cba b3b0 72ba 3411 78ba
000003e0: 831b 77ba f528 74ba 0493 7bba 927a 7aba
000003f0: 132b c9bd 2fe2 d7bd 8ec0 2dbd 550e 81bd

down_path.0.block.2.bias f4 [8]
0.053519767 -0.03031648 0.08466532 -0.13025784 -0.13249414 0.14967436 -9.959263e-11 0.017254088
00000000: 8b37 5b3d 445a f8bc 0365 ad3d 5062 05be
00000010: 8bac 07be 3c44 193e ab01 dbae 7258 8d3c

down_path.1.block.0.weight f4 [16, 8, 3, 3]
-5.8141257e-05 1.3169046e-05 4.4461176e-06 -1.041508e-05 -1.8230325e-05 -1.652644e-05 -1.5723257e-05 -3.5550486e-06
-4.653841e-06 -5.4213814e-16 -2.8191006e-16 -1.8133562e-16 -2.1304815e-16 -1.05715085e-16 -8.341355e-17 -2.1352067e-16
-1.7505263e-16 -1.5371414e-16 -1.9330973e-06 1.5286357e-06 -2.8209304e-06 2.2625768e-06 -3.9201316e-07 -1.2962844e-06
-8.3780964e-07 -7.61672e-09 -9.003872e-07 7.218778e-39 -3.989121e-38 -1.0688811e-37 -1.0460694e-36 -1.48568605e-36
-3.7043042e-36 -6.994215e-36 -1.1036239e-35 -1.6852697e-35 -4.0586897e-13 -2.9574642e-13 -7.3431593e-13 -8.764998e-14
9.052341e-14 -2.4651768e-13 -2.471279e-13 -1.6229722e-13 -2.9946168e-13 1.0160373e-06 -7.725692e-07 6.795443e-07
-2.0665178e-07 -1.6380096e-07 -1.2894387e-06 -1.0115805e-06 -1.8560314e-07 -1.2982898e-07 9.9737e-41 -1.04712e-40
5.7425e-41 3.9985e-41 1.89147e-40 -8.7511e-41 -2.38593e-40 1.65973e-40 -1.04258e-40 -2.406134e-07
-1.0904197e-05 -9.7311795e-06 -3.0407111e-06 -4.144968e-06 -1.02198155e-05 6.0105917e-06 2.490291e-06 7.1889062e-06
-0.45455623 -0.10662981 0.14424883 -0.1627297 0.10068019 0.35881793 -0.20429172 0.019414663
0.32390875 -0.6277986 -0.3004075 0.4165441 -0.44563586 -0.12129367 0.5277254 -0.22462165
0.048367143 0.5887582 -0.3351559 -0.07662049 0.13471349 -0.17934415 0.03626627 0.21220106
-0.107238375 0.11296479 0.23892428 -0.055720054 0.11824024 0.3380354 -0.20685796 0.013002522
0.22216842 -0.18483542 0.011623916 0.1654534 0.31043476 -0.080914326 -0.28710684 0.29427573
-0.026146717 -0.19008048 0.29399142 -0.08596757 -0.32367182 -0.41537583 -0.16563377 0.083907686
-0.22099553 -0.017479325 0.19504365 -0.22595425 0.018780274 0.22535564 -6.842e-41 5.2622e-41
3.3417e-41 -6.6216e-41 8.0405e-41 8.6582e-41 -5.2256e-41 5.7868e-41 -8.7557e-41 -0.33157387
-0.09497558 0.246847 -0.21313706 0.057384018 0.2738924 -0.21936467 -0.014650494 0.308812
4.2833e-41 -1.4805e-41 -7.613e-42 2.0512e-41 -1.2598e-41 -3.0026e-41 4.1219e-41 -3.936e-42
-8.111e-42 1.91807e-40 1.67567e-40 -1.84003e-40 -1.64095e-40 2.29704e-40 3.08e-41 2.41114e-40
-3.95182e-40 3.41485e-40 -4.34e-43 -9.1374e-41 -9.7875e-41 -4.9125e-41 -9.024e-42 9.1627e-41
-9.6336e-41 8.3307e-41 -8.1197e-41 1.2348e-41 -1.39754e-40 -2.0963e-40 2.40524e-40 1.83203e-40
1.67867e-40 1.55928e-40 1.60096e-40 9.0535e-41 6.9429e-41 7.9857e-41 5.5036e-41 4.6177e-41
7.3705e-41 3.8981e-41 7.1344e-41 5.1286e-41 -1.3e-43 8.4208e-41 -8.9755e-41 -2.0808e-41
8.9544e-41 -4.043e-42 7.5636e-41 3.8205e-41 -7.3239e-41 5.7062e-41 1.3248e-40 -1.8999e-40
-2.75776e-40 2.8742e-41 1.61753e-40 -2.82247e-40 2.91055e-40 -1.88019e-40 -2.66758e-40 3.7608e-41
-6.8183e-41 -2.0207e-41 3.8443e-41 -7.701e-41 -5.6158e-41 8.1246e-41 3.533e-41 -4.6145e-41
1.8061e-40 -1.2798e-40 1.9693e-40 -2.5971e-40 1.58623e-40 2.92912e-40 5.2899e-41 -1.22632e-40
9.3485e-41 -3.92041e-40 -4.50484e-40 -2.9426e-40 2.44681e-40 2.75539e-40 2.60479e-40 8.6264e-41
-2.11205e-40 2.05112e-40 1.32479e-40 -6.761e-41 2.91256e-40 -5.2411e-41 -1.76617e-40 -2.23259e-40
-3.931e-41 1.47857e-40 3.5687e-41 -1.4147e-40 3.83783e-40 1.4435e-41 4.4074e-41 -2.4136e-40
3.06348e-40 4.83769e-40 1.64917e-40 -3.74821e-40 -6.1338e-41 7.228e-41 6.4415e-41 7.2108e-41
00000000: b3dc 73b8 9ff0 5c37 dc2f 9536 6ebc 2eb7
00000010: 53ed 98b7 42a2 8ab7 70e5 83b7 4593 6eb6
00000020: 3128 9cb6 bc42 1ca6 9582 a2a5 d410 51a5
00000030: b7a0 75a5 2cc3 f3a4 ab56 c0a4 2e2c 76a5
00000040: 6bd2 49a5 6838 31a5 5cba 01b6 862b cd35
00000050: 374f 3db6 c6d6 1736 e175 d2b4 fefb adb5
00000060: d7e5 60b5 b0da 02b2 23b2 71b5 049b 4e00
00000070: 3b30 5981 127d 1182 c0fa b183 c1c6 fc83
00000080: 4d90 9d84 21c0 1485 00b7 6a85 6835 b385
00000090: e27b e4aa 8d7d a6aa 0ab1 4eab c65e c5a9
000000a0: 31d7 cb29 f1c6 8aaa e21e 8baa fdba 36aa
000000b0: fa94 a8aa c75e 8835 8d62 4fb5 ee69 3635
000000c0: 02e4 5db4 44e1 2fb4 c710 adb5 a4c5 87b5
000000d0: 344a 47b4 1e67 0bb4 0716 0100 e523 0180
000000e0: 14a0 0000 766f 0000 440f 0200 f2f3 0080
000000f0: 1a99 0280 aace 0100 a122 0180 a72d 81b4
00000100: 2bf1 36b7 1943 23b7 050f 4cb6 0115 8bb6
00000110: c675 2bb7 97ae c936 e01e 2736 3c38 f136
00000120: 98bb e8be bb60 dabd f7b5 133e 9da2 26be
00000130: 6a31 ce3d fcb6 b73e d931 51be 800b 9f3c
00000140: 5ed7 a53e 69b7 20bf 03cf 99be 4545 d53e
00000150: 622a e4be d168 f8bd 0319 073f 3803 66be
00000160: a01c 463d dbb8 163f 8e99 abbe 34eb 9cbd
00000170: 55f2 093e fea5 37be f18b 143d 3c4b 593e
00000180: cb9f dbbd 155a e73d 91a8 743e b63a 64bd
00000190: f027 f23d fa12 ad3e 93d2 53be 8808 553c
000001a0: 1e80 633e 7f45 3dbe 3d72 3e3c 9e6c 293e
000001b0: 4ef1 9e3e 69b6 a5bd abff 92be 4fab 963e
000001c0: a431 d6bc 75a4 42be 0b86 963e c40f b0bd
000001d0: 50b8 a5be 24ac d4be e69b 29be cbd7 ab3d
000001e0: a74c 62be cd30 8fbc 86b9 473e 8d60 67be
000001f0: 17d9 993c a1c3 663e babe 0080 b092 0000
00000200: 275d 0000 95b8 0080 23e0 0000 5bf1 0000
00000210: ab91 0080 50a1 0000 13f4 0080 0dc4 a9be
00000220: 8f82 c2bd 76c5 7c3e 9a40 5abe 810b 6b3d
00000230: a03b 8c3e 22a1 60be a008 70bc 9b1c 9e3e
00000240: 6777 0000 4529 0080 3915 0080 2e39 0000
00000250: 1e23 0080 b353 0080 e772 0000 f90a 0080
00000260: 9c16 0080 ae16 0200 1cd3 0100 ed00 0280
00000270: 6ec9 0180 5280 0200 dc55 0000 21a0 0200
00000280: 9b4d 0480 ecb7 0300 3601 0080 b7fe 0080
00000290: d610 0180 f188 0080 2819 0080 6bff 0000
000002a0: 8c0c 0180 3ae8 0000 58e2 0080 6c22 0000
000002b0: 9485 0180 5d48 0280 7c9e 0200 b2fe 0100
000002c0: f2d3 0100 aab2 0100 48be 0100 60fc 0000
000002d0: 8ac1 0000 9cde 0000 6b99 0000 b980 0000
000002e0: 76cd 0000 aa6c 0000 e1c6 0000 f78e 0000
000002f0: 5d00 0080 bdea 0000 33fa 0080 013a 0080
00000300: 9df9 0000 450b 0080 d8d2 0000 806a 0000
00000310: 29cc 0080 119f 0000 4d71 0100 9d11 0280
00000320: c000 0380 1f50 0000 e7c2 0100 ca12 0380
00000330: 582b 0300 1f0c 0280 9de7 0280 d668 0000
00000340: 11be 0080 5438 0080 2a6b 0000 acd6 0080
00000350: 8c9c 0080 7be2 0000 7c62 0000 a280 0080
00000360: 78f7 0100 c264 0180 f624 0200 f7d3 0280
00000370: 2dba 0100 8530 0300 7693 0000 d955 0180
00000380: 9904 0100 da44 0480 c4e7 0480 4734 0380
00000390: 12aa 0200 1700 0300 1cd6 0200 78f0 0000
000003a0: c14c 0280 c53b 0200 4c71 0100 78bc 0080
000003b0: e72b 0300 1a92 0080 56ec 0180 5b6e 0280
000003c0: 956d 0080 2a9c 0100 7b63 0000 5c8a 0180
000003d0: d52d 0400 3d28 0000 dc7a 0000 d0a0 0280
000003e0: f955 0300 8d44 0500 b9cb 0100 d914 0480
000003f0: fcaa 0080 7dc9 0000 90b3 0000 02c9 0000

down_path.1.block.0.bias f4 [16]
-0.018921314 -0.023597794 -1.239846e-08 -6.9968123e-31 -0.12635207 -0.026396468 -6.8714257e-10 0.1620209
0.017861305 -0.09781069 -0.07608789 -0.0453182 0.16057146 -0.11301663 0.08188362 -1.1232583e-21
00000000: df00 9bbc 2950 c1bc 0101 55b2 3e0f 638d
00000010: 7062 01be 683d d8bc 5ce1 3cb0 cfe8 253e
00000020: df51 923c f950 c8bd f8d3 9bbd 949f 39bd
00000030: d86c 243e 4375 e7bd 99b2 a73d f3bd a99c

down_path.1.block.2.weight f4 [16, 16, 3, 3]
-1.3953673e-14 6.9332323e-15 7.988586e-15 -9.782532e-15 7.515561e-15 2.4246886e-15 4.723256e-15 2.301068e-15
4.142889e-15 -0.7177171 -0.6119231 -0.9283748 -0.7073525 -0.48773777 -0.72090805 -1.0294622
-0.703124 -0.858555 8.3166e-41 6.0201e-41 6.0836e-41 5.895e-41 6.7845e-41 2.8002e-41
1.7225e-41 8.4679e-41 8.5807e-41 -1.63051e-40 1.27416e-40 -1.17935e-40 -1.13019e-40 1.27402e-40
-1.76879e-40 -1.49668e-40 -1.20561e-40 1.62939e-40 -0.07841755 0.023325982 0.04322647 -0.021761483
0.056091595 0.040371407 -0.16623364 -0.0407011 -0.050818235 0.025595475 0.025639186 0.02575585
0.025633425 0.025682662 0.02580341 0.025630934 0.025692048 0.025806386 -7.636e-41 8.4779e-41
-8.7337e-41 -1.4962e-41 2.1647e-41 7.5226e-41 6.8516e-41 -5.9869e-41 8.9673e-41 -0.011779592
0.021602232 0.18401596 0.01954674 -0.0011863576 0.049873512 0.054091837 0.112752005 0.15052305
-0.17866719 -0.030583316 0.112688184 -0.16566852 0.010061314 0.15963532 -0.20638126 -0.00032814662
0.1316715 0.16900744 0.06217351 -0.056265526 0.16235206 0.050528627 -0.060635503 0.12965086
0.022793472 -0.08724008 -0.059206713 0.07006563 0.08935218 -0.028802453 0.09172097 0.11830936
-0.14170812 0.016980683 0.0452995 -0.017148634 -0.016539387 -0.016021116 -0.017069824 -0.016481066
-0.015931074 -0.016993476 -0.016453285 -0.016002249 0.18136962 0.026772141 -0.0074484777 0.17451866
-0.010159703 -0.046392184 0.25700426 0.03681446 0.009118012 -0.1205786 -0.062508315 -0.16302244
-0.1474128 -0.040611636 -0.15216844 -0.1954514 -0.12080696 -0.21294188 -0.045044553 -0.0030919344
0.04547007 0.0030916845 -0.00916949 0.055546355 0.12383788 0.121075116 0.09163534 3.2398e-41
4.6803e-41 4.8566e-41 -1.53958e-40 -3.162e-41 8.2325e-41 6.2792e-41 7.1054e-41 1.5216e-40
-2.9347e-41 -4.6838e-41 -1.13e-42 6.7166e-41 -3.4871e-41 -4.4699e-41 -2.2114e-41 -4.5663e-41
6.1696e-41 0.29192093 0.043576602 0.113815725 -0.14065589 -0.12330252 0.04355867 -0.40136188
0.077666335 0.2994314 5.6504e-40 2.6453e-40 -1.95691e-40 1.36998e-40 3.94414e-40 -2.93516e-40
5.07126e-40 -4.6614e-40 2.523e-40 -5.84637e-40 3.09244e-40 -1.83206e-40 9.5385e-41 3.07331e-40
9.0682e-41 -4.30235e-40 -2.14899e-40 2.72637e-40 0.12501615 0.18796021 0.27042294 0.17328586
0.13782446 0.12996121 -0.1610473 -0.21078382 -0.2771076 -0.012614697 -0.0132771395 -0.013053084
-0.012312602 -0.01336061 -0.013248814 -0.012422807 -0.013507202 -0.013517729 -3.78905e-40 -3.10706e-40
3.02402e-40 -2.1786e-40 -4.69457e-40 -6.1245e-41 -8.193e-42 1.65915e-40 -4.19744e-40 0.18727261
0.045961365 0.03661096 0.019933974 -0.08161431 -0.06470449 0.101272576 0.005052317 0.007178364
0.0018327166 0.09497184 -0.035420146 0.010817919 0.01596857 -0.14211194 -0.08107039 -0.118150376
-0.30007935 -0.16080213 0.039380312 0.22577572 0.06873921 0.22209017 0.39465728 0.020120844
0.15455613 0.30609804 0.09870893 -0.022507612 -0.0065600816 0.1376273 -0.039761234 -0.112112015
0.07338817 -0.062237695 -0.1696251 -0.0037967272 -0.0028114934 -0.0018613356 -0.0047375844 -0.004020291
-0.0029577813 -0.005902548 -0.0052892566 -0.0041792714 0.050412606 -0.03635144 -0.06373343 0.017298216
00000000: f55d 7ba8 c8cb f927 dae8 0f28 f739 30a8
00000010: 6863 0728 9cb7 2e27 592c aa27 36cf 2527
00000020: 6843 9527 4fbc 37bf fea6 1cbf f9a9 6dbf
00000030: 0e15 35bf c4b8 f9be 6e8d 38bf 6bc5 83bf
00000040: efff 33bf 43ca 5bbf d5e7 0000 d1a7 0000
00000050: 96a9 0000 54a4 0000 20bd 0000 0f4e 0000
00000060: 0430 0000 0dec 0000 32ef 0000 85c6 0180
00000070: 2f63 0100 c148 0180 0d3b 0180 2563 0100
00000080: 11ed 0180 37a1 0180 1350 0180 35c6 0100
00000090: 6199 a0bd 2116 bf3c 3d0e 313d 2345 b2bc
000000a0: 4dc0 653d 7d5c 253d 2739 2abe 32b6 26bd
000000b0: c826 50bd 9aad d13c 4509 d23c effd d23c
000000c0: 30fd d13c 7264 d23c ac61 d33c f7f7 d13c
000000d0: 2178 d23c ea67 d33c dcd4 0080 54ec 0000
000000e0: 76f3 0080 b529 0080 583c 0000 b3d1 0000
000000f0: ffbe 0000 e4a6 0080 f9f9 0000 31ff 40bc
00000100: 2af7 b03c ae6e 3c3e 7c20 a03c 8e7f 9bba
00000110: 2b48 4c3d 678f 5d3d 86ea e63d b722 1a3e
00000120: 88f4 36be dd89 fabc 10c9 e63d 02a5 29be
00000130: 36d8 243c 7177 233e 9c55 53be 180b acb9
00000140: e5d4 063e 4910 2d3e a7a9 7e3d ae76 66bd
00000150: 9e3f 263e 1bf7 4e3d ef5c 78bd 32c3 043e
00000160: 60b9 ba3c edaa b2bd bd82 72bd 927e 8f3d
00000170: 47fe b63d 1ff3 ebbc 34d8 bb3d 2e4c f23d
00000180: ef1b 11be 131b 8b3c f88b 393d 4b7b 8cbc
00000190: 9c7d 87bc b73e 83bc 04d6 8bbc 4d03 87bc
000001a0: e281 82bc e735 8bbc 0ac9 86bc 2617 83bc
000001b0: f5b8 393e 4051 db3c 5c12 f4bb 05b5 323e
000001c0: e274 26bc bb05 3ebd 1096 833e c2ca 163d
000001d0: b763 153c eaf1 f6bd 5c04 80bd 5bef 26be
000001e0: 62f3 16be 6358 26bd 0bd2 1bbe 6924 48be
000001f0: a469 f7bd 700d 5abe a380 38bd 0da2 4abb
00000200: d33e 3a3d dc9d 4a3b a13b 16bc 9384 633d
00000210: b79e fd3d 3bf6 f73d 4fab bb3d 505a 0000
00000220: 7882 0000 6287 0000 2cad 0180 2558 0080
00000230: 7de5 0000 0aaf 0000 12c6 0000 29a8 0100
00000240: cf51 0080 9182 0080 2603 0080 3bbb 0000
00000250: 3561 0080 9a7c 0080 a53d 0080 4a7f 0080
00000260: fcab 0000 a976 953e 617d 323d 3818 e93d
00000270: 1908 10be 0886 fcbd 936a 323d 4e7f cdbe
00000280: 870f 9f3d 134f 993e 1a27 0600 67e1 0200
00000290: 8221 0280 e57d 0100 774b 0400 3432 0380
000002a0: a985 0500 6913 0580 4fbf 0200 bb5d 0680
000002b0: 0c5e 0300 b4fe 0180 e509 0100 b758 0300
000002c0: c9fc 0000 52af 0480 0d57 0280 00f8 0200
000002d0: 3c04 003e a478 403e e074 8a3e d971 313e
000002e0: db21 0d3e 8d14 053e 95e9 24be b7d7 57be
000002f0: 0ce1 8dbe e0ad 4ebc 5c88 59bc 9adc 55bc
00000300: ccba 49bc 76e6 5abc 8e11 59bc 0789 4bbc
00000310: 504d 5dbc 7779 5dbc 3c20 0480 1f62 0380
00000320: f94a 0300 4e5f 0280 a81c 0580 baaa 0080
00000330: d716 0080 81ce 0100 1392 0480 64c4 3f3e
00000340: fc41 3c3d 60f5 153d 934c a33c 6725 a7bd
00000350: ca83 84bd ff67 cf3d e88d a53b 7b38 eb3b
00000360: c437 f03a 9980 c23d b714 11bd a43d 313c
00000370: 85d0 823c cb85 11be 3c08 a6bd d3f8 f1bd
00000380: 00a4 99be 50a9 24be 404d 213d c031 673e
00000390: 25c7 8c3d 9b6b 633e 8510 ca3e 78d4 a43c
000003a0: f643 1e3e e2b8 9c3e e827 ca3d e261 b8bc
000003b0: f4f5 d6bb 2cee 0c3e addc 22bd fc9a e5bd
000003c0: 894c 963d f4ec 7ebd 34b2 2dbe 83d2 78bb
000003d0: 0841 38bb 0ff8 f3ba bd3d 9bbb a5bc 83bb
000003e0: 56d7 41bb 296a c1bb 8051 adbb 45f2 88bb
000003f0: 737d 4e3d 3fe5 14bd ac86 82bd fdb4 8d3c

down_path.1.block.2.bias f4 [16]
0.18709438 0.03361946 0.13524887 0.23175247 0.17097932 0.092491046 -2.3883494e-20 -0.03820751
0.08749891 0.29108655 -0.0323993 0.11024558 0.10195408 -0.025149759 -0.0070964345 0.16953175
00000000: ab95 3f3e 8fb4 093d ae7e 0a3e 8550 6d3e
00000010: 3415 2f3e f26b bd3d bf92 e19e 7a7f 1cbd
00000020: a132 b33d 4c09 953e 21b5 04bd 6fc8 e13d
00000030: 4dcd d03d de06 cebc 3589 e8bb bb99 2d3e

down_path.2.block.0.weight f4 [32, 16, 3, 3]
-4.37527e-40 9.7808e-41 -2.87783e-40 9.709e-41 -4.81422e-40 -1.78293e-40 -2.23294e-40 3.09732e-40
2.14658e-40 4.94527e-40 3.50376e-40 2.34129e-40 -4.50833e-40 -4.13415e-40 -2.15438e-40 -3.7736e-40
-5.34963e-40 7.9393e-41 -1.44671e-40 -4.9258e-41 -4.09221e-40 2.59575e-40 1.51199e-40 4.9601e-40
-5.82e-43 -3.419e-42 -3.5354e-40 -2.7324e-40 7.078e-42 3.12282e-40 1.7955e-40 5.78533e-40
1.184e-41 3.64654e-40 1.51123e-40 -1.97863e-40 -6.379e-42 -1.98186e-40 -2.51125e-40 -2.61758e-40
3.52448e-40 2.67191e-40 2.49208e-40 1.3132e-40 5.7763e-41 -2.84237e-40 2.33927e-40 2.27932e-40
-9.895e-42 -1.57533e-40 3.69835e-40 -5.57386e-40 1.4355e-41 -2.9087e-40 2.1141e-41 -2.0141e-40
2.46645e-40 3.84036e-40 -2.54013e-40 2.59138e-40 4.74012e-40 -4.2922e-41 -1.28534e-40 1.20464e-40
1.79454e-40 2.99417e-40 9.2616e-41 -3.19525e-40 -1.22544e-40 3.18019e-40 -2.35319e-40 -2.16628e-40
-5.8721e-41 -3.43401e-40 -1.54112e-40 -1.00605e-40 3.42874e-40 1.90393e-40 -2.0378e-41 -1.062e-41
1.497e-40 -1.70084e-40 1.2357e-40 4.21648e-40 2.457e-41 -3.79776e-40 1.3663e-41 -1.67835e-40
2.3374e-40 -1.48053e-40 -4.23776e-40 2.16325e-40 2.74028e-40 -2.0197e-40 -6.1926e-41 -2.96896e-40
1.72782e-40 3.19844e-40 2.45419e-40 3.20345e-40 1.20098e-40 2.0994e-41 1.99075e-40 -1.65845e-40
1.6334e-41 -2.31699e-40 -5.6988e-41 -4.11923e-40 -2.49103e-40 -4.80898e-40 4.84245e-40 6.8247e-41
-2.84035e-40 1.7078e-41 3.71648e-40 -2.66762e-40 -1.72271e-40 2.37985e-40 4.0788e-40 -3.552e-41
-4.86738e-40 2.11135e-40 -2.87794e-40 -1.6374e-41 3.96696e-40 -4.15027e-40 2.42506e-40 3.95627e-40
-3.71382e-40 2.13481e-40 -4.7589e-40 -4.53537e-40 2.43598e-40 1.84648e-40 -1.83912e-40 8.626e-41
1.20094e-40 1.6283e-40 1.99754e-40 -2.54828e-40 2.78281e-40 2.14002e-40 -1.4222e-40 3.01899e-40
-2.627e-42 -3.0915e-41 -3.09035e-40 -3.0876e-41 -2.04574e-40 -1.7871e-40 -3.5908e-41 1.66676e-40
-1.27193e-40 -2.60434e-40 2.61007e-40 -4.06332e-40 2.60908e-40 -7.4138e-41 4.20429e-40 1.93005e-40
-2.9853e-40 -4.22245e-40 1.29095e-40 -1.56452e-40 -1.1885e-40 -6.674e-41 2.12888e-40 3.916e-41
1.54216e-40 1.51454e-40 -3.1584e-41 2.34722e-40 -1.95212e-40 -3.02692e-40 -4.2803e-41 -1.90662e-40
3.27017e-40 1.63945e-40 -1.28e-42 2.171e-40 1.4398e-41 -1.70258e-40 1.32182e-40 9.2274e-41
-3.4327e-40 1.26602e-40 9.5339e-41 1.18529e-40 -2.74625e-40 -2.01365e-40 -2.89e-43 -1.92726e-40
-3.224e-41 -1.13316e-40 3.10602e-40 -1.6169e-40 6.1392e-41 1.08515e-40 -5.04938e-40 4.70587e-40
3.5038e-40 -3.01771e-40 -2.43602e-40 1.50537e-40 2.55342e-40 -1.08822e-40 1.1308e-41 -4.07229e-40
-4.50613e-40 2.83689e-40 -3.72419e-40 3.00955e-40 2.64973e-40 1.40234e-40 2.3982e-41 3.3373e-40
4.1568e-41 -1.31652e-40 -1.5696e-40 4.3866e-41 1.96297e-40 1.23791e-40 1.56885e-40 -6.624e-42
-2.64051e-40 -1.33227e-40 -2.0535e-41 -6.6762e-41 -8.7475e-41 -1.96894e-40 -5.383e-41 1.5434e-40
2.66685e-40 -2.28357e-40 -2.28179e-40 1.74295e-40 -3.3426e-40 1.5385e-41 2.80255e-40 -2.69653e-40
-2.23042e-40 5.53778e-40 5.00463e-40 6.2128e-41 2.60967e-40 -3.1682e-41 -1.50546e-40 -2.80027e-40
-1.7157e-41 1.46877e-40 -2.72892e-40 3.34248e-40 1.20901e-40 -3.1046e-40 -2.53075e-40 1.9233e-40
00000000: a6c3 0480 a610 0100 3922 0380 a60e 0100
00000010: 023e 0580 02f1 0180 746e 0280 685f 0300
00000020: 6156 0200 8a62 0500 b5d0 0300 a88c 0200
00000030: bde8 0480 6f80 0480 8e58 0280 ed1b 0480
00000040: 42d3 0580 51dd 0000 4993 0180 5089 0080
00000050: be74 0480 97d3 0200 7ba5 0100 ad66 0500
00000060: 9f01 0080 8809 0080 87d9 0380 aff9 0280
00000070: bb13 0000 8466 0300 83f4 0100 b74c 0600
00000080: 0121 0000 82f8 0300 45a5 0100 9027 0280
00000090: c811 0080 7628 0280 09bc 0280 add9 0280
000000a0: 7bd6 0300 d2e8 0200 b1b6 0200 116e 0100
000000b0: 05a1 0000 5618 0380 188c 0200 627b 0200
000000c0: 951b 0080 23b7 0180 f306 0400 c411 0680
000000d0: 0428 0000 d42a 0380 ef3a 0000 7331 0280
000000e0: 8caf 0200 892e 0400 16c4 0280 5fd2 0200
000000f0: 5a29 0500 a677 0080 4d66 0180 ce4f 0100
00000100: 3ff4 0100 a742 0300 2d02 0100 b57a 0380
00000110: 9a55 0180 8276 0300 f98f 0280 df5b 0280
00000120: b1a3 0080 43bd 0380 9aad 0180 7218 0180
00000130: cbbb 0300 bd12 0200 ce38 0080 9b1d 0080
00000140: 4da1 0100 20da 0180 7658 0100 6297 0400
00000150: 7e44 0000 a922 0480 1626 0000 dbd3 0180
00000160: 928b 0200 b69c 0180 519d 0480 075b 0200
00000170: e1fb 0200 0333 0280 a0ac 0080 a03b 0380
00000180: a5e1 0100 987b 0300 21ac 0200 fe7c 0300
00000190: c94e 0100 863a 0000 f12a 0200 4fce 0180
000001a0: 882d 0000 e285 0280 dc9e 0080 467c 0480
000001b0: 66b6 0280 8c3c 0580 e145 0500 3fbe 0000
000001c0: c617 0380 9b2f 0000 010c 0400 a0e7 0280
000001d0: 39e0 0180 6897 0200 0171 0400 0463 0080
000001e0: d44c 0580 8f4c 0200 4122 0380 a52d 0080
000001f0: d451 0400 ed84 0480 02a4 0200 d94e 0400
00000200: 430b 0480 1953 0200 962e 0580 47f0 0480
00000210: 0da7 0200 b902 0200 ac00 0280 75f0 0000
00000220: c64e 0100 e7c5 0100 d52c 0200 5bc6 0280
00000230: bc07 0300 8d54 0200 748c 0180 9249 0300
00000240: 5307 0080 2e56 0080 775d 0380 1256 0080
00000250: 453a 0280 2cf2 0180 1964 0080 a0d0 0100
00000260: 9062 0180 fcd5 0280 95d7 0200 b06c 0480
00000270: 4ed7 0200 abce 0080 fc93 0400 051a 0200
00000280: 2e40 0380 0c99 0480 dd67 0100 20b4 0180
00000290: 4e4b 0180 0bba 0080 7251 0200 2a6d 0000
000002a0: e4ad 0100 31a6 0100 0b58 0080 4f8e 0200
000002b0: 2c20 0280 c84b 0380 5177 0080 7d13 0280
000002c0: 978f 0300 03c9 0100 9103 0080 305d 0200
000002d0: 2328 0000 9cda 0180 7870 0100 3901 0100
000002e0: e6bc 0380 ea60 0100 c409 0100 694a 0100
000002f0: 8bfd 0280 5331 0280 ce00 0080 3e19 0280
00000300: df59 0080 e13b 0180 d561 0300 bac2 0180
00000310: 23ab 0000 7f2e 0100 907f 0580 ce1f 0500
00000320: b8d0 0300 3749 0380 10a7 0280 a3a3 0100
00000330: cac7 0200 5a2f 0180 861f 0000 306f 0480
00000340: 20e8 0480 cf16 0300 270e 0480 f146 0300
00000350: a3e2 0200 ea86 0100 da42 0000 4ea2 0300
00000360: e073 0000 fe6e 0180 8ab5 0180 487a 0000
00000370: 3223 0200 1459 0100 55b5 0100 7712 0080
00000380: 11e0 0280 6273 0180 3e39 0080 1bba 0080
00000390: d8f3 0080 dc24 0280 0e96 0080 3dae 0100
000003a0: 69e7 0200 917c 0280 127c 0280 dde5 0100
000003b0: c8a3 0380 e32a 0000 3d0d 0300 afef 0280
000003c0: c06d 0280 b507 0600 1673 0500 30ad 0000
000003d0: 78d7 0200 5158 0080 a9a3 0180 9a0c 0380
000003e0: d42f 0080 6f99 0100 b6f8 0280 bfa3 0300
000003f0: 0651 0100 7061 0380 78c1 0280 2318 0200

down_path.2.block.0.bias f4 [32]
-8.82349e-40 2.98582e-40 8.1851e-41 -7.25092e-40 2.854269e-37 -1.83408e-40 -7.4598e-41 1.8025e-41
1.16074e-40 -5.6123e-41 -2.5425e-41 2.78708e-40 1.27068e-40 1.4642e-41 0.3115358 -1.7535e-40
3.46e-41 -1.7459958e-28 -1.962968e-39 -2.464e-41 -1.02299e-40 -6.5244e-41 -1.08354e-40 -1.42237e-40
-6.1425e-41 1.44114e-40 -7.1529e-41 -5.5465e-41 -1.156e-40 -1.2547e-41 5.1667e-41 1.8308379e-37
00000000: a19b 0980 5340 0300 2be4 0000 43e5 0780
00000010: 6140 c202 44ff 0180 f3cf 0080 3f32 0000
00000020: 9143 0100 739c 0080 e046 0080 ed08 0300
00000030: 3762 0100 d128 0000 9f81 9f3e cee8 0180
00000040: 7360 0000 ce54 5d91 f55f 1580 b044 0080
00000050: 2b1d 0180 e0b5 0080 0c2e 0180 808c 0180
00000060: 3aab 0080 bb91 0100 65c7 0080 9d9a 0080
00000070: 3f42 0180 fa22 0080 0790 0000 6433 7902

down_path.2.block.2.weight f4 [32, 32, 3, 3]
-9.119e-41 -2.04234e-40 -5.70626e-40 1.93931e-40 1.98528e-40 1.32912e-40 1.0008e-40 -1.2345e-40
5.62348e-40 -1.62855e-40 -2.38055e-40 -5.36627e-40 4.53376e-40 4.75012e-40 4.38157e-40 2.52393e-40
-1.36719e-40 -2.24974e-40 -1.41741e-40 -1.28904e-40 -7.4822e-41 9.889e-41 -6.1226e-41 -4.9303e-41
-4.131e-42 -1.6142e-41 -1.6665e-40 4.12961e-40 5.15357e-40 4.8018e-41 -1.32266e-40 1.09013e-40
3.69081e-40 2.24439e-40 -1.34274e-40 1.75692e-40 -2.49706e-40 -5.74373e-40 3.18909e-40 1.2927e-41
-1.90372e-40 1.2668e-41 -1.25583e-40 -1.00627e-40 3.1766e-40 -1.46792e-40 -5.31754e-40 -2.82174e-40
-5.45946e-40 2.83948e-40 1.3307e-40 5.129e-41 5.9538e-40 3.34375e-40 -1.6905e-40 5.13322e-40
-4.2745e-41 5.02161e-40 -5.48793e-40 3.93165e-40 -2.88335e-40 3.3471e-41 -1.2262e-40 -2.07001e-40
-1.62838e-40 1.97924e-40 1.74691e-40 -2.145e-40 1.6557e-40 1.51598e-40 4.2342e-41 -2.92454e-40
1.0272e-40 -2.00262e-40 -1.5403e-41 6.0033e-41 -1.93105e-40 -2.82603e-40 8.8168e-41 -9.4247e-41
-1.30949e-40 8.003e-41 -3.29087e-40 -1.96716e-40 5.4233e-41 -2.2939e-40 2.77627e-40 1.66509e-40
-3.85186e-40 -2.53348e-40 1.0959e-40 1.39911e-40 1.84065e-40 6.1944e-41 -1.9059e-41 -1.82516e-40
-4.3765e-41 1.08802e-40 3.1456e-41 1.64753e-40 3.09424e-40 -5.62247e-40 4.53761e-40 1.70542e-40
-4.486e-42 -3.25417e-40 -2.46217e-40 4.72486e-40 2.47485e-40 -2.08875e-40 2.06211e-40 -2.1769e-40
-3.63203e-40 2.27285e-40 6.3033e-41 1.1086e-41 -1.43413e-40 1.83185e-40 -1.30733e-40 -7.6086e-41
-1.27682e-40 -1.16779e-40 -3.9182e-41 1.52003e-40 9.915e-41 -7.9389e-41 -1.4771452e-10 -1.004239e-09
-7.911977e-10 -7.7136425e-10 -4.929607e-09 -4.9876276e-09 -6.676501e-10 -4.295661e-09 -4.3647796e-09 3.02759e-40
1.7433e-40 3.77e-42 -1.35773e-40 8.0527e-41 2.70938e-40 8.7647e-41 -2.04947e-40 -2.46316e-40
-3.37343e-40 -2.68653e-40 4.14859e-40 4.20747e-40 5.48774e-40 5.07e-41 2.72223e-40 -3.005e-40
1.4118e-41 -2.96516e-40 3.53215e-40 -2.23461e-40 -2.75078e-40 -1.45596e-40 -1.74284e-40 9.55e-42
-1.70915e-40 -1.48861e-40 -3.04606e-40 -6.0191e-41 -2.23616e-40 -4.54382e-40 4.09413e-40 1.73167e-40
1.27503e-40 -5.50303e-40 2.31493e-40 -9.808e-41 1.60224e-40 1.80259e-40 3.3682e-41 -3.07865e-40
-3.28543e-40 1.82956e-40 -6.504e-41 1.96295e-40 7.6592e-41 1.7576e-41 -1.44077e-40 8.1027e-41
-4.8334e-41 -1.40044e-40 -1.07728e-40 -2.23929e-40 -3.1718e-41 2.59076e-40 2.25529e-40 -4.14699e-40
1.02089e-40 2.4642e-41 -2.82684e-40 -2.66838e-40 -1.05365e-40 7.0959e-41 -1.53815e-40 -2.12056e-40
1.37884e-40 -6.4904e-41 1.54434e-40 1.14052e-40 -1.36297e-40 -1.57881e-40 2.3674e-41 5.7162e-41
-4.82438e-40 -3.43022e-40 5.3796e-40 -2.06867e-40 6.4363e-41 -2.02199e-40 -2.55916e-40 2.41979e-40
-9.6474e-41 1.21352e-40 -2.40847e-40 -2.08313e-40 2.68305e-40 -1.95969e-40 7.3207e-41 -9.1732e-41
-1.56333e-40 5.573e-41 -3.41027e-40 -1.8693e-41 4.8573e-41 5.102e-41 2.1976e-40 -2.601e-41
1.7406e-41 -2.17194e-40 -2.01786e-40 5.4117e-41 -4.7158e-41 -3.77527e-40 1.63428e-40 -1.36529e-40
-5.78614e-40 -8.4902e-41 -1.2707e-40 -1.19213e-40 2.8109e-41 3.39473e-40 -1.11012e-40 -2.7373e-41
-2.49528e-40 2.47727e-40 -2.34862e-40 3.97753e-40 -9.785e-42 2.4262e-41 2.07713e-40 2.3196e-41
00000000: 33fe 0080 5239 0280 ac36 0680 9a1c 0200
00000010: 6a29 0200 8172 0100 fb16 0100 2158 0180
00000020: 991f 0600 f9c5 0180 9a97 0280 e6d7 0580
00000030: d4ef 0400 242c 0500 67c5 0400 92bf 0200
00000040: 1e7d 0180 2373 0280 1e8b 0180 5567 0180
00000050: 93d0 0080 aa13 0100 acaa 0080 7089 0080
00000060: 840b 0080 ff2c 0080 8dd0 0180 2b7f 0400
00000070: 9b9c 0500 db85 0000 b470 0180 e22f 0100
00000080: d904 0400 a571 0200 4d76 0180 c2e9 0100
00000090: 14b8 0280 1e41 0680 fd78 0300 0924 0000
000000a0: ae12 0280 5023 0000 135e 0180 8218 0180
000000b0: 8275 0300 3299 0180 50ca 0580 9612 0380
000000c0: e0f1 0580 8817 0300 f272 0100 fa8e 0000
000000d0: ad7b 0600 1aa4 0300 3ed7 0180 ef96 0500
000000e0: 2877 0080 d277 0500 d0f9 0580 fc47 0400
000000f0: c323 0380 4e5d 0000 d155 0180 0941 0280
00000100: edc5 0180 bb27 0200 f8e6 0100 f055 0280
00000110: 8bcd 0100 98a6 0100 0876 0000 3e2f 0380
00000120: 571e 0100 402e 0280 f02a 0080 59a7 0000
00000130: 4c1a 0280 c813 0380 c7f5 0000 b906 0180
00000140: 086d 0180 17df 0000 5c95 0380 5d24 0280
00000150: 2e97 0000 727f 0280 e905 0300 29d0 0100
00000160: be31 0480 3bc2 0280 7e31 0100 0486 0100
00000170: 1901 0200 adac 0000 2135 0080 c8fc 0180
00000180: 007a 0080 4c2f 0100 b057 0000 44cb 0100
00000190: 8c5e 0300 511f 0680 e7f0 0400 67db 0100
000001a0: 810c 0080 218b 0380 5aae 0280 1925 0500
000001b0: e3b1 0200 4246 0280 d53e 0200 d55e 0280
000001c0: 76f4 0380 9479 0200 b6af 0000 e71e 0000
000001d0: c78f 0180 a5fe 0100 6e6c 0180 19d4 0080
000001e0: ed63 0180 8845 0180 396d 0080 b9a7 0100
000001f0: 6414 0100 4edd 0080 f169 22af 8505 8ab0
00000200: 977b 59b0 ef07 54b0 4861 a9b1 a35f abb1
00000210: b385 37b0 0999 93b1 02f9 95b1 f84b 0300
00000220: f6e5 0100 820a 0000 7b7a 0180 7ae0 0000
00000230: 44f3 0200 53f4 0000 4f3b 0280 a1ae 0280
00000240: 60ac 0380 e5ec 0280 7584 0400 df94 0400
00000250: c2f9 0500 558d 0000 d9f6 0200 ac45 0380
00000260: 5b27 0000 913a 0380 9fd8 0300 eb6e 0280
00000270: cefe 0280 dd95 0180 d5e5 0180 9f1a 0000
00000280: 71dc 0180 f79e 0180 1e51 0380 caa7 0080
00000290: 5a6f 0280 a2f2 0480 4775 0400 b8e2 0100
000002a0: 6d63 0100 05fe 0580 4f85 0200 6811 0180
000002b0: a4be 0100 7df6 0100 e45d 0000 345a 0380
000002c0: d893 0380 02fe 0100 4eb5 0080 3123 0200
000002d0: 82d5 0000 ff30 0000 a191 0180 dfe1 0000
000002e0: bc86 0080 6386 0180 4d2c 0180 3970 0280
000002f0: 6b58 0080 33d2 0200 af74 0200 0384 0480
00000300: 951c 0100 b144 0000 0214 0380 d6e7 0280
00000310: b725 0180 cec5 0000 c6ac 0180 204f 0280
00000320: 5d80 0100 edb4 0080 80ae 0100 ee3d 0100
00000330: f17b 0180 1cb8 0180 fe41 0000 589f 0000
00000340: d740 0580 35bc 0380 9ddb 0500 a940 0280
00000350: 6bb3 0000 a633 0280 64c9 0280 8aa2 0200
00000360: ee0c 0180 4852 0100 629f 0280 b144 0280
00000370: edeb 0200 4822 0280 12cc 0000 b6ff 0080
00000380: cbb3 0180 5a9b 0000 a5b6 0380 1c34 0080
00000390: 6787 0000 398e 0000 9a64 0200 8148 0080
000003a0: 8530 0000 735d 0280 7f32 0280 db96 0000
000003b0: 7583 0080 641c 0480 92c7 0100 967c 0180
000003c0: f14c 0680 acec 0080 3862 0180 514c 0180
000003d0: 5b4e 0000 50b2 0300 7535 0180 4e4c 0080
000003e0: 95b7 0280 90b2 0200 b38e 0280 c654 0400
000003f0: 471b 0080 a243 0000 0543 0200 a940 0000

down_path.2.block.2.bias f4 [32]
-4.8052832e-05 -5.0016046e-13 -1.22293e-40 5.9517e-41 -1.10946e-40 1.645333e-39 3.13678e-40 -4.76046e-40
9.3283e-41 1.72371e-40 1.312075e-39 -6.3777e-41 -2.2834272e-31 3.04792e-40 -6.39815e-40 -1.3986652e-08
1.86894e-40 -1.08102e-40 2.124556e-39 -7.98614e-40 0.26807672 -7.474484e-19 3.5578e-41 -4.0218705e-19
-1.4276e-40 -4.837542e-26 -1.0164227e-12 0.30545664 2.2002e-40 -2.9251e-41 1.10145e-40 -8.646991e-13
00000000: 568c 49b8 5cc8 0cab e754 0180 e9a5 0000
00000010: 4635 0180 85ea 1100 686a 0300 062f 0580
00000020: 0904 0100 80e0 0100 8849 0e00 c9b1 0080
00000030: f133 948c a351 0300 8bf7 0680 f249 70b2
00000040: fc08 0200 582d 0180 6622 1700 36b2 0880
00000050: 5a41 893e 9b9b 5ca1 2d63 0000 ca68 eda0
00000060: f58d 0180 218b 6f95 7d0c 8fab d064 9c3e
00000070: 5465 0200 8a51 0080 0a33 0100 2364 73ab

down_path.3.block.0.weight f4 [64, 32, 3, 3]
-1.97198e-40 2.04154e-40 4.9193e-41 -2.89469e-40 4.7028e-40 -1.67029e-40 3.13427e-40 -1.06385e-40
1.97478e-40 -5.80373e-40 7.3e-42 -2.84598e-40 2.4912e-40 -1.72972e-40 -2.99484e-40 4.35538e-40
-4.08913e-40 1.32263e-40 3.1262e-40 2.45063e-40 2.55867e-40 9.5648e-41 -1.45215e-40 -3.5135e-40
1.47443e-40 -3.30279e-40 -5.3869e-40 4.71167e-40 -3.68271e-40 5.07578e-40 -3.71568e-40 2.22004e-40
5.60545e-40 -2.02454e-40 6.9915e-41 2.91532e-40 -1.06102e-40 -2.67162e-40 -1.81804e-40 3.83542e-40
3.12286e-40 4.7169e-41 -1.34099e-40 1.14224e-40 3.43489e-40 -3.85513e-40 3.7528e-40 1.45652e-40
-4.77854e-40 -1.92627e-40 -3.20212e-40 1.83087e-40 -7.1257e-41 -4.52987e-40 8.0314e-41 7.2799e-41
2.76255e-40 -3.82957e-40 5.17156e-40 5.123e-42 6.8714e-41 -9.7216e-41 -2.915e-40 -1.44667e-40
-1.63743e-40 3.0173e-41 1.87162e-40 4.6613e-41 5.05154e-40 4.67336e-40 -7.641e-42 4.8088e-41
2.29531e-40 5.84057e-40 3.26863e-40 1.69996e-40 -2.50799e-40 -1.115e-41 -2.67173e-40 -3.2105e-40
8.9648e-41 -1.99637e-40 -5.12868e-40 1.60224e-40 3.20185e-40 1.9114e-40 -3.8574e-41 1.08309e-40
1.49107e-40 2.89817e-40 -4.25476e-40 3.3673e-40 -2.69044e-40 -1.12423e-40 -1.2573e-40 -5.17668e-40
4.2732e-40 -1.16378e-40 4.5457e-41 8.8868e-41 1.75082e-40 2.42332e-40 1.42634e-40 -3.77204e-40
-4.53825e-40 1.26937e-40 -3.69166e-40 3.00611e-40 1.04558e-40 1.9678e-40 3.72963e-40 -1.0968e-40
4.3885e-40 -1.62349e-40 -2.15352e-40 -4.4635e-40 4.4695e-40 -2.22528e-40 -3.10023e-40 1.32419e-40
-5.78577e-40 2.3628e-40 4.17565e-40 5.08081e-40 3.0232e-40 3.37807e-40 2.29554e-40 3.7619e-40
1.13697e-40 5.46512e-40 5.7551e-40 -5.83237e-40 6.9673e-41 -9.9296e-41 -5.57903e-40 -5.53944e-40
-3.90767e-40 2.3156e-41 3.94437e-40 5.51726e-40 5.30583e-40 5.00633e-40 -4.26012e-40 1.51644e-40
6.1392e-41 1.1465e-41 2.98331e-40 2.70355e-40 4.05599e-40 1.76622e-40 -4.4234e-40 1.80444e-40
-2.91034e-40 2.52375e-40 -3.27252e-40 5.35297e-40 2.17786e-40 9.8342e-41 2.2748e-40 5.57512e-40
3.43699e-40 -1.14664e-40 -9.2511e-41 4.71304e-40 2.457e-40 1.33391e-40 5.56622e-40 -2.95852e-40
-5.3003e-41 2.12789e-40 2.85569e-40 -3.43932e-40 -1.99286e-40 -5.91446e-40 1.57272e-40 -1.11536e-40
4.82205e-40 7.5851e-41 5.1016e-41 -4.62115e-40 -2.86263e-40 2.82007e-40 2.76501e-40 1.62172e-40
-5.31843e-40 -4.72455e-40 3.74725e-40 -6.2209e-41 2.5385e-40 -1.79047e-40 -2.19006e-40 -4.78099e-40
1.85696e-40 -3.75457e-40 5.42021e-40 -4.5098e-40 -1.64054e-40 1.01052e-40 5.462e-42 5.41317e-40
-1.96878e-40 5.32817e-40 -1.2024e-40 4.27116e-40 -2.3933e-40 2.91225e-40 -4.4341e-41 -1.05458e-40
5.42353e-40 -3.9992e-40 -1.8952e-40 2.6756e-40 -1.23775e-40 1.96732e-40 2.57944e-40 -3.43031e-40
5.24774e-40 2.45907e-40 -3.8147e-40 5.11384e-40 2.44517e-40 1.7608e-40 -5.35342e-40 3.53178e-40
2.38602e-40 9.387e-41 -2.03467e-40 4.0198e-41 -3.1929e-41 1.88891e-40 9.6404e-41 4.51934e-40
-2.67659e-40 -7.6697e-41 1.87931e-40 -5.63856e-40 -1.41751e-40 3.79163e-40 3.95371e-40 -1.27768e-40
3.2245e-41 -1.8623e-41 5.57781e-40 -3.301e-40 3.06669e-40 3.102e-40 -2.3155e-41 -3.83733e-40
5.68849e-40 -4.40259e-40 -1.4167e-41 -1.49666e-40 3.41562e-40 4.07956e-40 5.12208e-40 -2.0233e-40
00000000: b525 0280 1939 0200 2189 0000 ec26 0380
00000010: f31e 0500 9cd1 0180 b569 0300 8f28 0180
00000020: 7d26 0200 d851 0680 5914 0000 5819 0380
00000030: 72b6 0200 2de2 0180 d742 0380 1abe 0400
00000040: e273 0480 b270 0100 7567 0300 23ab 0200
00000050: 41c9 0200 a10a 0100 cd94 0180 6cd3 0380
00000060: 039b 0100 af98 0380 a6dd 0580 6c21 0500
00000070: 9702 0480 ec86 0500 c80b 0480 db6a 0200
00000080: 921a 0600 5c34 0280 e5c2 0000 ac2c 0300
00000090: c527 0180 bde8 0280 ccfa 0180 292d 0400
000000a0: 8766 0300 7d83 0000 d075 0180 693e 0100
000000b0: 82bd 0300 a732 0480 2116 0400 0596 0100
000000c0: 1034 0580 f718 0280 9f7c 0380 5ffe 0100
000000d0: a3c6 0080 beee 0480 e2df 0000 efca 0000
000000e0: 1602 0300 872b 0480 9fa1 0500 480e 0000
000000f0: 8cbf 0000 000f 0180 952c 0380 4693 0180
00000100: 73c8 0180 1c54 0000 bb09 0200 f081 0000
00000110: 2a80 0500 be16 0500 4d15 0080 0d86 0000
00000120: d77f 0200 1d5c 0600 298f 0300 e1d9 0100
00000130: 20bb 0280 151f 0080 c5e8 0280 f57e 0380
00000140: e7f9 0000 822c 0280 ab95 0580 a4be 0100
00000150: 8c7c 0300 d214 0200 876b 0080 ec2d 0100
00000160: a69f 0100 e427 0300 0ea2 0480 abaa 0300
00000170: fced 0280 6439 0180 7c5e 0180 0ca3 0580
00000180: 32a7 0400 6a44 0180 b77e 0000 baf7 0000
00000190: 0fe8 0100 86a3 0200 9b8d 0100 7e1b 0480
000001a0: 14f1 0480 d961 0100 1605 0480 fb45 0300
000001b0: 7723 0100 8b24 0200 ab0f 0400 be31 0180
000001c0: 56c7 0400 90c4 0180 5058 0280 3edc 0480
000001d0: eadd 0400 516c 0280 3860 0380 2171 0100
000001e0: d64c 0680 a792 0200 008c 0400 5388 0500
000001f0: bf4a 0300 abad 0300 e77f 0200 aa18 0400
00000200: f13c 0100 74f3 0500 4a44 0600 d459 0680
00000210: 38c2 0000 cc14 0180 3513 0680 2c08 0680
00000220: 4d41 0480 8d40 0000 884b 0400 fd01 0600
00000230: 0dc7 0500 9073 0500 8ca3 0480 b9a6 0100
00000240: 23ab 0000 f61f 0000 a03f 0300 a4f1 0200
00000250: a56a 0400 5aec 0100 10d1 0480 01f7 0100
00000260: 492b 0380 85bf 0200 3f90 0380 31d4 0500
00000270: 195f 0200 2312 0100 1f7a 0200 1e12 0600
00000280: 18be 0300 a33f 0180 e201 0180 ce21 0500
00000290: e9ac 0200 d773 0100 a30f 0600 b738 0380
000002a0: c093 0080 2b51 0200 0d1c 0300 bebe 0380
000002b0: 872b 0280 b670 0680 69b6 0100 eb36 0180
000002c0: 3140 0500 71d3 0000 368e 0000 3008 0580
000002d0: fc1d 0380 1f12 0300 c602 0300 12c4 0100
000002e0: 90ca 0580 0325 0580 9514 0400 6aad 0080
000002f0: a1c3 0200 1cf3 0180 8062 0280 bf34 0580
00000300: a505 0200 9f16 0480 efe6 0500 26e9 0480
00000310: 51c9 0180 b119 0100 3a0f 0000 f9e4 0500
00000320: d124 0280 47cd 0500 2e4f 0180 a0a6 0400
00000330: 289b 0280 d12b 0300 9b7b 0080 f925 0180
00000340: dce7 0500 d05a 0480 4e10 0280 d9e9 0200
00000350: 0959 0180 6924 0200 0bcf 0200 3bbc 0380
00000360: dbb6 0500 7dad 0200 6227 0480 8891 0500
00000370: 9da9 0200 d7ea 0100 51d4 0580 84d8 0300
00000380: 2099 0200 ac05 0100 2f37 0280 0e70 0000
00000390: 0159 0080 8d0e 0200 bc0c 0100 cfeb 0400
000003a0: 20ea 0280 cdd5 0080 e00b 0200 cd23 0680
000003b0: 258b 0180 f420 0400 224e 0400 2a64 0180
000003c0: e359 0000 ea33 0080 de12 0600 2f98 0380
000003d0: de56 0300 b660 0300 8c40 0080 b12d 0480
000003e0: b831 0600 43cb 0480 7e27 0080 35a1 0180
000003f0: 23b8 0300 3771 0400 d493 0500 0434 0280

down_path.3.block.0.bias f4 [64]
3.6329e-41 9.5463e-41 1.59109e-40 3.0302e-40 -3.69203e-40 4.0069e-41 1.3395e-41 -1.42851e-40
3.2681e-41 -9.1611e-41 -1.6973e-41 1.02956e-40 5.678e-41 -2.83495e-40 2.90182e-40 -1.49317e-40
-1.31204e-40 7.494e-41 -1.59479e-40 -9.13e-42 -4.6328e-40 1.18983e-40 -1.06888e-40 -1.11672e-40
-3.86952e-40 1.56054e-40 5.2935e-41 -4.23251e-40 -7.1259e-41 1.32954e-40 -2.325e-41 -1.18592e-40
-3.20083e-40 1.998e-40 7.4063e-41 3.31214e-40 -2.2747e-40 1.23976e-40 3.06255e-40 4.09462e-40
1.4718e-40 3.36773e-40 7.1085e-41 9.82e-43 3.3672e-41 -3.597e-42 1.87984e-40 -1.06324e-40
6.7928e-41 1.97985e-40 2.55761e-40 -1.41956e-40 -3.07169e-40 -6.954e-41 3.07125e-40 3.5903e-40
3.62886e-40 2.49895e-40 -9.945e-41 -3.7225e-41 -1.73642e-40 2.17606e-40 1.2921e-41 -2.77395e-40
00000000: 4565 0000 1d0a 0100 88bb 0100 b24c 0300
00000010: 3005 0480 b26f 0000 5725 0000 368e 0180
00000020: 1a5b 0000 60ff 0080 502f 0080 001f 0100
00000030: 489e 0000 4516 0380 e928 0300 3ca0 0180
00000040: be6d 0180 e7d0 0000 90bc 0180 7319 0080
00000050: 700b 0580 ad4b 0100 f629 0180 4c37 0180
00000060: aa36 0480 04b3 0100 9093 0000 da9b 0480
00000070: a4c6 0080 9f72 0100 d040 0080 964a 0180
00000080: 437c 0380 f62c 0200 75ce 0000 4a9b 0300
00000090: 187a 0280 9859 0100 b755 0300 6a75 0400
000000a0: 479a 0100 c9aa 0300 28c6 0000 bd02 0000
000000b0: dd5d 0000 070a 0080 060c 0200 6328 0180
000000c0: 5bbd 0000 e727 0200 f5c8 0200 b78b 0180
000000d0: 4358 0380 d9c1 0080 2458 0300 d4e8 0300
000000e0: 94f3 0300 9bb8 0200 3a15 0180 c567 0080
000000f0: 0be4 0180 995e 0200 0524 0000 4405 0380
