weights/old/unet-test14-2epochs-weighted.pt (torch_old, 478380 bytes, 92 tensors)

down_path.0.block.0.weight f4 [8, 3, 3, 3]
-0.24004295 -0.16351697 0.005413425 -0.39521572 -0.3052743 0.099099 0.00821842 -0.1791227
0.14794134 -0.04067029 -0.20548077 0.2259173 -0.029152669 -0.0064389273 0.058958024 -0.14798862
0.20183139 0.009812021 0.012816072 0.0923762 -0.10858949 -0.106760144 0.05665975 -0.13925222
-0.23782293 -0.027285567 -0.044181153 0.10288845 0.07432516 0.18962029 0.43697718 0.18131241
0.011193829 0.26918906 0.34551346 -0.0011753308 0.04782226 -0.21946236 -0.2804651 -0.07139897
-0.3024289 -0.3679384 -0.20994213 -0.073967665 -0.11731298 0.098965056 -0.039056707 0.0024024346
0.22776538 -0.07533034 -0.30516016 0.30535102 0.13810317 0.085159115 9.5908766e-36 2.0866714e-35
1.2682504e-27 2.2553052e-35 8.357065e-35 2.9062e-29 1.5419379e-35 -1.6997978e-37 -1.0217283e-32 7.9586954e-35
5.280309e-28 1.0652286e-23 -3.0798954e-35 -1.2467396e-27 -1.098681e-24 -7.555649e-36 6.711611e-30 4.124573e-26
3.569356e-36 2.9654403e-36 1.25689e-35 -1.9189112e-35 2.7385854e-36 -3.2010602e-35 4.283743e-36 2.823803e-35
2.822437e-35 -0.036931403 -0.018661018 -0.25051916 -0.19390316 -0.05347587 -0.2751401 0.0021679567
0.16017708 -0.33339962 0.36363378 0.31339994 -0.09893012 0.17153294 0.21555188 0.21687499
0.09458368 0.42078367 0.07738646 -0.27229255 0.27959535 -0.24734849 -0.04480566 -0.112663075
-0.3233675 -0.1256231 -0.18782291 -0.42052916 -0.046157792 0.054063626 -0.11351316 0.004532363
-0.01923354 0.0067208963 0.17559643 -0.03805124 0.048240233 0.23458295 0.4559308 0.49742547
-0.0476444 0.41154936 0.17640288 -0.038613096 0.20738766 0.5145221 -0.24816932 -0.15441136
-0.1287863 -0.23655406 0.15813042 0.10673291 0.019748935 -0.12172878 -0.032475024 -0.1508608
-0.47910148 -0.27978876 -0.19129519 -0.18878824 0.0349605 -0.092400715 -0.27866024 -0.20235747
-0.0941342 -0.08163842 -0.19661501 0.010321463 -0.3036108 -0.40500268 -0.046012994 -0.12442484
-0.5947342 0.09466519 -0.021701926 0.08085599 0.15763265 -0.16395122 -0.16563207 -0.0964053
0.16638623 -0.29589057 0.013713715 -0.2489441 -0.16540544 -0.18935315 -0.5407315 -0.25133255
-0.15533312 0.048401996 -0.24251448 0.059811257 -0.0041908906 0.01244479 -0.03683633 -0.052253477
-0.5102459 0.27158812 -0.21271905 -0.124346316 0.43282193 0.29046783 0.6362051 0.4695802
0.43280342 0.46842742 0.4451279 0.45240784 0.09740573 -0.23884428 -0.3146049 -0.0026917928
-0.2459182 0.19712858 -0.17901067 0.039616328 -0.06480895 -0.036863167 -0.52925533 -0.2151633
-0.35930735 -0.1679173 0.072241634 0.24852788 -0.07470789 0.28889954 -0.09605836 -0.22800119
-0.045040067 0.03550304 -0.31681117 0.28664768 0.49320143 -0.27566063 -0.06357024 0.11218722
00000000: d2cd 75be fe70 27be 1a63 b13b b759 cabe
00000010: ea4c 9cbe 6bf4 ca3d 8da6 063c f16b 37be
00000020: ef7d 173e e495 26bd 8d69 52be dd56 673e
00000030: 94d1 eebc a3fd d2bb f87d 713d 548a 17be
00000040: e3ac 4e3e 99c2 203c 81fa 513c bc2f bd3d
00000050: 2b64 debd 10a5 dabd 0e14 683d 2298 0ebe
00000060: db87 73be fb85 dfbc 4cf7 34bd 2eb7 d23d
00000070: ca37 983d d22b 423e 79bb df3e f6a9 393e
00000080: 5266 373c 26d3 893e 24e7 b03e 8f0d 9aba
00000090: 46e1 433d beba 60be 1f99 8fbe a039 92bd
000000a0: f6d7 9abe 6c62 bcbe 12fb 56be 5c7c 97bd
000000b0: ca41 f0bd 31ae ca3d edf9 1fbd 2a72 1d3b
000000c0: 543b 693e cb46 9abd f43d 9cbe f856 9c3e
000000d0: eb6a 0d3e e767 ae3d b3f9 4b05 99e4 dd05
000000e0: 59f6 c812 3fd3 ef05 3d2b de06 a25c 1310
000000f0: 8bf7 a305 4f5d 6782 6534 548a 1394 d306
00000100: f556 2712 910b 4e19 5dc1 2386 c48d c592
00000110: 3d03 aa97 deb0 2085 ad20 080f 2d3d 4c15
00000120: d8d2 9704 9245 7c04 cda7 8505 bb0d cc85
00000130: 1cf9 6804 9332 2a86 d535 b604 9d23 1606
00000140: 0611 1606 6245 17bd fede 98bc 0c44 80be
00000150: 8d8e 46be 8409 5bbd 2adf 8cbe 4714 0e3b
00000160: 7605 243e 5bb3 aabe 352e ba3e f575 a03e
00000170: e09b cabd 55a6 2f3e a2b9 5c3e 7a14 5e3e
00000180: 17b5 c13d f570 d73e cb7c 9e3d ee69 8bbe
00000190: 1f27 8f3e ec48 7dbe 2486 37bd e6bb e6bd
000001a0: 6d90 a5be 58a3 00be a654 40be 994f d7be
000001b0: f40f 3dbd d271 5d3d 9679 e8bd 3784 943b
000001c0: a88f 9dbc f73a dc3b 8dcf 333e 9edb 1bbd
000001d0: 8d97 453d 8336 703e c36f e93e 8dae fe3e
000001e0: c626 43bd 99b6 d23e f5a2 343e c428 1ebd
000001f0: 6e5d 543e b8b7 033f 1920 7ebe 031e 1ebe
00000200: 8ee0 03be 3a3b 72be f1ec 213e c996 da3d
00000210: 85c8 a13c f04c f9bd 8804 05bd 417b 1abe
00000220: ca4c f5be 7940 8fbe e3e2 43be b451 41be
00000230: be32 0f3d 963c bdbd 8eac 8ebe cc36 4fbe
00000240: 6ec9 c0bd 0b32 a7bd 7255 49be 5b1b 293c
00000250: e072 9bbe 835c cfbe 1f78 3cbd 73d2 febd
00000260: 8040 18bf d3df c13d 3dc8 b1bc d397 a53d
00000270: 746a 213e d4e2 27be 749b 29be 2470 c5bd
00000280: 2761 2a3e f87e 97be 7daf 603c 34eb 7ebe
00000290: 0b60 29be cbe5 41be 616d 0abf a9ae 80be
000002a0: a50f 1fbe 2c41 463d b755 78be a6fc 743d
000002b0: bd53 89bb 3ce5 4b3c b1e1 16bd be07 56bd
000002c0: 7a9f 02bf 990d 8b3e 06d3 59be 48a9 febd
000002d0: d69a dd3e 33b8 943e 56de 223f d16c f03e
000002e0: 6998 dd3e b8d5 ef3e cee7 e33e 00a2 e73e
000002f0: a87c c73d 9893 74be e513 a1be ca68 30bb
00000300: fbd1 7bbe 13dc 493e 934e 37be bb44 223d
00000310: 8eba 84bd d5fd 16bd 477d 07bf c553 5cbe
00000320: 22f7 b7be 83f2 2bbe 6cf3 933d 187e 7e3e
00000330: 7300 99bd a4ea 933e 3fba c4bd 2579 69be
00000340: ef7b 38bd a36b 113d 1335 a2be 7cc3 923e
00000350: e684 fc3e 6423 8dbe 1d31 82bd 6ac2 e53d

down_path.0.block.0.bias f4 [8]
-0.22742908 0.113518775 -3.307004e-12 0.34563905 0.025262816 -0.1013621 0.06892975 0.04895423
00000000: 2be3 68be 887c e83d b0b5 68ac 9af7 b03e
00000010: f7f3 ce3c ef96 cfbd 0a2b 8d3d 3b84 483d

down_path.0.block.2.weight f4 [8]
0.74681014 1.0134755 2.4081167e-17 0.82501435 1.0402999 0.8836895 1.1390697 0.77770334
00000000: f32e 3f3f 91b9 813f 0c1c de23 2434 533f
00000010: 8c28 853f 7a39 623f 09cd 913f 9117 473f

down_path.0.block.2.bias f4 [8]
-0.078311175 -0.059708875 -0.11394746 -0.28407398 -0.0767045 0.12551676 0.24073945 -0.13892227
00000000: 9c61 a0bd 4b91 74bd 495d e9bd 2572 91be
00000010: 4017 9dbd 7787 003e 6784 763e a441 0ebe

down_path.0.block.2.running_mean f4 [8]
7.9514794e-16 0.1851413 6e-45 0.23776075 0.68131953 1.777876e-21 0.44513327 0.00023675675
00000000: 902f 6526 ae95 3d3e 0400 0000 8e77 733e
00000010: f56a 2e3f 2055 061d 82e8 e33e e841 7839

down_path.0.block.2.running_var f4 [8]
5.249871e-17 0.010994548 6e-45 0.009556411 0.15512045 8.864599e-24 0.083778925 4.7642923e-05
00000000: 8a1b 7224 7a22 343c 0400 0000 7e92 1c3c
00000010: e5d7 1e3e 5e77 2b19 4994 ab3d 33d4 4738

down_path.0.block.3.weight f4 [8, 8, 3, 3]
0.028545693 -0.078825004 -0.012719444 -0.33781585 -0.0379454 -0.05658536 -0.06452826 0.011499005
-0.03403482 0.22726905 0.24131145 0.014211763 0.3609699 0.014075624 0.19048777 0.37938148
0.26383418 0.018922608 0.018580135 0.0061542084 -0.0072170934 -0.015194171 -0.02082269 -0.018768292
-0.028639438 -0.024385286 -0.026602432 0.19076042 0.026486855 -0.1395908 -0.07882839 -0.30403492
-0.21384695 0.20300244 -0.008739753 -0.14806047 -0.030322988 -0.09910544 0.16066384 -0.02384427
-0.01089234 0.11609731 -0.111530036 -0.1790188 0.02439784 -0.036183596 -0.063876286 0.009746844
0.07095377 0.006617265 -0.03627585 0.02301777 -0.0011827833 -0.016888728 -0.34684798 -0.3609793
-0.41427374 -0.36704972 -0.55623335 -0.63746667 -0.36552474 -0.45198643 -0.4738342 0.02370581
-0.040847853 -0.1553352 0.2829634 0.3129736 0.29451823 -0.19763505 -0.10846354 -0.014047457
-0.30661392 -0.036177915 0.057625413 0.03368722 -0.25774875 -0.039128944 -0.22160146 -0.062134713
-0.031399447 0.20096678 0.098118074 0.05751816 0.058411963 0.2324164 -0.108680375 0.30735362
-0.10638766 0.13064402 -0.1371491 -0.120919496 -0.084810674 -0.15653612 -0.10969019 -0.096573256
-0.08751569 -0.14175318 -0.07371104 -0.021487618 1.10352075e-05 -0.33280072 0.07739438 -0.1861695
-0.3431938 -0.20851083 -0.06203822 -0.29363444 -0.2983182 -0.42255205 -0.5321144 -0.05702928
-0.32641828 -0.33691362 -0.42585024 -0.5257355 -0.07276458 0.36961603 -0.07556804 -0.11953486
0.36543897 0.22828698 0.22396812 -0.004476048 0.058966782 -0.031573236 0.027083611 -0.1176473
-0.002277773 0.2146877 0.33882728 0.009238808 0.28189772 0.24593446 -0.10708276 -0.23554389
-0.19763564 0.021879707 0.14836027 -0.14375003 -0.012348433 0.15731098 -0.06434374 0.28650895
0.08443598 0.012733958 0.14868343 0.18451239 -0.1825601 -0.017019073 0.16682729 0.16240367
-0.10322013 -0.08605127 -0.15875606 -0.025142323 -0.21021767 0.10714984 -0.29603398 -0.20123248
-0.3022931 -0.2677361 0.04733656 0.06037121 0.041491088 0.057961673 0.056434542 0.052073095
0.05215802 0.050284214 0.055999555 0.060363643 0.15152152 0.09255238 0.11313329 0.18878414
0.046974257 0.017418444 -0.17113124 -0.008481498 -0.0027600678 0.12259322 -0.1794447 -0.08153179
-0.036294963 -0.22346424 -0.2712363 -0.032996397 -0.07925827 0.007483621 0.044002656 0.15131901
0.09622065 0.05662788 0.05313898 0.040321127 0.027847879 0.013925095 0.5130739 0.4976282
0.6101534 0.4279612 0.1848049 0.5146524 0.3644644 0.4009957 0.5634874 0.011948951
-0.033719815 -0.007438447 -0.050023478 0.13808046 -0.014238921 0.061522763 -0.011079091 -0.0075053195
0.063756876 0.030422164 0.09684979 0.06401632 0.23329508 0.26437038 0.09057927 0.048165128
0.095195375 0.06243794 0.22749206 0.25752333 0.13503769 -0.0015205654 0.024445374 0.12565057
0.095272794 0.13109505 -0.00927521 -0.009667076 -0.00885933 -0.006762665 -0.008464417 -0.00820078
-0.008594942 -0.00894584 -0.008091538 0.19662963 -0.10185865 -0.118219875 -0.15504786 -0.078509174
-0.07984993 -0.062475804 -0.06390444 -0.11186032 0.19861895 -0.09142975 0.026373638 -0.01895329
00000000: a8d8 e93c 016f a1bd 3765 50bc 33f6 acbe
00000010: a36c 1bbd 0dc6 67bd 6427 84bd 5366 3c3c
00000020: 1868 0bbd 38b9 683e 591a 773e 74d8 683c
00000030: 0cd1 b83e 729d 663c 3a0f 433e 4a3e c23e
00000040: 4615 873e 9603 9b3c 5e35 983c 3ea9 c93b
00000050: 5e7d ecbb f9f0 78bc 5994 aabc f6bf 99bc
00000060: 419d eabc a7c3 c7bc 58ed d9bc b356 433e
00000070: f6fa d83c e4f0 0ebe c770 a1bd 77aa 9bbe
00000080: b2fa 5abe dfdf 4f3e 2e31 0fbc 2a9d 17be
00000090: ea67 f8bc cbf7 cabd 1085 243e 0f55 c3bc
000000a0: c975 32bc 6dc4 ed3d dc69 e4bd b450 37be
000000b0: fbdd c73c 4035 14bd 92d1 82bd 3ab1 1f3c
000000c0: 3650 913d a4d5 d83b fc95 14bd c38f bc3c
000000d0: 9f07 9bba 3b5a 8abc 0f96 b1be 47d2 b8be
000000e0: b01b d4be f1ed bbbe 4f65 0ebf 0431 23bf
000000f0: 0f26 bbbe c46a e7be 659a f2be b032 c23c
00000100: 1450 27bd 3110 1fbe 94e0 903e 133e a03e
00000110: 18cb 963e d860 4abe 2222 debd 4e27 66bc
00000120: 80fc 9cbe 4b2f 14bd a008 6c3d 9cfb 093d
00000130: a5f7 83be ac45 20bd 7eeb 62be f880 7ebd
00000140: b59c 00bd 3cca 4d3e 21f2 c83d 2a98 6b3d
00000150: 6241 6f3d 91fe 6d3e d193 debd 745d 9d3e
00000160: c6e1 d9bd 8cc7 053e d070 0cbe a4a4 f7bd
00000170: 38b1 adbd 014b 20be 40a5 e0bd 33c8 c5bd
00000180: 6d3b b3bd bf27 11be d0f5 96bd cd06 b0bc
00000190: db23 3937 db64 aabe f280 9e3d 38a3 3ebe
000001a0: 19b7 afbe dd83 55be ca1b 7ebd 4157 96be
000001b0: 2abd 98be be58 d8be a638 08bf 8997 69bd
000001c0: 4c20 a7be f17f acbe 0b09 dabe 9a96 06bf
000001d0: 9905 95bd 503e bd3e 6bc3 9abd b1ce f4bd
000001e0: d11a bb3e 10c4 693e e657 653e d0ab 92bb
000001f0: 2787 713d f052 01bd 73de dd3c 11f1 f0bd
00000200: b146 15bb 18d7 5b3e c57a ad3e 5f5e 173c
00000210: e654 903e 3ed6 7b3e 354e dbbd 6b32 71be
00000220: ff60 4abe 123d b33c c1eb 173e 3533 13be
00000230: 1551 4abc 2116 213e a7c6 83bd 4db1 923e
00000240: c5ec ac3d 17a2 503c 7840 183e d1f0 3c3e
00000250: 09f1 3abe 956b 8bbc c6d4 2a3e 264d 263e
00000260: 1365 d3bd a63b b0bd f390 22be 46f7 cdbc
00000270: 4d43 57be 6071 db3d c491 97be e30f 4ebe
00000280: 29c6 9abe b514 89be fbe3 413d cd47 773d
00000290: 8ff2 293d 3869 6d3d e827 673d 994a 553d
000002a0: a6a3 553d d2f6 4d3d ca5f 653d de3f 773d
000002b0: 7528 1b3e 1a8c bd3d 6db2 e73d a150 413e
000002c0: 1468 403d 20b1 8e3c 073d 2fbe fbf5 0abc
000002d0: 41e2 34bb 2712 fb3d 5ac0 37be 24fa a6bd
000002e0: 07aa 14bd cfd3 64be 7cdf 8abe 3b27 07bd
000002f0: 2952 a2bd 2a39 f53b 213c 343d 5ff3 1a3e
00000300: 550f c53d a3f2 673d 42a8 593d c427 253d
00000310: 3c21 e43c 1526 643c d058 033f 20c9 fe3e
00000320: 0333 1c3f bb1d db3e 7f3d 3d3e 42c0 033f
00000330: 149b ba3e 4f4f cd3e b640 103f 88c5 433c
00000340: ca1d 0abd 37be f3bb 6be5 4cbd f764 0d3e
00000350: 5d4a 69bc 4bff 7b3d 1385 35bc 2fef f5bb
00000360: f792 823d e737 f93c 2f59 c63d fd1a 833d
00000370: e8e4 6e3e 8e5b 873e a081 b93d cc48 453d
00000380: cbf5 c23d edbe 7f3d aef3 683e 19da 833e
00000390: 5247 0a3e b54d c7ba aa41 c83c 8baa 003e
000003a0: 621e c33d c83d 063e 0df7 17bc a862 1ebc
000003b0: b926 11bc 5999 ddbb 57ae 0abc 905c 06bc
000003c0: cdd1 0cbc 9391 12bc 5f92 04bc 4759 493e
000003d0: 459b d0bd 431d f2bd dec4 1ebe 6bc9 a0bd
000003e0: 5c88 a3bd a1e6 7fbd 55e0 82bd 0617 e5bd
000003f0: c462 4b3e 853f bbbd 870d d83c ee43 9bbc

down_path.0.block.3.bias f4 [8]
0.031068623 0.33905217 -0.17542742 -0.18561377 -0.21618141 -0.13632779 0.22871627 0.14690968
00000000: a083 fe3c 3f98 ad3e 3fa3 33be 8911 3ebe
00000010: a95e 5dbe 8399 0bbe 9934 6a3e 7e6f 163e

down_path.0.block.5.weight f4 [8]
0.60264397 1.3749499 0.87397105 0.81972736 0.7119885 0.7066159 1.0585847 0.77340317
00000000: e046 1a3f 5cfe af3f 91bc 5f3f a7d9 513f
00000010: e144 363f c8e4 343f b47f 873f c0fd 453f

down_path.0.block.5.bias f4 [8]
-0.16050921 -0.2476665 -0.13491066 0.07045132 -0.053618878 -0.13319077 0.1528427 -0.47918642
00000000: 875c 24be 499c 7dbe 0526 0abe c848 903d
00000010: 789f 5bbd 2963 08be cc82 1c3e ec57 f5be

down_path.0.block.5.running_mean f4 [8]
0.5893121 1.57135 1.2683718 1.4200255 0.53177655 0.5194175 0.86240464 1.5263909
00000000: 28dd 163f ff21 c93f 025a a23f 65c3 b53f
00000010: 8222 083f 8cf8 043f 8dc6 5c3f c760 c33f

down_path.0.block.5.running_var f4 [8]
1.4121242 0.9935941 5.2123227 9.970795 1.4353967 0.89730686 1.2186342 2.981478
00000000: 7cc0 b43f 2f5c 7e3f 59cb a640 6088 1f41
00000010: 14bb b73f e7b5 653f 35fc 9b3f 89d0 3e40

down_path.1.block.0.weight f4 [16, 8, 3, 3]
0.15387213 0.016126003 0.090796754 0.060444985 0.087422766 0.11082599 0.09710078 0.11296958
0.09454593 -0.26639506 -0.3365572 -0.18657415 -0.13729078 -0.24246062 -0.10981774 -0.18182664
-0.33661136 -0.1589959 -0.13749652 -0.14229137 -0.020255627 -0.16144416 -0.15727726 -0.09062964
-0.17277364 -0.096435666 -0.11241434 -0.15941393 -0.04087088 -0.107958294 -0.087279946 -0.033997845
-0.05763961 -0.07212315 -0.02077264 0.00038631677 0.09109 0.23293577 0.10161821 0.12418212
0.2800582 0.14078727 0.0755763 0.16034566 0.0466912 -0.037653137 -0.016430663 -0.09853639
-0.051405087 0.052594557 -0.024083706 -0.14841102 -0.03665441 -0.028071608 -0.029962271 -0.036991574
-0.035548486 -0.05992067 0.080169745 -0.050026648 -0.022074087 0.041455578 -0.1305371 0.04002721
0.041769423 0.0042502643 0.05763546 0.11981981 0.08996941 0.086702816 0.17018847 0.10535844
-0.084421426 -0.1156515 -0.12113773 -0.15572473 -0.0008918533 -0.11036847 -0.07195008 -0.03250615
-0.13219932 0.041374423 -0.06380837 0.06281928 0.01273646 -0.0101759685 -0.111546345 0.12078829
0.054269534 -0.18838827 0.15833722 0.03294171 0.0050864266 -0.023453804 0.0085179 0.0720186
-0.07903651 0.074880004 0.015790423 0.13236776 0.18771054 0.034298427 0.11232639 0.08267353
0.20755933 0.15510748 0.10067756 0.11612761 -0.08521991 -0.038981054 -0.07380088 -0.063692495
-0.099427015 -0.09921021 -0.07449438 -0.0726058 -0.072332375 0.01677841 -0.00021488371 -0.013786072
0.0038049319 0.029850867 0.02403345 0.013790171 0.096275486 0.03167575 -0.03970388 -0.10946515
-0.09133015 0.055637937 -0.08071514 -0.09689692 -0.15012076 -0.109314136 -0.021640461 -0.11424842
-0.05501259 -0.051737122 -0.089553714 -0.057350263 -0.18756849 -0.10092324 -0.1053357 -0.1701271
0.028682824 -0.05248521 -0.18735301 0.15391509 -0.059421573 0.007607037 0.13704662 -0.03134939
-0.099041745 0.16249663 -0.33355215 -0.0410487 0.15011625 -0.13240364 -0.18234701 -0.017713215
-0.26256025 -0.20231743 -0.03059414 0.059261374 0.04887925 -0.09725739 0.13020158 -0.04089
0.007831772 0.04210653 -0.05940784 -0.15751874 -0.11503697 -0.013452964 -0.15630132 -0.110940106
-0.06848822 -0.008463057 -0.07854864 -0.0293706 -0.05953392 0.13809066 -0.07348086 0.07447468
0.16481386 0.030111324 -0.06514282 0.061967943 -0.012724892 0.12657082 0.037398502 -0.13690403
0.06976034 0.14274046 -0.082824126 0.15423802 0.08011507 -0.10458205 0.0016888824 0.09593899
-0.13038519 -0.10766698 0.10318806 0.1174316 0.40990517 0.40078703 0.16288206 -0.054500572
-0.006988707 -0.11316327 0.07084541 -0.15095761 -0.081339985 0.19930555 0.10025857 0.04468252
-0.055399735 -0.11581749 0.04698006 -0.052976128 0.037524134 0.09799198 -0.0877509 0.09052244
0.087621726 -0.047780674 -0.04409639 0.1519794 -0.21249844 0.19897811 0.31890944 -0.1280033
0.2625348 0.51048595 0.16414614 0.14731207 0.19331999 0.031906065 0.1199554 0.080223
0.1232273 0.24016428 -0.0022095453 0.09822194 0.08766701 0.058226366 0.072823696 0.22094944
0.025341911 0.10121451 0.14927804 0.095159695 0.08621547 0.026124142 0.135732 0.14314839
00000000: a890 1d3e ae1a 843c a6f3 b93d 2995 773d
00000010: b50a b33d bdf8 e23d c6dc c63d 985c e73d
00000020: 4ca1 c13d ef64 88be 3a51 acbe 4b0d 3fbe
00000030: f495 0cbe 9947 78be 20e8 e0bd c330 3abe
00000040: 5358 acbe d2cf 22be e3cb 0cbe d4b4 11be
00000050: 21ef a5bc 9e51 25be 4a0d 21be 089c b9bd
00000060: 93eb 30be 1080 c5bd 7d39 e6bd 683d 23be
00000070: 3968 27bd 3d19 ddbd d4bf b2bd 5341 0bbd
00000080: 8317 6cbd 4db5 93bd 622b aabc 8f8a ca39
00000090: 658d ba3d b786 6e3e 351d d03d 3253 fe3d
000000a0: ca63 8f3e 8a2a 103e bfc7 9a3d a731 243e
000000b0: 463f 3f3d 2d3a 1abd 9999 86bc 72cd c9bd
000000c0: 248e 52bd 646d 573d 314b c5bc 0ff9 17be
000000d0: ef22 16bd 6ef6 e5bc 7073 f5bc 7a84 17bd
000000e0: 4a9b 11bd 606f 75bd 0930 a43d bee8 4cbd
000000f0: b7d4 b4bc 53cd 293d 84ab 05be 92f3 233d
00000100: 6a16 2b3d cd45 8b3b 2913 6c3d 1764 f53d
00000110: e241 b83d 3f91 b13d e345 2e3e 2ac6 d73d
00000120: 24e5 acbd b2da ecbd 0f17 f8bd 4e76 1fbe
00000130: 43cb 69ba dd08 e2bd 905a 93bd 2b25 05bd
00000140: 425f 07be 3a78 293d f6ad 82bd 65a7 803d
00000150: 96ac 503c 1bb9 26bc 6972 e4bd da5f f73d
00000160: bb49 5e3d dbe8 40be 2723 223e e3ed 063d
00000170: 0aac a63b 3122 c0bc a98e 0b3c 7d7e 933d
00000180: e5dd a1bd b05a 993d eb5a 813c 6a8b 073e
00000190: 3137 403e 827c 0c3d 610b e63d bd50 a93d
000001a0: 6f8a 543e 7fd4 1e3e 0930 ce3d 50d4 ed3d
000001b0: c787 aebd 99aa 1fbd ea24 97bd 3671 82bd
000001c0: 64a0 cbbd b92e cbbd 8290 98bd 5ab2 94bd
000001d0: ff22 94bd e072 893c 6852 61b9 fade 61bc
000001e0: 2a5c 793b ce89 f43c cce1 c43c 2bf0 613c
000001f0: 152c c53d 6ebe 013d 89a0 22bd 442f e0bd
00000200: 4d0b bbbd 9be4 633d fb4d a5bd e471 c6bd
00000210: 42b9 19be 17e0 dfbd 5647 b1bc 13fb e9bd
00000220: e254 61bd 4eea 53bd f067 b7bd 1ce8 6abd
00000230: f411 40be d8b0 cebd 3eba d7bd cc35 2ebe
00000240: 3ef8 ea3c bbfa 56bd 78d9 3fbe eb9b 1d3e
00000250: 0964 73bd 7444 f93b f355 0c3e 3868 00bd
00000260: 66d6 cabd 8465 263e 59c7 aabe af22 28bd
00000270: 13b8 193e d294 07be 2db9 3abe 4e1b 91bc
00000280: 4c6e 86be 4d2c 4fbe 90a0 fabc 0ebc 723d
00000290: 9c35 483d e22e c7bd 9053 053e 467c 27bd
000002a0: d550 003c e677 2c3d a355 73bd 984c 21be
000002b0: 8198 ebbd d269 5cbc 740d 20be 9134 e3bd
000002c0: 8d43 8cbd a2a8 0abc 1cde a0bd 9d9a f0bc
000002d0: d7d9 73bd a367 0d3e 227d 96bd 2e86 983d
000002e0: f7c4 283e 06ac f63c 9969 85bd 19d2 7d3d
000002f0: 117c 50bc c89b 013e 2c2f 193d 9230 0cbe
00000300: 82de 8e3d 8e2a 123e b29f a9bd 92f0 1d3e
00000310: 5f13 a43d 1d2f d6bd 7d5d dd3a a97b c43d
00000320: b283 05be 8180 dcbd 4354 d33d fb7f f03d
00000330: 17df d13e f533 cd3e 8eca 263e fe3b 5fbd
00000340: 8601 e5bb 25c2 e7bd 6617 913d a294 1abe
00000350: 9495 a6bd c116 4c3e 5d54 cd3d 0505 373d
00000360: d5ea 62bd b831 edbd 2a6e 403d 7ffd 58bd
00000370: e8b2 193d 05b0 c83d beb6 b3bd d463 b93d
00000380: 0573 b33d abb5 43bd 6b9e 34bd 7da0 1b3e
00000390: 3199 59be ebc0 4b3e 1948 a33e 4c13 03be
000003a0: f66a 863e 35af 023f ed15 283e fad8 163e
000003b0: adf5 453e efaf 023d 2dab f53d f54b a43d
000003c0: 985e fc3d a0ed 753e 05ce 10bb 9628 c93d
000003d0: c38a b33d c57e 6e3d 9724 953d 9240 623e
000003e0: d799 cf3c 8e49 cf3d 58dc 183e 16e3 c23d
000003f0: bd91 b03d 4c02 d63c 54fd 0a3e 7e95 123e

down_path.1.block.0.bias f4 [16]
0.02975488 0.045078572 0.020300109 -0.16980551 -0.21134023 -0.18928094 0.115497544 0.005438746
-0.23139197 -0.09341634 -0.12381588 -0.11596486 -0.08852825 -0.101726435 -0.38856187 -0.046554875
00000000: 82c0 f33c 4fa4 383d 6a4c a63c 7fe1 2dbe
00000010: 9369 58be ddd2 41be fa89 ec3d 8237 b23b
00000020: 04f2 6cbe 1151 bfbd 2e93 fdbd fc7e edbd
00000030: 4d4e b5bd f355 d0bd 95f1 c6be 53b0 3ebd

down_path.1.block.2.weight f4 [16]
0.3395248 0.33765927 0.62631965 0.65459555 0.41892672 1.0863642 0.35381195 0.5699486
0.6345218 0.6907985 0.8773087 1.3090849 0.50994813 0.402272 0.7168823 0.43115205
00000000: 32d6 ad3e ade1 ac3e 7c56 203f 9393 273f
00000010: 907d d63e fb0d 8b3f d726 b53e 27e8 113f
00000020: 0570 223f 2cd8 303f 4e97 603f 1890 a73f
00000030: f68b 023f 98f6 cd3e 9985 373f f6bf dc3e

down_path.1.block.2.bias f4 [16]
-0.38054287 0.646988 -0.09636071 -0.12219503 -0.3905894 -0.17796852 -0.47518343 0.23173262
0.029255694 -0.08673521 -0.34642264 -0.4015113 0.046050325 -0.16236655 0.022415137 0.65763074
00000000: 84d6 c2be 01a1 253f c458 c5bd 6341 fabd
00000010: 55fb c7be 613d 36be 3e4b f3be 514b 6d3e
00000020: a3a9 ef3c 3ba2 b1bd 4f5e b1be e492 cdbe
00000030: 449f 3c3d 6b43 26be f39f b73c 7d5a 283f

down_path.1.block.2.running_mean f4 [16]
1.07125 1.0437913 0.91429806 0.6027407 0.42032507 0.6193179 0.86340564 0.8517052
0.614961 0.6793528 0.589884 0.45727336 1.1802527 0.5932873 0.495367 0.5112824
00000000: b81e 893f f49a 853f 700f 6a3f 374d 1a3f
00000010: d934 d73e 9e8b 1e3f 2708 5d3f 5a09 5a3f
00000020: 166e 1d3f 11ea 2d3f a302 173f bc1f ea3e
00000030: 8512 973f ade1 173f bea0 fd3e 67e3 023f

down_path.1.block.2.running_var f4 [16]
3.5833793 2.2591283 2.6911461 1.638797 1.7782247 1.4294347 3.1001425 2.1443923
1.9726496 2.2956243 1.291468 1.3717259 5.390956 2.4189599 2.362472 1.6165565
00000000: 1656 6540 8f95 1040 bd3b 2c40 1ac4 d13f
00000010: de9c e33f b7f7 b63f bc68 4640 b93d 0940
00000020: c87f fc3f 82eb 1240 d34e a53f b794 af3f
00000030: b682 ac40 3dd0 1a40 be32 1740 53eb ce3f

down_path.1.block.3.weight f4 [16, 16, 3, 3]
-0.16446681 -0.09270309 -0.18434171 -0.15585324 -0.10318846 -0.14235407 -0.19449826 -0.15906453
-0.20313412 -0.043512795 -0.09461281 -0.05025423 -0.012691293 -0.12198099 -0.0017006288 0.020029318
0.02654148 -0.05516632 -0.11064334 -0.047092285 0.053991187 -0.056016594 -0.030291606 0.08416335
-0.055282593 -0.0010451389 0.00958288 -0.17559698 -0.17468612 -0.18597667 -0.17553267 -0.18541089
-0.17132513 -0.23671733 -0.20932016 -0.19271325 -0.06765354 -0.051935885 -0.0626974 -0.06355944
-0.044447117 -0.04448546 -0.054805394 -0.05039691 -0.05726065 0.08627283 0.032235656 0.090696834
-0.013779189 0.054042783 0.05800792 -0.056466974 0.007452858 -0.08725456 -0.025945008 -0.07095967
-0.07300376 -0.07172747 -0.106379606 -0.1325457 -0.069810934 -0.06852511 -0.1486824 0.05977387
-0.052910805 -0.061843164 -0.047418144 -0.041042842 -0.020427871 0.03415227 -0.025009165 -0.059462506
-0.124826424 -0.12196629 -0.13231337 -0.09722565 -0.12188793 -0.1580989 -0.08512067 -0.0054879393
-0.10060829 -0.07583126 -0.08310043 -0.08363257 -0.10164468 -0.040247116 -0.065115854 -0.06795894
-0.02510925 -0.14692359 -0.12892489 -0.18580832 -0.18265983 -0.10314436 -0.18312891 -0.17302893
-0.0810604 -0.06412007 -0.15379131 -0.094785176 -0.117053896 -0.09066772 -0.12437203 -0.10919465
-0.051478844 -0.0878671 -0.14340027 -0.13563706 -0.030675702 -0.0020306834 -0.10524945 -0.035162374
-0.020142954 0.032809857 -0.043227233 -0.093439445 -0.060591206 -0.18830186 -0.16110432 -0.17301813
-0.2157744 -0.16598625 -0.18153256 -0.20771849 -0.14733012 -0.18874529 -0.09985663 -0.07342021
-0.078864835 -0.1349404 -0.091553144 -0.10320534 -0.081426695 -0.10370148 -0.099382386 -0.014670671
0.081004396 -0.04044267 0.06879752 0.036939867 0.0065366533 -0.030808372 -0.034059454 -0.078628145
-0.10206925 -0.100841746 -0.111989275 -0.10408219 -0.13837387 -0.12495788 -0.119212106 -0.13108271
-0.15260044 -0.13677455 0.080783404 -0.10417141 0.057134584 -0.05045591 0.049743745 0.020379236
0.1167772 0.075992085 -0.070483215 -0.047210377 -0.04380461 -0.090096705 -0.14919177 -0.10280634
-0.17067946 -0.17465794 -0.07278781 -0.0993058 -0.115549445 -0.1305727 -0.10760215 -0.14266282
-0.18901382 -0.12996764 -0.16481511 -0.14526397 0.006901874 0.012904197 0.014343819 0.003235472
0.0033985095 0.0057055326 -0.00876924 -0.011891548 -0.011281922 0.09703106 -0.121432304 -0.03681817
-0.023112169 -0.06757695 -0.09384614 -0.06385255 -0.13931556 0.027769089 0.06504767 0.06609516
0.05364957 0.011253798 0.009348996 0.02733513 0.037757147 -0.022123503 0.003479935 -0.085112125
-0.102190845 -0.095776975 -0.10662246 -0.12089266 -0.13299936 -0.15133111 -0.12961432 -0.15750305
-0.036709692 -0.03837229 -0.051708184 -0.065700725 -0.05703793 -0.049136672 -0.05329318 -0.032760948
-0.080150925 -0.006547036 -0.008301842 -0.04301773 0.014885045 -0.032538433 -0.04960064 -0.019739605
-0.045499668 -0.023611376 -0.2069498 -0.2522481 -0.19232656 -0.19569002 -0.22417718 -0.14300184
-0.22323574 -0.18691206 -0.20490567 0.109644994 0.047848944 -0.040541727 0.025243297 -0.011388302
-0.12023383 -0.09252884 -0.040943213 -0.0049611256 -0.10616324 -0.12943661 -0.11639208 -0.11839927
00000000: fd69 28be 1edb bdbd 13c4 3cbe fe97 1fbe
00000010: 7954 d3bd 44c5 11be 8d2a 47be d0e1 22be
00000020: 6402 50be 793a 32bd 5cc4 c1bd 61d7 4dbd
00000030: 24ef 4fbc 2bd1 f9bd a2e7 deba 8614 a43c
00000040: 856d d93c 14f6 61bd fa98 e2bd d7e3 40bd
00000050: dd25 5d3d a871 65bd 1a26 f8bc d65d ac3d
00000060: 0070 62bd 0bfd 88ba 8301 1d3c b2cf 33be
00000070: ebe0 32be ab70 3ebe d6be 33be 5adc 3dbe
00000080: db6f 2fbe 0766 72be 0658 56be 9f56 45be
00000090: f08d 8abd b9ba 54bd 7f67 80bd 742b 82bd
000000a0: 2e0e 36bd 6336 36bd 9f7b 60bd fe6c 4ebd
000000b0: 258a 6abd cfaf b03d 8909 043d 43bf b93d
000000c0: 1cc2 61bc f75b 5d3d b699 6d3d ea49 67bd
000000d0: 1b37 f43b 85b2 b2bd a08a d4bc 4e53 91bd
000000e0: ff82 95bd dae5 92bd 8ddd d9bd 0fba 07be
000000f0: 09f9 8ebd e556 8cbd 3340 18be 72d5 743d
00000100: 00b9 58bd 424f 7dbd 8739 42bd 8a1c 28bd
00000110: 5a58 a7bc 40e3 0b3d 05e0 ccbc f58e 73bd
00000120: ffa4 ffbd 76c9 f9bd 287d 07be 3e1e c7bd
00000130: 61a0 f9bd aee4 21be bf53 aebd 2cd4 b3bb
00000140: b80b cebd 6b4d 9bbd 8f30 aabd 8e47 abbd
00000150: 162b d0bd 29da 24bd 765b 85bd 0f2e 8bbd
00000160: eab1 cdbc 2373 16be e304 04be 8944 3ebe
00000170: 2e0b 3bbe 5a3d d3bd 2586 3bbe 7f2e 31be
00000180: ff02 a6bd 6251 83bd 787b 1dbe bb1e c2bd
00000190: f4b9 efbd ffaf b9bd c3b6 febd 72a1 dfbd
000001a0: 7bdb 52bd abf3 b3bd 85d7 12be 71e4 0abe
000001b0: 9c4b fbbc 3715 05bb 068d d7bd 6c06 10bd
000001c0: d602 a5bc a163 063d 0a0f 31bd 2e5d bfbd
000001d0: 7c2e 78bd 34d2 40be 88f8 24be aa2b 31be
000001e0: f7f3 5cbe 4df8 29be ace3 39be 28b4 54be
000001f0: b5dd 16be 7246 41be a281 ccbd 565d 96bd
00000200: e383 a1bd d12d 0abe 3780 bbbd 525d d3bd
00000210: 0ac3 a6bd 7161 d4bd fe88 cbbd 415d 70bc
00000220: a2e5 a53d 37a7 25bd b7e5 8c3d 424e 173d
00000230: 6c31 d63b d761 fcbc ed81 0bbd cb07 a1bd
00000240: af09 d1bd 1e86 cebd a25a e5bd 0b29 d5bd
00000250: e1b1 0dbe ebe9 ffbd 7a25 f4bd 8c3a 06be
00000260: 4a43 1cbe a10e 0cbe c571 a53d d257 d5bd
00000270: f405 6a3d dbaa 4ebd 19c0 4b3d 5bf2 a63c
00000280: e228 ef3d bda1 9b3d 8159 90bd ab5f 41bd
00000290: 766c 33bd 9f84 b8bd bac5 18be 218c d2bd
000002a0: 99c6 2ebe 88d9 32be c611 95bd d760 cbbd
000002b0: 30a5 ecbd dab4 05be 845e dcbd 3416 12be
000002c0: d78c 41be 3d16 05be 4bc5 28be 14c0 14be
000002d0: 1e29 e23b 206c 533c 5602 6b3c 360a 543b
000002e0: 87b9 5e3b 7af5 ba3b dcac 0fbc c4d4 42bc
000002f0: d0d7 38bc 38b8 c63d 80b1 f8bd a6ce 16bd
00000300: bb55 bdbc c965 8abd 6832 c0bd 20c5 82bd
00000310: bda8 0ebe 007c e33c b637 853d e65c 873d
00000320: a7bf 5b3d da61 383c 882c 193c eced df3c
00000330: 3da7 1a3d 593c b5bc 9f0f 643b 444f aebd
00000340: 6f49 d1bd b826 c4bd e05c dabd 9296 f7bd
00000350: fc30 08be 8bf6 1abe 9eb9 04be 7b48 21be
00000360: e75c 16bd 432c 1dbd f6cb 53bd 1a8e 86bd
00000370: 9ba0 69bd 8943 49bd f349 5abd 5830 06bd
00000380: 2b26 a4bd 8588 d6bb 7304 08bc 5c33 30bd
00000390: 67e0 733c 0547 05bd 0a2a 4bbd f4b4 a1bc
000003a0: dc5d 3abd a56c c1bc a6ea 53be aa26 81be
000003b0: 41f1 44be f762 48be b48e 65be 136f 12be
000003c0: e997 64be e065 3fbe cbd2 51be 8e8d e03d
000003d0: 41fd 433d 150f 26bd 08cb ce3c 0096 3abc
000003e0: 273d f6bd c37f bdbd 12b4 27bd f090 a2bb
000003f0: 1d6c d9bd 088b 04be f95e eebd 517b f2bd

down_path.1.block.3.bias f4 [16]
0.15715227 -0.046385076 -0.09307435 -0.2072119 -0.1317521 0.009061182 0.023709197 -0.23690155
0.007807733 -0.14855532 -0.050706122 0.0058461735 -0.2700638 0.056405514 -0.0376837 -0.16890006
00000000: 86ec 203e 47fe 3dbd c49d bebd 5b2f 54be
00000010: 06ea 06be 5a75 143c ca39 c23c 5296 72be
00000020: 03d8 ff3b e31e 18be 39b1 4fbd 4291 bf3b
00000030: cd45 8abe 7809 673d 395a 1abd 23f4 2cbe

down_path.1.block.5.weight f4 [16]
0.31141442 0.2675245 0.43395877 1.1938531 1.1626892 0.23200575 0.3811868 0.33210617
0.081631005 0.4314403 0.20204026 0.24013217 0.92931795 0.082260996 0.19907069 0.9509978
00000000: b671 9f3e f9f8 883e d82f de3e 2ed0 983f
00000010: 00d3 943f ea92 6d3e eb2a c33e d209 aa3e
00000020: 282e a73d bee5 dc3e a4e3 4e3e 35e5 753e
00000030: c8e7 6d3f 7478 a83d 30d9 4b3e 9874 733f

down_path.1.block.5.bias f4 [16]
0.34198982 0.18010403 -0.05728679 -0.29134434 -0.2826092 0.21769132 -0.045579724 -0.24473941
0.28690946 -0.074042395 0.0065647485 0.17820294 -0.071678616 0.2599265 0.09669319 -0.4519517
00000000: 4a19 af3e 316d 383e 8ea5 6abd 162b 95be
00000010: 27b2 90be 79ea 5e3e ceb1 3abd f89c 7abe
00000020: cce5 923e 8aa3 97bd 1a1d d73b d57a 363e
00000030: 3dcc 92bd 1615 853e 1407 c63d 3766 e7be

down_path.1.block.5.running_mean f4 [16]
2.9668949 1.6292739 0.5437838 0.56146973 0.39899826 1.1364139 0.33836582 0.124358594
0.8961839 0.12224664 0.24533577 0.7466105 0.38662177 1.2833384 0.5294388 0.033380643
00000000: 9be1 3d40 0c8c d03f 6a35 0b3f 7bbc 0f3f
00000010: 8049 cc3e 0376 913f 493e ad3e b8af fe3d
00000020: 4f6c 653f 725c fa3d 4d39 7b3e de21 3f3f
00000030: 4af3 c53e 6f44 a43f 4d89 073f 24ba 083d

down_path.1.block.5.running_var f4 [16]
4.7659497 2.258998 2.3645198 6.4907174 2.6954405 1.2316902 0.6984399 1.2322067
0.5994389 0.4571999 0.8359882 0.60772496 3.705704 1.0481284 1.6340882 0.24963099
00000000: a982 9840 6c93 1040 4b54 1740 f5b3 cf40
00000010: 1982 2c40 06a8 9d3f f5cc 323f f3b8 9d3f
00000020: d474 193f 1b16 ea3e 5303 563f dd93 1b3f
00000030: 412a 6d40 1229 863f cd29 d13f 449f 7f3e

down_path.2.block.0.weight f4 [32, 16, 3, 3]
0.03078228 0.0075497967 0.007216399 0.041802697 0.0383569 0.05597136 0.076208435 0.083952256
0.1534213 -0.030895203 0.002638501 0.0062529584 -0.0361661 -0.02326047 0.007107723 0.030833248
0.04965571 0.068986945 -0.0032873387 0.03931916 0.042918876 -0.007794764 -0.008787359 0.0045801797
-0.042716794 -0.023023052 -0.008316367 -0.17004067 -0.17111665 -0.19231655 -0.12592031 -0.118217744
-0.1393068 -0.23922625 -0.20051749 -0.23849075 0.11388477 0.1763777 0.13690072 0.050585665
0.09695871 0.092423856 -0.11285506 -0.06439272 -0.07103984 0.0112725925 0.01309588 0.04184133
-0.019080212 0.007427106 0.029214775 0.06919385 0.06893313 0.080216855 0.09473095 0.10947116
0.08222019 0.07226731 0.07086232 0.04355504 -0.03322033 -0.037638254 -0.07348924 0.05251978
0.05782993 0.04699787 0.0691118 0.0684796 0.06809535 -0.001738799 -0.0011118497 -0.0139787
-0.037170317 -0.015059668 -0.017688349 -0.033071984 -0.036424346 -0.024918761 0.06211137 0.07118144
0.078916274 0.011879881 0.024671871 0.027206255 0.008850184 0.018526746 0.021624014 -0.043153048
-0.036990285 -0.037050452 0.027849298 0.035200175 0.026019134 0.0026089163 0.010342173 0.008082931
-0.008460117 -0.017556904 -0.017737465 -0.059887204 -0.04970801 -0.05819806 -0.04301302 -0.038588304
-0.0630386 0.014917805 0.0663671 0.044090398 -0.15029079 -0.14032996 -0.1271352 -0.14800024
-0.13470525 -0.1345377 -0.18030086 -0.15872383 -0.15488108 -0.022009362 -0.06897987 -0.05792031
-0.025563506 -0.048810773 -0.044523917 -0.036144994 0.024209186 0.05084891 -0.0008580457 -0.010811882
0.00925926 0.05097643 0.04772296 0.057630762 0.034468733 0.041120056 0.020102382 -0.03259125
-0.029071301 -0.03622773 0.036058098 0.03542454 0.03408463 -0.076435976 -0.07904629 -0.08406159
-0.043025237 -0.050172254 -0.05633865 -0.015036987 -0.023777012 -0.03272569 -0.025020381 -0.032266427
-0.04395005 -0.0062966915 -0.013793916 -0.018735856 0.0077719074 -8.7366694e-05 -0.008944376 -0.0008120069
-0.010362761 -0.019909358 -0.11372564 -0.089612 -0.08815971 -0.111036785 -0.08449598 -0.079323076
-0.09604167 -0.07751767 -0.07857805 0.09631546 0.05432862 0.089996256 0.055372234 0.01072558
0.062500656 0.08278244 0.014801047 0.06959615 0.00978785 -0.005859358 0.034122307 0.027848283
-0.010789433 0.020081483 0.06316522 0.021045126 0.021756666 -0.012936618 -0.01881119 -0.022648329
0.000113453534 -0.006588188 -0.014026397 -0.0067644264 -0.013916982 -0.023355057 0.03381296 0.042516604
0.05205451 0.012264979 0.031945765 0.033746168 0.017507963 0.03540384 0.03717734 0.028418034
0.034481492 0.030436719 -0.02569661 -0.021837438 -0.012548601 -0.030545402 -0.022294052 -0.017044337
-0.011891814 -0.016107863 -0.015811889 -0.0058226096 -0.010094528 -0.011230584 -0.008839118 -0.012716103
-0.013558909 0.04509053 0.0542013 0.03825779 0.034300532 0.016010048 0.03905475 0.017240232
0.015228271 0.027444936 0.023221249 0.018641947 0.040244352 -0.006528401 0.011235007 0.012309758
0.0031078022 0.013185443 0.012123316 -0.01756803 -0.024228178 -0.027785225 -0.006686756 -0.0124900965
-0.020963276 -0.01528344 -0.02038662 -0.028996559 -0.0073948903 -0.0426041 -0.028025651 -0.0026055544
00000000: 1f2b fc3c 4964 f73b 8b77 ec3b 4e39 2b3d
00000010: 201c 1d3d 3a42 653d 2b13 9c3d 29ef ab3d
00000020: 791a 1d3e f017 fdbc b4ea 2c3b 9ee5 cc3b
00000030: e822 14bd be8c bebc e7e7 e83b 0296 fc3c
00000040: c963 4b3d 0749 8d3d 6470 57bb 210d 213d
00000050: b4cb 2f3d 386b ffbb dbf8 0fbc 5515 963b
00000060: cef7 2ebd d79a bcbc 5f41 08bc 241f 2ebe
00000070: 3439 2fbe a1ee 44be 41f1 00be 251c f2bd
00000080: 71a6 0ebe baf7 74be 7554 4dbe eb36 74be
00000090: 6b3c e93d 5b9c 343e b42f 0c3e ea32 4f3d
000000a0: 4a92 c63d b848 bd3d 8e20 e7bd 55e0 83bd
000000b0: 567d 91bd aeb0 383c 1a90 563c d061 2b3d
000000c0: 1b4e 9cbc 155f f33b d353 ef3c 81b5 8d3d
000000d0: d02c 8d3d bc48 a43d 4d02 c23d 6a32 e03d
000000e0: 0f63 a83d e200 943d 4420 913d c566 323d
000000f0: 0a12 08bd 922a 1abd 8781 96bd fb1e 573d
00000100: 14df 6c3d d780 403d 7d8a 8d3d 083f 8c3d
00000110: 9375 8b3d 6ae8 e3ba 7cbb 91ba eb06 65bc
00000120: e73f 18bd d3bc 76bc 28e7 90bc 7d76 07bd
00000130: b231 15bd 6e22 ccbc 7e68 7e3d 93c7 913d
00000140: db9e a13d d5a3 423c aa1c ca3c a7df de3c
00000150: 5d00 113c 67c5 973c d824 b13c 40c1 30bd
00000160: 2083 17bd 37c2 17bd 3624 e43c 0f2e 103d
00000170: 1426 d53c 5afa 2a3b 3872 293c 456e 043c
00000180: 4d9c 0abc 7fd3 8fbc 294e 91bc 494c 75bd
00000190: a09a 4bbd 1761 6ebd 6c2e 30bd c50e 1ebd
000001a0: 621a 81bd cf69 743c 79eb 873d 2298 343d
000001b0: d4e5 19be a8b2 0fbe bb2f 02be 608d 17be
000001c0: 2cf0 09be 40c4 09be caa0 38be 8088 22be
000001d0: 2599 1ebe fa4c b4bc 5145 8dbd d93d 6dbd
000001e0: 8f6a d1bc ceed 47bd b65e 36bd c60c 14bd
000001f0: 5852 c63c f246 503d 79ee 60ba 5224 31bc
00000200: 27b4 173c a9cc 503d 2779 433d 3c0e 6c3d
00000210: 162f 0d3d 816d 283d c0ad a43c 677e 05bd
00000220: f026 eebc 8763 14bd a8b1 133d 5319 113d
00000230: 539c 0b3d 778a 9cbd 05e3 a1bd 7c28 acbd
00000240: 3b3b 30bd 6c81 4dbd 5bc3 66bd b25d 76bc
00000250: 02c8 c2bc 600b 06bd 8bf7 ccbc cd29 04bd
00000260: f804 34bd 7a54 cebb e1ff 61bc f07b 99bc
00000270: 7cab fe3b a338 b7b8 6f8b 12bc dcdc 54ba
00000280: 92c8 29bc f318 a3bc fde8 e8bd 7f86 b7bd
00000290: 148d b4bd 4167 e3bd 3a0c adbd 2374 a2bd
000002a0: 7fb1 c4bd 96c1 9ebd 87ed a0bd 0a41 c53d
000002b0: b087 5e3d f54f b83d ffcd 623d 58ba 2f3c
000002c0: 5800 803d d789 a93d 1780 723c 6d88 8e3d
000002d0: 385d 203c dbff bfbb d5c3 0b3d 1522 e43c
000002e0: 29c6 30bc ec81 a43c c45c 813d d466 ac3c
000002f0: 093b b23c 1cf4 53bc ed19 9abc fd88 b9bc
00000300: e7ed ed38 bae1 d7bb f9ce 65bc 1fa8 ddbb
00000310: 0e04 64bc 1b53 bfbc 757f 0a3d e425 2e3d
00000320: 1c37 553d 0df3 483c 90d9 023d 6c39 0a3d
00000330: dc6c 8f3c 9e03 113d 4447 183d f0cc e83c
00000340: 773c 0d3d 6d56 f93c b281 d2bc 6de4 b2bc
00000350: a698 4dbc 5a3a fabc 04a2 b6bc 91a0 8bbc
00000360: e2d5 42bc a3f4 83bc ef87 81bc 97cb bebb
00000370: 8563 25bc 7c00 38bc f3d1 10bc 3457 50bc
00000380: 3026 5ebc d9b0 383d 2f02 5e3d 33b4 1c3d
00000390: b77e 0c3d 8127 833c e0f7 1f3d 633b 8d3c
000003a0: ff7f 793c 34d4 e03c 7d3a be3c ffb6 983c
000003b0: 43d7 243d 32ec d5bb 0913 383c deae 493c
000003c0: 45ac 4b3b c207 583c dfa0 463c d4ea 8fbc
000003d0: 2c7a c6bc d79d e3bc 931c dbbb 43a3 4cbc
000003e0: 2dbb abbc 6567 7abc d701 a7bc 318a edbc
000003f0: d650 f2bb a381 2ebd 0d96 e5bc f3c1 2abb

down_path.2.block.0.bias f4 [32]
-0.01020174 -0.0251944 -0.025754506 -0.013290425 -0.04631023 0.089132525 0.029598136 -0.0011987609
-0.080848984 0.0050683706 0.00475744 -0.003701363 -0.017754143 -0.10150377 -0.02351375 -0.0024322828
0.026731813 -0.03649902 -0.06815547 -0.0561745 -0.10014876 -0.0060567237 -0.060705 -0.009031299
0.02215825 0.0074223187 0.033627413 -0.0082654925 -0.014935332 0.02462895 -0.11755644 -0.030129261
00000000: 3325 27bc 7d64 cebc 1dfb d2bc 15c0 59bc
00000010: ccaf 3dbd 1d8b b63d ca77 f23c be1f 9dba
00000020: 2794 a5bd 9314 a63b 4de4 9b3b 9192 72bb
00000030: 2371 91bc 35e1 cfbd e89f c0bc ef66 1fbb
00000040: adfc da3c ff7f 15bd 1895 8bbd 3c17 66bd
00000050: cb1a cdbd 7b77 c6bb cea5 78bd 03f8 13bc
00000060: 3885 b53c ec36 f33b e6bc 093d fd6b 07bc
00000070: 53b3 74bc a7c2 c93c 6ec1 f0bd a4d1 f6bc

down_path.2.block.2.weight f4 [32]
0.5171168 0.28788218 0.31047145 0.11202049 0.5030283 1.1507784 0.108358346 0.08850637
0.25996926 0.15846483 0.04243179 0.35893676 0.15150289 0.37145925 0.16473666 0.4864838
0.5775566 0.39258692 0.47351736 0.38075852 0.3740331 0.12294236 0.41292536 0.110749
0.8555577 0.15298715 0.22929342 0.13643366 0.18169476 0.039758906 0.48067322 0.2162248
00000000: c461 043f 4b65 933e 1df6 9e3e 006b e53d
00000010: 76c6 003f b54c 933f fbea dd3d d442 b53d
00000020: b11a 853e 9b44 223e f5cc 2d3d 8fc6 b73e
00000030: 9323 1b3e e82f be3e bab0 283e 6814 f93e
00000040: c0da 133f 2701 c93e de70 f23e c8f2 c23e
00000050: 4481 bf3e 34c9 fb3d f46a d33e 5fd0 e23d
00000060: d405 5b3f aaa8 1c3e e5cb 6a3e 44b5 0b3e
00000070: 310e 3a3e 3cda 223d cd1a f63e 096a 5d3e

down_path.2.block.2.bias f4 [32]
-0.078203425 0.059966285 0.116016634 -0.06509793 0.27472946 -0.45373166 -0.14065377 -0.15650694
0.18868428 0.014572334 0.017293617 0.1294704 -0.046163358 0.057335272 0.0145907365 0.09626406
-0.38052067 -0.34748062 0.18525282 -0.2534792 0.13000558 -0.12243772 0.07904331 -0.13650326
-0.18372332 -0.0791928 -0.058176525 -0.0013418114 0.07278269 -0.12723942 0.28037968 0.16532439
00000000: 1e29 a0bd 359f 753d 219a ed3d 1052 85bd
00000010: 57a9 8c3e 844f e8be 8b07 10be 5b43 20be
00000020: 7436 413e ccc0 6e3c 58ab 8d3c e393 043e
00000030: ca15 3dbd 64d8 6a3d fc0d 6f3c 1726 c53d
00000040: 9bd3 c2be fbe8 b1be eab2 3d3e 07c8 81be
00000050: 2f20 053e a1c0 fabd 75e1 a13d 83c7 0bbe
00000060: f721 3cbe d62f a2bd 824a 6ebd b8df afba
00000070: 170f 953d 0d4b 02be ed8d 8f3e cc4a 293e

down_path.2.block.2.running_mean f4 [32]
0.8916669 0.22911444 0.2296584 0.022709437 0.3231621 2.747141 0.6865805 0.02954753
0.40960604 0.10033763 0.03437029 0.47587734 0.013725594 0.08402824 0.12728934 0.43404725
1.9104924 0.06499597 0.23781924 0.23916723 0.520599 0.02708429 0.28337702 0.027228532
0.5654208 0.30226395 0.60994476 0.16384307 0.068806015 0.39168948 0.22706185 0.2209481
00000000: 4844 643f fa9c 6a3e 922b 6b3e 2409 ba3c
00000010: 8175 a53e 28d1 2f40 bdc3 2f3f a90d f23c
00000020: e2b7 d13e d17d cd3d dcc7 0c3d 32a6 f33e
00000030: 50e1 603c ff16 ac3d 2358 023e 713b de3e
00000040: 048b f43f 9b1c 853d e386 733e 41e8 743e
00000050: fa45 053f dfdf dd3c cb16 913e 5f0e df3c
00000060: 6bbf 103f 57c2 9a3e 5725 1c3f 7ac6 273e
00000070: 2bea 8c3d 868b c83e e782 683e 3840 623e

down_path.2.block.2.running_var f4 [32]
0.36225832 0.3792335 0.4538139 0.082705066 0.9433161 3.757979 0.20066021 0.07886125
0.07645586 0.12271223 0.010688832 1.1246278 0.052190553 0.08002678 0.154743 0.21841185
2.3933427 0.43600136 0.41384768 0.66333735 2.549106 0.08608974 0.8930977 0.08248614
1.0552542 0.11146402 1.0751258 0.2249917 0.071983546 0.071511954 0.39079666 0.4289939
00000000: ec79 b93e e52a c23e 4c5a e83e 4661 a93d
00000010: 2a7d 713f ba82 7040 df79 4d3e 0282 a13d
00000020: e494 9c3d 8d50 fb3d 3620 2f3c cef3 8f3f
00000030: c3c5 553d 15e5 a33d f374 1e3e 5ba7 5f3e
00000040: 872c 1940 923b df3e d8e3 d33e 7ad0 293f
00000050: 8d24 2340 d14f b03d 0da2 643f 7eee a83d
00000060: 9212 873f 4047 e43d b99d 893f 3964 663e
00000070: 1c6c 933d dc74 923d 8016 c83e 17a5 db3e

down_path.2.block.3.weight f4 [32, 32, 3, 3]
-0.025656553 -0.01340377 -0.019725144 -0.017080262 -0.0014580719 -0.012266544 -0.012421241 -0.00989657
-0.009655844 0.00460069 0.004921007 0.005144781 0.0014577728 0.002426009 0.003371675 0.0026838912
0.0036508848 0.0039480557 0.0058220853 0.0056459177 0.006336243 0.0029431726 0.002868358 0.0039214008
0.004389676 0.0046279645 0.0051997327 0.0006480524 0.0010024206 0.00168621 -0.0018169838 -0.0014300313
-0.0006828955 -0.0032439225 -0.00292119 -0.0020023794 0.010837476 0.006420729 0.0052316776 0.009313633
0.005036758 0.0054353117 0.014360852 0.011915993 0.012746384 -0.03423941 -0.028239636 -0.035734527
-0.024193436 -0.020877074 -0.03113764 -0.02081119 -0.02221478 -0.032794368 -0.0014883527 -0.0016624739
-0.0019528983 -0.002428484 -0.002809445 -0.0031157597 -0.0049293633 -0.005599114 -0.0060688616 0.0008082074
0.0013453782 0.0017072211 0.0002856648 0.0007059707 0.001395936 -0.0043967846 -0.0040462576 -0.0031212657
0.0022234553 0.002675342 0.0037592445 0.0006809183 0.0005420443 0.0010273231 0.006180721 0.0065538897
0.006030836 -0.0007819347 0.00043434475 0.0016400482 -0.0014055535 0.00044434422 0.0016173158 -0.00038624872
0.0011964705 0.0018417335 0.00034834066 0.00018051348 0.00060910964 -0.00012824821 -0.00027721102 0.0005116101
-4.0779676e-05 -0.0001759791 0.00053906254 0.00571492 0.0033767056 0.003298833 0.0067714285 0.004992708
0.0052191117 0.016259205 0.014774237 0.016094776 0.00040482613 0.0013590683 0.0020723988 -0.0032603908
-0.00222042 -0.0012783417 -0.003701909 -0.002813579 -0.00192916 0.011622399 0.010722929 0.013541676
0.008412042 0.0076712063 0.010844649 0.0056958464 0.0048720683 0.008247316 0.003075874 0.003043813
0.0036932616 0.002311013 0.0024689431 0.0036398573 0.0017408042 0.0021061194 0.00313093 -0.004252297
-0.002273216 -0.0023248002 0.0073368875 0.01070136 0.009377269 -0.0040346463 -0.0020396386 -0.0044245087
-0.025714373 -0.0085781505 -0.012255412 -0.004437109 -0.004162046 -0.005350949 -0.015895909 -0.011722664
-0.015981467 -0.0012149328 0.0001001549 0.0018977944 -0.0037710005 -0.0020310094 8.361558e-06 -0.011619549
-0.01059758 -0.00825152 0.00861997 0.011695864 0.0153462505 0.0056068636 0.009988336 0.014155983
0.0069798557 0.01118342 0.014829914 0.001064804 0.00080821634 0.0018411606 0.00015604218 0.00058130943
0.0030239506 -0.00625978 -0.0049198847 -0.0035407217 0.0057164077 0.0041806553 0.0055233175 0.006971033
0.0056925737 0.0075364565 0.009219044 0.008579318 0.011055695 -0.00018641601 0.00031531742 0.0010095395
-0.0014590371 -0.00096458016 6.333065e-06 -0.0046733846 -0.0042218054 -0.0032651057 0.0069119013 0.0021628896
0.00038174173 0.006226128 0.0014381445 0.00069319643 0.0071872063 0.0038797774 0.0035103185 -0.00023931397
7.249363e-05 0.00033634529 -0.0011195535 -0.00083365204 -0.00034934623 -0.004254558 -0.004077785 -0.0034988823
0.0068080933 -0.0037336277 0.00063455885 0.017872723 0.014554292 0.019738372 -0.021203868 -0.019326584
-0.01408267 0.002897037 0.002512665 0.0027877588 0.00029465035 0.0004643606 -0.00025122953 -0.0030877972
-0.0039777583 -0.003895123 0.0022721149 0.0018988756 0.0014035066 0.0033707933 0.003646287 0.003244673
0.0016404798 0.0023832594 0.0026577592 0.008167435 0.0051416946 0.0055752206 0.004553006 0.0041896845
0.0057688523 0.0036421025 0.0033648524 0.003143672 1.622521e-05 0.0016419423 0.0028115136 7.570341e-05
00000000: b12d d2bc 7c9b 5bbc a096 a1bc e8eb 8bbc
00000010: c61c bfba 9df9 48bc 7682 4bbc 3925 22bc
00000020: 8c33 1ebc 63c1 963b 6640 a13b 8d95 a83b
00000030: bd12 bf3a adfd 1e3b 52f7 5c3b 39e4 2f3b
00000040: af43 6f3b b15e 813b 31c7 be3b 6401 b93b
00000050: 42a0 cf3b 3ee2 403b 10fb 3b3b 187f 803b
00000060: 45d7 8f3b 2ea6 973b 8562 aa3b 0fe2 293a
00000070: a763 833a d203 dd3a dc27 eeba e36f bbba
00000080: 5704 33ba fd97 54bb 7071 3fbb 5a3a 03bb
00000090: ab8f 313c fb64 d23b 7e6e ab3b 3598 183c
000000a0: 630b a53b b31a b23b c749 6b3c 4c3b 433c
000000b0: 36d6 503c a03e 0cbd cf56 e7bc 5e5e 12bd
000000c0: 5031 c6bc 6606 abbc 5d14 ffbc 3b7c aabc
000000d0: c5fb b5bc 6353 06bd d414 c3ba 5ee7 d9ba
000000e0: 65f8 ffba 3327 1fbb aa1e 38bb c631 4cbb
000000f0: 7f86 a1bb c678 b7bb 4ddd c6bb e1dd 533a
00000100: 6757 b03a d6c4 df3a 48c5 9539 e410 393a
00000110: d7f7 b63a e712 90bb 7896 84bb 268e 4cbb
00000120: 64b7 113b ca54 2f3b a85d 763b a77f 323a
00000130: fa17 0e3a 3ea7 863a a587 ca3b 03c2 d63b
00000140: 529e c53b c0fa 4cba c4b8 e339 e3f6 d63a
00000150: 8d3a b8ba dff6 e839 1dfc d33a 6d81 cab9
00000160: e3d2 9c3a 5266 f13a 7ea1 b639 3848 3d39
00000170: a8ac 1f3a 5e7a 06b9 a256 91b9 931d 063a
00000180: d80a 2bb8 0887 38b9 e04f 0d3a 3944 bb3b
00000190: b84b 5d3b 3c31 583b dce2 dd3b df99 a33b
000001a0: 1505 ab3b 0632 853c a40f 723c 31d9 833c
000001b0: d83e d439 c422 b23a 15d1 073b 48ac 55bb
000001c0: 7784 11bb 088e a7ba ba9b 72bb 0664 38bb
000001d0: dedb fcba e06b 3e3c 39af 2f3c e8dd 5d3c
000001e0: a9d2 093c be5e fb3b c1ad 313c 39a4 ba3b
000001f0: dfa5 9f3b c01f 073c 9a94 493b b57a 473b
00000200: a60a 723b 5d74 173b fecd 213b ac8a 6e3b
00000210: b22b e43a d206 0a3b 4a30 4d3b da56 8bbb
00000220: 3cfa 14bb ad5b 18bb 466a f03b c254 2f3c
00000230: 1ea3 193c 1135 84bb 75ab 05bb 78fb 90bb
00000240: f3a6 d2bc 5f8b 0cbc ecca 48bc 2b65 91bb
00000250: c661 88bb 0357 afbb 2338 82bc 6b10 40bc
00000260: 91eb 82bc 613e 9fba 410a d238 6abf f83a
00000270: e422 77bb af1a 05bb 9e48 0c37 ec5f 3ebc
00000280: 79a1 2dbc 6231 07bc c63a 0d3c 02a0 3f3c
00000290: d76e 7b3c c8b9 b73b 1ea6 233c 7fee 673c
000002a0: 46b7 e43b aa3a 373c 2bf9 723c e590 8b3a
000002b0: 7bde 533a 1953 f13a 419f 2339 0463 183a
000002c0: 792d 463b d71e cdbb fc36 a1bb 740b 68bb
000002d0: b450 bb3b e1fd 883b f2fc b43b 436d e43b
000002e0: c588 ba3b 61f4 f63b 790b 173c 4590 0c3c
000002f0: f222 353c ab78 43b9 3051 a539 8652 843a
00000300: 293d bfba e1db 7cba 9d80 d436 3123 99bb
00000310: 1257 8abb 62fb 55bb 3b7d e23b 44bf 0d3b
00000320: 8224 c839 8c04 cc3b 1f80 bc3a a0b7 353a
00000330: a882 eb3b dd43 7e3b 5f0d 663b 5bf0 7ab9
00000340: b907 9838 8057 b039 fbbd 92ba 7189 5aba
00000350: 7528 b7b9 d269 8bbb f19e 85bb 814d 65bb
00000360: 6d16 df3b e1af 74bb 8658 263a d169 923c
00000370: 2075 6e3c 5eb2 a13c bcb3 adbc c952 9ebc
00000380: 00bb 66bc 37dc 3d3b 86ab 243b d5b2 363b
00000390: 4d7b 9a39 6d75 f339 75b7 83b9 a45c 4abb
000003a0: db57 82bb 5245 7fbb c3e7 143b b1e3 f83a
000003b0: def5 b73a 87e8 5c3b 8bf6 6e3b 94a4 543b
000003c0: 5e05 d73a 7530 1c3b cd2d 2e3b b5d0 053c
000003d0: a97b a83b 57b0 b63b 6231 953b 9f49 893b
000003e0: a408 bd3b 57b0 6e3b db84 5c3b 1006 4e3b
000003f0: 601b 8837 7136 d73a 5f41 383b f5c2 9e38

down_path.2.block.3.bias f4 [32]
0.0026586878 0.11127689 0.0855967 -0.032903366 -0.0043311063 -0.0077430876 -0.010710091 0.0922673
-0.004975783 -0.039787892 -0.022089686 0.02900771 0.001419903 -0.013839482 -0.0125750685 -0.04051661
0.06811495 -0.021189446 -0.0011116171 0.24197613 -0.028505858 0.028804056 1.524869e-05 -0.030835712
0.024307393 -0.017985526 0.034879122 -0.004677571 0.018790616 0.043128245 0.12467072 -0.027502876
00000000: 613d 2e3b 23e5 e33d 534d af3d aec5 06bd
00000010: f4eb 8dbb bab9 fdbb 6179 2fbc a3f6 bc3d
00000020: e50b a3bb a1f8 22bd 6ef5 b4bc 94a1 ed3c
00000030: 0a1c ba3a ffbe 62bc a907 4ebc bff4 25bd
00000040: da7f 8b3d 7d95 adbc aeb3 91ba 97c8 773e
00000050: 1e85 e9bc 7cf6 eb3c a0d4 7f37 2d9b fcbc
00000060: 4c20 c73c 6256 93bc 69dd 0e3d 4f46 99bb
00000070: c7ee 993c 3ea7 303d 5d53 ff3d b64d e1bc

down_path.2.block.5.weight f4 [32]
0.07416761 0.6558381 0.24177513 0.41465753 0.073413804 0.27090693 0.026080137 0.31031454
0.035937984 0.3054452 0.5602545 0.040668197 -0.0012287295 0.295444 0.06848867 0.10561801
0.13502504 0.14989062 0.004039045 0.92682534 0.102749206 0.3098903 0.20171487 0.22575286
0.06921498 0.08181718 0.013903167 0.22571014 0.047651514 0.34663072 0.5869861 0.32343894
00000000: 30e5 973d 01e5 273f e693 773e fe4d d43e
00000010: fa59 963d 50b4 8a3e 03a6 d53c 8ce1 9e3e
00000020: b533 133d 5063 9c3e d76c 0f3f b293 263d
00000030: 520d a1ba 7044 973e ca43 8c3d 414e d83d
00000040: 0144 0a3e ed7c 193e f759 843b 6d44 6d3f
00000050: 2d6e d23d f1a9 9e3e 588e 4e3e c22b 673e
00000060: 95c0 8d3d c48f a73d 1cca 633c 8f20 673e
00000070: 3c2e 433d 9579 b13e b944 163f ca99 a53e

down_path.2.block.5.bias f4 [32]
0.07638631 0.21326871 0.11354541 0.32764903 -0.01134473 0.14346923 0.030570647 0.2065668
0.007183406 0.0102429055 0.09996575 -0.12486056 -0.0010896472 0.05739684 0.026132617 0.055158783
0.11484101 0.107459046 0.004642085 0.24808764 0.048921328 -0.274025 0.21100737 0.03890769
-0.23448856 0.09164416 0.27731022 0.2161822 0.18410921 0.16066794 0.025892219 -0.29225394
00000000: 6d70 9c3d 1d63 5a3e 7f8a e83d 9dc1 a73e
00000010: 3fdf 39bc 99e9 123e 4b6f fa3c 3f86 533e
00000020: c762 eb3b dcd1 273c d8ba cc3d e5b6 ffbd
00000030: 7ed2 8eba f318 6b3d 1214 d63c 2dee 613d
00000040: c331 eb3d 7d13 dc3d a21c 983b b00a 7e3e
00000050: bb61 483d 014d 8cbe 5112 583e ac5d 1f3d
00000060: c51d 70be efaf bb3d 9bfb 8d3e de5e 5d3e
00000070: 2087 3c3e 2386 243e eb1b d43c 4fa2 95be

down_path.2.block.5.running_mean f4 [32]
0.3676515 0.96433216 1.3949704 0.09329303 0.25395936 0.12115084 0.11789336 0.8800634
0.004248058 0.11453865 0.3041893 0.26628834 0.019463724 0.75334483 0.017531997 0.01164147
0.4238074 0.48343936 0.038880467 2.8331783 0.13552286 0.22086227 0.509468 0.41652045
0.3227758 0.25363496 0.28581578 0.80930763 0.3440496 0.73813885 1.4524653 0.34957704
00000000: d13c bc3e 79de 763f 648e b23f 6b10 bf3d
00000010: f606 823e ee1d f83d 1372 f13d d64b 613f
00000020: 4b33 8b3b 3d93 ea3d b3be 9b3e f256 883e
00000030: 6372 9f3c 35db 403f 439f 8f3c ddbb 3e3c
00000040: 49fd d83e 5d85 f73e 2041 1f3d cb52 3540
00000050: 81c6 0a3e b829 623e 7f6c 023f 2b42 d53e
00000060: df42 a53e 71dc 813e 7256 923e c92e 4f3f
00000070: 4527 b03e abf6 3c3f 62ea b93f c3fb b23e
