weights/old/unet-test10.pt (torch_old, 478380 bytes, 92 tensors)

down_path.0.block.0.weight f4 [8, 3, 3, 3]
0	0xbe195fa0	-0.14977884
1	0x3e39d4f8	0.18147647
2	0x3db36c28	0.087608635
3	0xbc4bf697	-0.012448928
4	0x3e3b68f9	0.18301763
5	0x3d79dcab	0.06100146
6	0xbdde68b9	-0.10859818
7	0x3c85245b	0.016252687
8	0xbda7d082	-0.081940666
9	0xbdae7eb6	-0.08520262
10	0xbedb05f7	-0.42777988
11	0xbd6c82b6	-0.057741843
12	0xbeb7e4b3	-0.3591667
13	0xbd0fee78	-0.03513953
14	0x3eca61b5	0.3952767
15	0xbec922d5	-0.39284387
16	0x3e1b825e	0.1518645
17	0x3e5e1093	0.2168601
18	0x3e1bd15f	0.15216587
19	0x3ce5bc9f	0.028044043
20	0x3e63372b	0.22189014
21	0x3c15b6b7	0.009137801
22	0x3deef1db	0.11667224
23	0x3e7ebc38	0.24876487
24	0x3e935030	0.28772116
25	0x3ddb823d	0.107182
26	0xbd082960	-0.033242583
27	0xbe1c58c6	-0.1526824
28	0x3dbdfcce	0.09276734
29	0x3de74fbe	0.112945065
30	0xbe454838	-0.1926583
31	0xbc343b7c	-0.01100051
32	0xbdf3ca4c	-0.119038194
33	0xbe167d20	-0.14696169
34	0xbd62562a	-0.055257954
35	0xbbcbbccf	-0.006217576
36	0xbeb24932	-0.3482147
37	0x3e038d35	0.12846835
38	0xbbd258f1	-0.006419294
39	0x3d30a28c	0.043123767
40	0xbe33ab45	-0.17545803
41	0x3b8b5fb0	0.00425335
42	0x3e709303	0.2349358
43	0xbe2078f3	-0.15671138
44	0xbe4d41be	-0.2004461
45	0x3cb9d645	0.02268518
46	0x3e28a83d	0.16470428
47	0x3db1c0d8	0.0867936
48	0xbe3b7325	-0.18305643
49	0xbe457a12	-0.19284847
50	0x3e8c25df	0.27372643
51	0xbe80b504	-0.25138104
52	0x3d119b02	0.035548218
53	0xbdaffaf6	-0.08592789
54	0xbec65e0e	-0.38743633
55	0xbc64e05d	-0.013969508
56	0x3b63429c	0.0034677153
57	0xbe74be8b	-0.23900811
58	0x3d1b9ba9	0.037990246
59	0xbc12fda9	-0.00897161
60	0xbe60f427	-0.21968137
61	0x3e2ae445	0.1668864
62	0x3c18d5e0	0.0093283355
63	0xbec2b637	-0.38029644
64	0xbda20491	-0.07911027
65	0x3dfca3e1	0.12335945
66	0xbecca341	-0.39968303
67	0xbcdb29a8	-0.026753262
68	0xbddaf034	-0.10690346
69	0xbecde4aa	-0.4021352
70	0x3d39f7d9	0.04540238
71	0x3e6c9a14	0.23105651
72	0xbe803089	-0.2503703
73	0xbcb17b91	-0.021665366
74	0xbd6262ea	-0.055270113
75	0xbecd8429	-0.40139893
76	0x3d822ee8	0.06356603
77	0x3d947b44	0.072500736
78	0xbe83f547	-0.2577307
79	0x3dd35e4e	0.103207216
80	0x3b636321	0.0034696537
81	0xbd4ecc79	-0.05048797
82	0xbd949a87	-0.07256036
83	0xbdc7cdbf	-0.0975604
84	0x3cc83ccf	0.024443058
85	0x3d33b8da	0.04387746
86	0xbbd56a30	-0.0065129027
87	0xbd02b2c1	-0.031908754
88	0xbc345cdf	-0.01100847
89	0xbc2d3682	-0.010572078
90	0xbda1468c	-0.07874784
91	0x3def6218	0.11688632
92	0x3d61db07	0.05514052
93	0x3ab45e62	0.0013761038
94	0xbd107c28	-0.035274655
95	0xbc9bd33d	-0.019021625
96	0xbd54ae10	-0.05192381
97	0xbcae86f9	-0.021304594
98	0x3bf1e7ff	0.0073823924
99	0x3bb9e73f	0.0056733186
100	0xbd239615	-0.03993805
101	0xbe087c64	-0.13328701
102	0x3d79cb5a	0.060984947
103	0x39a00dae	0.0003052777
104	0xbd097ff8	-0.033569306
105	0x3c2d5bfc	0.010581013
106	0xbcabeaa4	-0.020985909
107	0xbc0c9c10	-0.00858213
108	0xbe4b7ce6	-0.19871864
109	0x3e053d01	0.13011552
110	0xbe9db6d6	-0.30803555
111	0xbf1a20f5	-0.6020654
112	0xbe31622f	-0.1732261
113	0xbe83a15e	-0.2570905
114	0xbf1e364b	-0.61801594
115	0xbf02c61c	-0.5108354
116	0xbe3eb8c5	-0.18625171
117	0xbe246107	-0.16052638
118	0x3ea90f97	0.33019707
119	0x3e9b10ce	0.30286258
120	0xbcd705e4	-0.026247926
121	0x3e9bde66	0.30443114
122	0x3ed6312f	0.418344
123	0xbe112ea9	-0.14177956
124	0x3ea66d4e	0.32505268
125	0x3ed53497	0.41641685
126	0xbdb41c87	-0.08794504
127	0x3e9ca95c	0.3059796
128	0x3ea924f6	0.3303601
129	0x3dc77000	0.09738159
130	0x3d64f6f0	0.05589956
131	0x3e2cb7b8	0.16866958
132	0xbe19d6d7	-0.15023361
133	0x3ed7d4f4	0.42154658
134	0x3cfa4f68	0.030555442
135	0x3ec6378d	0.38714257
136	0x3d3b0737	0.045661177
137	0xbe839e41	-0.25706676
138	0x3e930a46	0.28718776
139	0x3e45a9ab	0.19303004
140	0xbe4de0b5	-0.2010525
141	0x3da7ce6a	0.08193667
142	0xbe59b3cf	-0.21259998
143	0xbe2b8741	-0.16750814
144	0xbd6e5a85	-0.058191795
145	0xbd700a89	-0.058603797
146	0xbf165515	-0.58723575
147	0xbdcf415d	-0.10119889
148	0xbe68f47d	-0.22749515
149	0xbedd6b92	-0.43246132
150	0xbe4b82d3	-0.19874124
151	0x3dbf9e9c	0.09356424
152	0xba50c700	-0.00079642236
153	0x3ec443be	0.38332933
154	0x3d8702cd	0.06592331
155	0xbdc70456	-0.09717624
156	0x3e33e82f	0.1756904
157	0x3e53f871	0.20700242
158	0x3dced1be	0.10098599
159	0x3f2262a7	0.6343178
160	0x3ee0cfde	0.4390859
161	0x3e587ddb	0.2114176
162	0x9ed14ca2	-2.216043e-20
163	0x1fa2b8e5	6.891555e-20
164	0x80654bc9	-9.302572e-39
165	0x1f91e4d0	6.178843e-20
166	0xa1c88dd6	-1.3590071e-18
167	0x079bb739	2.3429497e-34
168	0x20141073	1.254153e-19
169	0x22be8573	5.16409e-18
170	0x17b4f1cf	1.1693268e-24
171	0x2089b30d	2.3327189e-19
172	0x1ec790b5	2.1129794e-20
173	0x849b5b05	-3.6523913e-36
174	0xa0a63402	-2.815591e-19
175	0x22891411	3.715517e-18
176	0x10269b4d	3.2857367e-29
177	0xa2254621	-2.2398796e-18
178	0xa58a1a52	-2.395702e-16
179	0x9b01c65a	-1.0734721e-22
180	0x9fbacca2	-7.91126e-20
181	0xa1a6869e	-1.128423e-18
182	0x005930bd	8.190843e-39
183	0x208d6dac	2.3958904e-19
184	0x237a126c	1.3556428e-17
185	0x9292d240	-9.265726e-28
186	0x20b6604c	3.0895723e-19
187	0xa2e94dcd	-6.323715e-18
188	0x1c6d8a0f	7.859516e-22
189	0xbde46dbf	-0.11153745
190	0xbe26bd9e	-0.1628327
191	0xbe36a697	-0.17836986
192	0xbdc8062c	-0.09766802
193	0xbdd296a2	-0.10282637
194	0x3cdc278d	0.026874328
195	0x3d3d01be	0.04614424
196	0x3defb866	0.11705093
197	0xbc7929e4	-0.015207741
198	0x3e1df2b2	0.15424612
199	0xbee01ea8	-0.4377339
200	0xbdb8ae16	-0.09017579
201	0x3c4141c5	0.011795466
202	0x3e5f5e0b	0.21813218
203	0xbdc74c2f	-0.09731328
204	0xbd738846	-0.059456132
205	0xbd250a9e	-0.04029333
206	0x3db121c9	0.08649022
207	0x3d6768b8	0.056496352
208	0x3d289872	0.04116101
209	0xbd428925	-0.047494072
210	0xbe0f7da5	-0.14012773
211	0x3d8eb11e	0.06967376
212	0xbe96132f	-0.2931151
213	0xbd6a2ba8	-0.05717054
214	0xba46a01e	-0.000757696
215	0xbe43b397	-0.19111477

down_path.0.block.0.bias f4 [8]
0	0x3e3aa6be	0.1822767
1	0xbc82a1a1	-0.015946211
2	0x3dd90195	0.10596005
3	0xbd21dd13	-0.039517473
4	0x3e77ca52	0.24198273
5	0x3dfb3849	0.12266595
6	0xacd0753a	-5.9247303e-12
7	0xbe4d8967	-0.20071946

down_path.0.block.2.weight f4 [8]
0	0x3f7ac0f4	0.97950673
1	0x3f2bece0	0.6715832
2	0x3f37ef3e	0.7184943
3	0x3a97acc0	0.0011571869
4	0x3f6716af	0.9026899
5	0x3f9439f6	1.1580188
6	0xa0e2df9c	-3.8433861e-19
7	0x3f03e014	0.5151379

down_path.0.block.2.bias f4 [8]
0	0xbd4412f1	-0.047869626
1	0x3c60cc4d	0.013720584
2	0x3e5453f4	0.2073515
3	0xb81aadf3	-3.6878464e-05
4	0x3e8ebde5	0.27879253
5	0x3e273b6c	0.16331261
6	0x3951ddc1	0.00020014403
7	0xbe6f3f4a	-0.23363987

down_path.0.block.2.running_mean f4 [8]
0	0x3ebef797	0.3729827
1	0x3439b274	1.7294388e-07
2	0x391012df	0.0001373994
3	0x2151264a	7.086263e-19
4	0x3ec77005	0.38952652
5	0x3e898388	0.26858163
6	0x00000004	6e-45
7	0x236b3719	1.2751043e-17

down_path.0.block.2.running_var f4 [8]
0	0x3cbb8f18	0.02289538
1	0x32448f4d	1.1441284e-08
2	0x3820c930	3.8334343e-05
3	0x1e04cd16	7.0304326e-21
4	0x3c41c65e	0.01182708
5	0x3ccebdeb	0.025237044
6	0x00000004	6e-45
7	0x214bee82	6.909474e-19

down_path.0.block.3.weight f4 [8, 8, 3, 3]
0	0x3db9531d	0.09049056
1	0x3df73082	0.12069799
2	0xbdeb06e4	-0.11475924
3	0xbe1f8904	-0.15579611
4	0x3e913d5d	0.2836713
5	0xbde0cd64	-0.10976675
6	0xbc202d4a	-0.009776423
7	0x3e14bdb8	0.14525497
8	0x3c100f20	0.008792669
9	0xbdefa427	-0.117012314
10	0xbe5866cc	-0.21132964
11	0xbcecf35b	-0.028924635
12	0x3c293067	0.010326481
13	0xbc6a5dab	-0.014304559
14	0x3dbae400	0.09125519
15	0x3d836034	0.06414834
16	0x3d4369b1	0.047708217
17	0x3d3ff6ff	0.046866413
18	0x3ce19253	0.027535593
19	0x3eb50880	0.35358047
20	0xbd68d49d	-0.05684339
21	0x3d9913f8	0.07474512
22	0x3ee5de2f	0.44896075
23	0xbdd2d5b1	-0.10294665
24	0x3e1193b2	0.14216498
25	0x3b7e0e26	0.0038765757
26	0xbc86384e	-0.01638427
27	0xb93c845f	-0.00017978389
28	0xb95c05cc	-0.00020982994
29	0xb95cc033	-0.00021052435
30	0xb99f9337	-0.00030436527
31	0xb9dbd84c	-0.0004193209
32	0xba03afcc	-0.0005023449
33	0xb9321d1f	-0.00016986251
34	0xb94b0678	-0.00019361998
35	0xb9dde78f	-0.0004232493
36	0x3e86a3f9	0.26296976
37	0x3ee2fdfe	0.44334406
38	0x3ee9f61f	0.45695588
39	0xbc963aba	-0.01833855
40	0x3eeef7d4	0.46673453
41	0x3e373bdb	0.17893927
42	0x3e38ee0d	0.18059559
43	0x3e2c0f4d	0.16802712
44	0xbbe4d115	-0.0069829323
45	0xbe9f00d4	-0.3105532
46	0xbe6fa2fa	-0.23402014
47	0xbd4185ec	-0.04724686
48	0xbe0059e9	-0.12534298
49	0xbe277d64	-0.16356426
50	0xbe903cbc	-0.28171337
51	0xbee6a359	-0.450465
52	0xbf05eb6f	-0.5231237
53	0xbc400d2e	-0.011721892
54	0x39452d35	0.00018804225
55	0x391d86a1	0.0001502284
56	0x39615e6e	0.0002149285
57	0x39195105	0.00014621399
58	0x392fea24	0.00016776525
59	0x394aa8a2	0.00019327042
60	0x3942e7f7	0.00018587695
61	0x392f1808	0.00016698253
62	0x3953ece6	0.0002021078
63	0xbe8746df	-0.26421258
64	0xbe83420f	-0.25636336
65	0xbe747d98	-0.23876035
66	0xbe8a2285	-0.2697946
67	0xbe97f2fc	-0.2967757
68	0xbea65bf6	-0.32492036
69	0xbe3af876	-0.18258843
70	0xbe6ab7aa	-0.22921625
71	0xbe3bbc55	-0.18333562
72	0x3e4b0b89	0.19828619
73	0x3d1f1303	0.03883649
74	0xbeb384a0	-0.35062122
75	0xbe4942a1	-0.19654323
76	0xbe6f244b	-0.23353688
77	0x3e08c534	0.13356477
78	0x3d67488a	0.056465663
79	0xbc8a2b7a	-0.016866434
80	0xbe5ade94	-0.2137397
81	0xbad7f3a3	-0.0016475808
82	0xbe3e9d08	-0.1861459
83	0x3d3cbb66	0.046077155
84	0xbcf9527e	-0.030434843
85	0x3def2607	0.11677175
86	0x3dc44bc6	0.09584765
87	0xbbf274b6	-0.007399167
88	0xbda31e2d	-0.0796474
89	0x3e2b80bb	0.16748326
90	0x3e05cd6d	0.13066645
91	0xbc72bf92	-0.014816182
92	0x3d2f726a	0.042833723
93	0xbd816ee0	-0.06319976
94	0xbeaa44de	-0.33255666
95	0xbde9a121	-0.11407686
96	0xbea50cae	-0.32236236
97	0xbdbf1f8e	-0.093321905
98	0xbe6bf5dc	-0.23043007
99	0xba381ba6	-0.0007023163
100	0xba49aebf	-0.00076935807
101	0xba6dca0a	-0.00090709387
102	0x3c00615f	0.007835715
103	0x3b54677a	0.003241031
104	0x3b3910d6	0.0028238795
105	0xba8543f1	-0.0010167343
106	0xba841e01	-0.0010079743
107	0xba873cc9	-0.0010317798
108	0x3e23fb98	0.16013944
109	0x3e82cc71	0.255466
110	0x3e2cd244	0.16877085
111	0xbd0afc76	-0.03393217
112	0xbe46be00	-0.19408417
113	0x3eecc157	0.46241257
114	0xbee3d710	-0.44500017
115	0xbed290bd	-0.41126052
116	0xbddb956f	-0.107218616
117	0x3e10d8f8	0.14145267
118	0x3d720807	0.059089687
119	0xbd06f4dc	-0.03294836
120	0xbebe8e3a	-0.37217885
121	0xbec54142	-0.3852635
122	0xbf0e47a4	-0.55578065
123	0x3e84904e	0.25891346
124	0x3e8bb541	0.27286723
125	0xbe89551a	-0.2682274
126	0xba889d5c	-0.0010422873
127	0xb9ff3909	-0.00048679885
128	0xba396814	-0.0007072699
129	0xb9c7e2b4	-0.00038125145
130	0x3acd367b	0.0015656495
131	0xba4a7296	-0.0007722763
132	0xb8b4a739	-8.6142165e-05
133	0xbaaef41c	-0.0013347897
134	0x3a146e57	0.0005662194
135	0x3db4cd1b	0.08828183
136	0x3d82cdd7	0.06386917
137	0x3e35cfe2	0.17755082
138	0x3da12cf7	0.078699045
139	0x3de714d3	0.11283269
140	0x3e34e12b	0.1766402
141	0x3e87fedf	0.2656164
142	0x3e6032aa	0.21894327
143	0x3e0d2395	0.13783105
144	0xbe377d22	-0.17918828
145	0xbe873b6d	-0.26412526
146	0x3d8df3a8	0.06931239
147	0xbe150bd7	-0.14555298
148	0xbe1234e2	-0.14277986
149	0xbec68400	-0.38772583
150	0xbe6ae9bf	-0.2294073
151	0xbed91717	-0.4240043
152	0xbe2cc799	-0.16873015
153	0xbd8ba5e3	-0.0681875
154	0xbd899fb9	-0.06719918
155	0x3da02bf9	0.07820887
156	0xbda97b14	-0.082754284
157	0xbd64965f	-0.055807468
158	0x3ea56af9	0.32308176
159	0xbe1330e6	-0.14374122
160	0xbc191703	-0.009343865
161	0x3e4f789e	0.20260856
162	0x3d875b6e	0.06609236
163	0x3dcf9a29	0.101368256
164	0xbe5aece8	-0.21379435
165	0xbe79a0c8	-0.2437774
166	0x3e3bfdc5	0.18358524
167	0xbdf6ad9e	-0.120448336
168	0xbeaa1381	-0.33218005
169	0x3e3ce7b1	0.18447758
170	0x3c90c431	0.017671676
171	0xba75c085	-0.0009374696
172	0xb9ebeec3	-0.00045000584
173	0x3bb799a8	0.005603034
174	0xbb301286	-0.002686651
175	0xbb940363	-0.0045170053
176	0xbb06d4ef	-0.0020573696
177	0xba15414e	-0.000569363
178	0xb9c4e899	-0.00037557332
179	0x3b94c6eb	0.0045403144
180	0x3caa8e34	0.02081976
181	0xbdf8b364	-0.12143591
182	0xbd1890f4	-0.037247613
183	0xbbdd1ce9	-0.006747831
184	0x3d8012f9	0.06253619
185	0xbe4b4dcd	-0.19853897
186	0x3dceb725	0.10093526
187	0x3ea1e5cf	0.31620643
188	0x3de62113	0.11236777
189	0x3f0210e7	0.5080704
190	0x3e26de9d	0.16295858
191	0xbd061458	-0.032734245
192	0x3ef46fa9	0.4774144
193	0x3e0d0060	0.13769674
194	0x3dea4ea0	0.11440778
195	0x3e5fa86e	0.21841595
196	0x3d53cacb	0.05170707
197	0xbca9977c	-0.020702116
198	0x37eaa6c5	2.7972632e-05
199	0x38e3ccfd	0.000108623855
200	0x3acc8d5b	0.0015606092
201	0xba9d5bcf	-0.001200551
202	0xbacb27d0	-0.0015499536
203	0x39bfcfae	0.00036585092
204	0xb98ed11b	-0.00027240146
205	0xba29ff07	-0.00064848404
206	0xba844389	-0.0010090928
207	0x3d29f717	0.04149541
208	0xbe0ce2b4	-0.13758355
209	0xbd7d437b	-0.061831933
210	0xbd3ef70e	-0.04662233
211	0xbe562b44	-0.20914942
212	0xbe80e127	-0.25171778
213	0xbda15af2	-0.078786746
214	0xbdfffd86	-0.12499528
215	0xbdb0d5fa	-0.08634563
216	0x3e7ecadc	0.24882072
217	0x3ea138f8	0.31488776
218	0x3d5b429b	0.053530317
219	0x3e00fd2a	0.12596574
220	0x3e62f626	0.2216421
221	0xbe825617	-0.25456306
222	0xbdb15c37	-0.08660167
223	0x3dcf992c	0.10136637
224	0xbd0843b7	-0.033267703
225	0x3a9adbdf	0.0011814794
226	0xbb04f180	-0.0020285547
227	0xbaeac047	-0.0017910086
228	0xbc113d21	-0.008864672
229	0xbc17e8c7	-0.009271807
230	0xbb13d289	-0.0022555909
231	0xbbd97778	-0.0066365562
232	0xbb225c4b	-0.002477425
233	0xba74d865	-0.00093401066
234	0xbe0ecf6a	-0.1394631
235	0xbe25754f	-0.16158031
236	0xbc915365	-0.01773996
237	0xbd91e1c4	-0.071231395
238	0xbd938e6e	-0.07204901
239	0xbe2117e9	-0.15731777
240	0xbdd3b49b	-0.10337182
241	0xbd22c165	-0.039735217
242	0xbd069ce8	-0.03286448
243	0x38229528	3.8762722e-05
244	0x3a3be1c0	0.0007167123
245	0x37a59c54	1.9742329e-05
246	0x39272e90	0.00015943707
247	0x38064dd3	3.202057e-05
248	0x38d0613a	9.936323e-05
249	0x3889543c	6.548359e-05
250	0x38653075	5.4642984e-05
251	0x382ff0f8	4.194767e-05
252	0x3e45bb0b	0.19309632
253	0x3eacf834	0.33783114
254	0x3ee2bd48	0.44285035
255	0x3ddff779	0.109358735

down_path.0.block.3.bias f4 [8]
0	0x3ebb8001	0.36621097
1	0xbe92d926	-0.28681296
2	0x3e15302f	0.14569162
3	0xbdc674b5	-0.09690229
4	0xbd67a993	-0.056558203
5	0x3d296647	0.041357305
6	0x3c83ee87	0.01610495
7	0xbde15c2e	-0.1100391

down_path.0.block.5.weight f4 [8]
0	0x3f8b1c55	1.0868021
1	0x3f5a7768	0.8533845
2	0x3f84ccba	1.0374978
3	0x3f467ba3	0.77532405
4	0x3f28eaf6	0.6598352
5	0x3f0cf28a	0.55057585
6	0x3f6c10d6	0.9221319
7	0x3f723af5	0.9462121

down_path.0.block.5.bias f4 [8]
0	0x3ea5cea9	0.32384232
1	0xbd82df74	-0.063902766
2	0x3b1d19a2	0.0023971577
3	0x3c814465	0.015779683
4	0xbee1b99c	-0.4408692
5	0x3e5854f5	0.21126159
6	0xbeb3d2fb	-0.35121903
7	0x3e1c4464	0.15260464

down_path.0.block.5.running_mean f4 [8]
0	0x3fd4debe	1.6630476
1	0x3e102574	0.14076787
2	0x3f568dcc	0.83810115
3	0x3f84ee39	1.03852
4	0x3ef64eaf	0.48106906
5	0x3f5e1ea6	0.86765516
6	0x3f566dfc	0.8376157
7	0x3f09bc05	0.5380252

down_path.0.block.5.running_var f4 [8]
0	0x403c885f	2.9458234
1	0x3e00d96c	0.1258294
2	0x3f1ebd46	0.6200756
3	0x40a367f5	5.10644
4	0x3f4acbbd	0.7921713
5	0x404af9d7	3.171499
6	0x3f9167c5	1.1359793
7	0x3f087f24	0.53319

down_path.1.block.0.weight f4 [16, 8, 3, 3]
0	0xbd41ab1f	-0.047282334
1	0x3e38c46f	0.18043683
2	0x3e32bbea	0.17454496
3	0x3e78f739	0.24313058
4	0x3e26a2ce	0.16273043
5	0x3e386f67	0.18011247
6	0xbbcaf963	-0.00619428
7	0x3dbd28f2	0.09236325
8	0x3e0b4f00	0.13604355
9	0xbd364c02	-0.04450608
10	0xbd3d1863	-0.046165835
11	0xbcb7f2fd	-0.022454733
12	0x3da61d90	0.08111107
13	0x3d711dac	0.058866188
14	0x3e364e4f	0.1780331
15	0x3e2d9870	0.16952682
16	0x3e5e3499	0.21699752
17	0x3e247589	0.16060461
18	0x3d69a731	0.05704421
19	0x3c948b67	0.018132878
20	0x3d0a2b7c	0.033732876
21	0x3ce377e3	0.027767127
22	0x3d5a43bb	0.05328725
23	0x3b94763c	0.004530696
24	0x3e351c6a	0.1768662
25	0x3e138ed3	0.14409952
26	0xbc2185c1	-0.00985855
27	0xbc753a81	-0.014967562
28	0x3bc7b053	0.0060940175
29	0x3dcff93f	0.10154962
30	0xbd6c1c2b	-0.05764405
31	0xbd9fb432	-0.077980414
32	0x3bc30a70	0.005952172
33	0xbd90e5c0	-0.07075071
34	0x3bcf9b06	0.006335619
35	0xbd3a0489	-0.04541448
36	0x3cbc7faa	0.023010094
37	0xbc2442bc	-0.010025676
38	0x3987c6f8	0.0002589745
39	0x3b3dfc34	0.0028989436
40	0xbd148988	-0.036263973
41	0xbcef1c9e	-0.02918845
42	0x3cf642e9	0.030061202
43	0xbcef9a47	-0.02924837
44	0x3ceb311a	0.028709937
45	0xbd7312d1	-0.059344117
46	0xbcd1ebc4	-0.025625117
47	0xbc6c4ac2	-0.0144221205
48	0xbbb367a5	-0.005475002
49	0xbd2b3bca	-0.041805066
50	0xbd75da36	-0.060022555
51	0xbc05f3a2	-0.008175762
52	0xbceaf9d6	-0.028683584
53	0xbd0b55ea	-0.03401748
54	0xbd23f93e	-0.040032618
55	0xbe098cdb	-0.13432638
56	0xbdbdf6e6	-0.09275608
57	0x3d3937b5	0.045219142
58	0xbda2fc36	-0.07958262
59	0xbcb3ca81	-0.021947147
60	0x3d88c5f7	0.06678384
61	0xbd5f6608	-0.054540664
62	0xbc856c4f	-0.016286997
63	0xbc43f281	-0.011959673
64	0xb9374595	-0.00017478161
65	0x3d69f63f	0.057119604
66	0x3e6291b0	0.22125888
67	0x3e47b376	0.19502053
68	0x3e0fcdcb	0.14043348
69	0x3e0ab3f0	0.13545203
70	0x3e89f33d	0.2694339
71	0x3e3ae638	0.18251884
72	0x3e7327b8	0.2374562
73	0x3a86ffba	0.0010299601
74	0xbdb05a67	-0.08610993
75	0x3e582937	0.21109472
76	0x3ccebdbb	0.025236955
77	0xbbd95aed	-0.0066331537
78	0x3e12ca19	0.14334907
79	0x3d9b83cc	0.07593498
80	0xbd48e059	-0.04904208
81	0xbb8c340f	-0.004278667
82	0x3e23d66d	0.15999766
83	0x3c8558f1	0.016277762
84	0xbc823ae1	-0.015897216
85	0xbd854b3d	-0.06508491
86	0xbccf6736	-0.02531777
87	0xbb8d788d	-0.0043173493
88	0xbda95173	-0.08267488
89	0xbce6e4e3	-0.028185314
90	0xbdaf2371	-0.08551682
91	0x3d93090a	0.071794584
92	0x3e2a6e6a	0.16643682
93	0x3ca6b641	0.020350577
94	0x3d1bc92e	0.038033657
95	0x3e67b6eb	0.22628371
96	0xbdc8c08c	-0.098023504
97	0x3da199a3	0.07890632
98	0x3d9e61db	0.07733508
99	0xbb9cbcab	-0.004783233
100	0x3ba2a9d0	0.004964091
101	0xbe1ee321	-0.1551633
102	0xbb6889fc	-0.0035482636
103	0xbd600449	-0.054691587
104	0xbe5120d1	-0.20422675
105	0xbbc27dfb	-0.005935428
106	0xbc551f72	-0.013007985
107	0xbe2f90cd	-0.17145081
108	0xbd573921	-0.052544717
109	0xbd5ee71c	-0.05441962
110	0xbdfe866a	-0.12427981
111	0xbe108b3a	-0.1411561
112	0xbcf90ffd	-0.030403132
113	0x3c8c5ad4	0.017133154
114	0xbd36771c	-0.044547185
115	0xbd508023	-0.05090345
116	0xbd4f7207	-0.050645854
117	0xbcce749f	-0.025202094
118	0x3dc79791	0.09745706
119	0xbdbaadb6	-0.09115164
120	0x3d85fec7	0.065427355
121	0x3e199b8e	0.15000746
122	0x3d10292a	0.035195507
123	0x3e1bb635	0.15206225
124	0x3c98533f	0.018594382
125	0xbd0e8dc9	-0.034803186
126	0x3de3ba6c	0.111195415
127	0x3e8345d2	0.25639206
128	0x3e9534ab	0.29141745
129	0x3e186f0f	0.14886115
130	0x3e3da6ca	0.18520656
131	0x3e25287f	0.1612873
132	0x3dcff158	0.101534545
133	0x3e3cf3f0	0.1845243
134	0x3e3e6012	0.18591335
135	0xbd5b6991	-0.053567473
136	0xbd94b3e1	-0.07260872
137	0xbda2a2d1	-0.07941211
138	0x3c0229e4	0.007944558
139	0xbc43b117	-0.011944077
140	0xbc52be3b	-0.012862737
141	0xbdef4417	-0.11682909
142	0xbe2e0cc0	-0.16997051
143	0xbd2f18d9	-0.042748306
144	0x3d94d6db	0.07267543
145	0x3e2e160f	0.17000602
146	0x3d9d6df4	0.076869875
147	0x3d9473fe	0.07248686
148	0x3eadc007	0.33935568
149	0x3e03755b	0.12837736
150	0xbc055726	-0.008138454
151	0x3e454859	0.1926588
152	0x3dbc4ef7	0.09194749
153	0x3cf87a43	0.030331736
154	0xbc045f18	-0.008079313
155	0xbdce1030	-0.10061681
156	0x3d975684	0.073895484
157	0x3d225c41	0.03963876
158	0xbdccdc63	-0.10002973
159	0x3c7b5f54	0.015342552
160	0x3e30299c	0.17203373
161	0x3e688401	0.22706605
162	0xbd1af120	-0.03782761
163	0xbe562647	-0.20913039
164	0x3d5ec116	0.05438336
165	0xbde98b68	-0.11403543
166	0xbe13ef49	-0.14446749
167	0xbdc19a16	-0.09453218
168	0xbe135219	-0.14386787
169	0xbe18a21d	-0.14905591
170	0x3d4ab97a	0.04949329
171	0xbd94ceb2	-0.072659865
172	0x3e2599cd	0.16171952
173	0x3e8bd5fa	0.2731169
174	0xbda96e9e	-0.08273052
175	0x3e486932	0.19571379
176	0xbdd8580f	-0.10563671
177	0x3d96020a	0.07324608
178	0x3da055c6	0.0782886
179	0x3d59868e	0.053106837
180	0xbce2d660	-0.027690113
181	0xbb98c20d	-0.0046618045
182	0xbd200c38	-0.039074153
183	0xbe26344c	-0.16230887
184	0xbd33335d	-0.043750156
185	0xbd70e6e1	-0.058813933
186	0xbd87eb5a	-0.066366866
187	0xbcee7ce2	-0.029112283
188	0xbd8433d0	-0.06455195
189	0xbdfaca70	-0.12245643
190	0xbddc961c	-0.107708186
191	0xbd143e2e	-0.03619211
192	0xbe981be0	-0.29708767
193	0xbe08a4ae	-0.1334407
194	0xbdb03fd1	-0.08605922
195	0xbdd5f2c4	-0.104466945
196	0xbe58b731	-0.21163632
197	0xbd297526	-0.041371487
198	0xbe900e96	-0.28136128
199	0xbdb424c5	-0.08796076
200	0xbdeae5b1	-0.114695914
201	0xbe86c9a8	-0.26325727
202	0xbdb331e2	-0.08749749
203	0xbd8a8254	-0.06763139
204	0xbe785a9c	-0.24253315
205	0x3ce34ab7	0.027745588
206	0x3d63fc2f	0.055660423
207	0xbd83339a	-0.064063266
208	0xbd773f9b	-0.060363393
209	0x3cf634fd	0.030054564
210	0x3c4c2599	0.012460136
211	0x3e71b00e	0.23602316
212	0x3de35eef	0.111020915
213	0x3dac7075	0.08419887
214	0x3cb69d75	0.022291878
215	0x3ea1f2be	0.3163051
216	0xbeaffd3d	-0.34372893
217	0xbdaba3d4	-0.08380857
218	0x3d9d66c3	0.07685616
219	0x3d80b1a5	0.06283883
220	0xbd3f158a	-0.0466514
221	0x3dcbcc4f	0.09951078
222	0x3d5117fe	0.05104827
223	0x3b9c7b0a	0.0047754096
224	0x3dc73b63	0.09728124
225	0xbe895b8f	-0.26827666
226	0xbea8d866	-0.329776
227	0xbdffaf90	-0.12484658
228	0x3d283121	0.041062478
229	0xbce54c7b	-0.02799057
230	0x3d034ac1	0.032053713
231	0x3e99fe2b	0.30076727
232	0x3eabd893	0.3356367
233	0x3e96ccda	0.29453164
234	0xbd937030	-0.071991324
235	0x3e195528	0.14973891
236	0xbc587fbd	-0.013214049
237	0x3c4548ae	0.012041254
238	0xbc709760	-0.014684528
239	0xbb4797dd	-0.0030455508
240	0xbbd62991	-0.006535717
241	0xbdd0c6df	-0.10194182
242	0xbdb53940	-0.0884881
243	0xbd306160	-0.043061614
244	0xbd209381	-0.03920317
245	0x3d56d38d	0.052447844
246	0xbdfc3eda	-0.123166755
247	0x39a62e7d	0.00031696624
248	0xbd814e09	-0.06313712
249	0xbdecdf20	-0.11565995
250	0xbe040fb3	-0.12896614
251	0xbd9e010d	-0.07715044
252	0xbe0c51b4	-0.13703042
253	0x3db52aed	0.08846078
254	0xbd2d82d8	-0.04236111
255	0x3d6e3550	0.05815631

down_path.1.block.0.bias f4 [16]
0	0x3ce50ca1	0.027960123
1	0xbe293c0b	-0.16526811
2	0xbcac1cfb	-0.021009913
3	0xbe827f0c	-0.25487554
4	0x3c291ad0	0.010321334
5	0xbd4694b2	-0.04848165
6	0xbd20e6a3	-0.039282452
7	0x3d1070de	0.03526389
8	0xbddbc52d	-0.10730968
9	0x3d84179c	0.06449816
10	0x3b65feaf	0.003509443
11	0x3f09257b	0.53572816
12	0xbe46da04	-0.19419104
13	0xbcdd5a31	-0.027020546
14	0xbe92e035	-0.2868668
15	0xbd9010b5	-0.070344366

down_path.1.block.2.weight f4 [16]
0	0x3ef3c003	0.4760743
1	0x3f09c87a	0.5382153
2	0x3f49a388	0.78765154
3	0x3f2b3744	0.66881204
4	0x3f30c6cc	0.6905334
5	0x3ef2e6e4	0.4744178
6	0x3ede3455	0.433993
7	0x3f1ed20c	0.62039256
8	0x3f5adb8a	0.8549124
9	0x3f039da9	0.51412445
10	0x3e9050b4	0.28186572
11	0x3fffabf8	1.9974356
12	0x3e1f2f7f	0.15545462
13	0x3ee5626e	0.44801658
14	0x3f56398f	0.8368158
15	0x3f0fc559	0.56160504

down_path.1.block.2.bias f4 [16]
0	0xbe404ff8	-0.18780506
1	0x3d68788f	0.0567556
2	0x3db7cd8a	0.0897475
3	0x3da209a6	0.079119965
4	0x3cd93e2c	0.026518904
5	0x3d69fa6d	0.05712359
6	0x3db194da	0.08670969
7	0x3e4c0a07	0.199257
8	0xbe73c0e5	-0.23804052
9	0xbddf806c	-0.109131664
10	0x3d1e7ace	0.038691334
11	0xbcc151b9	-0.023598539
12	0x3d23af00	0.039961815
13	0xbd32d2f7	-0.043658223
14	0xbdcff984	-0.10155013
15	0x3e86d289	0.263325

down_path.1.block.2.running_mean f4 [16]
0	0x3fb14d4c	1.3851714
1	0x3f103ba3	0.56341
2	0x3f9dcada	1.232753
3	0x3e4e147f	0.20125006
4	0x3f9cc1e6	1.2246673
5	0x3f3a17e0	0.7269268
6	0x3f584a6b	0.8448855
7	0x3f537dd6	0.82613885
8	0x3f9490a2	1.1606638
9	0x3f90c913	1.1311363
10	0x3f49e70b	0.7886817
11	0x3fe9bcbc	1.8260722
12	0x3e5ccc30	0.21562266
13	0x3f4b4aa8	0.7941079
14	0x3f0aaee2	0.541731
15	0x3f8b78bb	1.0896219

down_path.1.block.2.running_var f4 [16]
0	0x4084ab74	4.1459293
1	0x4018a62f	2.385143
2	0x403a8bb6	2.9147773
3	0x3ecb0caa	0.396581
4	0x401f278f	2.4867895
5	0x404dc74c	3.215289
6	0x40000b4a	2.000689
7	0x400e87c6	2.227037
8	0x406a48d9	3.6606963
9	0x40aaa7b5	5.332972
10	0x400f599b	2.239844
11	0x40105264	2.2550287
12	0x3f286c4e	0.6579026
13	0x404a2b0b	3.1588771
14	0x3fc788d2	1.5588629
15	0x40871bed	4.222159

down_path.1.block.3.weight f4 [16, 16, 3, 3]
0	0xbd354789	-0.044257674
1	0xbbbc935f	-0.0057548727
2	0xbd076696	-0.033056818
3	0x3dcadbec	0.09905228
4	0x3d6f5e28	0.058439404
5	0x3c84f85d	0.01623171
6	0x3c81d2d5	0.015847603
7	0x3c5b0074	0.013366807
8	0x3d9948c9	0.07484586
9	0x3dd190c4	0.1023269
10	0x3d96a72f	0.073561065
11	0xbd6731a9	-0.056443844
12	0x3dbfa423	0.093574785
13	0xbbb5fc13	-0.005553731
14	0xbdaa0b66	-0.08302955
15	0x3c950187	0.018189205
16	0x3d3f0c8e	0.046642832
17	0x3c62d78a	0.013845334
18	0x3db025c4	0.08600953
19	0x3d248acf	0.04017144
20	0x3e0ca38d	0.13734265
21	0x3db9919f	0.09060978
22	0x3d800c3d	0.06252334
23	0x3d9c98f2	0.076463595
24	0x3d85e2af	0.06537377
25	0x3d811ec1	0.06304694
26	0x3dc1da1b	0.094654284
27	0xbdc17084	-0.09445289
28	0xbd087645	-0.033315916
29	0xbd31f591	-0.04344708
30	0xbcdae24e	-0.026719239
31	0xbd297bf7	-0.041377988
32	0xbd689c6a	-0.056789793
33	0xbd8b74cc	-0.068093866
34	0x3d8746f2	0.066053286
35	0x3dcaff93	0.09912028
36	0x3df38091	0.118897565
37	0x3d95944d	0.07303677
38	0xbd98e4ef	-0.074655406
39	0x3e0bb93b	0.13644879
40	0x3d969e1d	0.073543765
41	0x3d3d1908	0.04616645
42	0x3e53aa80	0.2067051
43	0x3db298d0	0.08720553
44	0x3db781b4	0.08960286
45	0x3e1873ad	0.14887877
46	0x3c6aa982	0.01432264
47	0xbcad5c7d	-0.021162266
48	0x3ca701b3	0.020386552
49	0xbd83501b	-0.06411763
50	0x3b805f27	0.003917593
51	0x3db43a05	0.08800129
52	0x3bda2ff2	0.0066585476
53	0xbcfcb97e	-0.030850168
54	0x3d5bea97	0.05369052
55	0xbd1ed49b	-0.038776975
56	0x3d30ed93	0.04319532
57	0xbc34f11a	-0.011043811
58	0xbdd6ab98	-0.10481948
59	0xba54f005	-0.0008122924
60	0xbd2160a2	-0.039398797
61	0xbdb78a76	-0.08961956
62	0xbcfe1cb3	-0.031019544
63	0x3cb3e573	0.021959996
64	0xbc920a91	-0.017827304
65	0x3da08058	0.0783698
66	0x3d69c456	0.057072006
67	0xbcc1a68f	-0.023638992
68	0x3d2db8bf	0.042412516
69	0x3d63acda	0.055584766
70	0xbdbb55af	-0.09147202
71	0x3cbde5e7	0.023180915
72	0xbd916520	-0.07099366
73	0x3e1d7439	0.15376367
74	0x3e182a0c	0.1485979
75	0xbca9b5b1	-0.02071652
76	0x3db36753	0.08759942
77	0xbd1906cd	-0.03736
78	0x3d4f0278	0.050539464
79	0x3e06747c	0.13130373
80	0x3e0b9bd0	0.13633657
81	0xbd1cfff6	-0.03833004
82	0xbb7a6817	-0.0038209015
83	0xbd883ffb	-0.06652828
84	0x3c881b17	0.01661448
85	0xbd80475e	-0.06263612
86	0xbcf35898	-0.02970533
87	0x3cc54bf7	0.024084074
88	0x3d07ca40	0.033151865
89	0x3bda39b0	0.006659709
90	0x3d1954eb	0.0374345
91	0x3d91b0e8	0.0711382
92	0x3c84fb41	0.016233088
93	0x3c8d34ad	0.017237032
94	0x3cb08107	0.0215459
95	0xbc70cebe	-0.014697729
96	0x3c7404b6	0.014893701
97	0x3ca17ae0	0.019711912
98	0xbd535f4d	-0.051604558
99	0x3ed2c625	0.41166797
100	0xbe0fd027	-0.14044248
101	0xbe9bbeb7	-0.3041894
102	0x3e77092b	0.24124591
103	0xbde21700	-0.11039543
104	0xbe251a1a	-0.16123238
105	0x3ed976bd	0.42473403
106	0xbe11b9f4	-0.14231092
107	0xbe4a0cf8	-0.1973151
108	0x3d5168f2	0.051125474
109	0x3d425f5d	0.047454227
110	0x3b707ff9	0.0036697371
111	0x3d911a31	0.07085074
112	0x3d870d4e	0.065943345
113	0xbc9de921	-0.019276204
114	0x3dd8cde0	0.105861425
115	0x3bc8c167	0.006126571
116	0xbc4811c8	-0.012211271
117	0x3d7906a0	0.060797334
118	0xbcd3ff61	-0.02587861
119	0xbd5cf5d8	-0.053945392
120	0x3ded9f94	0.11602703
121	0xbc2defcf	-0.010616257
122	0xbd055284	-0.032549396
123	0x3e0f1b47	0.13975249
124	0xbbbc3567	-0.0057436707
125	0x3c094294	0.00837769
126	0x3dee6665	0.11640624
127	0x3e083cca	0.13304439
128	0x3e02940d	0.1275179
129	0x3d23890e	0.039925627
130	0x3e5cb5e8	0.21553767
131	0x3e02b954	0.1276601
132	0x3e06c101	0.13159563
133	0x3e83b2d1	0.25722364
134	0x3e5bf9a3	0.21481948
135	0x3e2954c9	0.16536249
136	0x3db28402	0.08716585
137	0x3db46347	0.08807998
138	0x3dfd222f	0.12360036
139	0x3d419579	0.04726169
140	0xbb317735	-0.002707911
141	0x3e3c0b5e	0.18363711
142	0x3d334d9c	0.043775186
143	0x3d37df87	0.044890907
144	0x3c8592fc	0.01630544
145	0x3cf4d003	0.029884344
146	0x3bb757d8	0.0055951886
147	0x3c88c5cf	0.016695885
148	0x3c766c57	0.015040479
149	0xbbf7a156	-0.0075570745
150	0x3c6040a7	0.013687289
151	0x3c86bb19	0.016446637
152	0x3c889bde	0.016675886
153	0xbb8db9a7	-0.00432511
154	0xbc69642e	-0.014245076
155	0x3d118a2b	0.035532158
156	0xbc72addd	-0.01481196
157	0xbc38dcc1	-0.011283101
158	0x3ca4c2d1	0.020112427
159	0xbb735313	-0.0037128374
160	0x3c9dc695	0.01925973
161	0x3d32fcfd	0.0436983
162	0x3c78c048	0.015182562
163	0x3c8bc6fa	0.017062653
164	0x3d9533c3	0.072852634
165	0x3c9002f9	0.017579542
166	0x3cd46772	0.025928233
167	0x3cada89a	0.02119856
168	0x3d08c711	0.03339297
169	0x3d2b8057	0.04187044
170	0x3d3b13e5	0.04567327
171	0xbcff7ae6	-0.031186532
172	0xbd267dc3	-0.04064728
173	0xbd0d1b18	-0.034449667
174	0xbcd07388	-0.025445715
175	0xbca89f5d	-0.020583803
176	0xbd23427d	-0.03985833
177	0x3ca20702	0.019778732
178	0x3c1aba07	0.009443766
179	0xba8b07b3	-0.0010607153
180	0xbc5a916d	-0.013340336
181	0xbc527c79	-0.012847059
182	0x3ca0bc64	0.019621082
183	0xbccd4d2b	-0.02506121
184	0xbc4f95f6	-0.012670031
185	0x3be6505e	0.0070286235
186	0x3c2630be	0.010143457
187	0xbac6c6e2	-0.0015165473
188	0x3d315aa8	0.043299347
189	0x3d30dddf	0.043180343
190	0x3d091417	0.033466425
191	0x3cbb1f80	0.022842169
192	0x3c8fdac7	0.017560376
193	0x3d00d93e	0.03145718
194	0x3d5ed040	0.05439782
195	0x3c9ccf5e	0.01914185
196	0x3d9e2f78	0.07723898
197	0x3c672f52	0.014110403
198	0xbbbb5824	-0.0057172943
199	0x3c8131b5	0.015770772
200	0x3b82eec4	0.0039957482
201	0xbc23e97e	-0.010004399
202	0x3c005343	0.007832351
203	0x3ca4687d	0.020069355
204	0x3c28798f	0.010282888
205	0x3c1492f5	0.00906824
206	0x3cdadc4c	0.026716374
207	0xbc529838	-0.012853675
208	0x3c84e281	0.016221287
209	0x3d11920a	0.035539664
210	0xbc13af75	-0.009014
211	0x3d5b0cef	0.05347913
212	0x3d048201	0.032350544
213	0x3b5e1531	0.0033887143
214	0x3d386dcf	0.045026597
215	0x3d23c51c	0.0399829
216	0x3d69cd37	0.057080474
217	0x3d5edc4c	0.05440931
218	0x3b3c40ea	0.0028725215
219	0x3d1d064f	0.038336094
220	0x3c1b4e5c	0.009479132
221	0x3b63f7c6	0.0034785136
222	0x3ccddb62	0.025129024
223	0x3cc0eca2	0.023550335
224	0xbc9571bf	-0.018242715
225	0x3c854b9a	0.016271401
226	0x3d0ac3a7	0.033877995
227	0x3d0c5afd	0.03426646
228	0x3c99e8c9	0.018787758
229	0x3cddec50	0.027090222
230	0x3cc16330	0.023606867
231	0x3d0f6840	0.03501153
232	0x3d6b879f	0.057502385
233	0x3c97b34b	0.01851811
234	0x3cc5f37b	0.024163952
235	0x3d22e8b8	0.03977272
236	0x3cbdeddd	0.023184711
237	0xbb7b0031	-0.0038299675
238	0x3c93777e	0.018001314
239	0x3da0fd92	0.07860865
240	0x3d02aa8e	0.031900935
241	0x3d2b0098	0.041748613
242	0x3d35077c	0.04419659
243	0xbd93e333	-0.07221069
244	0xbcb3c258	-0.021943256
245	0x3e1a0075	0.15039237
246	0xbd98a131	-0.0745262
247	0xbd8f64db	-0.070016585
248	0x3e15d726	0.14632854
249	0xbdd6489e	-0.104630694
250	0xbcb5219c	-0.022110753
251	0x3dc71d51	0.097223885
252	0x3cba54ba	0.022745479
253	0x3c305f96	0.010764977
254	0x3ce3d615	0.027812043
255	0x3cba3e6e	0.022734847

down_path.1.block.3.bias f4 [16]
0	0xbd2f2996	-0.04276427
1	0xbc8dfb2d	-0.017331684
2	0xbd25071c	-0.040289983
3	0x3d758e52	0.05995018
4	0xbd99b69a	-0.075055316
5	0x3e161c97	0.14659344
6	0xbc03899e	-0.008028416
7	0xbda229a2	-0.07918097
8	0xbe445b9d	-0.19175573
9	0x3d1c744a	0.03819684
10	0xbd7ebf94	-0.062194422
11	0x3e2cc44a	0.16871753
12	0x3cd2cdb5	0.025732854
13	0xbddd5c73	-0.10808649
14	0x3d3c9589	0.046041045
15	0x3c1ed69e	0.009694723

down_path.1.block.5.weight f4 [16]
0	0x3f01bf4c	0.5068252
1	0x3e09b7ad	0.13448973
2	0x3f0b25e6	0.54354703
3	0x3f2d0591	0.6758662
4	0x3fd708f4	1.6799607
5	0x3ec1edb9	0.3787668
6	0x3dc4c967	0.09608727
7	0x3e95a477	0.2922704
8	0x3f19caa2	0.6007482
9	0x3efeb622	0.4974833
10	0x3ee17ac7	0.44038984
11	0x3f04ce34	0.5187714
12	0x3e39cacd	0.18143769
13	0x3ee59ff2	0.4484859
14	0x3eb32c0a	0.34994537
15	0x3ea36b34	0.31917727

down_path.1.block.5.bias f4 [16]
0	0xbe21fb0e	-0.15818426
1	0x3d0df4b0	0.03465718
2	0xbdc28b2e	-0.09499203
3	0xbe990db3	-0.29893264
4	0xbd8b5042	-0.06802417
5	0xbe78dab2	-0.24302176
6	0xbcddf70b	-0.027095338
7	0xbdd3ceb0	-0.10342157
8	0xbe9afc31	-0.30270532
9	0xbdf3838c	-0.11890325
10	0xbe77661f	-0.2416005
11	0xbe20fc6e	-0.15721294
12	0xbdc2dfaa	-0.09515317
13	0x3d002582	0.03128577
14	0xbe475d28	-0.1946913
15	0xbd5544d5	-0.052067596

down_path.1.block.5.running_mean f4 [16]
0	0x3f8d8ae9	1.1058017
1	0x3ee4accf	0.44663092
2	0x3e82d8b1	0.25555947
3	0x3f6dcd2f	0.9289121
4	0x3ffd819b	1.9805177
5	0x3f8a5006	1.0805671
6	0x3e8df5e0	0.2772665
7	0x3f1013ba	0.562801
8	0x3f2ea918	0.68226767
9	0x3fa3d177	1.2798299
10	0x3f80a426	1.0050094
11	0x3f7a219c	0.97707534
12	0x3f19b8f5	0.6004785
13	0x3eb800f8	0.3593824
14	0x3f4806cc	0.7813537
15	0x3f18375b	0.59459466

down_path.1.block.5.running_var f4 [16]
0	0x40ccf0d5	6.4043984
1	0x3fa049c3	1.252251
2	0x3f2e9cc8	0.6820798
3	0x40380a04	2.8756113
4	0x4187c91d	16.9732
5	0x3f82d81f	1.0222205
6	0x3ec226d0	0.37920237
7	0x4013313e	2.2998805
8	0x408acfce	4.337867
9	0x40d665d3	6.6999297
10	0x409ecc86	4.9624662
11	0x40a3a49e	5.113845
12	0x3fcef868	1.6169558
13	0x3f9d70ad	1.2300011
14	0x401752ee	2.3644366
15	0x40007849	2.0073416

down_path.2.block.0.weight f4 [32, 16, 3, 3]
0	0x3ca1e39e	0.019761857
1	0x3d90d058	0.070709884
2	0x3e333276	0.17499718
3	0xbd57b60d	-0.05266385
4	0xbbc5a74e	-0.006031907
5	0x3da87a6e	0.082264766
6	0xbe221c1f	-0.1583104
7	0xbdec8b65	-0.11550025
8	0x3cae3eb4	0.021270134
9	0xbd063c32	-0.03277225
10	0x3c490b0d	0.012270701
11	0x3c50c779	0.0127428705
12	0xbd777b2e	-0.060420208
13	0xbc595573	-0.013265002
14	0x3c8cc46c	0.017183505
15	0xbdc3557c	-0.09537789
16	0xbd3c16bb	-0.045920115
17	0xbd34a292	-0.04410035
18	0x3e59b57d	0.21260639
19	0x3ea2f361	0.31826308
20	0x3e39c252	0.18140534
21	0x3d8defc1	0.06930495
22	0x3dd645f8	0.10462564
23	0x3e1aed51	0.15129592
24	0xbdf41770	-0.11918533
25	0xbddba70a	-0.107252195
26	0xbe4a51b2	-0.19757727
27	0x3e38c1b7	0.18042646
28	0x3ea623a5	0.3244907
29	0x3e25a255	0.16175206
30	0xbd936db7	-0.07198661
31	0x3d9f6eb4	0.07784787
32	0x3d0917f6	0.033470117
33	0xbe71b0eb	-0.23602645
34	0xbe75d827	-0.24008237
35	0xbd4681cc	-0.048463628
36	0xbd4993a2	-0.04921306
37	0xbe27b293	-0.16376714
38	0xbe54bcb5	-0.20775111
39	0xbe01b02d	-0.12664862
40	0xbd984e69	-0.074368306
41	0xbc3bf935	-0.01147299
42	0x3e4209f6	0.18949112
43	0xbdf54d5b	-0.11977645
44	0xbe1ab9fd	-0.15110011
45	0xbcc1e9bb	-0.023671022
46	0x3d16a9fd	0.036783207
47	0xbd4ed35e	-0.050494544
48	0x3e205431	0.15657116
49	0xbd0c0036	-0.03417989
50	0x3bbf27e1	0.0058336114
51	0x3e5120e8	0.20422709
52	0x3e65a600	0.22426605
53	0x3e47f326	0.19526348
54	0xbc855677	-0.016276581
55	0x3dc8dad1	0.09807361
56	0x3da8557c	0.0821943
57	0xbd4387f4	-0.047737077
58	0xb9a2ffbe	-0.0003108959
59	0x3d0d4ab2	0.034495063
60	0xbd0176ab	-0.03160731
61	0x3c8ed637	0.01743613
62	0xbc9ce1b0	-0.019150585
63	0xbd926cfa	-0.07149692
64	0x3ceae1fe	0.028672215
65	0x3d5ae55d	0.053441394
66	0xbdb869f3	-0.09004583
67	0xbc93ccd6	-0.01804201
68	0xbb7f43df	-0.0038950366
69	0xbdc00a6e	-0.09376989
70	0xbcf104d1	-0.029421242
71	0xbd5006b1	-0.05078763
72	0x3b96cc84	0.004602017
73	0x3d2526ff	0.040320393
74	0x3d8e2705	0.06941036
75	0x3b928b17	0.004472147
76	0x3d186a28	0.037210613
77	0x3d9b720b	0.07590111
78	0xbdc85e4e	-0.09783612
79	0xbdf85ea1	-0.12127424
80	0xbce088d7	-0.027409
81	0xbdd888da	-0.10572977
82	0xbc6a7c90	-0.014311925
83	0xbd55984a	-0.052147187
84	0xbe226b32	-0.15861204
85	0xbe14967b	-0.14510529
86	0xbdb8b2be	-0.09018467
87	0xbd8f3ea4	-0.069943696
88	0xbd9020c9	-0.07037503
89	0xbdee7971	-0.11644257
90	0xbbb688c0	-0.005570501
91	0x3db55be3	0.088554166
92	0x3db09f16	0.08624093
93	0xbd986ab5	-0.07442228
94	0xbb3ebb32	-0.0029103276
95	0x39f8f571	0.00047485114
96	0xbd66f5d3	-0.05638678
97	0xba827b43	-0.0009954948
98	0xbdc33e88	-0.09533411
99	0xbca8655b	-0.020556143
100	0x3d297b0a	0.041377105
101	0x3c8ce5ab	0.017199358
102	0xbd872302	-0.06598474
103	0xbdb70097	-0.089356594
104	0x3c88d91f	0.016705094
105	0xbe4e7eee	-0.20165607
106	0xbe00c3cf	-0.12574695
107	0xbe389d3d	-0.18028732
108	0xbdb56234	-0.088566214
109	0xbba1aa8b	-0.0049336604
110	0x3b2cfcc5	0.002639578
111	0xbde8c927	-0.11366492
112	0xbdb8d146	-0.09024291
113	0xbd1f3e5e	-0.038877837
114	0xbdd01640	-0.10160494
115	0xbdce6ca8	-0.10079318
116	0xbdbb0443	-0.09131672
117	0xbcff909b	-0.031196883
118	0x3d886090	0.06659043
119	0x3e06d9b4	0.13168985
120	0xbd4201b1	-0.047364894
121	0xbd2da1c8	-0.042390615
122	0x3d1ec066	0.038757704
123	0xbdcdf98d	-0.10057364
124	0xbda7d7a1	-0.08195425
125	0xbd49fa90	-0.04931122
126	0x3cdff600	0.027338982
127	0x3e4293cf	0.19001697
128	0x3e0253f0	0.12727332
129	0xbd79892c	-0.060921833
130	0x3cbdbec3	0.023162251
131	0x3d94e7b5	0.07270757
132	0xbdf559c5	-0.11980013
133	0xbe21accb	-0.15788572
134	0xbe1e879f	-0.15481423
135	0xbd8f76fd	-0.07005117
136	0xbbc1db5b	-0.005916042
137	0x3d3347bc	0.043769583
138	0xbdee9005	-0.11648563
139	0xbd0a5fa2	-0.03378261
140	0xbb9617d2	-0.0045804763
141	0xbdb931fa	-0.090427354
142	0xbd43f236	-0.047838412
143	0xbdbba119	-0.09161586
144	0xbe0e5a3d	-0.1390161
145	0xbd7a4208	-0.06109813
146	0xbc7ae99e	-0.015314488
147	0xbdc893ad	-0.09793792
148	0xbd58475b	-0.052802425
149	0xbd14020c	-0.036134765
150	0xbe070447	-0.13185225
151	0xbdd73bad	-0.10509429
152	0xbddc7b12	-0.10765661
153	0xbca61442	-0.020273332
154	0xbc8f5509	-0.017496603
155	0xbb0c5b98	-0.0021416899
156	0xbc1ce5f3	-0.009576309
157	0xbbc7b269	-0.006094266
158	0x3bffd25c	0.007807059
159	0xbc6a1846	-0.014288014
160	0x3b198658	0.0023426022
161	0xbc5c8f71	-0.0134619335
162	0x3c215b65	0.00984845
163	0x3d7ed57f	0.062215324
164	0x3d774871	0.06037182
165	0x3d534140	0.0515759
166	0x3d3e154b	0.046407025
167	0x3a78d0e9	0.0009491579
168	0xbc4f5cc5	-0.012656395
169	0xbd70b7e6	-0.05876913
170	0xbe421fc1	-0.18957426
171	0xbdf7b6b0	-0.12095392
172	0xbdc4fa7e	-0.0961809
173	0xbc44dd88	-0.012015708
174	0xbd1ff9c5	-0.03905656
175	0xbd5eaeb0	-0.054365814
176	0xbd5c3144	-0.05375792
177	0xbe013fe5	-0.1262203
178	0xbe040e64	-0.12896115
179	0xbe7a250e	-0.24428198
180	0x3dbe0ce7	0.09279805
181	0xbe105b75	-0.14097388
182	0xbdcaf1a0	-0.099093676
183	0x3ccfcdaf	0.025366632
184	0xbc4e8b2e	-0.012606425
185	0xbbf75c11	-0.007548817
186	0x3dc74807	0.09730535
187	0x3e10c8d6	0.14139113
188	0xbc845ed4	-0.016158499
189	0x3e45f12f	0.19330285
190	0x3e01976d	0.1265542
191	0x3d1beac9	0.038065705
192	0x3e1b43f7	0.15162645
193	0x3e530c7d	0.20610233
194	0x3df723ef	0.12067401
195	0x3e4693cd	0.19392319
196	0x3e58bd64	0.21165997
197	0x3e6c8503	0.23097615
198	0xbcae79e9	-0.021298366
199	0x3a7ed52c	0.0009721096
200	0xbc91e929	-0.017811375
201	0xbcc3dc23	-0.02390868
202	0xbc090909	-0.008363971
203	0x3be34a6b	0.0069363615
204	0x3d16e8c0	0.03684306
205	0x3c51eaa9	0.012812295
206	0x3d0074ab	0.031361263
207	0xbd33d81e	-0.043907277
208	0xbd137132	-0.035996623
209	0xbd9ce9c3	-0.07661774
210	0x3a8f26a1	0.0010921546
211	0x3b224fe8	0.0024766866
212	0xbd204c97	-0.03913554
213	0xbcdb166f	-0.026744096
214	0xbca5095b	-0.020146063
215	0xbd1fea60	-0.039041877
216	0xbe52402e	-0.20532295
217	0xbe21ed55	-0.15813191
218	0xbdaaee45	-0.083462276
219	0xbe6d5b74	-0.23179418
220	0xbdf0d4b7	-0.11759322
221	0xbdafe204	-0.08588031
222	0xbe51a519	-0.20473136
223	0xbe561e78	-0.2091006
224	0xbe4c0ef4	-0.19927579
225	0xbe34f38c	-0.17671031
226	0xbe175af8	-0.14780796
227	0xbe361826	-0.1778265
228	0xbdd07007	-0.101776175
229	0xbd04a1ea	-0.032380976
230	0xbe43f704	-0.19137198
231	0xbdda7707	-0.10667234
232	0xbd3686e2	-0.044562228
233	0xbd0c1e06	-0.03420832
234	0xbdeebf27	-0.11657553
235	0xbdbfdada	-0.093679145
236	0xbe20b5cb	-0.15694349
237	0xbd96a445	-0.07355551
238	0xbdacb4d8	-0.08432931
239	0xbdff79a7	-0.12474375
240	0xbde81a01	-0.11333085
241	0xbd914f78	-0.070952356
242	0xbe1fd9a3	-0.15610366
243	0x3c8375f2	0.016047452
244	0x3dacdd70	0.08440673
245	0x3de080be	0.109620556
246	0x3d6c2367	0.05765095
247	0x3d1fe6a1	0.039038304
248	0x3d3acb6d	0.04560416
249	0xbc11bb85	-0.008894806
250	0xbd088d0e	-0.033337645
251	0xbd89a72b	-0.06721338
252	0xbd1e7cec	-0.038693354
253	0xbd2ab8bf	-0.041680094
254	0xbd1c092d	-0.03809469
255	0xbc0344c8	-0.008012004

down_path.2.block.0.bias f4 [32]
0	0x3d31ddd8	0.043424457
1	0x3d0bd5bc	0.03413938
2	0xbc42809e	-0.011871485
3	0xbad32636	-0.001610941
4	0xbe12d605	-0.14339454
5	0xbaed8eca	-0.001812422
6	0xbe142fe5	-0.14471395
7	0x3d0a9c3e	0.03384041
8	0x3c0a142f	0.008427664
9	0xbccc95ff	-0.024973867
10	0x3e23c5ce	0.15993425
11	0x3ce40ae8	0.027837232
12	0xbde28574	-0.110606104
13	0xbc2daaaf	-0.010599776
14	0xb9b33c81	-0.0003418662
15	0xbca076ab	-0.019587835
16	0x3bcd8ec6	0.0062731234
17	0x3a012c1c	0.0004927532
18	0x3c358c2c	0.011080783
19	0x3d227fb0	0.039672554
20	0x3c54b061	0.012981505
21	0xbc141f37	-0.009040645
22	0x3bae0103	0.005310179
23	0x3eb86c68	0.36020207
24	0xbc8a8c1f	-0.016912518
25	0x3e78b301	0.24287035
26	0xbc9c48f9	-0.019077765
27	0xbe78259b	-0.24233095
28	0xbe05e920	-0.13077211
29	0xbbd2d43a	-0.006433991
30	0xbc0f32f4	-0.0087401755
31	0x3c1eaa69	0.009684184

down_path.2.block.2.weight f4 [32]
0	0x3f3ad5d6	0.7298254
1	0x3f0d58d3	0.5521366
2	0x3d91ca37	0.071186475
3	0x3de055f5	0.10953895
4	0x3f0b44ce	0.5440186
5	0x3b80f26e	0.00393515
6	0x3f59ce3d	0.8508032
7	0x3e521977	0.20517527
8	0x3b067202	0.0020514731
9	0x3eead909	0.4586871
10	0x3f500365	0.8125518
11	0x3e5dfec4	0.21679217
12	0x3f55877a	0.83409846
13	0x3e854dd4	0.2603594
14	0x3e2e3eb4	0.17016107
15	0x3d7650d7	0.06013569
16	0x3ce1b05d	0.027549917
17	0x3c98849d	0.018617922
18	0x3d277c32	0.040889926
19	0x3f37061f	0.71493715
20	0x3ed1eb9b	0.41000065
21	0x3d8588f3	0.065202616
22	0x3d0cf741	0.034415487
23	0x3f55e4f8	0.83552504
24	0x3f0eb39c	0.5574281
25	0x3f32f384	0.69902825
26	0x3da030f4	0.07821837
27	0x3fbd31a3	1.4780773
28	0x3d8e3157	0.069430046
29	0x3da78a91	0.08180726
30	0xbccc2e91	-0.024924548
31	0x3e51eaa7	0.20499669

down_path.2.block.2.bias f4 [32]
0	0x3e8b0c50	0.2715783
1	0x3e91002b	0.2832044
2	0x3cab0e9d	0.020880992
3	0xbc7a3208	-0.015270717
4	0x3e3c60a3	0.18396239
5	0x3ca074d8	0.019586965
6	0x3e89a9a3	0.26887235
7	0x3d138891	0.03601891
8	0xbb247b9d	-0.0025098093
9	0x3e187699	0.14888991
10	0x3e49f60a	0.19722763
11	0x3d927323	0.07150867
12	0x3e413d3c	0.18871015
13	0xbbfd8d26	-0.0077377735
14	0x3c2040da	0.009781087
15	0x3d05c4a2	0.032658227
16	0xbc478be3	-0.012179348
17	0x3b514f93	0.00319383
18	0x3d074d16	0.0330325
19	0x3e7078a9	0.23483528
20	0x3e074f4b	0.13213842
21	0x3cb20ab0	0.021733612
22	0x3c5d1eab	0.013496081
23	0xbbccdc4c	-0.0062518474
24	0x3e643b9c	0.22288364
25	0x3ec15807	0.37762472
26	0x3c2b19d2	0.010443168
27	0x3ed9717f	0.42469403
28	0x3d043677	0.032278504
29	0xbc9b88e0	-0.018986166
30	0xba95bcdc	-0.0011424082
31	0xbc92b490	-0.017908365

down_path.2.block.2.running_mean f4 [32]
0	0x3ecaf380	0.396389
1	0x3fae5c70	1.362196
2	0x3bb8c579	0.005638775
3	0x3d72b1ca	0.059251584
4	0x3f31d565	0.6946624
5	0x3db74808	0.08949286
6	0x3e977437	0.29580852
7	0x3f5d7e07	0.8652043
8	0x3d80a1e6	0.0628088
9	0x3f49dffe	0.7885741
10	0x3fd4f944	1.663857
11	0x3f4675d6	0.77523553
12	0x3f05d524	0.5227835
13	0x3efbd859	0.49188498
14	0x3f24ac99	0.64325863
15	0x3e4f2daf	0.2023227
16	0x3e2a9522	0.16658452
17	0x3da86c9d	0.08223841
18	0x3de7bce6	0.113153264
19	0x3f4329e9	0.76235825
20	0x3e6eb63c	0.23311704
21	0x3e857e79	0.26073053
22	0x3d31d313	0.043414187
23	0x3fcd5d85	1.6044165
24	0x3ee08c5e	0.43857092
25	0x3ff9fe7d	1.9530789
26	0x3da7173d	0.08158729
27	0x3f1641ea	0.58694327
28	0x3e95e724	0.2927791
29	0x3d3609e9	0.044443045
30	0x3bfa29e1	0.007634387
31	0x3f710653	0.94150275

down_path.2.block.2.running_var f4 [32]
0	0x3e99345f	0.29922768
1	0x3fcb266e	1.5871103
2	0x39e6942b	0.00043979412
3	0x3ca84e1e	0.020545062
4	0x3f9a4fd0	1.2055607
5	0x3d094b96	0.03351935
6	0x3ef938b6	0.4867608
7	0x3fe05c62	1.7528193
8	0x3b866c10	0.0041022375
9	0x40200994	2.5005846
10	0x402ad7e2	2.6694264
11	0x3fc33c8e	1.5252855
12	0x3f34d1af	0.7063245
13	0x3e707d4a	0.23485294
14	0x3f83e112	1.0303061
15	0x3d38fa48	0.04516056
16	0x3d94e7a9	0.07270748
17	0x3cc6f294	0.024285592
18	0x3d350c05	0.044200916
19	0x3f31e6e3	0.6949293
20	0x3dde5165	0.108553685
21	0x3d479400	0.04872513
22	0x3bffd402	0.0078072557
23	0x4010ecb7	2.264448
24	0x3ef635cb	0.48087916
25	0x4041a3a7	3.0256135
26	0x3d1702ca	0.036867894
27	0x3feab99d	1.8337895
28	0x3f47cc1c	0.7804582
29	0x3c46f142	0.012142481
30	0x391d8d03	0.00015025218
31	0x3fd70c75	1.6800677

down_path.2.block.3.weight f4 [32, 32, 3, 3]
0	0x3d53b840	0.051689386
1	0x3c986b80	0.018605947
2	0xbc2eaa54	-0.010660727
3	0x3d0fbdff	0.035093304
4	0x3ca6a5d4	0.020342745
5	0xbafc9329	-0.0019269931
6	0x3cfb7937	0.030697448
7	0x3c4087dc	0.011751141
8	0xbbaaeab7	-0.0052159685
9	0x3cdfcea4	0.027320214
10	0x3b3b7582	0.0028603976
11	0xbb870efd	-0.00412166
12	0x3d09acfe	0.033612244
13	0x3c797410	0.015225425
14	0x3b521f65	0.003206217
15	0x3cd66f45	0.026176104
16	0x3c3dc654	0.01158293
17	0x3a99a963	0.0011723455
18	0xbabd8130	-0.0014458057
19	0xba6af6c3	-0.0008963162
20	0x3b24cc00	0.0025146008
21	0xba3dcab6	-0.0007239984
22	0x3a6d4d22	0.0009052326
23	0x3b309d7a	0.0026949332
24	0xba646e0b	-0.00087139074
25	0x3a6117aa	0.0008586595
26	0x3b83ee05	0.004026177
27	0xbaa29302	-0.0012403431
28	0xbb4e42c3	-0.0031472899
29	0x3aa651f9	0.0012689225
30	0xbad773cc	-0.0016437708
31	0xbb12d202	-0.0022403006
32	0xba2b0191	-0.0006523366
33	0xba126af7	-0.0005585397
34	0xbb220a75	-0.002472547
35	0x39b9e07e	0.0003545321
36	0xbbeebc5b	-0.0072856373
37	0x3be9a386	0.007130089
38	0x3bebc29b	0.0071948296
39	0xbb927c08	-0.004470352
40	0x3c66c435	0.014084865
41	0x3c0e9721	0.008703024
42	0xba77da3a	-0.00094548205
43	0x3c2954e2	0.010335179
44	0x3c4a825b	0.012360181
45	0xbae3f6ae	-0.0017392242
46	0xbaa72797	-0.0012752888
47	0x3bbd373d	0.005774407
48	0xbb0de20d	-0.002164963
49	0xbb96f7c6	-0.0046071736
50	0x3bbdb579	0.0057894555
51	0xbaea8c08	-0.0017894516
52	0x3aa34c24	0.0012458605
53	0x3bb1b3f2	0.0054230625
54	0x3d485593	0.048909735
55	0xbc4f1cc8	-0.012641139
56	0xbd4d60c3	-0.050141107
57	0x3c5aa4e9	0.013344982
58	0x3b8556dc	0.0040691923
59	0xbda26247	-0.07928901
60	0x3c97fcf3	0.018553233
61	0xbc7293a3	-0.014805707
62	0xbdcb7997	-0.09935301
63	0xbae52b5f	-0.0017484239
64	0xbaea2f7d	-0.0017866936
65	0xbb027b64	-0.0019909972
66	0xbb475f86	-0.0030421927
67	0xbb333fce	-0.0027351263
68	0xbb579fc3	-0.0032901622
69	0xbafe2046	-0.001938828
70	0xbb4cd725	-0.0031256166
71	0xbb50841b	-0.0031817022
72	0xbb10109f	-0.0021982563
73	0xbb2414e0	-0.0025036857
74	0x3991718e	0.0002774116
75	0xba4a3b98	-0.00077145686
76	0xbacbbf6f	-0.0015544723
77	0x39bb8c8d	0.00035772138
78	0xba2b274d	-0.00065289886
79	0xbaed166f	-0.0018088351
80	0x3b1c8b3c	0.00238867
81	0xbbf737c7	-0.007544491
82	0x3bebc1d3	0.0071947365
83	0x3c3f264e	0.011666847
84	0xbbdc774b	-0.006728088
85	0x3ab32d1c	0.001367006
86	0x3c08696b	0.008325915
87	0xbba5235d	-0.005039616
88	0x3c4aad5b	0.012370433
89	0x3c276347	0.010216541
90	0x3d85850c	0.06519517
91	0x3a5082e9	0.00079540774
92	0xbcb5e7b4	-0.022205211
93	0x3ddade49	0.10686929
94	0x3cad7396	0.02117328
95	0xbce70fea	-0.02820583
96	0x3d7d3bdc	0.061824664
97	0x3c22ed74	0.009944309
98	0x3c088237	0.008331827
99	0xbae4afca	-0.0017447409
100	0xbb116b03	-0.0022189028
101	0xb9673567	-0.0002204977
102	0xbb23e959	-0.0025010912
103	0xbb6d38b1	-0.003619712
104	0xbb2e1707	-0.0026564018
105	0xbb670d27	-0.0035255642
106	0xbb87337e	-0.0041260114
107	0xbb3e28a8	-0.0029015932
108	0xbbd75f19	-0.006572616
109	0xbc2f74f0	-0.010709032
110	0xbbd5706c	-0.006513646
111	0xbc3991de	-0.011326281
112	0xbc13af79	-0.009014004
113	0xbb7bafcf	-0.003840435
114	0xbc660767	-0.014039851
115	0xbccdb013	-0.025108373
116	0xbba7efda	-0.005125028
117	0xbc9f520d	-0.019448305
118	0xbc647284	-0.013943318
119	0xbb3801b3	-0.0028077185
120	0xbc5b9a4c	-0.013403486
121	0xbc00bc4d	-0.007857394
122	0xb984be64	-0.00025318854
123	0xbc54b7af	-0.012983247
124	0xbab31fe5	-0.0013666122
125	0x3bdaf9aa	0.0066825943
126	0xbb3cf7bc	-0.0028834185
127	0xb979d907	-0.0002382734
128	0x3b5428f4	0.0032373043
129	0xbbcce267	-0.006252575
130	0xbb7aac34	-0.0038249614
131	0x3ad54a27	0.001627271
132	0xbbba4783	-0.0056847944
133	0xbb99dc78	-0.0046954714
134	0xbae5bc76	-0.0017527479
135	0x3c51c34a	0.012802908
136	0x3ba23f29	0.004951377
137	0x3bd76475	0.0065732547
138	0x3c1f5370	0.009724483
139	0x3be75834	0.007060075
140	0x3be4d74f	0.0069836746
141	0x3c9b6916	0.018971007
142	0x3c1b0649	0.009461948
143	0x3c2408a7	0.0100118285
144	0xbaccf08a	-0.0015635651
145	0xbb219c32	-0.002465975
146	0xba9ed38d	-0.001211749
147	0xbb5b445e	-0.0033457498
148	0xbb5affa4	-0.0033416534
149	0xbb0ec509	-0.0021784923
150	0xbb3a4a47	-0.002842562
151	0xbb5581c2	-0.0032578562
152	0xbb3aebb7	-0.0028521845
153	0x397e7c3c	0.00024269609
154	0x3924fabf	0.00015733669
155	0x3a87372f	0.0010316129
156	0x397e7a64	0.00024268922
157	0x38912b70	6.92223e-05
158	0x3a3a37e3	0.00071036647
159	0x39bd9f46	0.00036167557
160	0x3990fd35	0.00027654474
161	0x3a786677	0.00094757177
162	0xbb84a37c	-0.004047809
163	0xbab80209	-0.0014038692
164	0x3b06a1e4	0.0020543272
165	0xbb80bb03	-0.0039285435
166	0xbb39e3da	-0.002836457
167	0x3ae3b870	0.0017373692
168	0xbb4a64a1	-0.0030882733
169	0xba516ec2	-0.00079892215
170	0x39d15f83	0.00039934748
171	0x3ca6d6fc	0.020366184
172	0xbcaaa7a3	-0.020831889
173	0xbd166140	-0.03671384
174	0x3cbad4b8	0.02280651
175	0xbc4c6701	-0.01247573
176	0xbd3c3eb0	-0.04595822
177	0x3bc9aaa3	0.0061543747
178	0xbc2a94c3	-0.010411444
179	0xbd401bac	-0.04690139
180	0x3ccd8f93	0.025092876
181	0x3b236e65	0.0024937626
182	0xbc047c9b	-0.008086349
183	0x3d007983	0.031365883
184	0x3b04c2c7	0.0020257698
185	0xbc266638	-0.010156207
186	0x3caf22ca	0.021378893
187	0x3b91c30b	0.0044482998
188	0xbc577460	-0.013150305
189	0xbbb537d5	-0.0055303373
190	0xbc05b51a	-0.008160854
191	0xbbce6849	-0.006299053
192	0xbbd48f64	-0.00648682
193	0xbc02442e	-0.007950826
194	0xbb4bfc46	-0.0031125708
195	0xbb709add	-0.00367134
196	0xbb6147f0	-0.0034375153
197	0x3ae3426c	0.0017338521
198	0x3abebede	0.0014552732
199	0x3a3b2a06	0.0007139746
200	0x3adf6c9d	0.0017045919
201	0x3a6ae218	0.0008960082
202	0x396a2f33	0.00022333562
203	0x3a73c9f3	0.0009299807
204	0x3a4b9129	0.0007765466
205	0x3a4c5225	0.0007794223
206	0x3a704ca7	0.00091666955
207	0x3d8cdc56	0.06877963
208	0x3caaa926	0.02083261
209	0xbc7f46ec	-0.015580874
210	0x3d9ed25d	0.07754967
211	0x3d1dc464	0.03851737
212	0xbc38fb8d	-0.011290443
213	0x3d8ae7af	0.067824714
214	0x3d3faacd	0.046793748
215	0xbbdc5a08	-0.0067245997
216	0x3d9a537d	0.075354554
217	0x3b00fa8a	0.0019680583
218	0xbd3fa129	-0.046784554
219	0x3d8bf404	0.06833652
220	0x3d17c702	0.037055023
221	0xbda92000	-0.08258057
222	0x3d5c3587	0.053761985
223	0x3c21afc5	0.009868567
224	0xbd793f67	-0.06085148
225	0x3d0d73a5	0.034534115
226	0x3c226626	0.009912049
227	0xbc7ce048	-0.015434332
228	0x3d29949a	0.041401483
229	0x3ca3b13b	0.019981971
230	0x3bcae9a2	0.006192402
231	0x3d05378a	0.03252367
232	0x3c82e8b8	0.01598011
233	0xbc67e012	-0.014152544
234	0xbbf09bba	-0.007342783
235	0xbba95827	-0.0051679793
236	0x3ad70f96	0.0016407843
237	0xbbdf79c7	-0.006819937
238	0xbb7f0693	-0.003891383
239	0xbabe3ab1	-0.0014513341
240	0xbb8acdd7	-0.004235964
241	0xbac292cb	-0.0014844773
242	0x3ac811a4	0.0015264046
243	0xbba26545	-0.00495592
244	0xbc61d286	-0.013783103
245	0xbcd68a00	-0.02618885
246	0xbc840166	-0.016113948
247	0xbc7e89ef	-0.015535816
248	0xbc511700	-0.012761831
249	0xbceb7ba6	-0.028745484
250	0xbcd21848	-0.025646344
251	0xbbd838ee	-0.0065985834
252	0xb9cb1312	-0.00038733386
253	0xbb7da76b	-0.0038704525
254	0xb866a0c8	-5.4986012e-05
255	0xba8dd84d	-0.0010821909
