weights/old/unet-test14.pt (torch_old, 510397 bytes, 92 tensors)

down_path.0.block.0.weight f4 [8, 3, 3, 3]
-3.1465797e-07 5.726914e-07 -2.6312625e-07 -2.5180253e-07 -6.787175e-08 6.625894e-08 7.5453606e-08 -3.9912535e-09
4.3215275e-07 9.1285756e-07 -1.15084916e-07 -7.052576e-07 -5.985916e-08 -1.2915306e-08 -2.5855198e-07 -8.338791e-08
-4.218737e-09 -6.7746315e-09 -4.8514295e-08 3.5494384e-08 -2.8175526e-08 -3.5625365e-09 5.538431e-10 -1.4630707e-08
-6.638176e-09 6.863065e-11 -1.0330797e-08 8.7299035e-10 1.0312827e-08 -3.0245673e-09 -4.531993e-10 -2.4820588e-09
-9.716598e-10 -6.1463584e-10 -2.3211928e-09 4.0314715e-10 -4.704347e-10 -4.6334197e-08 4.245388e-08 -3.5645126e-08
4.543843e-08 -3.055227e-08 2.559229e-09 9.20287e-09 1.5935171e-08 -2.8823413e-09 6.8319004e-09 -4.1811443e-09
1.2351622e-09 -1.0566835e-09 1.7126163e-09 1.5347879e-09 -9.25703e-11 -2.5190814e-09 -0.11476338 -0.040747926
0.07676171 -0.08979898 -0.029638123 0.057251286 -0.049144626 -0.062007405 0.05718766 -0.09171258
-0.01174947 0.112538 -0.089749835 0.0055300584 0.029223135 -0.07679492 0.0022535403 0.060097184
-0.08793389 -0.0006259991 0.11705306 -0.027091622 0.011299592 0.08548107 -0.051696677 -0.018239835
0.09061393 1.8483464e-20 -1.3976364e-20 -1.7242272e-13 -9.6913084e-08 -4.359548e-08 -8.553797e-08 -9.255734e-09
-2.9707714e-08 1.1542566e-07 -1.7954015e-17 -2.1449111e-16 -5.553275e-13 -7.4906644e-08 -3.7834582e-07 -7.7280015e-07
-5.6014283e-08 -1.8570474e-07 2.3250101e-07 -3.5275708e-23 -3.3560894e-23 -1.2171857e-14 -3.6164447e-08 -4.5655817e-08
1.979442e-07 8.996894e-09 2.6500848e-08 5.8220036e-07 -0.20861462 -0.27707508 -0.26634112 0.1348055
-0.026617562 -0.05241965 0.1672468 -0.0010609046 -0.058175463 -0.22792542 -0.3385108 -0.28005022
0.09312037 -0.034494963 0.008328314 0.054282237 -0.12022566 0.06606458 -0.26600426 -0.37637454
-0.3451588 0.104091674 -0.031200614 -0.0040967534 0.005731045 -0.07823889 -0.020709025 0.055184484
0.18745524 0.10336082 0.08280009 0.11211233 0.41965872 -0.15324974 0.24741991 0.36260104
-0.31867835 -0.4624259 -0.30450436 -0.18655705 -0.38849035 -0.3979211 -0.55240726 -0.20603499
-0.02164867 0.25296816 0.10433171 0.39874896 0.17947863 0.13766302 0.012487513 0.4115199
0.48771778 0.6103676 -0.24921705 -0.0034711475 -0.08801867 -0.31661037 0.16123652 0.2539517
-0.1670746 -0.039118916 0.38457122 -0.09949011 0.20707656 0.40017962 0.18866725 0.3785381
0.961658 -0.19802073 0.01829281 -0.049858466 -0.35007522 0.04402435 -0.07610209 -0.2609728
0.16191183 0.4821411 -0.37718293 -0.10493291 -0.115324244 -1.3329471e-05 -1.4258997e-05 -1.3150805e-05
-0.00094869564 -0.00038308592 -0.00038904048 -0.00064758083 0.000110482986 -0.00016173966 -1.6445581e-05 -1.7001446e-05
-1.6787433e-05 -0.001014895 0.0007563812 -0.0014694479 -0.0006019787 0.001423339 5.917665e-05 -1.8125927e-05
-1.6939372e-05 -1.874569e-05 0.00086883205 0.00079635804 0.000359036 0.0010165253 -0.0008554597 -0.00087473984
00000000: 43ee a8b4 0ebb 1935 cc43 8db4 7a2f 87b4
00000010: e4c0 91b3 3d4a 8e33 0f09 a233 7023 89b1
00000020: 9f02 e834 180b 7535 9a24 f7b3 ef50 3db5
00000030: ec8b 80b3 1ee2 5db2 1dcf 8ab4 fd12 b3b3
00000040: 67f4 90b1 4ac6 e8b1 085e 50b3 7d72 1833
00000050: a306 f2b2 ced0 74b1 3e3d 1830 885a 7bb2
00000060: 0316 e4b1 9feb 962e 537b 31b2 3cf7 6f30
00000070: 4b2c 3132 c0d8 4fb1 2226 f9af d790 2ab1
00000080: 3d8b 85b0 27f3 28b0 db82 1fb1 eba1 dd2f
00000090: e64f 01b0 fd00 47b3 8956 3633 3b18 19b3
000000a0: 1528 4333 9338 03b3 6fde 2f31 a61a 1e32
000000b0: d0e1 8832 af12 46b1 08be ea31 bca9 8fb1
000000c0: 68c2 a930 bf3a 91b0 5461 eb30 8cf0 d230
000000d0: 7290 cbae 261c 2db1 1009 ebbd 4ce7 26bd
000000e0: 3e35 9d3d 87e8 b7bd a6cb f2bc 5380 6a3d
000000f0: e04b 49bd 7afb 7dbd 9c3d 6a3d ced3 bbbd
00000100: d980 40bc 537a e63d c3ce b7bd 7e35 b53b
00000110: 5b65 ef3c a846 9dbd 22b0 133b 7728 763d
00000120: af16 b4bd 171a 24ba 84b9 ef3d 40ef ddbc
00000130: ed21 393c b310 af3d e5bf 53bd b56b 95bc
00000140: cc93 b93d 4692 ae1e c600 849e 7721 42aa
00000150: 881e d0b3 bd3d 3bb3 ffb0 b7b3 2603 1fb2
00000160: f42f ffb2 eddf f733 b898 a5a3 9a4a 77a5
00000170: 904f 1cab 5ddc a0b3 741f cbb4 6c72 4fb5
00000180: 5b94 70b3 2166 47b4 64a5 7934 3695 2a9a
00000190: 604a 229a c844 5ba8 3b53 1bb3 1a17 44b3
000001a0: 7d8a 5434 c290 1a32 fba3 e332 8148 1c35
000001b0: 129f 55be c9dc 8dbe dd5d 88be 740a 0a3e
000001c0: 130d dabc fdb5 56bd bf42 2b3e 0d0e 8bba
000001d0: 6549 6ebd 4865 69be 4a51 adbe be62 8fbe
000001e0: e4b5 be3d 974a 0dbd 7b73 083c 0d57 5e3d
000001f0: df38 f6bd de4c 873d b631 88be 2ab4 c0be
00000200: a7b8 b0be 042e d53d 6e98 ffbc 0f3e 86bb
00000210: 7dcb bb3b b63b a0bd f9a5 a9bc 2009 623d
00000220: 44f4 3f3e d6ae d33d 1893 a93d 269b e53d
00000230: 82dd d63e 80ed 1cbe a55b 7d3e d8a6 b93e
00000240: cf29 a3be 16c3 ecbe ffe7 9bbe d008 3fbe
00000250: 35e8 c6be 50bc cbbe 906a 0dbf d6fa 52be
00000260: 8d58 b1bc 0b85 813e ddab d53d d328 cc3e
00000270: 3fc9 373e 89f7 0c3e 6d98 4c3c bdb2 d23e
00000280: 25b6 f93e 0d41 1c3f c132 7fbe 317c 63bb
00000290: 2243 b4bd c11a a2be 301b 253e f505 823e
000002a0: 9b15 2bbe 283b 20bd 85e6 c43e 79c1 cbbd
000002b0: e10b 543e 58e4 cc3e fd31 413e bfcf c13e
000002c0: 382f 763f f2c5 4abe ceda 953c 6438 4cbd
000002d0: 0f3d b3be e052 343d 6adb 9bbd 3a9e 85be
000002e0: 37cc 253e 33db f63e 1f1e c1be 11e7 d6bd
000002f0: 1e2f ecbd a4a1 5fb7 ed39 6fb7 47a2 5cb7
00000300: e3b1 78ba ecd8 c8b9 21f8 cbb9 6ac2 29ba
00000310: 1ab3 e738 a998 29b9 9ef4 89b7 549e 8eb7
00000320: bdd2 8cb7 3a06 85ba e247 463a 7d9a c0ba
00000330: 1bce 1dba 558f ba3a 7234 7838 220d 98b7
00000340: 0619 8eb7 1040 9db7 55c2 633a afc2 503a
00000350: ff3c bc39 ee3c 853a ee40 60ba cc4e 65ba

down_path.0.block.0.bias f4 [8]
-9.4827425e-05 -0.0006421305 -0.0439306 -0.00047018557 0.09920423 0.040072333 0.06429677 -0.028113361
00000000: 16de c6b8 a654 28ba 93f0 33bd 3d83 f6b9
00000010: 962b cb3d e322 243d 06ae 833d fe4d e6bc

down_path.0.block.2.weight f4 [8]
-1.3614e-41 6.9530496e-28 0.23898405 1.3584319e-26 0.36348596 0.839685 1.0239195 0.003095291
00000000: f325 0080 d759 5c12 3cb8 743e 5788 8614
00000010: d51a ba3e 99f5 563f cb0f 833f 5eda 4a3b

down_path.0.block.2.bias f4 [8]
0.011570713 -0.0007372164 0.021592695 7.3038405e-05 0.24475966 0.0048904656 0.1134239 -0.0007490875
00000000: 1693 3d3c c141 41ba 2ae3 b03c 322c 9938
00000010: 47a2 7a3e 3340 a03b ca4a e83d 695e 44ba

down_path.0.block.2.running_mean f4 [8]
6e-45 6e-45 0.00026053967 6e-45 0.00021312582 0.26620445 0.4605499 6e-45
00000000: 0400 0000 0400 0000 0b99 8839 0400 0000
00000010: 877a 5f39 f34b 883e 32cd eb3e 0400 0000

down_path.0.block.2.running_var f4 [8]
6e-45 6e-45 2.7934784e-05 6e-45 4.3912692e-05 0.046309236 0.051882982 6e-45
00000000: 0400 0000 0400 0000 7e55 ea37 0400 0000
00000010: e52e 3838 c1ae 3d3d 4083 543d 0400 0000

down_path.0.block.3.weight f4 [8, 8, 3, 3]
0.009026914 0.009026931 0.009029939 0.009035516 0.009028207 0.009026444 0.009028567 0.009027709
0.009023969 0.00089904957 0.00088659837 0.00088420924 0.00089794985 0.00088553614 0.0008831934 0.00089818885
0.00088585383 0.000883512 -0.002515901 0.022475857 -0.0020772386 -0.005383516 0.017458234 -0.0006175338
-0.0054400046 0.008468935 -0.0049585397 -4.7813497e-05 -4.7840964e-05 -4.772668e-05 -4.7841226e-05 -4.785865e-05
-4.7666403e-05 -4.784375e-05 -4.7865484e-05 -4.7751324e-05 0.02018765 0.0436567 0.08897587 -0.03434517
-0.031700127 -0.027698366 -0.061603468 -0.06063284 -0.05753435 0.24649194 0.23064227 0.14235698
0.27361387 0.20247792 0.033614427 0.3478061 0.2337003 0.05749204 -0.018439334 -0.12019124
-0.2535617 -0.036236297 -0.07324681 -0.13640293 0.084061526 -0.12916934 -0.06654617 0.0005745445
0.0005755895 0.00057619606 0.0005964069 0.0005962838 0.0005964454 0.00062323955 0.00062260305 0.00062223733
-0.0005205608 -0.00052014284 -0.0006236976 -0.00046318318 -0.0004626354 -0.0005671861 6.7957226e-05 6.831245e-05
-3.879358e-05 0.0006458376 0.0006451971 0.0005758696 0.0006725485 0.0006737729 0.0006049661 0.0007824591
0.0007895787 0.00071503845 0.01562615 0.0016981914 0.035834618 -0.008410555 -0.014615636 0.021843517
-0.05409004 -0.041645963 -0.008170721 -5.3290212e-05 -6.1566396e-05 -4.2375632e-05 -7.085892e-05 -4.2201318e-05
-3.0506657e-05 -4.716764e-05 -4.2994765e-05 -4.842382e-05 -0.027675148 -0.025842892 -0.015391015 -0.007821108
-0.008347708 0.0062261396 -0.041829586 -0.04369971 -0.035562433 -0.04621625 -0.06768301 -0.033544794
-0.06594131 -0.06813561 -0.10380908 -0.17087668 -0.23106101 -0.21919173 -0.0047684433 -0.080201946
-0.032792576 -0.10560088 -0.12875591 -0.07311631 0.37104338 0.29035598 0.3735956 0.0007181377
0.00071829633 0.00070776336 0.00051577465 0.0005142837 0.00049801683 0.0007338067 0.0007340447 0.0007235352
-0.033072975 -0.03287265 -0.032989513 -0.032634884 -0.032448195 -0.03252377 -0.030529484 -0.03030783
-0.030527236 -0.0007131986 -0.0007189551 -0.00071717845 -0.0007024202 -0.00070813915 -0.0007060652 -0.00034371504
-0.00034947088 -0.0003495627 -0.045889474 0.025893487 0.019135533 -0.020543376 0.0035783323 0.0032268616
-0.016088929 -0.025621185 0.011258 5.2778043e-05 5.3441334e-05 5.3318126e-05 5.041753e-05 5.110334e-05
5.0886058e-05 2.6788717e-05 2.745874e-05 2.7717084e-05 0.08537417 0.1069866 0.096441105 0.049283784
0.052701168 -0.005037117 0.09611321 0.08683552 0.021613648 0.05088034 -0.15799636 -0.29967043
-0.22431703 -0.48669478 -0.6662206 0.42429626 0.16261262 0.07684933 0.25811642 -0.36373898
-0.22135507 0.375964 -0.18258977 -0.02500292 0.3705628 0.1250538 0.08351463 -0.00013752194
-0.00013590395 -0.00013457329 -0.00022960384 -0.00022845966 -0.00022610088 -0.0004896722 -0.00049274846 -0.0004929286
-0.012379222 -0.012384069 -0.012242672 -0.012377361 -0.012387093 -0.01223303 -0.013495439 -0.013505043
-0.013356899 0.0028660048 0.0028608802 0.0029203843 0.002868951 0.0028646213 0.0029287469 0.0019665349
0.0019651803 0.002026157 0.088579044 0.017831828 0.08720489 0.084501244 0.0077433684 0.083866134
0.09908006 0.013535242 0.06967932 3.462749e-05 3.3794153e-05 3.5318044e-05 3.4314453e-05 3.3319575e-05
3.440209e-05 7.4199e-05 7.404447e-05 7.579684e-05 0.14756721 0.1422582 0.16705327 0.038483653
00000000: 9fe5 133c b1e5 133c 4ff2 133c b309 143c
00000010: 0beb 133c a6e3 133c 8eec 133c f5e8 133c
00000020: 45d9 133c 32ae 6b3a 9c6a 683a 47ca 673a
00000030: 6564 6b3a 5323 683a 1b86 673a 6f74 6b3a
00000040: a538 683a 7d9b 673a d1e1 24bb 4a1f b83c
00000050: 4822 08bb 3568 b0bb 9204 8f3c fee1 21ba
00000060: 1142 b2bb 4ac1 0a3c 3f7b a2bb 5a8b 48b8
00000070: d8a8 48b8 222e 48b8 20a9 48b8 d6bb 48b8
00000080: 69ed 47b8 d6ab 48b8 2cc3 48b8 9848 48b8
00000090: 9260 a53c 5ed1 323d fb38 b63d 85ad 0cbd
000000a0: fed7 01bd afe7 e2bc eb53 7cbd 245a 78bd
000000b0: 23a9 6bbd 6268 7c3e 7d2d 6c3e 07c6 113e
000000c0: 1e17 8c3e 5f56 4f3e 48af 093d a413 b23e
000000d0: 224f 6f3e c67c 6b3d 160e 97bc d326 f6bd
000000e0: d7d2 81be 836c 14bd 6c02 96bd 36ad 0bbe
000000f0: 7328 ac3d f844 04be 5c49 88bd 079d 163a
00000100: 28e3 163a dd0b 173a 3158 1c3a ee4f 1c3a
00000110: c65a 1c3a e660 233a 2f36 233a a41d 233a
00000120: 3e76 08ba 325a 08ba a37f 23ba 65d7 f2b9
00000130: df8d f2b9 37af 14ba 4284 8e38 f842 8f38
00000140: 4ab6 22b8 6d4d 293a 7222 293a f4f5 163a
00000150: f74d 303a 22a0 303a 9696 1e3a f11d 4d3a
00000160: bbfb 4e3a 6b71 3b3a 6902 803c d995 de3a
00000170: 52c7 123d 6dcc 09bc 6c76 6fbc 2df1 b23c
00000180: 858d 5dbd f594 2abd 7dde 05bc ee83 5fb8
00000190: 351d 81b8 7dbc 31b8 189a 94b8 5201 31b8
000001a0: 8ce8 ffb7 ded5 45b8 4755 34b8 ae1a 4bb8
000001b0: feb6 e2bc 79b4 d3bc 992a 7cbc 1b24 00bc
000001c0: d3c4 08bc a504 cc3b 8055 2bbd 78fe 32bd
000001d0: eaa9 11bd 404d 3dbd 649d 8abd 4466 09bd
000001e0: 3d0c 87bd af8a 8bbd db99 d4bd 4cfa 2ebe
000001f0: 429b 6cbe cc73 60be 9a40 9cbb eb40 a4bd
00000200: 8251 06bd 4645 d8bd 97d8 03be 01be 95bd
00000210: 66f9 bd3e 8aa9 943e ec47 bf3e 6841 3c3a
00000220: 0d4c 3c3a 3289 393a 0d35 073a ffd0 063a
00000230: 588d 023a ef5c 403a e86c 403a a0ab 3d3a
00000240: 8777 07bd 79a5 06bd 0320 07bd 28ac 05bd
00000250: 66e8 04bd a537 05bd f818 fabc 2048 f8bc
00000260: 4114 fabc f3f5 3aba 4378 3cba 0801 3cba
00000270: 9f22 38ba 6aa2 39ba 3c17 39ba a734 b4b9
00000280: 3039 b7b9 8345 b7b9 9af6 3bbd 941e d43c
00000290: 1fc2 9c3c 954a a8bc 7482 6a3b c179 533b
000002a0: eecc 83bc 85e3 d1bc 7973 383c fe5d 5d38
000002b0: 3226 6038 e7a1 5f38 6977 5338 cb57 5638
000002c0: 7d6e 5538 55b8 e037 3257 e637 fc81 e837
000002d0: a7d8 ae3d ca1b db3d ea82 c53d cbdd 493d
000002e0: 2edd 573d 660e a5bb 01d7 c43d d2d6 b13d
000002f0: 1b0f b13c e767 503d ccc9 21be 676e 99be
00000300: 5db3 65be 0f30 f9be 6f8d 2abf 5c3d d93e
00000310: ec83 263e 2e63 9d3d d627 843e ff3b babe
00000320: e7aa 62be 5a7e c03e d0f8 3abe ecd2 ccbc
00000330: 68ba bd3e 1a0e 003e b809 ab3d c433 10b9
00000340: 7081 0eb9 3e1c 0db9 d0c1 70b9 ac8e 6fb9
00000350: 7e15 6db9 585d 00ba ca2b 01ba e137 01ba
00000360: 38d2 4abc 8de6 4abc 7d95 48bc 6aca 4abc
00000370: 3cf3 4abc 0c6d 48bc f91b 5dbc 4244 5dbc
00000380: e5d6 5abc 95d3 3b3b 9b7d 3b3b eb63 3f3b
00000390: 0305 3c3b 5fbc 3b3b 38f0 3f3b fbe0 003b
000003a0: 41ca 003b 46c9 043b ee68 b53d 0e14 923c
000003b0: 7a98 b23d fd0e ad3d 15bc fd3b 02c2 ab3d
000003c0: 7dea ca3d ebc2 5d3c 08b4 8e3d fc3c 1138
000003d0: 32be 0d38 7622 1438 ddec 0f38 9fc0 0b38
000003e0: f64a 1038 499b 9b38 5248 9b38 1ef5 9e38
000003f0: dc1b 173e 22ac 113e 0310 2b3e 09a1 1d3d

down_path.0.block.3.bias f4 [8]
-0.1579615 -0.24805164 0.5802427 -0.27662697 0.34093842 0.40206936 0.29948574 -0.06640666
00000000: a9c0 21be 4001 7ebe c98a 143f 0da2 8dbe
00000010: 7b8f ae3e 09dc cd3e 3256 993e 3700 88bd

down_path.0.block.5.weight f4 [8]
0.42601228 0.17682633 0.5885562 0.41418657 0.4815059 0.51353216 0.6436905 0.32057026
00000000: 481e da3e f611 353e 9eab 163f 4310 d43e
00000010: f187 f63e d876 033f e7c8 243f c921 a43e

down_path.0.block.5.bias f4 [8]
0.10970586 0.080717266 -0.21988708 -0.20605616 -0.33982015 -0.097143225 -0.020079479 0.16684295
00000000: 77ad e03d 184f a53d 142a 61be 6300 53be
00000010: e8fc adbe 07f3 c6bd b87d a4bc e1d8 2a3e

down_path.0.block.5.running_mean f4 [8]
0.21208374 0.05657836 0.8397813 0.6066784 0.7271593 0.82556975 0.50899 0.22192587
00000000: 7b2c 593e b6be 673d e8fb 563f 474f 1b3f
00000010: 1d27 3a3f 8a58 533f 2b4d 023f 8940 633e

down_path.0.block.5.running_var f4 [8]
0.4278778 0.031506393 0.21803068 0.45485845 0.35118565 0.31930262 0.31661522 0.15066637
00000000: cd12 db3e d90c 013d 6f43 5f3e 35e3 e83e
00000010: 9bce b33e a27b a33e 641b a23e 4948 1a3e

down_path.1.block.0.weight f4 [16, 8, 3, 3]
-7.84529e-07 -6.8384935e-07 -5.653961e-07 -7.594514e-07 -6.635929e-07 -5.5000066e-07 -7.2169394e-07 -6.4355345e-07
-5.503668e-07 -3.6274614e-10 -3.9735473e-10 -3.9248818e-10 -1.1068621e-08 -1.011067e-08 -1.0765161e-08 -1.2544783e-10
-1.0133077e-11 2.066772e-11 -3.3258094e-09 -1.7257226e-09 -3.298601e-11 -2.02136e-08 2.1251202e-08 1.31731355e-08
-1.0965813e-09 -8.1386814e-11 -2.3438382e-10 -2.5928195e-08 -1.9528526e-08 -1.2624789e-08 -2.346029e-08 -1.8780577e-08
-1.399175e-08 -1.7914962e-08 -1.5089924e-08 -1.1695283e-08 -1.3705345e-08 -1.7555216e-08 -9.237707e-09 1.7058491e-07
3.9322604e-08 -1.4696308e-08 1.0721098e-08 -8.475077e-09 -1.4530384e-08 -4.1969157e-09 -1.9118396e-08 -3.44195e-08
5.3913784e-08 9.707016e-09 -4.191799e-08 4.9826312e-08 3.576194e-08 -2.4918016e-08 -2.1056808e-08 -1.2659006e-08
-2.3269468e-08 -1.5839381e-08 -1.4423922e-08 -2.5829104e-08 -1.1186338e-08 -1.1652671e-08 -2.0289606e-08 -1.7224303e-07
-1.1052955e-07 -1.3035748e-07 -4.666639e-07 -1.7735637e-07 -2.0203677e-07 -1.6111197e-07 -1.0122615e-07 -9.7616194e-08
-8.1810727e-22 -6.798761e-22 -9.064984e-22 -8.1314636e-22 -8.583565e-22 -1.0163935e-21 -3.5636202e-22 -3.8360574e-22
-4.780509e-22 -1.1214395e-34 -1.7910543e-35 -6.8855374e-35 -2.923642e-32 -2.6043312e-32 -2.7037522e-32 -5.538662e-39
-3.32e-43 -3.24e-43 1.6751176e-30 3.8867155e-30 -2.7394583e-31 7.583314e-26 1.755076e-25 4.585098e-26
6.909067e-37 2.17298e-36 2.2631937e-37 -2.4367374e-17 -9.085452e-18 2.2989404e-19 -4.6183983e-18 1.2871717e-17
1.9932216e-17 -2.3400901e-17 1.4761169e-18 1.5235565e-17 -6.241246e-18 -1.2976996e-18 9.4386205e-18 -9.6077475e-18
-3.476922e-18 4.075601e-18 1.7500185e-18 2.044932e-18 8.194588e-18 -2.0022796e-18 -5.531364e-18 -5.063614e-18
-7.1776354e-19 -4.6220603e-18 -2.7762832e-18 -3.1884344e-19 -1.036193e-18 -1.0274543e-18 -8.767364e-21 -4.811425e-20
-1.044302e-20 -1.3607633e-20 -4.617778e-20 -1.26995375e-20 -1.8059511e-20 -2.5992532e-20 -7.810005e-21 -7.0899426e-25
-8.600958e-25 -1.6085625e-24 -1.470995e-24 -4.5331316e-24 -5.334735e-24 -5.592757e-27 -5.8343475e-27 -1.4082748e-26
0.122689575 0.0583985 -0.07176302 0.12044668 0.0038089335 -0.15536377 0.16101481 0.0585833
-0.06525499 0.0004895411 0.027360843 0.0043835794 0.10680052 0.1830549 0.23055531 -0.061296802
-0.04676385 -0.0902627 -0.3481043 -0.18666701 -0.1163356 -0.030604798 0.29825273 0.38442427
-0.25975773 0.108028755 0.1716632 -0.2294637 -0.27837342 -0.13538158 -0.018133393 -0.03288796
0.060925845 0.13840905 0.1347452 0.22758397 0.17139518 0.015077624 -0.13458046 0.102036335
-0.1299068 -0.2341689 0.351089 0.14834738 -0.09462251 -0.103309475 -0.14106981 -0.24537537
0.24547607 0.20953737 0.13430662 0.029367229 0.14870384 0.037910964 -0.07228053 -0.060450915
0.04921652 -0.29547 -0.15262476 -0.09855148 -0.087110735 -0.11772922 -0.06117878 -0.045674503
-0.048748422 -0.052911036 0.049060013 0.08013448 0.006526226 0.033537738 0.034745734 -0.007982823
-0.036178846 -0.01858828 0.013537608 -0.028059043 -0.021137154 0.0051905555 -0.027726023 -0.024447998
-0.004889872 0.089330845 0.10796844 0.10630418 0.08522703 0.09194837 0.09448803 0.011411937
0.0013786402 -0.0032069446 -0.09139469 -0.08111397 -0.01685391 -0.12299431 -0.12754528 -0.05709586
-0.19519803 -0.23850362 -0.19036052 0.0058286604 -0.05821648 -0.06016943 0.055660013 0.016088488
0.014715318 0.03306607 0.013663581 0.019093972 0.021743206 -0.047349166 -0.13366508 0.079129785
00000000: 6c98 52b5 c591 37b5 b9c5 17b5 1add 4bb5
00000010: c221 32b5 c2a3 13b5 6eba 41b5 a8c0 2cb5
00000020: ebbc 13b5 fb6b c7af b572 daaf cdc5 d7af
00000030: 4f28 3eb2 32b3 2db2 aef1 38b2 6dee 09af
00000040: 5243 32ad 91cb b52d 428c 64b1 772e edb0
00000050: f212 11ae 2da2 adb2 e38b b632 1050 6232
00000060: 86b6 96b0 b4f8 b2ae 97da 80af b4b8 deb2
00000070: afbf a7b2 69e4 58b2 b985 c9b2 ed52 a1b2
00000080: 5e60 70b2 6be3 99b2 189f 81b2 66ec 48b2
00000090: bf74 6bb2 54cc 96b2 ddb3 1eb2 062a 3734
000000a0: a9e3 2833 0c7b 7cb2 e32f 3832 c899 11b2
000000b0: 4ea1 79b2 7634 90b1 cc39 a4b2 a4d4 13b3
000000c0: d58e 6733 e8c3 2632 5109 34b3 9c00 5633
000000d0: ab98 1933 4c0b d6b2 69e0 b4b2 e67a 59b2
000000e0: 1ae2 c7b2 2b0f 88b2 14cd 77b2 cdde ddb2
000000f0: 092e 40b2 fd30 48b2 5149 aeb2 cef1 38b4
00000100: 435c edb3 64f8 0bb4 cc89 fab4 596f 3eb4
00000110: 72ef 58b4 1ffe 2cb4 aa61 d9b3 12a1 d1b3
00000120: fc41 779c de7a 4d9c 75fc 889c 27c2 759c
00000130: 0fb6 819c d297 999c 5a68 d79b 1de0 e79b
00000140: 667b 109c 9c10 1587 2375 be85 8a0c b786
00000150: decd 178b 8039 078b 0863 0c8b 894f 3c80
00000160: ed00 0080 e700 0080 d5e6 070e f6a9 9d0e
00000170: 0fcd b18c f6c0 bb15 9444 5916 060b 6315
00000180: 761a 6b03 50db 3804 6506 9a02 d6bf e0a3
00000190: d698 27a3 9bb4 8720 8a63 aaa2 f770 6d23
000001a0: 9dd7 b723 d1d5 d7a3 1fd6 d921 f685 8c23
000001b0: e742 e6a2 b481 bfa1 a01c 2e23 4e3b 31a3
000001c0: 9a46 80a2 f75c 9622 ea20 0122 ace3 1622
000001d0: d929 1723 febd 13a2 4212 cca2 7bd0 baa2
000001e0: aed8 53a1 2086 aaa2 82da 4ca2 4236 bca0
000001f0: 44ea 98a1 20a0 97a1 5f9c 259e 8f36 639f
00000200: 5943 459e 3d85 809e 8311 5a9f 32e3 6f9e
00000210: 3891 aa9e 167e f59e de86 139e 506c 5b97
00000220: e817 8597 bae9 f897 1ea0 e397 f65d af98
00000230: a860 ce98 4b8d dd93 501f e793 0278 8b94
00000240: ac44 fb3d 4433 6f3d 7df8 92bd c0ac f63d
00000250: 4d9f 793b ae17 1fbe 11e1 243e 0bf5 6f3d
00000260: 68a4 85bd 8c54 003a d923 e03c 21a4 8f3b
00000270: 3bba da3d be72 3b3e b116 6c3e 5b12 7bbd
00000280: 738b 3fbd a7db b8bd ba3a b2be a325 3fbe
00000290: 5c41 eebd eab6 fabc 95b4 983e 42d3 c43e
000002a0: f7fe 84be 2e3e dd3d 7ac8 2f3e 88f8 6abe
000002b0: f686 8ebe 78a1 0abe 7b8c 94bc 87b5 06bd
000002c0: 618d 793d 1abb 0d3e a5fa 093e c60b 693e
000002d0: 3882 2f3e 2308 773c 76cf 09be 6df8 d03d
000002e0: 4a06 05be f9c9 6fbe f0c1 b33e 60e8 173e
000002f0: 72c9 c1bd eb93 d3bd 9b74 10be ae43 7bbe
00000300: 145e 7b3e f790 563e ad87 093e 8b93 f03c
00000310: d245 183e 8748 1b3d d107 94bd 619b 77bd
00000320: 4397 493d d847 97be aa49 1cbe 5cd5 c9bd
00000330: 1d67 b2bd 041c f1bd 9a96 7abd 3015 3bbd
00000340: 6dac 47bd 3eb9 58bd 27f3 483d 8c1d a43d
00000350: f4d9 d53b de5e 093d 8b51 0e3d 63ca 02bc
00000360: 4530 14bd 7346 98bc d8cc 5d3c 14dc e5bc
00000370: d327 adbc 8915 aa3b af21 e3bc 2b47 c8bc
00000380: 383b a0bb 17f3 b63d 8f1e dd3d 02b6 d93d
00000390: 828b ae3d 6d4f bc3d f182 c13d 22f9 3a3c
000003a0: 7db3 b43a 9a2b 52bb 242d bbbd 151f a6bd
000003b0: 3611 8abc 71e4 fbbd 3b9b 02be 59dd 69bd
000003c0: fee1 47be 4b3a 74be deed 42be 59fe be3b
000003d0: 6774 6ebd 3874 76bd c1fb 633d 01cc 833c
000003e0: 8418 713c 4a70 073d 36dd 5f3c f66a 9c3c
000003f0: cf1e b23c 33f1 41bd 80df 08be cc0e a23d

down_path.1.block.0.bias f4 [16]
-3.0946178e-06 -8.508891e-16 -0.06583627 -0.029419314 -0.17198266 -0.00801579 -1.9218041e-05 0.030810632
-0.096920714 0.49117437 -1.9854967e-06 -0.2462773 0.22241303 -0.09805779 0.0020248373 -0.019442381
00000000: 21ad 4fb6 8940 75a6 2bd5 86bd c600 f1bc
00000010: 391c 30be a954 03bc 6e36 a1b7 9466 fc3c
00000020: 5e7e c6bd 357b fb3e 933e 05b6 1e30 7cbe
00000030: 3ec0 633e 86d2 c8bd 22b3 043b a145 9fbc

down_path.1.block.2.weight f4 [16]
0.0001944889 -8.128538e-07 0.5862583 0.1290028 0.4299087 -0.0001994227 -0.000393557 0.43104607
0.26402068 1.4430186 4.045582e-05 0.33956167 0.6614245 0.20250444 0.0003116407 0.5121819
00000000: b7ef 4b39 e332 5ab5 0615 163f 4f19 043e
00000010: fe1c dc3e 201c 51b9 5456 ceb9 12b2 dc3e
00000020: b82d 873e d5b4 b83f 1baf 2938 07db ad3e
00000030: 1e53 293f 535d 4f3e b563 a339 5a1e 033f

down_path.1.block.2.bias f4 [16]
0.00027913408 0.0033416746 0.23550382 0.11101924 0.12894538 0.00031146174 -0.0007410529 -0.354144
0.11173831 0.11248467 -0.0002989056 0.014937373 -0.2595416 0.08333051 -7.153252e-05 -0.002331671
00000000: be58 9239 ffff 5a3b ea27 713e 0e5e e33d
00000010: 420a 043e b04b a339 3843 42ba 5d52 b5be
00000020: 0ed7 e43d 5d5e e63d 6eb6 9cb9 e2bb 743c
00000030: a3e2 84be 30a9 aa3d bb03 96b8 f3ce 18bb

down_path.1.block.2.running_mean f4 [16]
3.4866138e-32 6e-45 0.1354165 0.37138072 0.10954441 0.022837067 6e-45 0.24189636
0.23067525 0.6363189 6e-45 0.054593842 0.31782916 0.5020382 0.0060400134 0.12539493
00000000: 0c09 350b 0400 0000 9faa 0a3e 9d25 be3e
00000010: d258 e03d cd14 bb3c 0400 0000 aeb3 773e
00000020: 2236 6c3e cce5 223f 0400 0000 cb9d 5f3d
00000030: 81ba a23e 9385 003f 4eeb c53b 8767 003e

down_path.1.block.2.running_var f4 [16]
1.0058544e-37 6e-45 0.13209058 0.21628673 0.1452754 0.0026982715 6e-45 0.3729668
0.5003759 0.35906288 6e-45 0.03006612 0.14938034 0.537433 0.00015679229 0.038392242
00000000: e9e8 0802 0400 0000 c142 073e 457a 5d3e
00000010: 13c3 143e 7cd5 303b 0400 0000 81f5 be3e
00000020: a318 003f 17d7 b73e 0400 0000 394d f63c
00000030: 29f7 183e 3695 093f 9c68 2439 2f41 1d3d

down_path.1.block.3.weight f4 [16, 16, 3, 3]
-0.00021535743 -0.00021917456 -0.00024156213 -0.00014028064 -0.00014897132 -0.00017333556 -0.00013263893 -0.00013714141
-0.00015236248 -0.0019453842 -0.0019433169 -0.0019570803 -0.0019743429 -0.0019719007 -0.0019865534 -0.0020030926
-0.0020002523 -0.002009091 0.07475371 -0.043067917 -0.035830602 0.016464006 -0.072951294 -0.059307486
0.08354839 -0.01704125 0.0010514399 -0.059864096 -0.083531015 -0.09547152 -0.050907254 -0.068837605
-0.07345082 -0.064380504 -0.0741965 -0.07075912 -0.05979132 -0.10585827 -0.02548 -0.029359002
-0.0653263 -0.025079858 -0.024431987 -0.031768274 0.0016861947 0.00027508254 0.00025127947 0.00024888694
0.00030869254 0.00028888922 0.0002862453 0.00033463672 0.0003204738 0.0003233527 0.0006631821 0.00076262024
0.00078178104 0.00075419445 0.00084878365 0.0008644803 0.00059534056 0.0006968921 0.00072995335 0.0971356
0.08420924 0.05727677 0.08444302 0.067244895 0.021529164 0.025696881 0.017228441 -0.022408582
-0.10287193 -0.0981945 -0.07559557 -0.1092496 -0.08977411 -0.08107908 -0.088077374 -0.06381976
-0.070155956 -0.027802862 -0.018067084 -0.020579256 0.003274605 0.016276857 -0.0121461 -0.01870053
-0.01918918 -0.02712499 0.0017130332 0.0017347562 0.0017465813 0.0017973233 0.0018212092 0.0018310201
0.0017764197 0.0017966399 0.0018072503 -0.12409017 -0.08375852 -0.08161179 -0.05339839 -0.031820763
-0.047658224 -0.06466672 -0.042799164 -0.07074739 -0.010675301 0.0132263275 0.019622352 0.028014466
0.054606035 0.041674953 0.051388126 0.057263397 0.06635505 0.13032664 0.1071476 0.097017236
0.072434835 0.053483233 0.03764192 0.03050944 0.021732211 0.0030450667 0.00027544636 0.00023678286
0.00013887677 0.00023128199 0.0001961177 8.9681474e-05 0.00016980911 0.00014975322 3.0538697e-05 0.048750788
0.0036721297 0.047078636 0.056101263 0.0022127354 0.09636449 0.051113755 0.0061299526 0.12433845
-8.692984e-08 -2.0755676e-08 -7.9019614e-08 -6.4979396e-08 -3.9885126e-08 -6.164216e-08 -1.5524165e-07 -1.3463055e-07
-1.5844458e-07 -1.7058363e-06 -1.7280785e-06 -1.6823359e-06 -1.661471e-06 -1.6661769e-06 -1.6212902e-06 -1.6388924e-06
-1.6484547e-06 -1.602415e-06 -0.00015060735 -0.00010070436 -8.692892e-05 -9.94411e-05 -4.7428417e-05 -4.9887494e-05
-0.00013963148 -7.340647e-05 -1.654141e-05 -0.00019558644 -0.00015588966 -0.00016502372 -0.00018728722 -0.00015226504
-0.00016185311 -0.00019231695 -0.0001544631 -0.00016187194 8.148543e-05 0.0001344815 -2.2390795e-05 7.202357e-05
0.00011629816 1.1484672e-06 6.711123e-05 8.007753e-05 -6.0096656e-05 -1.4994257e-06 -1.487114e-06 -1.4328716e-06
-1.57141e-06 -1.5747327e-06 -1.5366271e-06 -1.5766144e-06 -1.6012865e-06 -1.579189e-06 3.7937385e-05 3.818593e-05
3.8645285e-05 3.9319082e-05 3.9514573e-05 3.978755e-05 3.866801e-05 3.872784e-05 3.9150156e-05 0.0004660048
0.00052531826 0.00065002474 0.00044597802 0.00049331563 0.00057833624 0.00053593086 0.0005456478 0.00057507213
-0.00015930003 -0.00015687865 -0.0001508322 -0.00015223176 -0.00013821952 -0.00016332416 -0.00014667348 -0.00012434769
-0.00018494576 0.0010027784 -0.00022608646 -0.0020965657 0.0025647383 -0.00020809157 -0.0018185604 0.002607535
-0.00014240529 -0.0010388442 -1.9615632e-07 -1.9852543e-07 -2.0512431e-07 -1.9286101e-07 -1.9677455e-07 -2.0066514e-07
-1.8849077e-07 -1.887117e-07 -1.8931135e-07 1.654018e-06 -1.0770296e-05 -5.625515e-05 -7.300107e-05 -4.3945787e-05
-5.864853e-05 -0.00011900326 -8.400038e-05 -8.1281345e-05 0.0003449978 0.0004639477 0.0005436388 0.00033609694
00000000: 92d1 61b9 39d2 65b9 d74b 7db9 4c18 13b9
00000010: 2f35 1cb9 69c1 35b9 fe14 0bb9 9ecd 0fb9
00000020: 7ec3 1fb9 43fc feba e5b6 feba 5c42 00bb
00000030: fa63 01bb 013b 01bb d630 02bb 5146 03bb
00000040: aa16 03bb f4aa 03bb 7918 993d fc67 30bd
00000050: 1cc3 12bd 86df 863c 7d67 95bd 68ec 72bd
00000060: 6b1b ab3d 179a 8bbc 78d0 893a 0e34 75bd
00000070: 4f12 abbd 9386 c3bd 2084 50bd bbfa 8cbd
00000080: 626d 96bd edd9 83bd 56f4 97bd 28ea 90bd
00000090: bee7 74bd 38cc d8bd 6fbb d0bc 4a82 f0bc
000000a0: ccc9 85bd 4674 cdbc 9725 c8bc 731f 02bd
000000b0: 4e03 dd3a f438 9039 29be 8339 0a7d 8239
000000c0: 03d8 a139 0e76 9739 3213 9639 2e72 af39
000000d0: 4405 a839 aa87 a939 66d9 2d3a 94ea 473a
000000e0: 70f0 4c3a 22b5 453a e880 5e3a 4a9e 623a
000000f0: a110 1c3a a3af 363a 575a 3f3a 08ef c63d
00000100: e575 ac3d 0c9b 6a3d 76f0 ac3d b1b7 893d
00000110: ee5d b03c 4482 d23c a922 8d3c 3492 b7bc
00000120: 85ae d2bd 331a c9bd dad1 9abd 41be dfbd
00000130: 7ddb b7bd ca0c a6bd e961 b4bd efb3 82bd
00000140: edad 8fbd d4c2 e3bc 6c01 94bc d495 a8bc
00000150: c19a 563b 0b57 853c 7000 47bc db31 99bc
00000160: a132 9dbc 3a35 debc db87 e03a c260 e33a
00000170: 8bed e43a 2a94 eb3a a4b5 ee3a d7fe ef3a
00000180: c1d6 e83a 3b7d eb3a 42e1 ec3a fd22 febd
00000190: 9689 abbd 1524 a7bd 45b8 5abd 7d56 02bd
000001a0: 4535 43bd fc6f 84bd 2d4e 2fbd 02e4 90bd
000001b0: 75e7 2ebc 3db3 583c 0ebf a03c 987e e53c
000001c0: 94aa 5f3d 5bb3 2a3d 5b7c 523d 068d 6a3d
000001d0: 28e5 873d 5974 053e 3370 db3d f9b0 c63d
000001e0: b758 943d 3c11 5b3d 6a2e 1a3d efee f93c
000001f0: c007 b23c be8f 473b c969 9039 ea48 7839
00000200: 739f 1139 4984 7239 f2a4 4d39 6013 bc38
00000210: c90e 3239 1307 1d39 ad16 0038 e8ae 473d
00000220: 1da8 703b 87d5 403d 70ca 653d 8a03 113b
00000230: bf5a c53d a85c 513d c5dd c83b 28a5 fe3d
00000240: 2fae bab3 374a b2b2 7eb1 a9b3 cd8a 8bb3
00000250: 294e 2bb3 2360 84b3 80b0 26b4 f78e 10b4
00000260: ea20 2ab4 17f4 e4b5 53f0 e7b5 9fcc e1b5
00000270: b5ff deb5 67a1 dfb5 1b9b d9b5 eaf7 dbb5
00000280: 7940 ddb5 8f12 d7b5 5aec 1db9 3e31 d3b8
00000290: 9c4d b6b8 098b d0b8 e0ed 46b8 4a3e 51b8
000002a0: 0a6a 12b9 ccf1 99b8 68c2 8ab7 5616 4db9
000002b0: 5076 23b9 380a 2db9 8862 44b9 56a9 1fb9
000002c0: 1db7 29b9 b0a8 49b9 5ff7 21b9 2bbc 29b9
000002d0: 28e3 aa38 9a03 0d39 ded3 bbb7 5c0b 9738
000002e0: 19e5 f338 0825 9a35 11be 8c38 4cef a738
000002f0: 4b10 7cb8 e03f c9b5 d998 c7b5 1851 c0b5
00000300: 3de9 d2b5 675b d3b5 1b3e ceb5 0f9c d3b5
00000310: c9eb d6b5 85f4 d3b5 f51e 1f38 d529 2038
00000320: 0f17 2238 8bea 2438 73bc 2538 8ee1 2638
00000330: 762f 2238 b46f 2238 2935 2438 1b52 f439
00000340: 83b5 093a 6c66 2a3a 28d2 e939 da51 013a
00000350: 7d9b 173a b67d 0c3a ce09 0f3a 70c0 163a
00000360: c709 27b9 cb7f 24b9 b628 1eb9 67a0 1fb9
00000370: 05ef 10b9 ff41 2bb9 5dcc 19b9 5463 02b9
00000380: 00ee 41b9 a96f 833a 9f11 6db9 8966 09bb
00000390: 2b15 283b 2833 5ab9 c35c eeba 2ee3 2a3b
000003a0: a152 15b9 d429 88ba 0a9f 52b4 412a 55b4
000003b0: 2440 5cb4 3b15 4fb4 fa48 53b4 6a76 57b4
000003c0: f363 4ab4 ada0 4ab4 8245 4bb4 a0ff dd35
000003d0: 12b2 34b7 82f3 6bb8 2718 99b8 6e52 38b8
000003e0: 61fd 75b8 6491 f9b8 5c29 b0b8 9775 aab8
000003f0: d2e0 b439 023e f339 fb82 0e3a 2b36 b039

down_path.1.block.3.bias f4 [16]
-0.05421053 -0.0017740614 0.2045195 -0.37236512 -0.2134493 -0.013268712 -0.33537462 0.016423356
-0.21990138 -0.17223866 -0.00197611 -0.025614798 0.01752282 -0.14194769 0.039295565 -0.11552119
00000000: dc0b 5ebd 9f87 e8ba 8f6d 513e a4a6 bebe
00000010: 7492 5abe 0365 59bc 39b6 abbe 468a 863c
00000020: d42d 61be 555f 30be a081 01bb 20d6 d1bc
00000030: 048c 8f3c bc5a 11be 63f4 203d 6096 ecbd

down_path.1.block.5.weight f4 [16]
-0.1425273 -0.0006141732 0.21643253 0.3339606 0.34175384 0.0044672815 0.40341246 0.30960056
0.40433082 0.42210886 4.4617806e-05 -0.2579377 0.54472953 0.44044754 0.09891223 0.6754016
00000000: adf2 11be 7700 21ba 7da0 5d3e e2fc aa3e
00000010: 5cfa ae3e 4662 923b 148c ce3e f783 9e3e
00000020: 7304 cf3e a71e d83e 0124 3b38 6910 84be
00000030: 6573 0b3f 5782 e13e 7f92 ca3d 1fe7 2c3f

down_path.1.block.5.bias f4 [16]
-0.020431416 0.00044736135 -0.03699264 0.04487309 0.047222808 0.0075017144 0.103972785 -0.0030701559
0.019453328 0.03045222 -0.0025024118 -0.059316624 -0.007143029 0.048636656 0.019252026 -0.09118235
00000000: c95f a7bc d38b ea39 9885 17bd d8cc 373d
00000010: b46c 413d f1d0 f53b afef d43d ab34 49bb
00000020: 965c 9f3c ef76 f93c 81ff 23bb fdf5 72bd
00000030: 1210 eabb 3b37 473d 6db6 9d3c d0bd babd

down_path.1.block.5.running_mean f4 [16]
0.014257983 0.0021767358 0.52087533 0.07572824 0.3060375 0.0025467575 0.11630616 0.26288837
0.37472022 0.06862795 2.1268808e-05 0.24881049 0.45711687 0.20854641 0.03073318 0.56134427
00000000: 519a 693c 91a7 0e3b 1658 053f 6817 9b3d
00000010: f2b0 9c3e 80e7 263b ed31 ee3d 4e99 863e
00000020: 54db bf3e d08c 8c3d 6b6a b237 2dc8 7e3e
00000030: 390b ea3e 318d 553e 26c4 fb3c 42b4 0f3f

down_path.1.block.5.running_var f4 [16]
0.0077614114 4.6941357e-05 0.2009881 0.10330591 0.6780835 0.00022066385 0.18853752 0.25441194
0.8384867 0.13479781 1.2160305e-07 0.23701343 1.6991704 0.47351924 0.02297477 1.7831523
00000000: 7053 fe3b e6e2 4438 d3cf 4d3e 0d92 d33d
00000010: e196 2d3f 0062 6739 fb0f 413e 4842 823e
00000020: 10a7 563f 7008 0a3e fe91 0234 a6b3 723e
00000030: 6a7e d93f 1d71 f23e 9635 bc3c 563e e43f

down_path.2.block.0.weight f4 [32, 16, 3, 3]
-4.694798e-08 -3.193526e-08 -2.9636304e-08 -4.671007e-08 -4.3236515e-08 -5.604399e-08 4.8056013e-08 3.5606575e-08
2.2343421e-08 -1.0097311e-10 -4.768052e-11 -5.678295e-12 -2.973327e-10 -1.314574e-10 -8.370901e-11 4.1790658e-11
1.5028652e-10 2.2223487e-10 -8.953535e-07 -1.4284552e-06 -2.9132216e-06 -6.410003e-07 -1.3093246e-06 -2.9670227e-06
-3.6094983e-07 -7.264151e-07 -1.9899242e-06 3.281981e-07 1.5693733e-07 1.2726254e-07 3.8812445e-07 1.9783282e-07
2.5469305e-07 1.3229545e-06 1.2034951e-06 1.1052854e-06 -9.690813e-07 -6.0533125e-07 -6.86508e-07 -4.1747094e-07
-1.3407095e-08 -2.3665534e-07 8.3169134e-08 6.3596104e-07 2.7827258e-07 -1.19438734e-08 -1.2047832e-08 -1.23625945e-08
1.2974803e-08 1.2441664e-08 1.1581156e-08 3.144268e-08 2.9709117e-08 2.9724452e-08 -5.8558675e-07 -5.6404804e-07
-6.699844e-07 2.8200174e-07 4.305718e-07 7.1171723e-07 1.4323064e-06 1.1321554e-06 1.0967658e-06 -1.24571725e-05
-1.442027e-05 -2.1646469e-05 -2.7222153e-05 -2.4255827e-05 -2.6798989e-05 -2.0766047e-05 -1.6473585e-05 -1.856756e-05
7.5450345e-07 3.9717355e-07 6.0253944e-07 9.969789e-07 6.4512807e-07 8.0909876e-07 9.0625224e-07 4.2496487e-07
5.638161e-07 4.2502694e-07 3.9877537e-07 2.9052555e-07 3.873511e-07 3.078242e-07 2.4114075e-07 5.951383e-07
4.1886517e-07 4.2858056e-07 5.6462973e-10 5.3362664e-10 5.0810683e-10 5.2754556e-10 5.004134e-10 4.736576e-10
1.4345677e-10 1.0117393e-10 6.324714e-11 -1.0490348e-07 -1.2937736e-07 -8.034328e-08 -2.0097039e-07 -1.8401775e-07
-1.0850481e-07 -8.1279374e-08 -6.36661e-08 -6.346344e-08 5.6219837e-05 3.1886498e-06 2.4022931e-06 0.00010360284
3.347315e-06 2.5326872e-06 0.00010180141 4.84006e-06 3.8744083e-06 -6.826016e-08 -1.4548111e-07 -1.9908074e-07
-2.461042e-07 -3.2054731e-07 -3.9498494e-07 1.6000868e-07 2.5256773e-08 2.0271119e-07 -1.0841981e-07 -1.122449e-07
-9.268289e-08 -1.0157003e-07 -1.5901021e-07 -1.6644964e-07 2.0763412e-08 -5.5156278e-08 -7.317008e-08 -3.52939e-05
-4.9315044e-05 -6.7168294e-05 -3.263838e-05 -5.9963713e-05 -7.83292e-05 -7.292975e-05 -8.278361e-05 -8.7525426e-05
7.514e-42 1.1362e-41 -1.167e-41 -1.2888e-41 -3.877e-42 9.117e-42 -2.59e-42 -1.1778e-41
-2.423e-42 -1.1967e-41 3.408e-42 -1.2629e-41 2.657e-42 6.05e-42 4.348e-42 -1.1436e-41
-7.662e-42 7.489e-42 -1.3992697e-20 -1.3695586e-21 -4.0604102e-22 -1.8543116e-20 -1.1229847e-21 -2.216588e-22
-1.91647e-20 -1.8298827e-21 -3.6885344e-22 -3.132494e-32 -2.716807e-31 -4.38914e-29 -9.7687886e-33 -7.318105e-32
-9.209009e-30 -8.96416e-34 -3.6067557e-33 -1.4230591e-31 -1.3808513e-34 -1.8323151e-31 -5.978925e-30 -8.793525e-36
-3.0720296e-32 -3.25036e-30 -2.866121e-37 -2.9878796e-35 -9.6106464e-33 4.09e-42 -3.866e-42 -9.738e-42
3.293e-42 -1.398e-42 -3.582e-42 -7.364e-42 1.621e-42 -2.898e-42 -1.578599e-33 -1.7805019e-31
-8.087693e-31 -1.0412792e-33 -1.4597352e-30 -1.2000694e-29 4.181766e-35 -1.7472793e-32 -2.5419807e-31 -1.582015e-21
-1.2077916e-22 -3.2119463e-23 -7.0538286e-22 -1.2512836e-23 -1.3125986e-23 -3.3083492e-21 -1.2962732e-22 -2.9628508e-23
-2.3075896e-28 2.801459e-28 2.9794731e-27 6.928797e-29 1.3326761e-28 5.0195104e-27 2.2134576e-29 2.263984e-29
3.4789883e-28 -2.1623467e-29 -6.706997e-29 -3.407619e-28 -5.4945698e-30 -1.3985259e-29 -6.966203e-29 -9.2136385e-31
-1.7365245e-30 -5.6754447e-30 -1.256e-42 1.2658e-41 -1.0978e-41 -5.929e-42 -5.265e-42 1.2917e-41
9.886e-42 9.99e-43 6.482e-42 3.85e-43 -1.0026e-41 -1.1069e-41 8.551e-42 -5.65e-42
1.3419e-41 -6.515e-42 1.066e-42 4.009e-42 1.6862694e-28 6.081402e-29 2.1952951e-26 2.5927456e-28
00000000: daa3 49b3 3129 09b3 ec92 feb2 449e 48b3
00000010: 0db3 39b3 05b5 70b3 2566 4e33 d8ed 1833
00000020: b4ed bf32 cf0a deae 7eb3 51ae 89c9 c7ac
00000030: db75 a3af f889 10af fc13 b8ae 19cc 372e
00000040: e53d 252f 8e59 742f 3958 70b5 59b9 bfb5
00000050: c480 43b6 3511 2cb5 0dbc afb5 101d 47b6
00000060: 91c8 c1b4 defe 42b5 a38a 05b6 3433 b034
00000070: 9b82 2834 a9a5 0834 6b5f d034 df6b 5434
00000080: bfbc 8834 5f90 b135 c787 a135 5159 9435
00000090: 6111 82b5 0c7e 22b5 7848 38b5 c520 e0b4
000000a0: 0755 66b2 531b 7eb4 b79a b233 e9b6 2a35
000000b0: 7e65 9534 b631 4db2 edfa 4eb2 4463 54b2
000000c0: c9e7 5e32 04bf 5532 76f6 4632 980b 0733
000000d0: 0a33 ff32 c354 ff32 3731 1db5 1669 17b5
000000e0: fad8 33b5 0666 9734 5629 e734 d60c 3f35
000000f0: ac3d c035 90f4 9735 9634 9335 26ff 50b7
00000100: 97ee 71b7 7095 b5b7 215b e4b7 fe78 cbb7
00000110: 64ce e0b7 bf32 aeb7 c130 8ab7 88c1 9bb7
00000120: 1589 4a35 1e3b d534 32be 2135 efcf 8535
00000130: dd2c 2d35 d830 5935 2e45 7335 ba26 e434
00000140: 2659 1735 422f e434 4517 d634 87f9 9b34
00000150: 21f5 cf34 0943 a534 2276 8134 98c1 1f35
00000160: 64e0 e034 aa17 e634 4934 1b30 a3ae 1230
00000170: d7aa 0b30 b802 1130 768d 0930 b132 0230
00000180: 7ebb 1d2f dc7b de2e f914 8b2e 4c47 e1b3
00000190: faea 0ab4 2f89 acb3 52ca 57b4 6a96 45b4
000001a0: 2603 e9b3 cf8b aeb3 cfb8 88b3 6549 88b3
000001b0: 97cd 6b38 96fc 5536 1537 2136 5a45 d938
000001c0: 6fa2 6036 3cf7 2936 377e d538 cc67 a236
000001d0: ea00 8236 6b96 92b3 8b35 1cb4 e6c2 55b4
000001e0: 4e20 84b4 b017 acb4 510e d4b4 dace 2b34
000001f0: 3bf4 d832 d4a8 5934 6cd4 e8b3 490b f1b3
00000200: f508 c7b3 b71e dab3 65bc 2ab4 54b9 32b4
00000210: 3a5b b232 f8e4 6cb3 ad21 9db3 8908 14b8
00000220: a0d7 4eb8 b4dc 8cb8 32e5 08b8 8c81 7bb8
00000230: ab44 a4b8 ddf1 98b8 1d9c adb8 db8d b7b8
00000240: f214 0000 ac1f 0000 8820 0080 ed23 0080
00000250: cf0a 0080 6a19 0000 3807 0080 d520 0080
00000260: c106 0080 5c21 0080 8009 0000 3423 0080
00000270: 6807 0000 dd10 0000 1f0c 0000 e11f 0080
00000280: 5c15 0080 e014 0000 4428 849e 3bf6 ce9c
00000290: ce6f f59b 8122 af9e 5eb3 a99c 0afc 859b
000002a0: 6701 b59e 1443 0a9d 4ef5 de9b fda5 228b
000002b0: b354 b08c 4b8e 5e90 cae3 4a8a 26fd bd8b
000002c0: e9c7 3a8f 52f1 9488 9bd1 9589 40b9 388c
000002d0: ef8b 3787 1dd9 6d8c b588 f28e 8104 3b85
000002e0: 4782 1f8b abd9 838e df0e c382 e9dc 1e86
000002f0: f69a 478a 670b 0000 c70a 0080 251b 0080
00000300: 2e09 0000 e603 0080 fc09 0080 8714 0080
00000310: 8504 0000 1408 0080 1625 0389 531f 678c
00000320: f63a 838d 1e03 ad88 07db ec8d 2a67 738f
00000330: 4057 5e06 a772 b58a e6fb a48c 3e11 ef9c
00000340: 5703 129b f851 1b9a 5b30 559c 9008 7299
00000350: bce4 7d99 c8f8 799d b6b5 1c9b 5146 0f9a
00000360: c842 9291 4590 b111 e50e 6c13 77aa af10
00000370: d0ef 2811 e2d7 c613 a578 e00f 6398 e50f
00000380: d081 dc11 bb49 db8f e60a aa90 c8fb d791
00000390: e0e2 de8e cfd3 8d8f 3e9d b090 f57f 958d
000003a0: 34e2 0c8e 3039 e68e 8003 0080 4923 0000
000003b0: 9a1e 0080 8710 0080 ad0e 0080 0224 0000
000003c0: 8f1b 0000 c902 0000 1212 0000 1301 0000
000003d0: f31b 0080 db1e 0080 d617 0000 c00f 0080
000003e0: 6825 0000 2912 0080 f902 0000 2d0b 0000
000003f0: 92c2 5511 8e2e 9a10 5869 d914 b455 a411

down_path.2.block.0.bias f4 [32]
0.0012782128 -2.7547676e-19 0.18133888 -0.00022387403 0.022991978 -1.1852221e-08 -1.7054151e-07 -0.0031535032
-6.5218356e-12 0.03113543 -0.28147462 -2.904525e-05 0.18427011 -3.4693402e-20 -6.901138e-14 -1.8992803e-10
6.8010672e-06 -0.0043542497 -3.3556011e-09 -7.878248e-05 -0.002055843 -0.011737517 -0.046661768 0.10971305
0.0012264055 -0.039419767 -4.363577e-14 -0.06672634 0.21311733 -4.904809e-05 0.091554314 0.22896808
00000000: b489 a73a df9c a2a0 e6b0 393e babf 6ab9
00000010: ac59 bc3c 9f9e 4bb2 181e 37b4 01ab 4ebb
00000020: 7977 e5ac bb0f ff3c 711d 90be 33a6 f3b7
00000030: 4eb1 3c3e c0d5 239f 5a66 9ba9 fdd3 50af
00000040: b934 e436 18ae 8ebb 5c98 66b1 0638 a5b8
00000050: 52bb 06bb b74e 40bc 6920 3fbd 3cb1 e03d
00000060: 57bf a03a 9f76 21bd 9e84 44a9 d2a7 88bd
00000070: 6e3b 5a3e fcb8 4db8 d480 bb3d 9c76 6a3e

down_path.2.block.2.weight f4 [32]
-2.8789286e-06 3.3477666e-06 0.6616605 -0.00189225 -0.0011699756 0.00032445573 -4.9887465e-05 -0.00010017137
0.00016690929 0.45727858 0.3682398 0.00034982123 0.33103067 -9.148554e-05 -2.7318427e-05 -6.767151e-05
-1.7922332e-05 0.00039176273 -0.00082963007 -0.0006959953 0.00021430626 9.124765e-06 0.3406314 0.7524504
0.7101024 0.49159327 0.00015657274 0.0012753506 0.54464555 5.9738875e-05 0.4336409 0.49414128
00000000: 9e33 41b6 31aa 6036 9562 293f 6005 f8ba
00000010: de59 99ba b61b aa39 423e 51b8 1813 d2b8
00000020: 5f04 2f39 6b20 ea3e ed89 bc3e 3668 b739
00000030: da7c a93e eddb bfb8 e029 e5b7 deea 8db8
00000040: ea57 96b7 8165 cd39 887b 59ba 7473 36ba
00000050: 66b7 6039 9116 1937 3d67 ae3e 97a0 403f
00000060: 45c9 353f 1db2 fb3e ad2d 2439 aa29 a73a
00000070: e46d 0b3f 2190 7a38 2e06 de3e 1600 fd3e

down_path.2.block.2.bias f4 [32]
3.5312146e-07 -3.1395518e-07 0.32500228 -1.0155521e-06 -0.0028433462 0.0025196197 -1.7722597e-05 0.011854923
0.0001936887 0.03408954 -0.042544946 -1.5953142e-06 -0.025180766 -4.8833223e-05 -0.00062271167 0.008299275
-1.7344219e-05 2.435098e-05 -0.005550182 -3.1548802e-07 -2.6341977e-05 -4.752595e-05 0.089170285 0.15960972
0.27050382 0.07786066 -0.0048892857 0.0011365591 0.114839785 -1.43377e-07 0.1897107 0.010393717
00000000: a594 bd34 ac8d a8b4 b366 a63e 1b4e 88b5
00000010: 6f57 3abb 3420 253b fdaa 94b7 273b 423c
00000020: ea18 4b39 79a1 0b3d 9c43 2ebd 941e d6b5
00000030: e547 cebc 46d2 4cb8 793d 23ba aff9 073c
00000040: 6d7e 91b7 5545 cc37 4dde b5bb 5860 a9b4
00000050: f7f8 dcb7 9a56 47b8 e99e b63d bb70 233e
00000060: 7a7f 8a3e 6975 9f3d 4d36 a0bb 98f8 943a
00000070: 1f31 eb3d 2bf3 19b4 8643 423e 694a 2a3c

down_path.2.block.2.running_mean f4 [32]
0.001122574 6e-45 0.1902186 6e-45 0.20020746 6e-45 6.3841762e-18 2.8979804e-07
6e-45 0.27040952 0.021299852 2.755675e-07 0.22214833 6e-45 6e-45 6e-45
5.349104e-06 2.8357816e-05 6e-45 6e-45 2.0433932e-08 0.015895091 0.106251664 0.6072125
0.27196312 0.2010062 6e-45 0.20755844 0.29632878 6e-45 0.17161094 0.20327155
00000000: 5523 933a 0400 0000 aac8 423e 0400 0000
00000010: 2f03 4d3e 0400 0000 d788 eb22 8a95 9b34
00000020: 0400 0000 1e73 8a3e 077d ae3c b5f1 9334
00000030: da7a 633e 0400 0000 0400 0000 0400 0000
00000040: 747c b336 f2e1 ed37 0400 0000 0400 0000
00000050: b186 af32 6c36 823c 799a d93d 4772 1b3f
00000060: c03e 8b3e 92d4 4d3e 0400 0000 338a 543e
00000070: 68b8 973e 0400 0000 c7ba 2f3e 6b26 503e

down_path.2.block.2.running_var f4 [32]
1.2620907e-07 6e-45 0.061318822 6e-45 0.040983237 6e-45 1.5587118e-24 3.1992317e-10
6e-45 0.17596574 0.011062805 8.712459e-12 0.09400438 6e-45 6e-45 6e-45
3.7423335e-11 1.0926304e-07 6e-45 6e-45 1.6128182e-11 0.0013361427 0.06837751 0.39370835
0.33737046 0.1067493 6e-45 0.09482246 0.14612618 6e-45 0.10207576 0.12607491
00000000: 1684 0734 0400 0000 7229 7b3d 0400 0000
00000010: 0ade 273d 0400 0000 f032 f117 2fe1 af2f
00000020: 0400 0000 5d30 343e c440 353c 6d45 192d
00000030: 5e85 c03d 0400 0000 0400 0000 0400 0000
00000040: ee96 242e fea3 ea33 0400 0000 0400 0000
00000050: 70dd 8d2d 8221 af3a 8209 8c3d 2494 c93e
00000060: d2bb ac3e 619f da3d 0400 0000 4732 c23d
00000070: 1aa2 153e 0400 0000 190d d13d c819 013e

down_path.2.block.3.weight f4 [32, 32, 3, 3]
-4.9030532e-05 1.9907786e-05 4.092144e-05 -3.5888967e-05 8.142624e-06 2.9754097e-05 1.1133412e-05 1.386363e-05
1.5215955e-05 -1.2792846e-06 -1.359578e-06 -1.3448722e-06 -1.2615196e-06 -1.3497388e-06 -1.3339055e-06 -1.2720666e-06
-1.354728e-06 -1.335037e-06 0.20061131 0.03612942 -0.31528914 0.2619653 0.119822614 -0.37771744
0.22561789 0.068218105 -0.40698382 -1.5691838e-05 -1.48523995e-05 -1.4942679e-05 -1.5493573e-05 -1.4539345e-05
-1.4466821e-05 -1.548628e-05 -1.4635782e-05 -1.4423512e-05 -0.020302584 -0.017995298 -0.014868609 -0.019015418
-0.016941736 -0.014120334 -0.016995478 -0.015047412 -0.013239575 0.00478452 0.005024722 0.00522916
0.0047858683 0.005024265 0.0052448954 0.0049197082 0.0051393947 0.005345212 1.2311295e-05 1.21149715e-05
1.23079935e-05 1.2114793e-05 1.1851581e-05 1.21915355e-05 1.1965401e-05 1.1807644e-05 1.2311123e-05 -0.00011146021
-0.0003148934 -0.0003283591 -0.000116815994 -0.00031823866 -0.00032341277 -0.0001314532 -0.00037301678 -0.00036215156
-0.00011010231 -0.00010481743 -0.00010402481 -0.00011519414 -0.00010974217 -0.00010879888 -0.000113782604 -0.00011005478
-0.00010832046 0.020375568 -0.021194723 -0.01895111 0.055911887 0.061552033 0.007500651 0.011483165
0.040042467 -0.040382415 0.120216824 0.13335973 -0.032083288 0.05921276 0.046274055 -0.049695246
0.016248852 -0.010670956 -0.02425303 -1.3265696e-07 -1.3258455e-06 -1.6105744e-06 7.160492e-08 -1.1172307e-06
-1.4747316e-06 4.4341007e-07 -9.699901e-07 -1.3317643e-06 0.014572494 0.021487202 0.20771809 -0.07371189
-0.033663895 0.17633358 -0.018362371 -0.009959741 0.2124545 4.023089e-05 5.6699293e-05 2.1909324e-05
7.465663e-05 6.400236e-05 2.6659567e-05 8.648799e-05 5.3884796e-05 2.5978856e-05 -0.00023694526 -0.00023647392
-0.00024340148 -0.00023652636 -0.00023220613 -0.00024360968 -0.00023815257 -0.00023910205 -0.00024934788 0.0029561738
0.0029024302 0.0029860577 0.00289935 0.0028201893 0.0029345925 0.0028249286 0.0027676665 0.0028756699
-1.7439932e-05 -1.8299017e-05 -1.9361982e-05 -1.75448e-05 -1.8452683e-05 -1.9498473e-05 -1.7556655e-05 -1.823539e-05
-1.9088617e-05 8.93019e-05 -7.7185774e-05 -0.00017234175 0.00017132904 6.881812e-05 -4.4744396e-05 0.00013759265
1.24554335e-05 -0.00010162821 -0.009429993 -0.009667758 -0.009601346 -0.009295411 -0.00944299 -0.009436329
-0.00915392 -0.009184059 -0.009271194 -8.4365456e-07 -8.503042e-07 -1.1534958e-06 9.941581e-07 6.774798e-07
6.66218e-07 2.4099862e-07 7.1645906e-07 3.6414102e-07 -9.290902e-05 -2.4896293e-05 -0.00010073727 -9.197194e-05
-5.0042643e-05 -0.00010385037 -6.5465516e-05 -3.8028353e-05 -0.00011335821 0.00034542818 0.00036428 0.00030365217
0.00031228235 0.0003081833 0.00018282355 0.00016595262 0.0001335491 -4.0600968e-05 -0.08260276 -0.19861645
-0.14721799 -0.115244396 -0.16220757 -0.09166273 0.004618028 0.03840033 0.13278374 0.0042908373
0.027932603 -0.44381535 0.098489955 0.15364523 -0.3336945 -0.06994835 0.026210979 -0.43188828
0.081490286 -0.13435604 -0.024108095 0.008438099 -0.069866404 -0.09216515 0.09605343 -0.07791324
0.06202164 0.070580594 -0.08510472 0.01645475 0.0998823 -0.0630811 -0.045675375 0.20448971
0.022839865 0.03863328 0.00269056 0.0028447225 0.0029225596 0.0026536623 0.0028061094 0.0028820212
0.0026743829 0.0028242308 0.0029081074 -0.005668552 -0.0062594484 -0.0001068527 -0.0071793394 -0.006906968
0.00010912304 -0.0074211014 -0.0062312507 -0.0003637523 0.091431096 0.17547487 -0.09646385 0.14772473
00000000: 22a6 4db8 a5ff a637 10a3 2b38 7c87 16b8
00000010: 4e9c 0837 7098 f937 a4c9 3a37 d697 6837
00000020: 0748 7f37 e2b3 abb5 bf7a b6b5 7581 b4b5
00000030: 7c51 a9b5 ac28 b5b5 a508 b3b5 e0bb aab5
00000040: 1ad4 b5b5 862f b3b5 0d6d 4d3e 71fc 133d
00000050: 946d a1be 5120 863e 8f65 f53d 2e64 c1be
00000060: 6008 673e efb5 8b3d 2f60 d0be f7a1 83b7
00000070: 922e 79b7 51b2 7ab7 32f8 81b7 03ee 73b7
00000080: 86b6 72b7 88e8 81b7 348c 75b7 83fc 71b7
00000090: 9b51 a6bc e06a 93bc 779b 73bc 39c6 9bbc
000000a0: 65c9 8abc f958 67bc 1a3a 8bbc 6c89 76bc
000000b0: cdea 58bc 76c7 9c3b 6ca6 a43b 6059 ab3b
000000c0: c6d2 9c3b 97a2 a43b 5fdd ab3b 8135 a13b
000000d0: 5e68 a83b e326 af3b 9c8c 4e37 6841 4b37
000000e0: 6e7e 4e37 a440 4b37 27d6 4637 3f8a 4c37
000000f0: 02bf 4837 7219 4637 df8b 4e37 bfbf e9b8
00000100: 4718 a5b9 9d27 acb9 1cfb f4b8 45d9 a6b9
00000110: ba8f a9b9 b3d6 09b9 7791 c3b9 29df bdb9
00000120: bae6 e6b8 6ed1 dbb8 e527 dab8 6294 f1b8
00000130: 6125 e6b8 f42a e4b8 929e eeb8 36cd e6b8
00000140: 1b2a e3b8 aaea a63c 8ea0 adbc 5c3f 9bbc
00000150: dd03 653d fc1d 7c3d 05c8 f53b e323 3c3c
00000160: 9203 243d 0868 25bd 3d34 f63d 748f 083e
00000170: c469 03bd 1489 723d dd89 3d3d 3e8d 4bbd
00000180: 501c 853c 3cd5 2ebc 4aae c6bc 7870 0eb4
00000190: b4f3 b1b5 ea2a d8b5 39c5 9933 c1f3 95b5
000001a0: 64ef c5b5 d10d ee34 9b30 82b5 13bf b2b5
000001b0: 78c1 6e3c ee05 b03c 0db4 543e 42f6 96bd
000001c0: 27e3 09bd ca90 343e af6c 96bc 2e2e 23bc
000001d0: ac8d 593e 97bd 2838 67d0 6d38 eac9 b737
000001e0: f990 9c38 0139 8638 fca2 df37 e360 b538
000001f0: 5c02 6238 2bed d937 8274 78b9 fcf5 77b9
00000200: 9639 7fb9 1004 78b9 5c7c 73b9 7a71 7fb9
00000210: 98b8 79b9 78b7 7ab9 e8ba 82b9 5ebc 413b
00000220: b336 3e3b bcb1 433b 0503 3e3b edd2 383b
00000230: 4b52 403b 7022 393b bd61 353b bc75 3c3b
00000240: f84b 92b7 d780 99b7 8a6b a2b7 2c2d 93b7
00000250: d6ca 9ab7 a790 a3b7 a146 93b7 34f8 98b7
00000260: 7e20 a0b7 9847 bb38 ccde a1b8 a3b6 34b9
00000270: caa6 3339 7252 9038 eeab 3bb8 bf46 1039
00000280: aef7 5037 3b21 d5b8 4280 1abc 8465 1ebc
00000290: f74e 1dbc c84b 18bc c5b6 1abc d59a 1abc
000002a0: 53fa 15bc bc78 16bc 35e6 17bc 8077 62b5
000002b0: 7640 64b5 d0d1 9ab5 036f 8535 0fdc 3535
000002c0: 27d6 3235 9962 8134 b152 4035 297f c334
000002d0: 26d8 c2b8 62d8 d0b7 e942 d3b8 0fe1 c0b8
000002e0: e1e4 51b8 3eca d9b8 884a 89b8 a280 1fb8
000002f0: baba edb8 961a b539 d5fc be39 8133 9f39
00000300: d4b9 a339 aa93 a139 53b4 3f39 9103 2e39
00000310: 5009 0c39 f54a 2ab8 a32b a9bd 1c62 4bbe
00000320: 50c0 16be 4105 ecbd be19 26be abb9 bbbd
00000330: d452 973b aa49 1d3d 76f8 073e 279a 8c3b
00000340: ead2 e43c c43b e3be 1ab5 c93d 2d55 1d3e
00000350: 01da aabe 1541 8fbd 68b8 d63c 7620 ddbe
00000360: 61e4 a63d a194 09be 577e c5bc f43f 0a3c
00000370: 1e16 8fbd 15c1 bcbd a9b7 c43d fa90 9fbd
00000380: 670a 7e3d 8f8c 903d 624b aebd 1dcc 863c
00000390: 178f cc3d aa30 81bd 1a16 3bbd c065 513e
000003a0: ab1a bb3c ee3d 1e3d 1b54 303b 866e 3a3b
000003b0: 6a88 3f3b 11e9 2d3b b4e6 373b 4be0 3c3b
000003c0: b344 2f3b bb16 393b f295 3e3b 43bf b9bb
000003d0: 0f1c cdbb 1b16 e0b8 aa40 ebbb d953 e2bb
000003e0: fcd8 e438 b62c f3bb 852f ccbb 02b6 beb9
000003f0: 3a40 bb3d afaf 333e d78e c5bd 2745 173e

down_path.2.block.3.bias f4 [32]
-0.010065618 -0.032683704 0.00039494238 -0.00014425344 -1.5827716e-05 -0.059907246 -0.00063874305 -0.19375436
3.1462387e-05 -0.23074096 -4.9601996e-11 -1.966832e-05 -0.037525907 0.26585388 -3.1008694e-06 -0.0003084808
-0.15778624 -3.1246053e-16 -0.0011291726 -0.1336443 -0.19100529 -0.05750956 0.24898967 -0.013901511
-0.013390669 -0.2729395 0.40387896 -0.119119465 -0.009993862 -2.3302462e-13 -0.03270657 -0.008083879
00000000: 43ea 24bc 59df 05bd 4510 cf39 bd42 17b9
00000010: c3c5 84b7 4d61 75bd 5271 27ba 8b67 46be
00000020: 7bf6 0338 5c47 6cbe e226 5aae 65fd a4b7
00000030: c4b4 19bd 001e 883e 8818 50b6 98bb a1b9
00000040: b792 21be 091f b4a5 bf00 94ba 0dda 08be
00000050: e496 43be 258f 6bbd 26f7 7e3e 2ac3 63bc
00000060: 8964 5bbc babe 8bbe 39c9 ce3e e8f4 f3bd
00000070: 4cbd 23bc 632e 83aa 53f7 05bd 3f72 04bc

down_path.2.block.5.weight f4 [32]
0.22129999 -0.14992297 0.00036471564 -1.2329688e-05 -2.492608e-06 0.034296185 -1.2621065e-06 -0.09976318
-2.0855273e-06 0.20029809 0.00028835997 -4.0974748e-05 -0.0074424087 0.17442161 -0.00020625605 -0.00024792945
0.12659267 -4.1775284e-06 -0.00014612162 0.39213905 -0.05692174 0.2007824 -0.2003885 -0.00036133494
-0.0006875123 0.3450576 -0.16373052 0.16907963 -0.00052856875 -4.188799e-07 0.24462003 0.0021240464
00000000: 779c 623e 6885 19be 4e37 bf39 9bdb 4eb7
00000010: ae46 27b6 287a 0c3d a665 a9b5 a350 ccbd
00000020: 16f5 0bb6 f11a 4d3e 052f 9739 4ddc 2bb8
00000030: 73df f3bb 949b 323e 7046 58b9 87fc 81b9
00000040: 82a1 013e b22c 8cb6 3938 19b9 73c6 c83e
00000050: c526 69bd e799 4d3e a532 4dbe 8e71 bdb9
00000060: 2b3a 34ba 64ab b03e f9a8 27be 3623 2d3e
00000070: a68f 0aba 6ae2 e0b4 ac7d 7a3e 9633 0b3b
