weights/old/unet-test9.pt (torch_old, 478380 bytes, 92 tensors)

down_path.0.block.0.weight f4 [8, 3, 3, 3]
000000 bf 31 d9 3e 21 9a c5 3e 03 4c 93 3e 19 40 d9 3d
       0.42420766 0.38594154 0.2876893 0.10607929
000010 9f f6 1a bd 49 4b 31 3e 85 12 d8 bd d7 b1 ca bc
       -0.037832852 0.17313875 -0.10550407 -0.024743004
000020 d1 8d 27 be bd be 52 be 87 68 c3 bd 4f 63 8f be
       -0.16362692 -0.20580573 -0.095414214 -0.28005454
000030 06 8f 1f be 47 12 25 be c6 29 1b 3b 67 ba c1 bd
       -0.15581903 -0.16120254 0.0023676022 -0.094593816
000040 f5 47 9b 3d 93 dc 98 be 61 40 15 bd 15 ab 52 bb
       0.07582084 -0.29855785 -0.03643835 -0.003214543
000050 ad 26 ad be d1 76 e0 3d fa 47 9f 3e f9 a2 80 bd
       -0.3381857 0.109601624 0.311096 -0.062810846
000060 a7 89 55 3e a2 a5 07 3e 65 74 00 3e 1a 88 ff bd
       0.20853291 0.13246778 0.12544401 -0.12477131
000070 a0 a5 08 bf 9f 68 9d bc b8 aa 1e bd 38 8a 2f be
       -0.53377724 -0.019214926 -0.03873703 -0.1714257
000080 c7 57 8e 3e 3a b6 70 3e e6 18 cc bd 8d ac b8 3d
       0.27801344 0.23507014 -0.099656865 0.090172864
000090 d5 bf 70 bd 7e 47 83 3e b0 4d ec bd d5 3b 11 3e
       -0.058776695 0.25640482 -0.11538255 0.1418298
0000a0 77 01 a2 3d 23 f6 1f be b9 3b 9e be c4 cf cd 3d
       0.07910436 -0.15621237 -0.3090494 0.10049394
0000b0 80 b6 0b bb f3 6b 0c be d3 6c 3c bd df c7 3b be
       -0.0021318495 -0.13713054 -0.04600222 -0.18337964
0000c0 1c b2 2d 3c 2e 82 88 be ff ec 90 bd f8 02 80 3d
       0.010601547 -0.2666182 -0.070764534 0.06250566
0000d0 57 ed d6 bc a2 ba 28 bd 88 43 87 bd a1 4c e3 bd
       -0.02623622 -0.041193612 -0.066046774 -0.110986
0000e0 9f f6 02 bd 45 e0 38 bc 8c 0f 22 be 5d 0c d9 bc
       -0.031973477 -0.011283939 -0.15826243 -0.026495153
0000f0 f0 d7 47 3b d5 0e c6 3c c1 92 57 bc 9b 16 cb bc
       0.00304937 0.024176994 -0.013157547 -0.024791053
000100 46 a4 13 3d 04 e4 0d 3e 3b d4 24 3d 63 82 b1 3d
       0.036045335 0.13856512 0.04024146 0.086674474
000110 85 ae 3e bd 36 a3 87 bd c0 34 98 3d ac d8 9b 3d
       -0.046553154 -0.06622927 0.07431936 0.07609686
000120 24 5f bb bd 53 29 19 bc f8 70 55 bd b9 12 fd bc
       -0.09149006 -0.009348231 -0.05210969 -0.030892717
000130 82 77 44 bd 84 8b 37 bd ed c2 17 3c ed 9e 8e bd
       -0.047965534 -0.044810787 0.0092627825 -0.069639064
000140 6b e4 ae ba 56 17 5e 3d 26 04 2d 3e 53 bc 4e be
       -0.001334322 0.054221474 0.16896114 -0.20189027
000150 e5 b0 12 3e 6c 7b 83 be 4a 07 35 be b1 9f 99 3d
       0.14325292 -0.256801 -0.17678562 0.07501162
000160 09 8f a2 bd 76 f6 f6 bb 8f 06 d2 3c 28 18 e5 bd
       -0.07937438 -0.0075367047 0.025637893 -0.11186248
000170 74 cc 70 3c b9 ff 57 3e a2 e7 16 3e d1 49 c9 bd
       0.014697183 0.21093644 0.14736798 -0.098285325
000180 f2 fa 7d 3e 58 01 28 be 67 66 93 be c3 30 01 be
       0.2480276 -0.16406763 -0.28789064 -0.12616257
000190 b5 59 27 be 57 59 97 be 4e e1 81 bd c6 e9 b9 3e
       -0.16342814 -0.29560348 -0.063418016 0.36311167
0001a0 1f c6 d8 3d 0d fe cb 3e a0 62 1a 3e 9b 1b 8d 3d
       0.105846636 0.39842263 0.15076685 0.06890031
0001b0 93 36 58 bd 28 65 72 bc 88 5f 50 3d c0 da f1 bc
       -0.05278642 -0.014794625 0.050872356 -0.029523253
0001c0 58 65 5c 3c e8 65 be 3d 03 af 54 bd 9e 6d b2 bc
       0.013451897 0.09296781 -0.051924717 -0.021780785
0001d0 f8 18 38 3d f4 54 6b 3d 71 45 f9 3d 56 12 42 3e
       0.044945687 0.057454064 0.12171448 0.18952307
0001e0 79 4d 02 3c c5 db 9e 3d ae 29 1d 3e 8f e0 51 bd
       0.007953041 0.077567615 0.15347931 -0.051239546
0001f0 1c 8b c5 3a cd 01 7a 3d 43 20 54 bd 82 6c 97 bc
       0.0015071365 0.061036874 -0.05178858 -0.018484358
000200 1a ec 8d 3c fd 4f 4f bd 36 4f 10 bc 60 ad 16 3d
       0.017324496 -0.050613392 -0.008807948 0.036786437
000210 7e 87 97 bd b3 e0 15 bd 71 32 ca 3b 39 34 27 b9
       -0.0739889 -0.036591243 0.006170564 -0.00015945816
000220 7d 2b ab bb 40 96 63 ba 9a bd 37 b8 94 83 f6 39
       -0.00522369 -0.0008681752 -4.380718e-05 0.0004701881
000230 2a ef fb bb e5 b9 46 b9 bf 31 1d bc bc 4e 47 3b
       -0.0076884227 -0.00018952003 -0.00959438 0.003041192
000240 fb cb 32 3b 27 34 42 3b 12 c4 a6 3b 9d 5a 18 bb
       0.0027282226 0.0029633136 0.0050892914 -0.002324737
000250 25 1f c7 3c 9d 18 6e bc 93 f3 d1 ba 17 3f 23 39
       0.024306843 -0.014532235 -0.0016018025 0.00015568394
000260 7d fa 82 3b 59 e8 f5 bb 96 ec 07 3c b3 d3 3c 3b
       0.0039971457 -0.0075045046 0.008296153 0.0028812706
000270 a9 9a 2b ba 94 fd 08 bc 76 d6 c9 bb 73 07 a3 39
       -0.00065461785 -0.008361239 -0.006159599 0.00031095333
000280 5c 7a 7e 3c 9c e2 19 bc 82 3c ff bc 6e 3d 09 bd
       0.015532102 -0.009392407 -0.031156782 -0.03350585
000290 1c ca 1f 3e 3d df c5 bd ff 75 59 3d c4 61 93 bd
       0.15604442 -0.0966172 0.053091045 -0.07196382
0002a0 75 45 25 bd a8 c2 75 3d 26 a1 a6 3e 27 93 cd bc
       -0.040349443 0.06000009 0.32544822 -0.025094582
0002b0 bb 90 23 bd 00 ac ef bd 78 df 61 be 3f 92 9b bd
       -0.039932948 -0.11702728 -0.22057903 -0.075962536
0002c0 ef c4 8f be cc 5a 87 be 48 fc 59 bd 12 72 1c bc
       -0.28079936 -0.2643646 -0.05321911 -0.009548681
0002d0 b3 70 a8 bd 1b 35 e2 bd fc 8e 9b 3e f8 9a 16 3e
       -0.08224621 -0.11045285 0.30382526 0.14707553
0002e0 df 67 79 3c 94 52 86 3e de fd ae 3d 81 52 57 3e
       0.015222519 0.26234877 0.08544515 0.21027566
0002f0 9e 77 1a 3e d3 d4 49 3d dc 73 85 3d 61 be 7d ba
       0.15084693 0.04927523 0.06516239 -0.0009679553
000300 db 64 7d 3e 37 e6 93 3d 36 36 3d be f1 b8 a4 3d
       0.24745505 0.07221644 -0.18477711 0.08043087
000310 ca 45 13 bf 7a 9b e7 bd 12 b1 92 3e 13 58 84 3d
       -0.57528365 -0.11308952 0.2865072 0.06462111
000320 71 0e 03 3e 18 f7 73 3e b8 75 df bd 40 ef a5 bd
       0.12798478 0.23824728 -0.10911125 -0.08102274
000330 cc e6 d7 bb d1 95 f9 bd 38 d4 6a 3d f9 09 21 3e
       -0.0065887924 -0.12186778 0.057331294 0.1572646
000340 9f dc 8a bc e6 0c 02 3d 1b db 98 3e 5b b6 c5 bd
       -0.016950903 0.031750582 0.29854664 -0.09653922
000350 71 de 2d be 2c 6b f0 3c b8 62 12 3e 8c 07 69 bd
       -0.16979386 0.029347979 0.1429547 -0.056891963

down_path.0.block.0.bias f4 [8]
000000 c7 f8 c9 3c c1 ab 2f 3e 69 73 06 bc 3e a7 3a 3d
       0.02465476 0.17155363 -0.008206227 0.04556965
000010 e6 c5 f0 3c 3e 5b e5 bc a3 62 51 3d 12 59 37 be
       0.02939124 -0.02799761 0.051119458 -0.17905071

down_path.0.block.2.weight f4 [8]
000000 b7 1e 7b 3f fe a0 11 3f ab bf 84 3d 0a f6 87 3f
       0.9809374 0.5688628 0.0648187 1.062196
000010 1a ca 0d 3e 3c 93 d1 39 78 92 7a 3f dc 5e 0a 3f
       0.13846627 0.00039973285 0.97879744 0.54050994

down_path.0.block.2.bias f4 [8]
000000 92 34 4e bc 76 b0 ca bd 21 79 02 be 8f 56 be 3c
       -0.012585776 -0.098969385 -0.1274152 0.023234634
000010 fb 96 9f 3e ba 0f e2 3d e8 f8 a4 3d aa 3d 28 3e
       0.31169876 0.11038156 0.080552876 0.16429773

down_path.0.block.2.running_mean f4 [8]
000000 b2 3d 84 3d 2c a1 20 3c 15 e4 2e 34 fd aa d2 3d
       0.0645708 0.009804051 1.6287989e-07 0.1028652
000010 d7 d6 50 3e 76 44 b2 23 d9 5c 8b 3d 29 26 df 3c
       0.20394455 1.9327793e-17 0.06804819 0.027239876

down_path.0.block.2.running_var f4 [8]
000000 16 84 8b 3b 44 f1 1e 3a 23 6c 30 31 41 72 51 3b
       0.004257689 0.0006063173 2.567284e-09 0.003195897
000010 87 1e 3b 3c fc 8c 20 20 25 44 23 3b 56 5a 9e 3b
       0.0114208525 1.3599175e-19 0.0024912443 0.004832546

down_path.0.block.3.weight f4 [8, 8, 3, 3]
000000 7c bb 27 3e 70 0a f5 bd a2 fc 1d bd 36 ec dc be
       0.16380113 -0.119648814 -0.038571008 -0.43148965
000010 e1 f9 cf 3d b7 84 0d bd 15 19 93 be 38 a8 be bd
       0.101550825 -0.034550395 -0.28730074 -0.09309429
000020 f8 ca bd bd fc cb b6 3d b6 ed 60 be 76 11 d0 bc
       -0.09267229 0.08925626 -0.2196568 -0.025398951
000030 76 2c 56 3d 5b 17 a9 3d d1 57 b6 3e 85 82 de bc
       0.052288495 0.08256408 0.35613874 -0.027161846
000040 a2 ae 10 3e 96 4d 8e be 25 01 a1 bd 2d 7d cf bc
       0.14129117 -0.27793568 -0.078615464 -0.025328243
000050 3b e2 5e bd ff 0d 86 bd 32 7b 79 bd cb 9e c8 bd
       -0.05441497 -0.06545638 -0.060908504 -0.09795912
000060 c6 1e d5 bd 4e 25 d1 bd 48 09 b6 bd d8 de 39 3e
       -0.1040626 -0.102121934 -0.08888489 0.18151414
000070 60 72 aa 3e ce fb 83 3d 25 cc e8 3e 78 d6 9c 3e
       0.33290386 0.06444512 0.4546825 0.30632377
000080 d2 06 a4 3d 4b b5 c9 3d d6 4e 48 bd 63 f1 b3 3d
       0.08009113 0.09849032 -0.04890331 0.08786275
000090 df 34 a8 3d 86 91 bc 3d eb 56 6e 3d da 88 27 3d
       0.08213209 0.09207444 0.05818836 0.040901996
0000a0 93 83 90 3d 4e db f6 3d 1b c5 db 3d e9 ac 5e 3d
       0.07056346 0.12053548 0.10730954 0.05436412
0000b0 1c 8f cc 3d fb f4 18 3d 7c 19 89 3d 41 e3 fa 3c
       0.099882334 0.037343007 0.06694314 0.030625941
0000c0 07 9e 9f 3d d0 64 88 3d 98 f6 4a 3d b0 0f ae 3d
       0.07793813 0.066598535 0.049551576 0.08499086
0000d0 b9 32 a3 3d e1 d8 a3 3d 43 1f ff bd b6 45 39 be
       0.07968659 0.08000351 -0.124571346 -0.18092999
0000e0 bc 69 bf bd d6 ea 62 bc 7c 46 dc 3c 94 22 ff 3d
       -0.09346339 -0.013849935 0.026889078 0.12457767
0000f0 90 2b e2 3c b8 2f 3e bd 56 e9 ba 3d 6d d1 7a 3d
       0.027608663 -0.046432227 0.091265365 0.06123488
000100 35 62 8e bc 3a e3 19 bc ec 37 31 be 92 1f 87 3d
       -0.017380813 -0.009392554 -0.17306489 0.065978184
000110 7c 9e c2 3d 83 b3 af 3d e2 4b e1 bd ab 72 87 3c
       0.09502885 0.08579161 -0.110008016 0.01653417
000120 1a e3 b8 3d 40 6e e0 3d d6 33 01 3b 92 24 22 be
       0.09027691 0.109585285 0.0019714735 -0.15834263
000130 11 77 ed be ca 58 ca 3b 93 c3 2a be 84 1a 16 bd
       -0.46379903 0.0061751353 -0.16676168 -0.03664638
000140 ab 25 75 3d 7b 46 ca bd af ef 8c bd da 46 49 3d
       0.059850376 -0.09876724 -0.068816535 0.049139835
000150 ce 6a 00 bd 0c 8d 01 bd b0 b7 3a bc 79 17 e1 3d
       -0.031351857 -0.031628653 -0.011396334 0.10990805
000160 59 c9 ed 3d aa 4e 0e bc 72 4f 9a bd 33 73 7c bd
       0.1161067 -0.008685747 -0.07534684 -0.0616333
000170 7b be 76 bd 58 64 7f bd d0 7d 92 bd c8 d9 72 bd
       -0.06024025 -0.062351555 -0.07152903 -0.059289724
000180 b1 c8 b7 bb 86 7f b4 bb 1a fc 74 bc 50 c0 91 3d
       -0.005608641 -0.005508366 -0.014952684 0.07116759
000190 44 ab 14 bd 10 e8 14 3d b2 b9 ac be a8 84 f0 bd
       -0.036296144 0.036354125 -0.33735424 -0.11744052
0001a0 a4 b0 28 be 59 f2 f6 3d 9e 70 51 be b7 54 51 bd
       -0.16473633 0.12057943 -0.20453116 -0.05110618
0001b0 41 ce 3e 3e 39 67 25 3e bb 2a 56 3e 3f fe 3a 3e
       0.18633367 0.16152658 0.20914738 0.1826105
0001c0 53 3a 3e 3e da cb 3e 3e 1b 13 0b 3e 75 16 02 3e
       0.18576936 0.1863245 0.13581507 0.12703879
0001d0 9b 66 fe 3d da d6 64 3d 7e ee 5d 3d b1 82 64 3d
       0.12421914 0.05586896 0.054182522 0.0557887
0001e0 77 46 44 3d e2 50 3f 3d b7 34 5a 3d e8 54 5a 3b
       0.047918763 0.046707995 0.05327293 0.0033314768
0001f0 f9 31 10 bb 14 7e 45 3a 56 7a fb bd 6b 85 b2 be
       -0.0022002442 0.0007533741 -0.12279193 -0.34867415
000200 cd 05 d4 3c 51 6c d5 bd f2 9b 3f be f3 3b 05 be
       0.025881672 -0.1042105 -0.18711832 -0.1301115
000210 98 05 67 3e 10 9a 46 3e e5 f2 05 3e 04 8d 89 3d
       0.22560728 0.19394708 0.13080938 0.0671635
000220 da 0e 12 3d db 7a 2b be fe f0 bc 3b 41 b8 1a be
       0.035658695 -0.16746084 0.005766033 -0.1510935
000230 fb 89 67 bd 31 ff 0b 3e a1 cf 7f 3e 7c 3e 78 3e
       -0.056528073 0.13671567 0.24981548 0.24242586
000240 d2 ed 8e bd 33 08 6a be 7f b6 6a be 01 b2 7e bd
       -0.069789544 -0.2285469 -0.22921179 -0.062181477
000250 91 78 2f be 3f 97 fc bd b4 6a 2e 3d 0c bc 42 be
       -0.17135836 -0.123335354 0.04258223 -0.19017047
000260 5d 40 07 3f 14 67 0a bc 99 a0 25 3e a3 b8 1b 3e
       0.52832586 -0.008447427 0.16174544 0.15207152
000270 a8 58 b6 3d df 10 11 bd 88 0c 0c be 95 f8 73 be
       0.089036286 -0.03541648 -0.13676655 -0.23825295
000280 4b ff cd bc 68 b6 e1 3c 74 61 2d bb a7 92 01 bc
       -0.025146147 0.027552798 -0.0026455792 -0.0079085
000290 cc 57 b7 3a b1 f4 63 bc f9 aa 14 bb df 99 04 bc
       0.0013987957 -0.013913319 -0.0022684915 -0.008093326
0002a0 f2 60 83 bc 78 3e f8 bb 24 5d 37 bc 9e 14 2a bd
       -0.016037438 -0.007575806 -0.01119164 -0.04152357
0002b0 ae 44 b0 bd 47 f3 44 bd 26 7d 53 be 06 a5 27 3e
       -0.086068496 -0.04808357 -0.20653209 0.16371545
0002c0 cc 18 64 3e 6b 8a af 3d 97 28 fc bd 34 bd e5 bc
       0.22275084 0.08571323 -0.123124294 -0.02804432
0002d0 46 66 e3 3d 39 3f fd 3d 12 d5 ea 3d 69 47 04 3e
       0.111034915 0.123655744 0.11466421 0.12917866
0002e0 4a a2 06 3e ef f0 fb 3d 05 b8 07 3e a8 81 07 3e
       0.13147846 0.12301814 0.13253792 0.13233054
0002f0 eb 0e 12 3e 88 ef 30 3b 91 88 b1 3b 61 b9 f5 39
       0.14263503 0.002699824 0.0054178913 0.0004686816
000300 23 97 af 3b eb e3 03 3b 53 0a 24 bb f3 e7 1a bc
       0.005358593 0.0020124863 -0.0025030568 -0.009454715
000310 23 cf fc b9 7d a1 1e bb 28 22 18 3e c0 2f 03 bd
       -0.00048219514 -0.0024205141 0.1485678 -0.03202796
000320 97 72 c0 3d 02 45 2b 3e 61 18 35 3e 0d 22 51 3d
       0.09396856 0.16725543 0.17685081 0.051057864
000330 67 c2 05 3e cd c4 bd bd e5 6a 2b be fc 01 91 be
       0.1306244 -0.092660524 -0.16739996 -0.28321826
000340 cb ac 8b 3b 21 b9 2b be 6c 5c d6 3b ff 67 3d 3d
       0.004262542 -0.1676984 0.0065417793 0.046241757
000350 8b eb 16 be ce 69 3b 3b 3b 1e 9e 3e 43 22 f8 3c
       -0.1473829 0.0028597 0.3088244 0.030289775
000360 3f 47 1c bd 14 a4 ce bd 6f eb 81 bd ba b3 98 3e
       -0.038153883 -0.10089889 -0.063437335 0.2982462
000370 08 3f 96 3d b0 f9 cc 3d 69 92 84 3e e7 57 b4 3c
       0.07336241 0.100085616 0.25892952 0.022014571
000380 df d8 32 3e ee 67 9b 3d 8c b5 97 3c e0 d0 53 bd
       0.17465542 0.075881824 0.018519185 -0.05171287
000390 80 78 1a bd 0a 02 57 3d 25 a9 c6 be fe a0 ef 3b
       -0.037712574 0.05249218 -0.38800922 0.007312893
0003a0 2e d8 46 bd d8 64 18 3e d3 72 a7 bd 66 16 9d bd
       -0.04854601 0.14882219 -0.08176198 -0.07670288
0003b0 fe 5b ab bd b3 0a b4 bd d3 f5 a2 bd e4 54 bc bd
       -0.083671555 -0.08791103 -0.079570435 -0.09195879
0003c0 3b b2 b7 bd 9a ab bc bd 7e 65 ab bd 40 19 db bc
       -0.08969542 -0.09212418 -0.083689675 -0.026745439
0003d0 97 23 4b be 42 ec bc 3d 5d 07 3b 3b 02 5a 28 be
       -0.19837795 0.0922475 0.0028538324 -0.16440585
0003e0 36 33 4f 3e 50 61 05 be 6b 77 8f be 0f d2 a6 be
       0.20234379 -0.13025403 -0.28020796 -0.32582137
0003f0 4e 77 72 3e a2 33 66 3e 22 7a 61 3e f8 7c 63 3e
       0.23678324 0.22480634 0.22019246 0.2221564

down_path.0.block.3.bias f4 [8]
000000 97 b0 d8 3d 70 38 94 bc b2 1f 80 3d 6b 9f 6e 3e
       0.10580557 -0.018093318 0.062560454 0.23303
000010 f8 98 45 3d eb 1c 28 3d 74 5d bb 3e 42 d4 86 bd
       0.048241585 0.041043203 0.36594737 -0.06583454

down_path.0.block.5.weight f4 [8]
000000 5c 1a 61 3f 0b 08 5e 3f 6d 19 49 3f f8 4b 55 3f
       0.87930846 0.8673102 0.7855442 0.83319044
000010 c9 45 67 3f 7a 96 5e 3f aa 32 79 3f c1 de 54 3f
       0.9034086 0.8694836 0.9734293 0.83152395

down_path.0.block.5.bias f4 [8]
000000 4d e8 0c be 1c 1f f3 bd e2 d8 e8 bd 86 d2 de bd
       -0.1376049 -0.11871168 -0.11369492 -0.10879998
000010 a7 b4 43 bd e6 19 e0 bd 40 21 f5 bd 05 17 d4 3c
       -0.047779705 -0.1094244 -0.119692326 0.025889883

down_path.0.block.5.running_mean f4 [8]
000000 d9 28 1f 3f 07 e1 45 3f 6d 34 f9 3e fd ac 83 3f
       0.62171704 0.7729649 0.4867281 1.0287167
000010 75 0d 08 3f 67 0f 45 3f ec 8c 89 3f 56 99 96 3e
       0.53145534 0.7697663 1.0746131 0.2941386

down_path.0.block.5.running_var f4 [8]
000000 ee 0f 5b 3f e0 02 a8 3e e3 81 22 3e ab 15 bb 3e
       0.8557118 0.32814693 0.1586986 0.3653997
000010 17 bc a4 3e 69 71 9a 3f 19 04 7d 3f a8 32 94 3e
       0.3217475 1.206586 0.9883438 0.28944898

down_path.1.block.0.weight f4 [16, 8, 3, 3]
000000 06 d5 3e bd bc 39 cd bd a3 d0 76 bc 33 c6 94 bc
       -0.046589874 -0.100207776 -0.015064391 -0.018160915
000010 5d 3e 0d 3e 61 f0 06 bc ad 21 2b 3e 3a f1 bc 37
       0.13793321 -0.008236022 0.16712065 2.2523676e-05
000020 2b 6b 44 3e 23 fc 4d 3d d4 0f 36 bd 7a be d0 3d
       0.19181506 0.050289284 -0.04444869 0.101925805
000030 68 c6 8b bd d1 2d 88 3d 89 eb 25 be 36 ab a9 3d
       -0.06824952 0.06649364 -0.16203131 0.08284609
000040 7a b9 d4 bc c4 57 54 3d 44 59 86 3d ef 8e 4e 3c
       -0.025967348 0.051841512 0.06559995 0.01260732
000050 f6 61 ef 3d 3e 6c 0f 3d 0e be 9a bb d5 a3 96 bc
       0.116886064 0.035015337 -0.0047223633 -0.018388668
000060 ab 11 d8 3d 5a 4d 14 3e cc f2 32 3e ee 7a 2b be
       0.10550245 0.14482632 0.17475432 -0.16746113
000070 dd a8 11 bd c7 c8 80 bd ee 2f 60 3d 5a b7 c0 3d
       -0.03556143 -0.06288295 0.05473321 0.094099715
000080 68 00 34 3e 00 91 a4 3e 38 5d 3e 3e b9 26 12 3e
       0.1757828 0.32141876 0.18590248 0.14272584
000090 c8 78 8a 3d 76 57 89 3d a8 2b df bd 60 ea 83 3c
       0.067613184 0.06706135 -0.10896999 0.01610297
0000a0 e4 11 c0 3d 17 b4 d1 bd d7 c6 6b 3c 5f 11 b2 bd
       0.09378412 -0.102394275 0.014390669 -0.086947195
0000b0 4e 97 76 bd 4f cc 3b 3e df 1d 86 3c 3e d3 7f 3c
       -0.06020289 0.18339656 0.016371666 0.015614329
0000c0 71 7b 07 3e 01 46 44 3e 9d 34 45 3e 06 e9 23 3d
       0.13230683 0.1916733 0.19258352 0.04001715
0000d0 b5 27 06 3e e6 48 8b 3e 5e 34 02 bc 81 09 77 3a
       0.13101085 0.27204055 -0.007947056 0.00094237184
0000e0 de 74 48 bc 3b 2e 57 3d 56 4c 4b bd e5 82 04 3e
       -0.012234895 0.052534323 -0.049633346 0.12940557
0000f0 82 5b 00 be 83 4c 71 bd 1b c8 83 3a 85 92 b1 3c
       -0.12534907 -0.058910858 0.0010054143 0.021676311
000100 f9 dc 8f 3d a0 c6 28 be 4f 79 ad bc ff f4 03 3d
       0.07024569 -0.1648202 -0.021176009 0.03221607
000110 83 94 c1 bd 98 67 22 bd 81 db 0d 3e 96 0e 11 be
       -0.094521545 -0.039649576 0.13853265 -0.1416572
000120 83 f8 29 3e db 3f 09 bd 93 86 3d bd d9 d3 df bc
       0.16598706 -0.033508163 -0.046270918 -0.027322697
000130 bb c8 04 be eb 70 2a be 07 17 51 3e 77 fb 5c be
       -0.12967198 -0.16644637 0.2041894 -0.21580301
000140 ed 26 64 3e 77 34 5b be 70 9b c3 3d b8 b5 82 3e
       0.22280474 -0.21406732 0.09551132 0.25529265
000150 75 6b 2f be 57 5c a3 3d ab 88 67 bc bd 20 d4 3d
       -0.17130835 0.07976597 -0.014131705 0.10357807
000160 f6 7c 2f 3d 1c 6e 00 3d 73 db 17 3d 95 6a 84 3b
       0.04284378 0.03135501 0.037074517 0.004041026
000170 03 80 9c bd b7 e5 8a be 7f ee df 3c 80 36 0f 3e
       -0.07641604 -0.27128384 0.027335403 0.13985634
000180 84 c7 38 3c 3e ba 68 3d ef 03 f4 bc 9e 16 7b 3e
       0.011278037 0.05681824 -0.029787032 0.24520347
000190 3f 64 7b 3e ec 5e d3 3d 51 7b 80 bd 40 d5 3d bd
       0.2454996 0.10320839 -0.06273521 -0.04634595
0001a0 c8 3d 04 be 64 71 24 be a3 c4 64 be 58 40 c8 be
       -0.12914193 -0.1605888 -0.22340636 -0.3911159
0001b0 c4 11 02 be 4e 24 a6 3d a4 e0 27 be 1a 49 65 be
       -0.1270209 0.08112393 -0.16394287 -0.22391167
0001c0 07 d5 2e be fd 7b 93 bd 6e b9 5f 3e fd b8 18 3d
       -0.17073451 -0.07201383 0.2184808 0.037285794
0001d0 9a b2 aa 3c a1 77 a7 3e d7 9f d4 3d f3 1e 2c bd
       0.020837117 0.32708457 0.103820495 -0.042021703
0001e0 1c 99 93 3d 63 da 58 be 75 c5 50 3e a0 9c af bd
       0.07206938 -0.21177058 0.20387824 -0.08574796
0001f0 04 ae aa bd 02 2f 26 be 85 37 a8 bd 33 c2 82 3e
       -0.08333972 -0.1622887 -0.082137145 0.25538787
000200 de 22 e3 3d b9 91 8f bd 05 fb 2c 3e 37 e8 90 3d
       0.11090635 -0.07010216 0.16892631 0.070755415
000210 41 8e 8e bd b1 2d 1d bd e6 57 42 bd 7b 57 75 be
       -0.069607265 -0.038373653 -0.047447108 -0.23959152
000220 02 1a 41 3d 7c 55 7d 3d e1 dc 08 be 6d 42 4f 3d
       0.047143944 0.061849102 -0.13365509 0.050600458
000230 17 cc 11 be f7 29 12 bd 34 80 7b bd 2b 55 93 3d
       -0.1423801 -0.035684552 -0.06140156 0.07193979
000240 0d 3c 3c be 5f 0b 84 3a 36 94 43 3e 59 d5 02 be
       -0.18382283 0.001007419 0.19099507 -0.12776698
000250 27 c8 82 bb e4 a6 ae bd c6 9e c0 3d 67 de d0 3c
       -0.003991145 -0.085279256 0.09405284 0.025496675
000260 ff 9c 87 3c 28 f7 22 3d 72 f9 84 3e 29 c6 19 bd
       0.016554354 0.039786488 0.25971562 -0.037542496
000270 b5 cf 9f bc 22 44 b2 3d 62 a0 91 bd b6 29 60 bb
       -0.019508222 0.087044016 -0.07110669 -0.003420455
000280 fe 59 0d 3e 93 6e bc 3b 7d f4 a4 bd 2a 50 3c 3d
       0.1380386 0.005750486 -0.08054445 0.045974888
000290 a2 00 fa 3d 5c 52 ea bd a9 91 33 3e e3 5e ec 3c
       0.12207152 -0.1144149 0.17536034 0.02885384
0002a0 30 22 c5 bd 30 26 bf 3c b0 f4 39 be 13 cf 11 3e
       -0.096256614 0.023333639 -0.18159747 0.14239149
0002b0 b7 98 05 be bc 43 b9 bd 2d 10 76 3e 99 ed a9 3c
       -0.13046537 -0.090461224 0.24029608 0.020743178
0002c0 55 b5 95 bd e7 f5 20 be e9 65 e4 3c 62 0f dc bd
       -0.07309977 -0.15718804 0.027880626 -0.107451215
0002d0 cc f7 cf 3d c1 bb 0c be 1d dd 91 3d ce 44 a0 be
       0.101546854 -0.13743497 0.07122252 -0.31302494
0002e0 7b 5f 6d be bf 73 63 bd 7d ed 6e 3d a3 61 c0 ba
       -0.23180954 -0.055530306 0.058331955 -0.0014677536
0002f0 0e 14 3d be f8 c3 6b 3d dd 6d e2 3d 84 2e ce 3d
       -0.18464682 0.057559937 0.11056111 0.10067466
000300 c6 ed 93 be 6d f5 29 3e 57 e9 23 bc 79 c8 60 3d
       -0.28892344 0.16597529 -0.010004363 0.054878686
000310 bc 96 35 bd ba 93 33 bd 62 17 d5 bd 1e b6 41 3d
       -0.044333205 -0.043842055 -0.104048505 0.04729282
000320 c8 4e da 3b ca 28 9b 3d 4b fd ec 3d fd 9b ef bd
       0.0066622235 0.07576139 0.11571749 -0.11699674
000330 00 4d a6 bd af 28 ff 3d 24 51 a6 bd 37 c1 21 bc
       -0.08120155 0.12458932 -0.08120945 -0.009872726
000340 2b 14 53 3e 62 b2 bf bc 7c f9 01 3e c3 81 24 3c
       0.20613162 -0.02340049 0.12692827 0.010040703
000350 9a 55 83 bc 80 b9 42 3c 4c 49 de 3d d2 fb 47 3d
       -0.016032029 0.011885047 0.10853824 0.04882414
000360 58 bd 2d 3e 9a 12 55 3c aa e1 fa 3c 91 91 e2 3d
       0.1696676 0.013004923 0.030625183 0.11062921
000370 85 07 ed 3d 67 f8 0c be 78 10 72 3c f4 46 7f bb
       0.115737 -0.13766633 0.014774434 -0.0038952203
000380 11 9d b4 be 80 54 ac 3b 94 a0 e2 bd af 44 bb bd
       -0.35276082 0.0052590966 -0.11065784 -0.0914396
000390 d3 73 2e be 4b c2 d5 bd 6b 8c ea 3b ed 43 83 3e
       -0.17036371 -0.10437449 0.0071578524 0.2563776
0003a0 62 cf ff bc 15 d7 ec bc 8b 2d a0 bd 04 79 3d 3c
       -0.031226818 -0.028911153 -0.07821187 0.011564497
0003b0 b7 13 d4 bd 05 05 35 3e 09 db b9 bd 70 83 4c be
       -0.10355323 0.17677696 -0.09074981 -0.19972014
0003c0 7c b1 1c be d0 c1 26 be 14 4a b6 3c 6b f2 ae 3c
       -0.1530208 -0.16284871 0.02225212 0.021355828
0003d0 e1 30 c1 bd 65 e0 4d be 56 42 33 be bf 97 96 3d
       -0.09433151 -0.20105131 -0.17505774 0.07353162
0003e0 89 74 cc 3d 10 53 06 3e 54 d9 f8 bc 89 a1 fa bd
       0.09983165 0.13117623 -0.030377068 -0.12237842
0003f0 e9 46 21 bd 5e 00 be 3d ff 73 a7 3d 01 31 a4 bd
       -0.039374266 0.09277414 0.081764214 -0.08017159

down_path.1.block.0.bias f4 [16]
000000 c9 68 ff bc 1b ef 00 3e ae 29 d4 3d 86 18 23 3d
       -0.031177895 0.12591211 0.10359512 0.03981831
000010 c4 f9 80 bd 8d 44 0e bd af 91 ba 3c 80 55 7f 3e
       -0.06297639 -0.034733344 0.022774545 0.2493496
000020 f3 d4 79 bd 4d a4 96 3d 8e 8c 05 be fc b9 9d 3d
       -0.0609941 0.07355557 -0.13041899 0.07701489
000030 5b c6 33 3e 44 d1 23 3e f8 42 48 3e fa f6 4a be
       0.17556135 0.15997797 0.19556797 -0.19820777

down_path.1.block.2.weight f4 [16]
000000 b0 ba 38 3f cc f2 7c 3f 13 88 34 3f 6e ac 70 3f
       0.7215986 0.9880798 0.7052013 0.94013107
000010 59 df 44 3f 23 4e 32 3f b7 af 7d 3f cd 05 7b 3f
       0.769033 0.6965048 0.99096245 0.98055726
000020 7a 45 3e 3f 96 f3 56 3f 0f b3 2f 3f c9 94 30 3f
       0.7432476 0.8396543 0.68632597 0.6897703
000030 38 28 68 3f 05 a0 71 3f a7 d7 68 3f 2b f4 3d 3f
       0.9068637 0.94384795 0.9095406 0.74200696

down_path.1.block.2.bias f4 [16]
000000 47 fd 2f 3e 64 58 a3 3d 1c 30 6c 3d 0c 3e 73 bd
       0.17186461 0.079758435 0.05766307 -0.059385344
000010 84 ca 63 3c 2a ec 02 3c a0 5b dd bd c3 66 f9 3d
       0.013903264 0.007990876 -0.10808492 0.12177803
000020 43 9c 1b bd 61 46 7a bd 9f bd 83 3d 8e 5f 8b bd
       -0.03799082 -0.061102275 0.06432652 -0.06805335
000030 ac d2 c2 bd 64 2b 8d bd 66 55 7d 3d 51 17 c6 3c
       -0.09512839 -0.06893042 0.06184902 0.02418104

down_path.1.block.2.running_mean f4 [16]
000000 73 ec 09 3f 0e d3 b2 3e 08 6c a1 3e a5 66 c6 3e
       0.5387642 0.34926647 0.31527734 0.38750187
000010 bb 44 f0 3e c8 8e fa 3e 77 f3 b5 3e 12 c9 d1 3e
       0.46927437 0.48937058 0.3553731 0.40973717
000020 8f cd ed 3e d5 29 9f 3e 59 cc 57 3e d2 4a 0d 3f
       0.4644589 0.31086603 0.21074046 0.5519229
000030 91 22 07 3f 90 f7 df 3e 13 0a bd 3e 23 ac 4c 3e
       0.5278712 0.43743563 0.3692175 0.1998754

down_path.1.block.2.running_var f4 [16]
000000 d1 90 97 3f cd 5e c1 3e ea 98 c4 3e 06 db b0 3e
       1.184107 0.3776764 0.38397914 0.34542102
000010 48 04 95 3f b2 c1 85 3f d8 80 4f 3e c5 a3 4f 3e
       1.1641932 1.0449736 0.20263994 0.20277317
000020 c6 33 fe 3e 82 ce 84 3e e8 4c 8c 3e 77 a7 d8 3f
       0.49648875 0.25938803 0.27402425 1.6926106
000030 cb 59 ff 3e 03 7a f9 3e 3e fc 86 3e be ee a8 3e
       0.49873194 0.487259 0.2636432 0.32994646

down_path.1.block.3.weight f4 [16, 16, 3, 3]
000000 c9 a5 20 bd 10 84 0f 3d c2 fd 78 3d e2 1f 20 3e
       -0.039220605 0.035038054 0.060788877 0.15637162
000010 aa 24 d2 3d 45 57 0a 3d 0b 80 c5 3d e6 f7 b5 bd
       0.10260899 0.033774633 0.09643563 -0.088851735
000020 1c f5 b4 bd 75 e6 c9 3d e7 67 d2 3d 46 d0 4b 3d
       -0.088358134 0.09858409 0.10273724 0.049759172
000030 61 42 97 3d 67 2b 8e 3d e2 33 4a bc 1f 6a 91 bc
       0.07385708 0.06941872 -0.012341471 -0.017750798
000040 e9 96 5d b8 b3 e5 c4 bc f9 36 1c bc 3c a2 06 bd
       -5.2831052e-05 -0.02403531 -0.009534591 -0.032869563
000050 ad b5 11 bd 77 90 a5 3d 68 df 01 bd f4 9e d6 bd
       -0.03557365 0.08084195 -0.031707197 -0.10479537
000060 ef a0 ef bb 0c c2 f7 bc ea 67 0d be 7f 53 8d 3d
       -0.007312886 -0.030243896 -0.13809171 0.06900691
000070 e2 83 85 3e a1 ab 40 3e 41 b6 81 3b b3 ce 2a 3d
       0.2607718 0.18815471 0.003958494 0.04170103
000080 6c 9e 44 3e e6 e0 5f 3d 80 1f 03 bd e6 15 c4 3e
       0.19201058 0.05465784 -0.032012463 0.38297957
000090 09 7f c5 3c 8f 9a 66 3c a4 69 b5 bc ef 34 19 3d
       0.024108427 0.014074936 -0.0221451 0.037403997
0000a0 b2 f4 53 3d 9d 4d e3 3d 8f ea 97 3c fb d6 cf 3d
       0.05174703 0.11098788 0.018544463 0.10148426
0000b0 e0 1a 0c bc 95 22 1f 3d e1 4c 8b 3d ea aa 57 bd
       -0.008551329 0.03885134 0.06801773 -0.05265323
0000c0 ea 40 ec bc 03 bc 1f bc e5 b7 a2 bc df 1e 1a 3c
       -0.028839547 -0.009749415 -0.019863078 0.009406774
0000d0 be 91 13 3e 41 61 23 3d e5 61 61 bd 0d 22 1a be
       0.14411065 0.03988767 -0.055025 -0.15052052
0000e0 25 df 8c 3d 5e 3b 12 be 5d ce 70 3d e1 fe a1 bd
       0.06878499 -0.1428046 0.058790553 -0.079099424
0000f0 ce 7d 16 bd 5b 31 3c bd e7 67 8b 3d e6 76 d5 bc
       -0.03674107 -0.045945507 0.06806927 -0.026057672
000100 0e c9 c7 3c af 0f c3 3d c0 4f 32 3d fd 53 5d 3d
       0.024387863 0.09524476 0.043533087 0.054035176
000110 3c 88 32 3d f2 5b 9a 3c 6d 5a 8f bd d2 cc 06 3d
       0.043586954 0.018842671 -0.06999669 0.032910176
000120 4c ad 2d bd 58 59 ba 3d 45 8b 81 bd b7 13 03 bd
       -0.042401597 0.09099072 -0.06325392 -0.032001223
000130 af 12 10 bd b8 08 31 3d fe b1 98 3a 75 7d 08 bd
       -0.035174068 0.043221205 0.0011649725 -0.03332277
000140 52 b4 14 3d 92 97 aa bd cc 7c 49 bd dd 08 a0 3d
       0.03630478 -0.08329691 -0.04919128 0.078141905
000150 d5 8a 20 be e2 d8 83 3d 4d 9b 80 bd 22 82 cb bd
       -0.1567796 0.064378515 -0.06279621 -0.0993693
000160 6e 63 31 bc 3b b9 00 bc 4d 28 76 bd 4d 47 a0 3c
       -0.010826929 -0.007856662 -0.060097028 0.019565249
000170 9f 1d 4a bc cb 8f e2 3c 9a fb f1 bd 88 09 9a bc
       -0.012336164 0.027656456 -0.11815567 -0.018803373
000180 ba 14 2a 3d fc 41 f1 bd 84 dc 7e bb 11 c8 e3 3d
       0.041523673 -0.11780164 -0.0038888762 0.11122144
000190 82 72 be 3d ab 67 11 bd dc 97 da 3c 0e ba d6 3d
       0.092991844 -0.035499256 0.02668374 0.10484706
0001a0 b2 b2 28 bd 13 96 0c 3e 8e 3f bb bc d2 0a c5 3d
       -0.041186042 0.13729124 -0.022857454 0.096212044
0001b0 0b a6 1f 3d b5 c6 e8 bd 58 92 17 3e c6 b2 0e be
       0.03897671 -0.11366025 0.1480192 -0.13935384
0001c0 0f e5 e3 bd af 0a ce 3d e9 93 18 bc b3 6d 98 bc
       -0.11127674 0.100606315 -0.009312608 -0.018606996
0001d0 52 01 c1 3d bb ee 31 bd 6b 3e 76 bd f9 cc da bd
       0.0942408 -0.04344056 -0.06011812 -0.10683627
0001e0 46 90 95 bd 3c e2 81 bd ad cb d1 3d a5 d5 bf bd
       -0.073029086 -0.06341979 0.10243926 -0.09366921
0001f0 9a b2 18 bb 80 b2 4b 3e 4f c7 10 be eb 0c 91 3d
       -0.0023299814 0.19892311 -0.1413853 0.07082542
000200 f4 c5 41 3d 01 d6 8e bd 7f 6e d3 3c 5f e6 d1 3c
       0.047307923 -0.06974412 0.025809525 0.025622545
000210 df 8c 62 bd 66 fb ec 3d 10 a8 0a 3e 8d 4a 39 3e
       -0.055310126 0.11571388 0.13540673 0.18094845
000220 fb 74 66 3e 5e 24 d3 3c a5 74 ac 3d 31 b5 01 bd
       0.22505562 0.025774177 0.08420686 -0.03166694
000230 e1 b6 79 3d 63 74 c8 3d 22 5b 8a 3d 94 7c 5f bd
       0.060965423 0.09787824 0.067556635 -0.054562166
000240 3b 38 a5 bd bc 4f 63 3c 1e b6 b4 bd 04 f1 0b be
       -0.08067366 0.013873991 -0.088237986 -0.13666159
000250 02 c3 b8 3c 82 6d 51 bb 2f a8 9c bd 9f 75 f5 bd
       0.022553924 -0.003195614 -0.07649266 -0.11985325
000260 ac 8d 86 3d bd 16 81 bd 8a d8 b6 3b 28 f7 f4 bd
       0.065699905 -0.06303165 0.0055800127 -0.11961204
000270 41 e4 d3 bc 10 7b af bc 90 5f 64 bd 33 a6 ca 3c
       -0.025865676 -0.021420985 -0.055755198 0.024737453
000280 4a 74 56 3d ef 74 19 bd 35 52 c0 3d 4e 9c cf 3b
       0.052356996 -0.037465032 0.0939068 0.0063357716
000290 4a 39 6d 3c 4d b6 ea 3c 16 04 a8 3d 13 8c 86 bd
       0.014478991 0.02865138 0.08203904 -0.06569686
0002a0 6c 53 22 be 08 ae 23 3d c6 b7 1e 3e 6d e4 17 be
       -0.15852135 0.03996089 0.15499792 -0.14833231
0002b0 0e 06 5b be d5 d6 27 be ff 24 fc bc df a3 8c bd
       -0.21389028 -0.16390546 -0.03077936 -0.068671934
0002c0 c3 d9 07 3c 04 1b d9 bd 7f 9b 94 bd 89 ef f0 bd
       0.0082916645 -0.10600856 -0.07256221 -0.11764438
0002d0 1c d0 81 bd bd 2a 1c be 22 ce 78 bd d2 a0 e8 bd
       -0.06338522 -0.15250678 -0.06074346 -0.11358799
0002e0 02 e0 66 bb 31 00 4f 3d a8 11 f3 bd 8f 43 e0 3d
       -0.0035228734 0.050537292 -0.11868602 0.10950386
0002f0 97 5e ad 3b 6a 0e 72 be aa 01 20 3d 80 f3 9d 3d
       0.005290817 -0.23638311 0.039064087 0.077124596
000300 ea bf 0d be 91 2b 2d 3e 92 58 af bc 21 ac b2 bd
       -0.1384274 0.1691115 -0.021404538 -0.08724237
000310 43 7a 1f 3e ed 5f 96 3c de 9c df 3d 3d 75 7d be
       0.15573983 0.018356288 0.10918592 -0.24751754
000320 81 87 5f bc b0 67 1b 3e bd 0e aa 39 02 c5 49 be
       -0.0136431465 0.15176272 0.00032435908 -0.19704059
000330 ae 77 ba bd b5 ea ad 3d b4 21 29 bd b0 3f 89 3d
       -0.09104858 0.084920324 -0.041291907 0.067016006
000340 80 a1 29 be 79 8a cc 3c 72 f5 c4 3d 05 f3 9a bc
       -0.16565514 0.024968373 0.096171275 -0.018914709
000350 7e ca 54 3d 54 8c fd 3d 8e 6c 74 3c d4 28 09 3c
       0.051950924 0.12380281 0.01491846 0.008371551
000360 08 2c cb 3d 5f 01 10 3c fe 36 4f bc 0a 37 14 3d
       0.09920508 0.008789389 -0.0126473885 0.0361853
000370 ee 36 6b bd 87 a9 55 bd 6e a5 b1 bd a1 d8 d1 bc
       -0.057425432 -0.052163627 -0.08674131 -0.025615992
000380 c2 42 c9 bc 66 9b 84 bc 17 f5 94 bc f6 bc a6 3d
       -0.024567965 -0.016187381 -0.018183274 0.0814151
000390 77 db 41 bd fd ed f4 bd 77 90 cc 3d 50 c6 81 bd
       -0.04732844 -0.11959455 0.09988492 -0.06336653
0003a0 cd f0 c2 3b b9 7f 5d bd 69 af be bd 53 3e 1f 3e
       0.005949116 -0.054076884 -0.093108006 0.15551119
0003b0 f2 ef aa 3c a7 fb aa bb 77 44 b1 bc 2c de 20 3e
       0.020866368 -0.0052179876 -0.021639092 0.15709752
0003c0 3a 26 ce 3c 8e 8f be bc d8 8a aa 3b bb 1a de bc
       0.025164712 -0.023261812 0.0052045397 -0.027112355
0003d0 28 d8 04 bc 07 ef 6d 3d 5a 8a 5e bd 22 ce 98 3d
       -0.008108176 0.058089282 -0.05433116 0.07461192
0003e0 50 d4 e6 bd 93 71 26 be e4 87 9f bd 1a 34 15 bd
       -0.11270964 -0.16254263 -0.07789591 -0.03642664
0003f0 46 e1 42 3d 57 18 79 bd 6f cb 8f be 3e 38 10 3e
       0.04757812 -0.060814228 -0.28084895 0.14083955

down_path.1.block.3.bias f4 [16]
000000 0f c2 40 bd 02 8c c2 3c f0 2d 9b 3d 31 43 32 bd
       -0.04706007 0.023748402 0.07577121 -0.04352111
000010 69 c8 5e bc e9 79 f9 3d 2b 0f 4a bd 7d 64 87 bd
       -0.013597586 0.12181456 -0.04933087 -0.066109635
000020 73 76 fa 3d 3d 93 71 3c 0c 47 f0 3d cf 01 ed 3c
       0.12229624 0.014744577 0.11732301 0.028931526
000030 77 5c 24 bd 83 1d fa bd 30 76 81 be 78 d3 88 bc
       -0.040127244 -0.1221266 -0.25285482 -0.016702399

down_path.1.block.5.weight f4 [16]
000000 42 78 2d 3f ba 50 27 3f 4e fb 49 3f f3 0e 5d 3f
       0.67761624 0.65357554 0.78899086 0.86350936
000010 b3 bd 5f 3f ec 04 29 3f 1f f8 54 3f f7 c4 30 3f
       0.87398833 0.66023135 0.831911 0.69050545
000020 50 59 50 3f 36 94 46 3f 2a 54 23 3f c7 47 70 3f
       0.8138628 0.775699 0.638003 0.93859524
000030 dd a5 4b 3f ac ad 4a 3f 5c fd 50 3f 94 9e 50 3f
       0.7954996 0.7917125 0.81636596 0.8149197

down_path.1.block.5.bias f4 [16]
000000 35 bd 67 3d 4f 6c cf bd 17 ba db 3d 6d 1e 21 be
       0.056576926 -0.1012808 0.10728853 -0.15734263
000010 d0 d2 b5 3d a4 5f 2e 3d 1c ca e4 bb 92 86 43 bc
       0.088781 0.04257168 -0.006982101 -0.0119339395
000020 0a b4 b0 3c f0 28 d1 bd 07 1b 82 bd 55 4f f3 bd
       0.021570224 -0.10212886 -0.06352811 -0.11880366
000030 fc f5 8b 3d 8e e8 3a 3e e6 69 21 bd da ae e9 3c
       0.06834027 0.18252775 -0.039407633 0.028525759

down_path.1.block.5.running_mean f4 [16]
000000 a6 6c 15 3f 32 1c 1d 3f 51 24 5f 3f 23 eb 14 3f
       0.5836891 0.6137115 0.8716479 0.5817129
000010 1c a1 b6 3e e7 fa 33 3f 68 a1 07 3f 09 3e 6e 3e
       0.35669792 0.7030472 0.5298066 0.23265852
000020 c9 64 0e 3f 33 5e 10 3f d4 a8 47 3f 1d 97 2f 3f
       0.55622536 0.56393737 0.77991986 0.68589956
000030 c5 84 db 3e ac de 87 3e dd d3 91 3e 9a 4a 13 3f
       0.42874733 0.26537073 0.2848195 0.5753571

down_path.1.block.5.running_var f4 [16]
000000 b0 ff fd 3f 1a 8c e3 3e 42 81 4c 3f 12 fd 2b 3f
       1.9843655 0.44442827 0.7988473 0.6718303
000010 91 19 e0 3e fb 10 f0 3e ff d4 a3 3f 33 48 84 3e
       0.43769506 0.46887955 1.2799376 0.25836334
000020 b6 78 f6 3e d7 4b f9 3e bf a2 1c 3f 45 ec 89 3f
       0.4813897 0.48690674 0.6118583 1.0775229
000030 ec e0 13 3f 3c 40 0a 3f a9 3c 20 3f f9 1c 44 3f
       0.5776508 0.54004264 0.6259256 0.7660671

down_path.2.block.0.weight f4 [32, 16, 3, 3]
000000 d9 ad aa 3d 28 0d f3 3d 10 cf 11 3c 62 3b a5 3d
       0.0833394 0.11867744 0.008899465 0.08067967
000010 7e eb 3a bd 55 cb 61 bd a9 79 81 bd 14 c1 98 bd
       -0.04563474 -0.055125553 -0.06322033 -0.07458702
000020 e9 54 bc bd 4e 0f f2 bb 87 19 06 3d 3f 1d 29 be
       -0.09195883 -0.0073870784 0.03273919 -0.16515063
000030 85 b6 e2 bc 39 ce f4 bd 32 ec 12 3e c9 30 c7 3d
       -0.027674923 -0.11953396 0.14347914 0.09726102
000040 05 1d e6 3c 42 f5 21 3d 80 66 a2 3d eb 9f 4d 3d
       0.02809001 0.039540537 0.079297066 0.050201338
000050 a3 de 2f bd 85 7d c6 3d b3 ad 4c bd bd 05 ea bd
       -0.042936932 0.0969191 -0.04997034 -0.11426876
000060 d0 5f 18 bd ef 53 61 bd b0 7a 35 bd 42 1f d8 3a
       -0.03720075 -0.055011686 -0.044306457 0.0016488808
000070 de ad e7 3b 23 60 2f be db b7 6c 3e 91 90 bd bd
       0.007070287 -0.17126517 0.2311701 -0.092560895
000080 14 9c fb 3d dc 0f 10 3d 8b 0b 57 3d e2 6b b3 3c
       0.12285629 0.035171375 0.052501243 0.021902028
000090 62 af 8a 3e 38 b8 26 3c 18 ba 96 3d 82 b6 06 3d
       0.2708693 0.010175757 0.07359713 0.032888897
0000a0 5c f4 2a 3e b7 9d 5e 3b 7b e8 16 3d b0 b9 9e bc
       0.16694778 0.0033968517 0.036842804 -0.019375652
0000b0 ed be b0 3a 12 3f 82 3d 0e 4a 22 bd a2 5d 0d be
       0.0013484635 0.06359686 -0.039621405 -0.1380525
0000c0 54 4c 9a 3d f1 77 f8 3b 33 6c cf 3d 9c 50 71 3d
       0.0753409 0.0075826575 0.10128059 0.058914766
0000d0 51 3b 5e 3d 0e 26 31 bd 85 c3 30 3e 3c f0 a9 3c
       0.054255787 -0.043249182 0.17262085 0.020744435
0000e0 04 25 51 bc cc 6e 34 3d dd 57 b1 bd c4 b0 42 3d
       -0.012765173 0.044050977 -0.08659337 0.047531858
0000f0 78 65 16 be 14 ff 6e bd 58 06 5d bc 14 21 07 3c
       -0.14687145 -0.05834873 -0.013490282 0.0082476325
000100 f7 65 05 3d 4b 39 a5 3c 49 cb 7d bd 40 6f 0a 3d
       0.032567944 0.020168921 -0.061961446 0.033797503
000110 57 e6 1e 3d e0 e3 bc 3b 58 1f f6 bc b2 5a 15 bd
       0.038793888 0.0057644695 -0.030044243 -0.036463447
000120 ac e0 9e 3d 39 89 42 3e 12 93 e5 3c df a5 6b 3d
       0.077576965 0.18997659 0.02802423 0.057531234
000130 5c 54 26 bd 97 87 84 bd 6b e3 d1 3c 24 f9 51 3d
       -0.040607795 -0.06471174 0.025621137 0.05126299
000140 2b 1a 68 bd 96 85 a0 3d 2b f4 50 bc 8d 1a fe 3a
       -0.05666558 0.078379795 -0.012753527 0.0019386575
000150 f7 f6 ee 3c 4f 9d 9e bd 8c 5c b6 bd 14 0c 29 3d
       0.029170496 -0.07744848 -0.08904371 0.041271284
000160 9d 98 9e 3b 3e 8c c6 bd 87 3b ff bd 27 d1 55 bd
       0.0048399703 -0.09694718 -0.12462526 -0.052201416
000170 fc 39 2f be b2 64 9b 3d 3a 42 cd bc a1 0b a3 bd
       -0.17111963 0.075875655 -0.025055993 -0.079612024
000180 45 6b 37 3d 02 8a f9 bb e8 15 72 3c 05 d9 72 bd
       0.044780035 -0.0076153288 0.014775731 -0.059288997
000190 1a 6f ea bd 81 1d 8e bd b0 f2 1b bd ef 7d b2 bd
       -0.11446972 -0.06939221 -0.03807324 -0.08715426
0001a0 40 8d 4c bd 82 b8 84 3d 8d 61 78 bd 2d 7e 9c bc
       -0.049939394 0.064805046 -0.060639907 -0.019103134
0001b0 fb 50 ee 3c 0e 65 49 bd 63 75 da 3d a3 68 11 bd
       0.029091349 -0.04916864 0.10666921 -0.03550018
0001c0 b3 7b 87 3d 9b 83 80 bd 67 1f 2a bc dd e7 86 3d
       0.06615391 -0.06275102 -0.010383463 0.06587193
0001d0 62 0b c2 3b 4b 7f 47 3c 3f 10 1a 3d 36 29 9e bd
       0.005921767 0.012176345 0.03761315 -0.07722704
0001e0 0f 29 bf bd ac 20 6b 3c 3b 88 16 3c fe c3 b6 bc
       -0.09334003 0.014351051 0.009187753 -0.022310253
0001f0 a8 cc d9 bd 32 fc 9a ba 75 30 e9 3c 03 a7 84 bd
       -0.10634738 -0.0011824428 0.028465489 -0.064771675
000200 71 f1 e5 bd f3 6e ef bd 31 8b 03 be ed e3 f2 bd
       -0.11227692 -0.11691084 -0.12846066 -0.1185988
000210 f6 ec f0 bd 26 57 bf bd 7c e6 f7 bc 73 92 d1 3d
       -0.11763947 -0.09342794 -0.03026127 0.10233011
000220 9c b9 79 3d a5 d2 be 3d 15 6c fb 3d 44 83 5d bd
       0.060968027 0.09317521 0.122764744 -0.054080263
000230 1e 1a 0e bd a1 a8 b8 bd 53 88 66 bd 5a cb a2 bd
       -0.034692876 -0.090165384 -0.056282353 -0.079489425
000240 15 d4 89 3d 1d 96 fc bb ef ab 37 bd 7f b4 8e b9
       0.067299046 -0.0077083246 -0.044841703 -0.0002721883
000250 e3 65 a5 bc d7 54 e9 3c fc 79 fa 3c d4 bf 94 bd
       -0.020190185 0.028482838 0.030575745 -0.07263151
000260 dd 96 d9 bd c0 61 3b be 3c 43 05 3d 2e 90 e6 3d
       -0.10624478 -0.18299007 0.032534823 0.11257969
000270 35 99 d9 bd 58 e6 70 bc aa bf 0a 3e 24 fe 0f be
       -0.10624925 -0.014703356 0.13549677 -0.1406179
000280 e8 08 26 3e a7 cc 75 3d ab 3d 7d bd c2 d9 02 be
       0.16214335 0.060009625 -0.06182639 -0.1277838
000290 0f ce 9f bd 36 e5 c4 bc 69 f3 f3 bd e8 c2 33 bd
       -0.078029744 -0.024035078 -0.11911661 -0.04388705
0002a0 7c 92 0a 3e cb db 9e 3d e9 1b 8d 3c 31 71 35 3d
       0.13532442 0.07756766 0.017225223 0.0442974
0002b0 44 14 ac bd b9 9e 56 bb a8 e5 96 bd 5f c1 39 be
       -0.08402303 -0.0032748415 -0.07368022 -0.18140171
0002c0 71 62 ed bb b2 68 a2 bd f0 5e 09 be c1 11 43 bd
       -0.007244401 -0.07930125 -0.13415122 -0.047624353
0002d0 40 3a c8 3c 58 ec fa bd 78 67 e2 bd 84 d3 de bc
       0.024441838 -0.1225211 -0.11054891 -0.027200468
0002e0 04 8d a8 bd f4 c0 21 bd ce 61 99 3d 27 f8 04 ba
       -0.082300216 -0.039490655 0.07489358 -0.0005072378
0002f0 a0 64 fe bd 86 71 6a 3d f3 af 2d 3d 50 41 65 3d
       -0.124215364 0.05723717 0.042404126 0.05597049
000300 f3 2a f8 bc c3 14 ba bd 54 42 fa 3c 90 f7 06 bc
       -0.030293917 -0.09085991 0.030549206 -0.008237734
000310 25 8c cb bd 67 81 cd bc dc 56 85 bd 1a d8 5e be
       -0.0993884 -0.025086118 -0.06510708 -0.21762124
000320 ca 72 f8 bd f1 f8 09 bd 99 09 27 be 0e a9 9c bd
       -0.12131269 -0.033684675 -0.16312255 -0.07649432
000330 0a 56 6c 3d e5 90 33 3c 5d d1 a0 bd 5c 56 64 bc
       0.05769924 0.0109598385 -0.07852433 -0.013936605
000340 b7 ea 1a bd fa 12 a5 bd 85 86 34 3c 0c ad 12 3d
       -0.037821498 -0.0806026 0.0110184 0.03580956
000350 b1 be 86 3b 50 ba 34 3d 59 4b 1f be 04 1f ad bd
       0.0041120877 0.044122994 -0.15556087 -0.084531814
000360 94 9d 88 3d 19 f2 e8 bd 95 25 91 3d ab 68 32 bd
       0.06670681 -0.113743015 0.07087246 -0.04355685
000370 c1 fc d3 bd 8d 4d 5a 3d 7b c2 81 bc db f6 9d bc
       -0.10350943 0.053296614 -0.015839806 -0.019282749
000380 18 9e 4a 3d 57 c7 81 3c 09 7e 20 be cf a7 b2 3d
       0.049467176 0.015842123 -0.15673079 0.08723413
000390 53 24 be 3c 07 4c 1d be 2e 0d 1e 3e 2c 71 57 bd
       0.02321068 -0.15361033 0.15434715 -0.052598163
0003a0 a5 be 2d bc c4 66 78 3d 5b 66 35 3c 38 3f 88 3c
       -0.010604535 0.06064488 0.011071767 0.016631708
0003b0 f9 0c 78 bd 39 6a e5 ba ba 4f 06 be 64 0c 37 be
       -0.060559247 -0.001750297 -0.13116351 -0.1787582
0003c0 93 e0 96 3c bc d4 c3 bc 22 7e 84 bd 6a b7 26 3d
       0.018417632 -0.02390515 -0.064693704 0.04070226
0003d0 9a ef f4 bd ad ad 0b be 39 d8 99 3d 7d ba 11 be
       -0.11959763 -0.13640471 0.07511944 -0.14231296
0003e0 49 94 a0 bd 46 e8 bb 3d e3 55 5a bd d0 a9 ab bd
       -0.07840783 0.09175162 -0.053304564 -0.083819985
0003f0 4f d1 a8 bd ba 2c b7 bd b9 02 88 bd b5 b7 a3 3d
       -0.082430474 -0.08944078 -0.06641144 0.07994024

down_path.2.block.0.bias f4 [32]
000000 5f 6a 23 3d c5 2e 49 3d f9 d8 09 3e 17 26 3f 3d
       0.039896365 0.04911687 0.13461675 0.046667185
000010 cf 90 17 bd d8 26 fc 3d da 96 3a bd 9b 65 04 bd
       -0.037003335 0.12312096 -0.04555402 -0.03232346
000020 34 69 ee bd 09 03 9a 3e 3d fa 37 be 85 dd 17 bd
       -0.1164116 0.3008044 -0.17966552 -0.03707649
000030 49 75 46 3e 1e 86 97 be 15 d6 b7 bd fb 65 c8 bd
       0.19380678 -0.2959451 -0.0897638 -0.09785076
000040 48 6f ad bd 71 ac 73 ba d1 f3 ce 3d d1 9c 4d be
       -0.08468491 -0.000929541 0.10105098 -0.20079352
000050 7e 53 80 3d 7a f2 20 3e 32 9b 3e 3d ec a9 ed bd
       0.06265925 0.15717497 0.046534725 -0.11604676
000060 0c 57 b4 bd 17 cb 0e be f0 18 78 3e 92 c0 08 3e
       -0.088056654 -0.1394466 0.24228263 0.1335471
000070 9a 39 80 3c 4d 2c c7 bd d0 3c b9 3c 7b 2c 37 bc
       0.015652467 -0.097252466 0.022612005 -0.011180039

down_path.2.block.2.weight f4 [32]
000000 ec b7 12 3f 10 f0 4a 3f 30 c4 2b 3f 7c dc 36 3f
       0.5731189 0.79272556 0.67096233 0.7143018
000010 61 ad 28 3f e7 52 3b 3f 01 eb 42 3f df c2 10 3f
       0.65889555 0.73173374 0.7613984 0.5654735
000020 6c 4c 2a 3f 47 0b 3b 3f 9f d5 fe 3e aa 02 24 3f
       0.6652286 0.7306408 0.49772355 0.64066565
000030 13 98 3b 3f 0d de 22 3f 1a 37 0a 3f 4b e0 f1 3e
       0.7327892 0.6362007 0.5399033 0.47241434
000040 ba fa 28 3f f8 2d 1e 3f c2 fe 1d 3f a8 94 31 3f
       0.6600758 0.6178889 0.61716855 0.69367456
000050 cf 13 1f 3f a8 49 21 3f 2e d6 2e 3f 73 63 ed 3e
       0.621396 0.63003016 0.6829556 0.46364936
000060 08 9f 25 3f d5 f6 1a 3f 2e af 1c 3f 74 fa 26 3f
       0.6469579 0.60532886 0.61204803 0.6522591
000070 6f 44 28 3f 49 bd 2e 3f bd 0b 2f 3f fd 8c 1f 3f
       0.6572942 0.68257576 0.68377286 0.62324506

down_path.2.block.2.bias f4 [32]
000000 ef 52 10 3c 9f ea 1b 3e f6 6a 9a 3d 01 19 61 3e
       0.008808835 0.1522622 0.075399324 0.21982194
000010 af f5 e2 bc 11 0b ec 3d 1c 0e 5c 3e bd 53 a1 bd
       -0.027705042 0.11525548 0.21489757 -0.078773
000020 09 a9 5f 3e 4a 33 55 bd de 34 ab 3d 3a 10 43 bd
       0.21841826 -0.052050866 0.08359693 -0.047622897
000030 b8 a6 19 bd 57 58 b4 3e 0b d6 33 be 4b c8 5a 3e
       -0.03751251 0.35223648 -0.1756212 0.21365468
000040 3e cc 81 3e 18 29 66 3e 7c 70 ec 3d bf 29 9b 3d
       0.25351137 0.22476614 0.11544892 0.07576322
000050 ac cf 33 bd e2 2a b4 bc ae 83 5b 3e ef 9e a8 bd
       -0.043899223 -0.021993104 0.2143695 -0.08233439
000060 0c 3b 83 3e d2 c7 f4 3d 4b 92 cd 3d c0 17 9b 3d
       0.25630987 0.11952175 0.10037669 0.07572889
000070 74 a5 f1 3c 36 2d 0f be 3a 2e d2 3d 73 9a 7b 3c
       0.02949784 -0.1398209 0.10262723 0.015356648

down_path.2.block.2.running_mean f4 [32]
000000 b9 91 0a 3f 10 0c 15 3e 9f 80 93 3e ee 12 07 3f
       0.54128605 0.14555383 0.28809068 0.5276326
000010 72 c5 91 3f 37 d3 cf 3e b3 6d 7f 3e 0e b4 ee 3e
       1.138838 0.40590832 0.2494419 0.46621746
000020 28 bf 7e 3e c5 2e db 3e a5 f5 03 3e 67 41 9a 3e
       0.24877608 0.4280912 0.12886675 0.30128023
000030 ee 74 d5 3e 49 f0 90 3e 14 2a 98 3e a4 34 9c 3d
       0.41690773 0.28308323 0.29719603 0.07627228
000040 7d 91 78 3e 1a 90 a0 3e b2 e7 17 3f 1b d8 90 3e
       0.2427425 0.3135994 0.59337914 0.28289875
000050 81 db ba 3e 69 7c cd 3e 14 cf 4b 3e ef bd 11 3e
       0.36495593 0.4013398 0.19903213 0.1423261
000060 67 3f a1 3e 50 1a ee 3d b9 4b cb 3e 7d 89 e3 3e
       0.31493685 0.116261125 0.3970621 0.44440833
000070 2c 78 1e 3e db d8 c4 3e e5 6d 58 3e d4 76 12 3e
       0.1547553 0.38446698 0.21135671 0.14303142

down_path.2.block.2.running_var f4 [32]
000000 2b 3f 20 3f 28 4d 34 3e c4 11 75 3e 52 2f a0 3f
       0.62596387 0.17607558 0.23932558 1.2514441
000010 c2 d1 6f 40 73 4d 30 3f 0f f9 f5 3e 6c 6c 1d 3f
       3.7471776 0.6886818 0.4804158 0.61493564
000020 f7 1a a2 3e 12 6a 9e 3e 01 a9 28 3e ec 5e 88 3e
       0.31661198 0.309403 0.1647072 0.2663492
000030 4a ec e3 3e bf 11 18 3f ed 63 a0 3e ba 00 9d 3d
       0.44516212 0.5940208 0.31326237 0.07666154
000040 87 94 ba 3e f2 ba ec 3e da 9b f7 3e 14 10 db 3e
       0.36441442 0.46236378 0.48361093 0.42785704
000050 72 4c 95 3e cf 37 97 3e 21 8b 7d 3e ad 8a 48 3e
       0.29159886 0.29534766 0.24760105 0.1958415
000060 4f 22 27 3f fc 70 35 3e ac 82 d6 3e c2 5b cb 3e
       0.65286726 0.17718881 0.4189657 0.39718443
000070 1d ed e1 3d d5 41 30 3f 76 86 6f 3e fc 8b 67 3e
       0.11031554 0.6885045 0.23391137 0.22611994
