weights/old/unet-test4.pt (torch_old, 460306 bytes, 36 tensors)

down_path.0.block.0.weight f4 [8, 3, 3, 3]
0.17749336 0.14245865 0.019440472 -0.15193231 -0.1384017 -0.17523122 -0.1233036 -0.048944924
0.028546866 0.011378271 0.113037184 -0.19866447 -0.029180823 0.10963702 0.05177755 -0.096941374
-0.007700247 0.010993132 0.06882365 -0.014142967 -0.10939795 -0.11619225 -0.14162402 -0.027117511
-0.11426341 0.12612669 -0.23069207 0.031227896 0.058155548 0.004913987 -0.15682119 0.04031184
0.05115406 0.027421828 0.16223624 0.07644082 0.06663019 0.019114634 0.10865162 -0.18314542
-0.13781217 -0.08276896 0.13528335 0.081535436 0.06847521 -0.18130423 -0.13310573 -0.013144612
-0.14587305 -0.20334424 0.026931562 0.11951687 0.1489141 -0.086311884 0.104109086 -0.13269514
0.04120506 -0.11769296 0.097134866 0.088942766 0.17214628 -0.14270142 0.09523026 0.024642603
0.18424661 0.1866462 0.036047086 0.06039287 -0.09565284 -0.006151212 0.12752472 0.031165164
0.11794063 -0.11379757 0.14147922 0.021871796 0.07681184 -0.07926487 -0.0295188 -0.120623
-0.026986934 -0.013518939 -0.035390314 0.10737709 0.07172157 0.11398326 0.030493421 -0.07372842
0.20158714 0.011130137 -0.09587434 0.21726665 0.21796444 -0.15821649 0.12921564 0.21100515
-0.054160547 -0.09235693 0.007773189 0.068977885 0.21464765 0.010063686 -0.12645282 -0.004917825
0.100725204 -0.06036879 0.07787217 -0.15434529 -0.0051431903 -0.0065750135 -0.034857377 -0.027772494
0.018242346 -0.04987876 -0.0058219475 -0.04964801 -0.0070024417 -0.0042192754 -0.0027164386 -0.027191248
-0.004069631 -0.016167585 0.010456036 -0.0046674735 -0.01193066 0.0004560763 0.044803966 0.0039607016
0.03578519 0.003449274 -0.011816196 0.008177764 0.0035318322 0.002980257 0.007943957 -0.14831614
-0.10272815 -0.107121214 0.08823337 -0.1128548 0.12020414 0.08052131 -0.15314873 0.015769366
0.022685757 0.12747008 0.056264505 0.14488205 -0.041367203 -0.018357387 -0.008153429 -0.062369112
-0.11362416 0.18441875 -0.024479654 -0.049348965 -0.07570687 0.06650587 -0.13374121 0.13577993
-0.059224084 -0.10616457 0.114567764 0.15331434 -0.036569566 -0.10670308 -0.14504065 0.13394079
-0.03711419 -0.13920972 0.17511792 0.05493558 -0.09864273 -0.052707482 -0.12100719 0.17925997
0.05118295 -0.19620493 -0.017550241 -0.026366817 -0.12967595 -0.037515223 -0.062092718 -0.1066499
0.100804776 0.08403592 -0.19433506 0.10997295 -0.17058723 -0.028077407 0.016556693 0.024765559
-0.06949973 0.046590686 0.004314126 -0.1640098 0.008821137 0.005107795 0.040203735 -0.019503433
-0.11981321 -0.15290403 -0.027070653 -0.118893355 -0.09571192 -0.03480511 0.17436664 -0.09742677
-0.065676026 -0.086940415 0.07804184 0.04596666 0.17025924 0.06963726 0.08275059 0.07728195
00000000: d2c0 353e aee0 113e a041 9f3c 2594 1bbe
00000010: 2db9 0dbe d06f 33be 9986 fcbd 797a 48bd
00000020: 1edb e93c ed6b 3a3c 0a80 e73d b36e 4bbe
00000030: 9f0c efbc 6089 e03d b214 543d 3389 c6bd
00000040: 5b52 fcbb 8a1c 343c 6af3 8c3d e7b7 67bc
00000050: 080c e0bd 34f6 edbd e305 11be 8b25 debc
00000060: ef02 eabd 5b27 013e 8b3a 6cbe a5d1 ff3c
00000070: 8334 6e3d 8305 a13b bc95 20be 071e 253d
00000080: eb86 513d bea3 e03c 4221 263e 018d 9c3d
00000090: 6975 883d 4b96 9c3c be84 de3d 798a 3bbe
000000a0: a21e 0dbe c682 a9bd b887 0a3e 0dfc a63d
000000b0: bb3c 8c3d d1a7 39be de4c 08be 805c 57bc
000000c0: bf5f 15be 7939 50be 949f dc3c 43c5 f43d
000000d0: f07c 183e 49c4 b0bd 2537 d53d 3ce1 07be
000000e0: a3c6 283d 0209 f1bd a5ee c63d a027 b63d
000000f0: 1d47 303e 5220 12be 1508 c33d 49df c93c
00000100: 25ab 3c3e 2e20 3f3e 1ca6 133d 845e 773d
00000110: a3e5 c3bd 1b90 c9bb d795 023e 164e ff3c
00000120: db8a f13d b30e e9bd eedf 103e 7b2c b33c
00000130: 874f 9d3d 9f55 a2bd 69d1 f1bc 3109 f7bd
00000140: b413 ddbc 8a7e 5dbc 6ff5 10bd 85e8 db3d
00000150: c2e2 923d 0e70 e93d 57cd f93c edfe 96bd
00000160: dc6c 4e3e 2e5b 363c c459 c4bd 267b 5e3e
00000170: 1232 5f3e 8103 22be 1b51 043e bc11 583e
00000180: 73d7 5dbd a125 bdbd 3cb6 fe3b 4744 8d3d
00000190: 98cc 5b3e 29e2 243c d97c 01be b525 a1bb
000001a0: 0449 ce3d 4445 77bd 727b 9f3d b10c 1ebe
000001b0: 3588 a8bb 3673 d7bb 9cc6 0ebd 2483 e3bc
000001c0: f970 953c ac4d 4cbd 09c6 bebb b65b 4bbd
000001d0: bd74 e5bb d941 8abb 4706 32bb 2ec0 debc
000001e0: 8a5a 85bb e271 84bc cb4f 2b3c 9bf1 98bb
000001f0: d178 43bc 861d ef39 5d84 373d c6c8 813b
00000200: 7e93 123d 370d 623b b898 41bc 07fc 053c
00000210: 5076 673b 6a50 433b 5f27 023c 30e0 17be
00000220: 2363 d2bd 5e62 dbbd b2b3 b43d 6b20 e7bd
00000230: 972d f63d 5be8 a43d 05d3 1cbe c22e 813c
00000240: 7bd7 b93c 8487 023e 9c75 663d f65b 143e
00000250: a870 29bd 3b62 96bc f695 05bc c176 7fbd
00000260: c9b3 e8bd 45d8 3c3e 8e89 c8bc 2422 4abd
00000270: 340c 9bbd 3b34 883d 75f3 08be e509 0b3e
00000280: f494 72bd cf6c d9bd 81a2 ea3d 6ffe 1c3e
00000290: f8c9 15bd 2587 dabd 8985 14be c627 093e
000002a0: 0d05 18bd fe8c 0ebe 1d52 333e 2104 613d
000002b0: 3305 cabd cde3 57bd 9ed2 f7bd ed8f 373e
000002c0: 37a5 513d f2e9 48be 86c5 8fbc 39ff d7bc
000002d0: c6c9 04be 90a9 19bd ef54 7ebd 436b dabd
000002e0: bc72 ce3d 061b ac3d c5ff 46be 7f39 e13d
000002f0: 6bae 2ebe 9702 e6bc e7a1 873c 24e1 ca3c
00000300: e055 8ebd e0d5 3e3d 835d 8d3b 2ff2 27be
00000310: 8886 103c 4a5f a73b acac 243d aac5 9fbc
00000320: a160 f5bd e092 1cbe 46c3 ddbc 5c7e f3bd
00000330: 9c04 c4bd ce8f 0ebd 2b8d 323e b087 c7bd
00000340: 2781 86bd d10d b2bd 66d4 9f3d 8947 3c3d
00000350: 7058 2e3e fb9d 8e3d 2479 a93d 0046 9e3d

down_path.0.block.0.bias f4 [8]
0.22607605 0.0044431672 0.1140671 -0.18309292 -0.045308597 0.22310397 0.13178614 0.13201077
00000000: 7b80 673e fd97 913b 039c e93d b67c 3bbe
00000010: 8295 39bd 5e75 643e f2f2 063e d52d 073e

down_path.0.block.2.weight f4 [8, 8, 3, 3]
5.5648307e-26 -7.342938e-11 6.9701024e-08 -5.2001454e-08 3.5721372e-25 4.1194442e-19 -1.0733317e-12 -9.698255e-24
5.2613584e-22 -4.009909e-06 0.00021771135 -6.7277614e-07 6.424436e-05 1.014049e-05 -5.130488e-06 -1.4149823e-06
1.2885835e-06 4.0112712e-07 -3.064795e-05 -0.0001968582 0.00014711652 -4.3801547e-06 6.829785e-05 0.00038538474
3.256568e-05 -0.00023194223 4.6836838e-05 0.00017195758 5.590845e-05 -8.927237e-05 -3.276469e-05 -8.562205e-06
-6.9095695e-05 -2.4856068e-05 0.00012868582 6.4148415e-05 1.9019949e-11 5.2242077e-25 1.9147718e-15 6.168494e-25
1.1539201e-22 5.1890115e-12 9.890247e-16 2.1121278e-19 5.176342e-18 1.764095e-24 -6.948368e-14 -7.049944e-12
2.6896018e-25 1.0351098e-24 2.2126958e-13 -1.0983001e-11 -1.0906215e-08 -3.9083977e-07 2.1690705e-05 -1.1119791e-06
1.0197133e-05 -8.801147e-05 4.9329974e-05 -0.0001625483 -1.5520161e-05 -2.2330162e-06 0.0004954655 -1.8097617e-05
1.16949495e-05 -2.7603564e-06 6.3762304e-06 0.0001843046 1.46481e-07 2.4699508e-05 -7.631184e-05 1.8997594e-06
-0.1413549 -0.15218164 -0.011257424 -0.21367413 -0.13967894 -0.12208543 -0.22031786 -0.1413138
-0.09077854 -0.085213006 -0.06493113 0.016585387 -0.042351186 -0.08245154 -0.0019809525 0.07567821
0.03428155 -0.03079565 -0.065340765 0.10033494 0.019598754 0.080294594 0.08136392 0.050922766
0.027314333 0.10923226 0.060347848 0.02405812 0.0024497507 0.09048734 0.06708639 -0.10233116
0.06998272 0.050074454 -0.026667342 -0.09364236 0.014220832 0.010662591 0.021357844 0.0116633745
0.014158787 0.021447172 0.018926209 0.018724002 0.0147286225 0.009149515 0.07188081 0.09716343
-0.023173906 0.08653067 0.06435905 -0.07729823 0.09617458 -0.1227386 -0.010454721 -0.084354535
0.099675395 0.1008206 -0.030096864 -0.0097523695 -0.052648365 -0.06602578 0.06288371 0.06977039
0.09692473 0.049499884 -0.10254663 0.07584007 -0.09182552 0.051556423 -0.010117668 0.104301974
-0.19787665 -0.07355583 -0.18399356 -0.19221985 -0.15725239 -0.11589003 -0.20924659 -0.040230516
-0.16705282 -0.10095242 0.04376238 -0.013836236 -0.026302973 -0.066674866 -0.13747822 -0.145255
-0.05039673 0.020688122 0.036217112 0.09868273 0.06085459 0.0032749476 0.024127116 0.09849957
0.0040393556 -0.034306042 -0.08860487 -0.08080072 0.050600816 0.0214822 0.030262383 -0.010682485
0.0861832 0.083059944 0.06476705 0.04567477 0.009443963 0.013127859 0.01735965 0.012869563
0.00965187 0.010607659 0.008745756 0.010857588 0.013961901 0.013845323 -0.08260859 0.067022085
0.014376333 0.01937835 -0.07322128 0.09442828 0.054906286 0.013947922 -0.009382013 -0.06609488
-0.022262398 0.02333406 0.013203463 0.034664348 -0.10657633 -0.10796809 0.0033733994 0.0513774
0.010018076 0.059346173 0.053036917 -0.07708752 0.11921493 -0.035004478 -0.03004893 0.076130785
-0.0916207 -0.18394609 -0.18891855 -0.06649134 -0.030100051 -0.12462079 -0.21712068 -0.22382006
-0.13898204 -0.1508299 -0.122870795 -0.09819125 -0.034024537 -0.13807906 -0.064060375 -0.077560715
-0.10638483 -0.11307312 0.04730187 0.11237868 0.017141234 -0.09275825 0.05943508 0.11882879
-0.0813311 -0.059288222 0.108766355 0.04821155 -0.022687431 0.04686551 0.048816092 -0.048695534
0.028764877 -0.07522747 0.049955644 0.036926806 0.0068892706 0.004795576 0.009793109 0.011842238
00000000: 4ec7 8915 1179 a1ae 8bae 9533 3458 5fb3
00000010: c61a dd16 482b f320 da0e 97ab 6f97 3b99
00000020: ca03 1f1c db8c 86b6 7249 6439 d398 34b5
00000030: eeba 8638 1321 2a37 8e26 acb6 6cea bdb5
00000040: 64f3 ac35 7e5a d734 fc8b 00b8 b86b 4eb9
00000050: 4a43 1a39 3ef9 92b6 213b 8f38 770d ca39
00000060: 2297 0838 8535 73b9 ac72 4438 834f 3439
00000070: 3e7f 6a38 bd37 bbb8 d16c 09b8 64a6 0fb7
00000080: 78e7 90b8 0082 d0b7 d6ef 0639 6b87 8638
00000090: 1e4d a72d 70ae 2117 4ef9 0927 d8e7 3e17
000000a0: 1980 0b1b 7692 b62c 9288 8e26 255b 7920
000000b0: 2bf9 be22 807d 0818 9d76 9ca9 400c f8ac
000000c0: 717a a616 ec2c a017 9d20 792a 0a37 41ad
000000d0: 0a5e 3bb2 9cd4 d1b4 6ff4 b537 503f 95b5
000000e0: 5a14 2b37 cc92 b8b8 a8e7 4e38 ba71 2ab9
000000f0: 4b31 82b7 edda 15b6 20e2 013a 56d0 97b7
00000100: 6d35 4437 903e 39b6 67f3 d536 e441 4139
00000110: 6448 1d34 ca31 cf37 9b09 a0b8 3cfb fe35
00000120: 57bf 10be 81d5 1bbe 0f71 38bc 64cd 5abe
00000130: ff07 0fbe ed07 fabd 019b 61be 91b4 10be
00000140: 19ea b9bd 2884 aebd 9dfa 84bd 14de 873c
00000150: 7078 2dbd 5adc a8bd ded2 01bb 2dfd 9a3d
00000160: d06a 0c3d 2947 fcbc 61d1 85bd 687c cd3d
00000170: 918d a03c 7e71 a43d 20a2 a63d 6494 503d
00000180: 4fc2 df3c 2ab5 df3d 4e2f 773d 8915 c53c
00000190: ff8b 203b 6d51 b93d 9764 893d 0093 d1bd
000001a0: 1a53 8f3d df1a 4d3d 7875 dabc 91c7 bfbd
000001b0: 7efe 683c 26b2 2e3c a5f6 ae3c bd17 3f3c
000001c0: 42fa 673c fbb1 af3c 230b 9b3c 1463 993c
000001d0: 5250 713c d9e7 153c 3f36 933d 9ffd c63d
000001e0: 34d7 bdbc fe36 b13d adce 833d 894e 9ebd
000001f0: 2ef7 c43d 605e fbbd 474a 2bbc 12c2 acbd
00000200: 9d22 cc3d 087b ce3d b38d f6bc 67c8 1fbc
00000210: d0a5 57bd 8638 87bd 2dc9 803d c7e3 8e3d
00000220: 7980 c63d 64c0 4a3d f803 d2bd 0a52 9b3d
00000230: 050f bcbd d42c 533d 93c4 25bc 469c d53d
00000240: 2da0 4abe 70a4 96bd cf68 3cbe 48d5 44be
00000250: c506 21be c157 edbd bd44 56be c1c8 24bd
00000260: e50f 2bbe 24c0 cebd 2e40 333d 61b1 62bc
00000270: 5579 d7bc d58c 88bd 17c7 0cbe babd 14be
00000280: cd6c 4ebd 237a a93c 6558 143d 2c1a ca3d
00000290: aa42 793d 81a0 563b 3ba6 c53c 24ba c93d
000002a0: 925c 843b 7e84 0cbd 7876 b5bd d97a a5bd
000002b0: cd42 4f3d 70fb af3c d1e8 f73c 9705 2fbc
000002c0: d180 b03d 551b aa3d 96a4 843d 7815 3b3d
000002d0: daba 1a3c 3b16 573c d335 8e3c dcda 523c
000002e0: e022 1e3c bfcb 2d3c 5c4a 0f3c 06e4 313c
000002f0: 75c0 643c 7ed7 623c b12e a9bd e042 893d
00000300: b68a 6b3c 58bf 9e3c 0af5 95bd 9d63 c13d
00000310: 6ae5 603d d385 643c 04b7 19bc c15c 87bd
00000320: a25f b6bc 1227 bf3c 5653 583c 34fc 0d3d
00000330: b144 dabd 601e ddbd 4014 5d3b 1c71 523d
00000340: db22 243c f914 733d 3d3d 593d 10e0 9dbd
00000350: f526 f43d db60 0fbd 2c29 f6bc 75ea 9b3d
00000360: a2a3 bbbd 5d5c 3cbe dd73 41be 9d2c 88bd
00000370: 6294 f6bc 2f39 ffbd e254 5ebe 1631 65be
00000380: 4f51 0ebe 2773 1abe afa3 fbbd 7e18 c9bd
00000390: 505d 0bbd 9964 0dbe 1632 83bd 27d8 9ebd
000003a0: 4ae0 d9bd e192 e7bd 9bbf 413d cb26 e63d
000003b0: c66b 8c3c 0af8 bdbd 3372 733d 825c f33d
000003c0: eb90 a6bd 35d8 72bd e5c0 de3d 7979 453d
000003d0: feda b9bc 0df6 3f3d 62f3 473d f874 47bd
000003e0: 52a4 eb3c dc10 9abd 4a9e 4c3d 9040 173d
000003f0: 64bf e13b 3524 9d3b 4773 203c f205 423c

down_path.0.block.2.bias f4 [8]
-0.014279345 0.10256782 0.07388619 0.06864732 -0.110406645 -0.018216502 -0.06676845 0.1119898
00000000: eaf3 69bc 140f d23d a551 973d f796 8c3d
00000010: e11c e2bd c63a 95bc e6bd 88bd e95a e53d

down_path.1.block.0.weight f4 [16, 8, 3, 3]
-7.377392e-08 9.634867e-18 -3.3504653e-20 1.2367768e-18 -3.7043005e-08 -5.881389e-10 -1.0107018e-07 2.8985179e-09
9.713799e-07 0.10256372 0.12582432 0.117748134 -0.004896428 -0.04060712 -0.08965007 0.007359771
-0.00016093509 0.10121867 0.08326017 0.04460666 0.07290524 0.10314 0.054541923 -0.056953933
0.08141956 -0.057975877 0.023203874 0.04768732 0.060943205 0.020121004 0.05181489 0.045863405
0.074464425 0.10805597 0.10862098 -0.020712797 -0.0089209415 -0.078270555 0.049981404 -0.044265896
0.022896713 -0.09880946 0.038866837 -0.037584126 -0.10000454 0.055659313 0.12520465 -0.0671303
0.013979649 -0.042047303 0.054916263 0.08300217 0.04154325 -0.03923865 -0.038299747 -0.10308023
-0.015630297 -0.06652762 -0.08549461 -0.011369381 -0.02953057 -0.1054881 -0.1655997 0.07779415
-0.062028103 0.047333598 0.055675454 0.04873663 0.13353676 0.10898166 -0.009483174 0.038303822
3.0775578e-20 2.4875397e-11 1.3029619e-24 -2.898261e-20 1.4052563e-10 -2.3359121e-09 8.579875e-12 1.2752661e-20
1.8274637e-24 0.07746806 -0.030608788 -0.012145922 0.042173304 -0.010726123 -0.10653103 -0.075187035
-0.016899494 -0.018059356 -0.05370702 -0.014297957 0.07587578 0.02566257 0.01872936 0.053558636
0.054116763 0.034186337 -0.06422531 -0.12355331 -0.11793062 -0.030958971 0.018500978 0.028671632
-0.13741958 -0.0070475084 -0.028370468 -0.05247025 0.09817674 -0.047142684 -0.00013904348 0.025612013
-0.09653391 0.016378462 0.048738018 0.08527839 0.08949299 -0.06765437 -0.030916935 -0.016829967
-0.021167684 -0.112098806 0.006332451 -0.0853035 -0.017413236 0.07872155 0.08800924 0.079755485
0.111469306 0.050345466 0.044620197 0.13745213 0.05877345 0.13229722 0.15223971 -0.105957754
0.011103381 -0.01766113 -0.02584971 -0.014048163 -0.092915274 -0.032282583 -0.05862082 0.054318536
2.0444816e-07 -5.8849586e-14 -5.3075576e-15 -7.3027945e-19 1.1889775e-10 6.0851546e-09 -2.6730937e-08 8.234633e-09
3.6261485e-20 -0.07138731 -0.06899933 0.09954045 0.074495316 -0.09662808 0.006559482 0.097890936
-0.049297735 0.032237004 0.11982674 0.036076464 -0.013166706 -0.022234524 -0.01379233 0.03227787
0.03765691 -0.029828617 0.10286879 -0.037023943 -0.049895253 0.062322978 -0.04991896 0.021092905
0.111473665 0.07376234 0.05153268 -0.050181977 0.10725218 0.01029774 0.07602276 0.08213403
0.029569173 0.046900693 0.085929304 0.09050035 4.2406242e-05 0.04676077 0.08361253 -0.053594727
-0.073632665 0.045424726 0.016644262 -0.05329225 -0.02425677 0.010655884 -0.13579592 -0.15616618
-0.17878859 -0.1994554 -0.12708054 -0.1465384 -0.13816282 -0.18578157 -0.18714991 0.05354917
-0.03873132 0.024699297 -0.048226956 0.114688374 0.11691366 0.10443433 -0.01278486 0.02544756
1.803796e-16 3.6679996e-06 3.3666193e-08 4.413067e-19 3.438225e-07 1.1641081e-09 2.490245e-11 5.5574155e-16
2.4058944e-20 -0.047540836 0.106443614 -0.09405399 -0.094350606 0.006917638 -0.02150069 -0.047855273
-0.005045794 0.033858832 0.039503038 0.09560926 0.04012876 0.029993843 0.066742614 -0.031792607
0.047005948 -0.04335004 -0.05300823 -0.030116592 0.0033538337 0.08047699 0.046341125 -0.0662102
0.02880685 0.026561182 0.027087633 -0.081503 0.014731202 0.079783514 0.0016994729 0.11719305
00000000: a46d 9eb3 5fbb 3123 a438 1e9f 1b84 b621
00000010: 3719 1fb3 99aa 21b0 eb0b d9b3 442f 4731
00000020: 5c60 8235 ed0c d23d 17d8 003e ef25 f13d
00000030: 3772 a0bb a753 26bd 759a b7bd 3c2a f13b
00000040: afc0 28b9 bc4b cf3d 4f84 aa3d 79b5 363d
00000050: 584f 953d 103b d33d 5a67 5f3d 8748 69bd
00000060: 4cbf a63d 1d78 6dbd 0d16 be3c c753 433d
00000070: 959f 793d ced4 a43c da3b 543d 44db 3b3d
00000080: ce80 983d 734c dd3d ad74 de3d e2ad a9bc
00000090: 2429 12bc 504c a0bd 4db9 4c3d 2850 35bd
000000a0: e391 bb3c 9d5c cabd d532 1f3d d0f1 19bd
000000b0: 2ecf ccbd 05fb 633d a635 003e 9c7b 89bd
000000c0: e60a 653c cb39 2cbd e0ef 603d 0bfd a93d
000000d0: 4129 2a3d b5b8 20bd 32e0 1cbd ba1b d3bd
000000e0: 1c0b 80bc a23f 88bd cc17 afbd a446 3abc
000000f0: 18ea f1bc 250a d8bd f892 29be 8a52 9f3d
00000100: 2e11 7ebd e0e0 413d f20b 643d 0fa0 473d
00000110: dcbd 083e c731 df3d 515f 1bbc 78e4 1c3d
00000120: 6455 111f 6ace da2d a39f c917 d3dd 089f
00000130: 7382 1a2f cd85 20b1 52f0 162d 16e4 701e
00000140: a664 0d18 93a7 9e3d 48bf fabc b0ff 46bc
00000150: eabd 2c3d 9fbc 2fbc f12c dabd a9fb 99bd
00000160: cf70 8abc 37f1 93bc e4fb 5bbd fa41 6abc
00000170: c364 9b3d 4f3a d23c 516e 993c 4d60 5b3d
00000180: 8aa9 5d3d f906 0c3d 8f88 83bd 8509 fdbd
00000190: 9c85 f1bd ab9d fdbc 5d8f 973c c5e0 ea3c
000001a0: b8b7 0cbe c9ee e6bb 2f69 e8bc 0beb 56bd
000001b0: e310 c93d b018 41bd 33cc 11b9 49d0 d13c
000001c0: 92b3 c5bd 202c 863c 84a1 473d 70a6 ae3d
000001d0: 1a48 b73d 608e 8abd 8345 fdbc 00df 89bc
000001e0: da67 adbc 0f94 e5bd 7380 cf3b 9ab3 aebd
000001f0: 34a6 8ebc c438 a13d 303e b43d d856 a33d
00000200: 054a e43d 0c37 4e3d abc3 363d 40c0 0c3e
00000210: 6ebc 703d ec78 073e bae4 1b3e 6100 d9bd
00000220: f5ea 353c 13ae 90bc c5c2 d3bc 442a 66bc
00000230: 5d4a bebd be3a 04bd 631c 70bd 1d7d 5e3d
00000240: 4886 5b34 7a84 84a9 9439 bfa7 5b8a 57a1
00000250: beba 022f 9615 d131 f49d e5b2 4d78 0d32
00000260: 723d 2b1f 8333 92bd 854f 8dbd dddb cb3d
00000270: 0091 983d f1e4 c5bd ecf0 d63b 0b7b c83d
00000280: 6cec 49bd f30a 043d b967 f53d eac4 133d
00000290: 2bb9 57bc 2d25 b6bc 3af9 61bc cd35 043d
000002a0: 223e 1a3d 255b f4bc dfac d23d 6ba6 17bd
000002b0: f75e 4cbd 6146 7f3d d377 4cbd 07cb ac3c
000002c0: 4e4c e43d b610 973d ee13 533d 9e8b 4dbd
000002d0: 08a7 db3d dab7 283c d2b1 9b3d e335 a83d
000002e0: 0d3b f23c f11a 403d b4fb af3d 3f58 b93d
000002f0: 5bdd 3138 3988 3f3d 0c3d ab3d 2586 5bbd
00000300: b9cc 96bd 470f 3a3d 8c59 883c f948 5abd
00000310: 22b6 c6bc 0496 2e3c 160e 0bbe 07ea 1fbe
00000320: 5b14 37be 093e 4cbe 6721 02be 2a0e 16be
00000330: 8e7a 0dbe 863d 3ebe 3aa4 3fbe 6056 5b3d
00000340: bca4 1ebd 2e56 ca3c a189 45bd bde1 ea3d
00000350: 6e70 ef3d aae1 d53d 9777 51bc 6777 d03c
00000360: a9f6 4f25 c127 7636 5f98 1033 3140 0221
00000370: 9b96 b834 6afe 9f30 550b db2d 7d2e 2026
00000380: f53a e31e 2eba 42bd 1cff d93d 619f c0bd
00000390: e43a c1bd 5aad e23b 3722 b0bc e403 44bd
000003a0: 3057 a5bb 8faf 0a3d f0cd 213d cace c33d
000003b0: 0e5e 243d a6b5 f53c 5ab0 883d f738 02bd
000003c0: 4f89 403d d08f 31bd 281f 59bd 12b7 f6bc
000003d0: fecb 5b3b 1fd1 a43d 31d0 3d3d 3799 87bd
000003e0: 58fc eb3c d696 d93c e2e6 dd3c 0beb a6bd
000003f0: 245b 713c 8a65 a33d d9c0 de3a e902 f03d

down_path.1.block.0.bias f4 [16]
0.051170208 -0.083179474 -0.010702499 0.015898097 0.11038436 0.094082646 0.04734149 -0.0069615077
-0.0014042732 0.032088708 -3.9163383e-06 -0.05499185 0.12822092 0.06425987 -0.00956148 -0.007887257
00000000: da97 513d 005a aabd 8959 2fbc ba3c 823c
00000010: 3211 e23d 67ae c03d 26e9 413d 5c1d e4bb
00000020: 970f b8ba 736f 033d 1769 83b6 223f 61bd
00000030: 584c 033e ae9a 833d c1a7 1cbc 8e39 01bc

down_path.1.block.2.weight f4 [16, 16, 3, 3]
0.0064297076 0.100718394 0.09797645 -0.031115083 0.086063 0.069619596 0.026075466 -0.016431453
0.08492443 -0.032316584 -0.09676801 -0.0998669 -0.014891548 -0.034475062 -0.01714696 -0.07714293
-0.058793675 0.00761743 0.04884317 0.08301748 0.07353967 0.05645073 -0.014165771 0.09373142
-0.00089534617 0.07593769 -0.01651958 0.06564313 0.040404435 0.097908534 0.04759097 -0.042427182
0.07181938 0.023902955 -0.026077114 0.014337052 -0.030363522 0.09192983 0.04670602 0.053379674
0.009564592 0.07011172 0.06866804 -0.0524513 0.07741538 0.048331555 0.042487144 0.07854855
0.024301672 0.08833782 -0.0020245744 -0.05271996 -0.0013249257 0.01615747 0.018520517 -0.01679947
-0.0030017877 0.011863642 -0.0021772662 -0.0065613356 -0.022493236 0.004307872 -0.006153159 0.009056681
0.0077866595 0.0047479887 0.0077450085 0.007841812 0.010434009 0.009501757 0.009328789 0.011054337
-0.020571355 0.035666693 -0.06534695 0.009791256 0.0015040287 0.060776908 -0.03558903 0.08135457
-0.05844375 0.0040382943 -0.00044532074 -0.0023631793 0.00030976217 -0.0009792916 -0.007238991 -0.00018309354
-0.0016939519 -0.0022051919 7.374483e-18 -1.2386034e-16 2.3049532e-17 3.852576e-17 -5.1894165e-17 -1.217759e-16
9.891347e-17 -7.396682e-17 -3.7229586e-16 0.07051738 0.066832125 0.07070854 0.07575321 0.074836284
0.0047739525 0.058139976 0.047292963 -0.02126681 0.07839432 0.034223933 0.048813682 -0.057900347
0.012406406 -0.039717022 0.09246395 -0.020745855 0.07159052 0.019849544 -0.045254797 -0.020599255
-0.065216616 0.06260911 -0.060251188 0.054653887 0.039365303 0.0153967105 0.0018580928 0.0018760306
0.0032577754 0.0012010366 0.0016097582 0.0023634552 0.00252377 0.0023766395 0.0037794819 0.004410731
0.0042203157 0.0045204232 0.004308005 0.0045110215 0.0043299836 0.004342701 0.0044382666 0.0045948788
-0.024825003 -0.044293944 0.031723574 -0.014373086 -0.03336407 -0.03883767 0.014361374 -0.01194393
0.00066554494 -0.01570895 -0.016616067 -0.014445849 -0.013431205 -0.016836448 -0.016926609 -0.00015642219
-0.021732008 -0.013413382 -0.013742561 -0.013280863 -0.013180676 -0.006807195 0.01638553 -0.030890469
-0.009619085 -0.017187357 0.003938525 -0.034738224 -0.030100413 0.016456831 0.00085419696 -0.020007677
-0.001251545 -0.035812076 0.0064834743 0.0034048166 -0.011379899 -0.028879115 -0.033311825 -0.00414558
-0.0016644321 -0.015611911 -0.0031003105 -0.0011187461 -0.0036153113 -0.01104603 -0.012585917 -0.013344839
-0.0035986293 0.009502525 0.0017817465 -0.03205949 -0.014787169 -0.0042956052 -0.029170126 -0.017643005
0.015359315 -0.0001284112 -0.015987841 0.0045640236 0.018175863 -0.010360009 -0.008812316 -0.0063414588
-0.008207823 -0.0068609593 -0.006767906 -0.0075877053 -0.005893111 -0.006335656 -0.006992195 -0.0059301257
-0.04148671 -0.02814342 0.022461282 0.012293371 -0.011785351 -0.012074652 -0.00740382 0.00708872
-0.007040687 0.009801471 0.008751815 0.0080467 0.010304553 0.010286913 0.009057078 0.009689008
0.009792297 0.008785806 -8.2678145e-17 -3.2493207e-14 -1.6562676e-18 -1.1457765e-17 8.857302e-14 -5.060239e-17
6.0056973e-19 -3.1825714e-18 -2.1298064e-17 0.017031612 -0.0028472214 -0.008822294 -0.0017758106 0.012970813
0.008362401 0.032092005 0.025967574 -0.01414419 -0.037025657 -0.017332997 -0.017138517 -0.0022604011
00000000: 4cb0 d23b 7245 ce3d e1a7 c83d 0fe5 febc
00000010: cc41 b03d b894 8e3d 379c d53c 419b 86bc
00000020: dcec ad3d 655e 04bd 4e2e c6bd 0487 ccbd
00000030: aefb 73bc b935 0dbd c877 8cbc 1dfd 9dbd
00000040: a3d1 70bd a29b f93b c70f 483d 1205 aa3d
00000050: f79b 963d e138 673d 8d17 68bc 42f6 bf3d
00000060: aab5 6aba 3885 9b3d 1254 87bc e86f 863d
00000070: 1f7f 253d 4584 c83d c0ee 423d 20c8 2dbd
00000080: 0a16 933d 21d0 c33c ac9f d5bc f4e5 6a3c
00000090: ecbc f8bc b545 bc3d d04e 3f3d a5a4 5a3d
000000a0: ceb4 1c3c bc96 8f3d d4a1 8c3d 2dd7 56bd
000000b0: f48b 9e3d 4ff7 453d 0007 2e3d 10de a03d
000000c0: 4d14 c73c 75ea b43d b9ae 04bb e3f0 57bd
000000d0: 21a9 adba ac5c 843c 57b8 973c 0b9f 89bc
000000e0: a4b9 44bb b95f 423c 77b0 0ebb 7900 d7bb
000000f0: bc43 b8bc 0d29 8d3b 70a0 c9bb 7962 143c
00000100: 3c27 ff3b 0495 9b3b d7c9 fd3b f27a 003c
00000110: 68f3 2a3c 42ad 1b3c c7d7 183c 401d 353c
00000120: 4285 a8bc 3d17 123d 9fd4 85bd 816b 203c
00000130: d422 c53a 35f1 783d cdc5 11bd 3a9d a63d
00000140: b762 6fbd ab53 843b f079 e9b9 92df 1abb
00000150: 9367 a239 935b 80ba 0f35 edbb ccfc 3fb9
00000160: 9807 deba fb84 10bb 0309 0823 1fcd 0ea5
00000170: 2b98 d423 30ab 3124 d151 6fa4 e765 0ca5
00000180: 3514 e424 4e8e aaa4 2c9d d6a5 6b6b 903d
00000190: 48df 883d a4cf 903d 8024 9b3d c443 993d
000001a0: d16e 9c3b 2f24 6e3d 44b6 413d bc37 aebc
000001b0: 348d a03d 652e 0c3d dbf0 473d ea28 6dbd
000001c0: 3d44 4b3c 51ae 22bd bd5d bd3d 36f3 a9bc
000001d0: 0d9e 923d 839b a23c 185d 39bd c5bf a8bc
000001e0: 4a90 85bd 3439 803d f3c9 76bd c1dc 5f3d
000001f0: 833d 213d 7c42 7c3c 408b f33a 24e5 f53a
00000200: 6780 553b 1a6c 9d3a 86fe d23a 33e4 1a3b
00000210: d665 253b 65c1 1b3b 2fb1 773b e587 903b
00000220: 934a 8a3b 0f20 943b 2a2a 8d3b 31d1 933b
00000230: 89e2 8d3b 374d 8e3b e16e 913b a390 963b
00000240: ce5d cbbc 916d 35bd 94f0 013d 187d 6bbc
00000250: c3a8 08bd 4014 1fbd f84b 6b3c 79b0 43bc
00000260: f777 2e3a 0eb0 80bc 6b1e 88bc 48ae 6cbc
00000270: 8f0e 5cbc 97ec 89bc aca9 8abc 4305 24b9
00000280: 5307 b2bc cdc3 5bbc 7b28 61bc fa97 59bc
00000290: c3f3 57bc e40e dfbb f23a 863c 020e fdbc
000002a0: 5e99 1dbc 80cc 8cbc be0e 813b ab49 0ebd
000002b0: 2495 f6bc 7ad0 863c 30ec 5f3a 24e7 a3bc
000002c0: e20a a4ba afaf 12bd 5373 d43b 5823 5f3b
000002d0: c272 3abc e593 ecbc fb71 08bd a5d7 87bb
000002e0: 1329 daba 1ac9 7fbc 942e 4bbb e4a2 92ba
000002f0: dcee 6cbb 68fa 34bc 2935 4ebc 50a4 5abc
00000300: fbd6 6bbb 7bb0 1b3c 7e89 e93a d050 03bd
00000310: e245 72bc 26c2 8cbb 30f6 eebc 1088 90bc
00000320: a3a5 7b3c 1ea6 06b9 eff8 82bc ce8d 953b
00000330: 8ce5 943c 07bd 29bc 8861 10bc 03cc cfbb
00000340: 1b7a 06bc e6d1 e0bb 4fc5 ddbb 49a2 f8bb
00000350: 001b c1bb 569b cfbb c81e e5bb 8051 c2bb
00000360: f8ed 29bd 088d e6bc b900 b83c 236a 493c
00000370: 5817 41bc c3d4 45bc be9b f2bb 7e48 e83b
00000380: 90b5 e6bb 5996 203c c663 0f3c 4ed6 033c
00000390: 6ed4 283c 718a 283c 2364 143c a5be 1e3c
000003a0: df6f 203c 57f2 0f3c 90a4 bea4 1e56 12a9
000003b0: 056c f4a1 c45b 53a3 df72 c729 c25c 69a4
000003c0: c441 3121 13d5 6aa2 a270 c4a3 e185 8b3c
000003d0: 7398 3abb 628b 10bc 51c2 e8ba 8883 543c
000003e0: 7402 093c e872 033d f3b9 d43c 08bd 67bc
000003f0: 37a8 17bd eefd 8dbc 1366 8cbc 3d23 14bb

down_path.1.block.2.bias f4 [16]
0.048457548 0.00821518 -0.061428104 0.08889531 -0.011346926 -0.016746208 -0.0111337025 0.07212639
0.05103028 -0.0030501063 0.0736853 0.04270604 0.066705376 0.049700256 0.08465567 -0.00939859
00000000: 6c7b 463d f698 063c 099c 7bbd bf0e b63d
00000010: 75e8 39bc 582f 89bc 226a 36bc 00b7 933d
00000020: 2005 513d 4be4 47bb 52e8 963d 87ec 2e3d
00000030: d49c 883d 7f92 4b3d f45f ad3d 8bfc 19bc

down_path.2.block.0.weight f4 [32, 16, 3, 3]
-0.03862077 -0.03219088 -0.045587886 -0.03806009 -0.021981934 -0.029359573 -0.038442712 -0.028931813
-0.02327645 1.1424148e-09 1.6121081e-08 3.5281595e-08 -3.0904765e-09 1.0553795e-08 2.9222447e-08 1.31370895e-11
-1.4620397e-11 1.4105704e-09 0.06772197 0.064360976 0.06789045 0.067795716 0.064798005 0.066628575
0.07194346 0.070752464 0.071741395 -0.022053415 -0.01624976 -0.0053230263 -0.019470036 -0.013332062
-0.01825185 -0.026677959 -0.02097156 -0.032718036 -2.8447443e-13 1.161312e-12 1.3891522e-12 -2.4128583e-12
1.3822025e-11 -2.94667e-12 -1.7243793e-12 -8.762162e-12 -4.1238883e-12 1.4577123e-09 2.3082873e-09 1.1047746e-09
-1.0546461e-09 -1.7769447e-09 -9.522073e-10 2.4801672e-09 -5.99067e-11 1.0451132e-09 -1.805446e-13 7.1756647e-13
-1.4764427e-12 -5.0748587e-13 -4.6208766e-12 -7.697856e-13 4.597428e-12 3.1199956e-12 5.227097e-12 -0.026546156
-0.021491745 -0.026379501 -0.021022556 -0.016097125 -0.024780465 -0.028655473 -0.009020425 -0.023639854
-0.030023852 -0.025771499 -0.03558827 -0.023887685 -0.020866187 -0.028766263 -0.019863952 -0.030206725
-0.03342722 -4.4499352e-21 8.512431e-21 1.2288332e-21 -7.9982094e-19 -1.0400047e-18 -1.2594032e-18 -6.556612e-19
7.9694427e-19 1.6165213e-18 -0.0407831 -0.01026283 -0.02696983 -0.024008153 -0.022096457 -0.03549214
-0.03215837 -0.022671511 -0.02243267 -0.012905962 -0.01995801 -0.025383359 -0.009108053 -0.014666305
-0.014789074 -0.024770169 -0.020454632 -0.036101926 -0.034280848 -0.028081212 -0.03272666 -0.04203317
-0.012576773 -0.016522137 -0.03429206 -0.030352302 -0.031135518 -0.027784593 -0.028158689 -0.01997988
-0.040287018 -0.017714312 -0.025485512 -0.027256329 -0.024353154 -0.02922015 -0.033827476 -0.040187664
-0.026704798 -0.009685816 -0.015801447 -0.022324046 -0.02411907 -0.022969818 -0.026830696 4.1302594e-14
1.9623445e-13 -6.3439325e-15 1.5733253e-12 -1.2280747e-12 -1.6642903e-12 -1.2697547e-12 1.3303414e-12 1.8189192e-13
-0.007198998 -0.008352192 -0.006285064 -0.0072460966 -0.007085083 -0.0071289097 -0.007089329 -0.00694739
-0.0071225325 -6.3568354e-19 4.630355e-19 -1.8920694e-18 -2.1815002e-19 7.896813e-19 -9.9711434e-20 -2.3163577e-21
-1.2857861e-15 -4.0291085e-22 1.2707176e-07 1.9146796e-07 8.764251e-08 2.8554857e-07 2.0245965e-07 2.2789595e-07
1.06021524e-07 6.445403e-08 5.619207e-08 -0.005860673 -0.0058390396 -0.006733595 -0.005839845 -0.005796296
-0.005524906 -0.005808403 -0.005797263 -0.0054364665 -2.6398802e-19 2.3127124e-23 -8.7483815e-24 7.114393e-25
3.9096257e-25 1.673091e-17 1.5639696e-24 2.1122986e-19 -2.9817626e-23 1.6951014e-19 3.872468e-18 -4.710342e-20
8.212652e-19 -7.4744186e-14 3.1685233e-19 9.662936e-19 -1.4865238e-18 -5.7190907e-15 -5.517302e-16 2.259216e-15
-9.847457e-24 4.0469398e-25 2.1266823e-19 1.314436e-20 -3.011639e-24 -5.878014e-19 -3.308999e-21 -0.0065908046
-0.00659941 -0.006605039 -0.006801127 -0.0055932435 -0.006522223 -0.0065449527 -0.006409898 -0.0065626535
-0.006464581 -0.006470969 -0.0075867814 -0.0064210147 -0.006246793 -0.006305507 -0.006538546 -0.005882882
-0.006402155 6.6454536e-26 -1.7566159e-25 2.2779579e-26 8.6842086e-17 -1.2090305e-25 8.521445e-26 1.3204804e-25
-9.9591834e-26 -1.9193327e-24 -0.006644613 -0.0057916697 -0.005828273 -0.0056425664 -0.005805735 -0.0057345713
-0.0064021656 -0.005240878 -0.0058101006 -0.0046807425 -0.0047220304 -0.004684704 -0.0046351645 -0.0045726313
-0.0046186913 -0.0046193227 -0.00468523 -0.0046673943 -0.0069773067 -0.006956136 -0.0069685653 -0.006898406
00000000: d030 1ebd 96da 03bd 5dba 3abd e6e4 1bbd
00000010: 7513 b4bc 7d83 f0bc 1b76 1dbd 6902 edbc
00000020: 41ae bebc 2603 9d30 a27a 8a32 8688 1733
00000030: 3d60 54b1 1550 3532 d704 fb32 311c 672d
00000040: 359a 80ad 09de c130 d1b1 8a3d b0cf 833d
00000050: 260a 8b3d 7bd8 8a3d d1b4 843d 9074 883d
00000060: 1857 933d abe6 903d 27ed 923d 5da9 b4bc
00000070: 371e 85bc c86c aebb a07f 9fbc b96e 5abc
00000080: e784 95bc bc8b dabc 8dcc abbc 5903 06bd
00000090: 1625 a0aa ad70 a32b 7c81 c32b 31ca 29ac
000000a0: de28 732d 7d5a 4fac 50af f2ab 4525 1aad
000000b0: af18 91ac b158 c830 d29f 1e31 cdd6 9730
000000c0: 10f3 90b0 af38 f4b0 d1de 82b0 906f 2a31
000000d0: 79bc 83ae a7a3 8f30 7046 4baa 1dfa 492b
000000e0: 74ca cfab 36d8 0eab 2895 a2ac e6ac 58ab
000000f0: f3c1 a12c d88c 5b2c 81e9 b72c 5377 d9bc
00000100: 750f b0bc d319 d8bc 7f37 acbc 1ede 83bc
00000110: 6700 cbbc e2be eabc 68ca 13bc 5ea8 c1bc
00000120: 95f4 f5bc c01e d3bc 01c5 11bd 1bb0 c3bc
00000130: 91ef aabc 3aa7 ebbc bab9 a2bc 1874 f7bc
00000140: fbea 08bd 221d a89d 97cb 201e 2fb2 b91c
00000150: c310 6ca1 447a 99a1 e8da b9a1 5c84 41a1
00000160: 6837 6b21 738e ee21 2e0c 27bd 6e25 28bc
00000170: d5ef dcbc bfac c4bc a103 b5bc 3560 11bd
00000180: 7fb8 03bd 9bb9 b9bc b8c4 b7bc 8773 53bc
00000190: fb7e a3bc c3f0 cfbc f139 15bc f14a 70bc
000001a0: df4d 72bc cfea cabc 7990 a7bc 9ddf 13bd
000001b0: 136a 0cbd 920a e6bc 640c 06bd f92a 2cbd
000001c0: cf0e 4ebc 6f59 87bc d575 0cbd 64a5 f8bc
000001d0: ea0f ffbc 849c e3bc 0dad e6bc d8ac a3bc
000001e0: 0004 25bd 9b1d 91bc fec6 d0bc aa48 dfbc
000001f0: 4480 c7bc 195f efbc ae8e 0abd d29b 24bd
00000200: 05c4 dabc 42b1 1ebc 0972 81bc ebe0 b6bc
00000210: 5b95 c5bc 332b bcbc 0ccc dbbc a602 3a29
00000220: bbf0 5c2a 7390 e4a7 056d dd2b 0ed6 acab
00000230: 613a eaab bcb3 b2ab 9a3a bb2b c7ca 4c2a
00000240: 92e5 ebbb a2d7 08bc f0f2 cdbb aa70 edbb
00000250: fc29 e8bb a199 e9bb 9a4d e8bb eea6 e3bb
00000260: 2264 e9bb e49e 3ba1 f9a9 0821 2e9c 0ba2
00000270: e6c5 80a0 a212 6921 dd6f eb9f e004 2f9d
00000280: 224d b9a6 6f8b f39b 3871 0834 5096 4d34
00000290: fb35 bc33 7f4d 9934 af63 5934 90b3 7434
000002a0: f3ad e333 fa69 8a33 d657 7133 e30a c0bb
000002b0: 6a55 bfbb 7da5 dcbb 2c5c bfbb dbee bdbb
000002c0: 450a b5bb 6a54 bebb f7f6 bdbb 6324 b2bb
000002d0: bed4 9ba0 fcab df19 e337 2999 072e 5c17
000002e0: 7efe f116 bf50 9a23 3803 f217 4f60 7920
000002f0: 6f30 109a 4c1f 4820 6dde 8e22 8a70 5e9f
00000300: 0b65 7221 174f a8a9 5f09 bb20 8a99 8e21
00000310: 485f dba1 4d0d cea7 8106 1fa6 2ecb 2227
00000320: 3f7a 3e99 527e fa16 0713 7b20 3a4a 781e
00000330: a803 6998 057d 2da1 5905 7a9d adf7 d7bb
00000340: dd3f d8bb 156f d8bb fddb debb 8747 b7bb
00000350: 5fb8 d5bb 0b77 d6bb 1f0a d2bb 870b d7bb
00000360: d6d4 d3bb 6c0a d4bb 899a f8bb 6067 d2bb
00000370: e6b1 ccbb 6d9e cebb 4d41 d6bb 31c5 c0bb
00000380: 2bc9 d1bb 9188 a415 6175 5996 1899 e114
00000390: 853e c824 b5ab 1596 13fb d215 b277 2316
000003a0: d393 f695 4d80 1498 0ebb d9bb 0cc8 bdbb
000003b0: 19fb bebb 47e5 b8bb 093e bebb 12e9 bbbb
000003c0: 42c9 d1bb acbb abbb a862 bebb ea60 99bb
000003d0: 43bb 9abb 2582 99bb 94e2 97bb 03d6 95bb
000003e0: 6458 97bb b05d 97bb 8f86 99bb f1f0 98bb
000003f0: e4a1 e4bb 4cf0 e3bb 9058 e4bb 060c e2bb

down_path.2.block.0.bias f4 [32]
-0.00058372377 -0.007902775 0.06530283 0.019336933 0.040057674 0.0823489 -0.003348756 0.03527688
0.032309964 0.073504634 -0.011384104 -0.010730304 -0.03293066 -0.00018963998 -0.06723272 0.07414358
0.010579852 0.017203301 0.059398502 -0.0034856014 -0.018881127 -0.0011364283 6.6272364e-06 0.065015644
-0.0115870135 0.020839857 0.06594307 -0.0048003946 -0.008912097 -0.0054350602 -3.7735735e-14 -0.0073908567
00000000: 0a05 19ba a47a 01bc 7dbd 853d 7d68 9e3c
00000010: 8413 243d 8aa6 a83d ce76 5bbb 7d7e 103d
00000020: 7457 043d 9989 963d 6584 3abc 28ce 2fbc
00000030: 4de2 06bd 18da 46b9 4fb1 89bd 97d8 973d
00000040: 1e57 2d3c f0ed 8c3c d84b 733d b06e 64bb
00000050: 98ac 9abc 35f4 94ba 875f de36 ec26 853d
00000060: 75d7 3dbc 59b8 aa3c 290d 873d a14c 9dbb
00000070: 0b04 12bc 9718 b2bb 57f2 29a9 002f f2bb

down_path.2.block.2.weight f4 [32, 32, 3, 3]
-0.004572474 -0.0035229984 -0.0040061665 -0.005003577 -0.0042040898 -0.005282623 -0.007224364 -0.0067466325
-0.007437627 2.1972624e-24 -8.656718e-25 3.0038278e-22 -1.0519544e-25 2.3253198e-21 1.1275807e-21 -4.4795584e-26
4.5481605e-21 -6.2988624e-21 0.00021221254 -0.0011671727 -0.0011843066 -0.0009896066 -0.0015768367 -0.0008071944
-0.00085749244 -0.0006461567 -0.00078612176 -0.0029213848 -0.0028436335 -0.003941306 -0.002538967 -0.0026838826
-0.0063974657 -0.0027371102 -0.0028913273 -0.0068077976 -0.0037334363 -0.0031955517 -0.0040266966 -0.004310922
-0.0039089127 -0.004776126 -0.006082897 -0.0057726735 -0.0065295193 0.008898034 -0.019486342 -0.001865936
-0.012496456 -0.0016270751 -0.008625817 0.0010686808 0.0013184814 0.012420795 1.6403465e-25 -1.08790236e-26
1.0078771e-21 1.5517742e-22 -2.1150185e-24 -1.1100243e-21 2.1325657e-24 -6.556901e-22 -1.0575874e-20 -0.0036081546
-0.0034324918 -0.0030080096 -0.003763799 -0.0035557775 -0.003579096 -0.0052538784 -0.0049443636 -0.0052504623
-0.0017550078 -0.0018269544 -0.001310456 -0.00082464586 -0.000977603 0.00010240946 -0.0069104433 -0.000252538
-0.0047602304 -0.0010179897 -0.004126762 -0.0010536005 -0.000388485 -0.0005681579 -0.00060852064 0.0077785933
-0.010154893 0.003579939 -0.004112354 -0.0034895118 -0.0037018687 -0.0044318154 -0.00389731 -0.0046294318
-0.005856647 -0.005358077 -0.005924085 -5.238229e-26 -4.1378238e-23 -4.4799105e-25 8.124852e-26 -4.6940367e-24
2.2780806e-24 1.3348882e-25 -3.5951837e-23 -2.6967338e-24 -0.0047930107 -0.016004276 -0.014993425 -0.015751293
-0.0017860157 -0.0008471269 -0.0008768568 0.014496397 -0.0035770668 -4.594507e-26 7.001e-27 -1.5013135e-26
6.472462e-21 -6.6008544e-21 -1.4147587e-24 1.1521868e-22 4.881001e-25 1.6078821e-24 -0.0016973279 -0.008964921
-0.001326871 0.0033213897 -0.004732063 -0.014647004 -0.0011618071 -0.0005038686 -0.00036561958 -0.0077022
0.006481398 0.00662077 2.319588e-05 -0.0097116595 -0.0007856316 -0.0006419557 -0.00047997 -0.00032935597
-0.0051286602 -0.0036165616 -0.003805993 -0.0053018625 -0.0042946334 -0.004480587 -0.006701198 -0.0060567944
-0.0065069227 -0.0092156 -0.00183994 -0.014052494 -0.0043396614 0.0017133394 -0.00072139024 0.008075615
0.0023893556 0.0145649295 -0.0020380192 -0.00200081 -0.0065572136 -0.0005224589 -0.02092537 -0.0007109045
-0.00059610564 -0.007893294 0.001356891 -2.6703615e-25 1.2209965e-20 -1.0594539e-25 4.681481e-25 -7.2439066e-21
6.96244e-24 6.7944234e-22 1.6502278e-21 5.7656636e-26 -0.0031231074 2.2923386e-05 -0.0019098724 -0.0009823987
0.006518156 0.00035588435 -0.000699021 -0.00016892827 -0.0003401846 -1.85672e-22 -4.7332544e-23 -1.3243862e-21
6.1424363e-25 -7.454974e-23 1.8862505e-22 -1.9277612e-25 -1.1744095e-22 1.5908671e-22 -8.9833286e-26 4.5882093e-25
2.3894626e-24 -1.3778745e-26 -1.3012513e-23 1.04010545e-23 -1.904656e-26 1.0111712e-24 -1.4242134e-23 0.00088917144
-0.0018681792 0.0026621732 -0.013358351 -0.0006523465 -0.007123563 -0.0010589649 -0.00090323045 0.0050979955
2.0595986e-23 6.335661e-25 -7.296477e-24 9.027611e-25 -8.976507e-22 -5.0101033e-21 3.9785665e-25 -1.0119399e-20
8.235926e-21 -0.0036480536 -0.0031381173 -0.0033253715 -0.0038230824 -0.0033619653 -0.0035927405 -0.0052974154
-0.004932301 -0.0054014786 -0.001005032 -0.0016427593 0.0143657625 -0.0011756727 -0.0011083317 -0.00699606
-0.0068583703 -0.0058740163 -0.0009390286 -2.5855732e-25 3.7810952e-23 -4.4674507e-24 1.9424955e-23 -9.317868e-24
1.5202408e-23 1.2914004e-25 -5.9147836e-24 -4.459724e-22 -0.0022349074 -0.010754405 -0.0012665906 -0.001317134
00000000: b1d4 95bb 1be2 66bb 2946 83bb 0cf5 a3bb
00000010: 76c2 89bb db19 adbb 5cba ecbb db12 ddbb
00000020: 56b7 f3bb 4401 2a18 cbf4 8597 fc91 b51b
00000030: c439 0296 3ab2 2f1d 2a65 aa1c 26d1 5d95
00000040: 1cd3 ab1d dcf6 ed9d 5f85 5e39 d1fb 98ba
00000050: bc3a 9bba b0b5 81ba dcad ceba e699 53ba
00000060: 58c9 60ba d862 29ba bd13 4eba b474 3fbb
00000070: 415c 3abb 1226 81bb cc64 26bb 14e4 2fbb
00000080: d5a1 d1bb 1761 33bb 6c7c 3dbb f213 dfbb
00000090: abac 74bb 766c 51bb 61f2 83bb a342 8dbb
000000a0: 5616 80bb 0c81 9cbb 0a53 c7bb b228 bdbb
000000b0: 94f5 d5bb 0fc9 113c d2a1 9fbc 6c92 f4ba
000000c0: efbd 4cbc 9543 d5ba 4c53 0dbc fa12 8c3a
000000d0: e5d0 ac3a 9780 4b3c a810 4b16 347b 5794
000000e0: 5b4e 981c 1699 3b1b 42a4 2398 fcbd a79c
000000f0: d1ff 2418 902b 469c cac5 479e ca76 6cbb
00000100: a8f3 60bb 0722 45bb 12aa 76bb 0c08 69bb
00000110: 448f 6abb ba28 acbb 5404 a2bb 120c acbb
00000120: 4a08 e6ba 6b76 efba 9bc3 abba 0c2d 58ba
00000130: ea22 80ba a9c4 d638 0071 e2bb 1467 84b9
00000140: b5fb 9bbb 116e 85ba ca39 87bb f718 8aba
00000150: 93ad cbb9 6ef0 14ba 2185 1fba 92e3 fe3b
00000160: b560 26bc 699d 6a3b edc0 86bb 4bb0 64bb
00000170: 0d9b 72bb c338 91bb 036a 7fbb 7db2 97bb
00000180: 1ee9 bfbb cf92 afbb d41e c2bb 38b1 8195
00000190: c717 489a 82a5 0a97 5e29 c915 7d97 b598
000001a0: 0942 3018 4c40 2516 38da 2d9a 51a6 5098
000001b0: b00e 9dbb 661b 83bc fca6 75bc db08 81bc
000001c0: be18 eaba b911 5eba dddc 65ba 4c82 6d3c
000001d0: 396d 6abb 4c82 6395 4aab 0a14 d2ae 9494
000001e0: d085 f41d 8c5f f99d 5eec da97 744a 0b1b
000001f0: 460f 1717 c6ce f817 e078 deba 9be1 12bc
00000200: 67ea adba acab 593b 6c0f 9bbb fdf9 6fbc
00000210: c747 98ba 0d16 04ba a1b0 bfb9 bd62 fcbb
00000220: e861 d43b 0bf3 d83b c694 c237 a71d 1fbc
00000230: d8f2 4dba eb48 28ba 7ca4 fbb9 69ad acb9
00000240: 520e a8bb d603 6dbb f76d 79bb 3fbb adbb
00000250: ffb9 8cbb e3d1 92bb b995 dbbb 1378 c6bb
00000260: 0638 d5bb 07fd 16bc 242a f1ba 6f3c 66bc
00000270: b833 8ebb 2192 e03a ae1b 3dba 964f 043c
00000280: bc96 1c3b bea1 6e3c 4a90 05bb 0620 03bb
00000290: e5dd d6bb a0f5 08ba ae6b abbc fe5b 3aba
000002a0: f943 1cba e052 01bc b5d9 b13a 9149 a596
000002b0: c5a3 661e 6f27 0396 84e2 1017 62d5 089e
000002c0: 55ac 0619 4e59 4d1c 1960 f91c 3cc0 8e15
000002d0: 0cad 4cbb 994b c037 af54 faba d5c3 80ba
000002e0: 4196 d53b fd95 ba39 813e 37ba 5622 31b9
000002f0: ce5a b2b9 b376 609b dae2 649a b622 c89c
00000300: 6519 3e17 0e40 b49a a008 641b 31a5 6e96
00000310: 37fa 0d9b f452 401b 9c6a de95 8aff 0d17
00000320: 2fe0 3818 4575 8894 d8b2 7b99 872f 4919
00000330: c4a0 bc94 9e78 9c17 d1bd 8999 4917 693a
00000340: b1dd f4ba db77 2e3b fcdc 5abc 3c02 2bba
00000350: c76c e9bb f7cc 8aba c5c6 6cba 160d a73b
00000360: 3131 c719 4714 4417 6722 0d99 0db2 8b17
00000370: 2ea6 879c bf46 bd9d e742 f616 6926 3f9e
00000380: 7f92 1b1e 2f14 6fbb dfa8 4dbb 7aee 59bb
00000390: ae8c 7abb 6b54 5cbb 2f74 6bbb f195 adbb
000003a0: 249f a1bb e3fe b0bb 47bb 83ba db51 d7ba
000003b0: 605e 6b3c 0819 9aba 7145 91ba 343f e5bb
000003c0: 2ebc e0bb d27a c0bb 2529 76ba 0b0a a096
000003d0: b1d7 361a 7dd3 ac98 dcdd bb19 d93b 3499
000003e0: 5707 9319 1dde 1f16 2ed1 e498 71c9 069c
000003f0: 8677 12bb 3e33 30bc ba03 a6ba afa3 acba

down_path.2.block.2.bias f4 [32]
-0.0024681932 0.06802223 0.013545262 -0.024740944 0.06755681 0.0031869577 0.027932305 0.059418913
0.04512149 -0.02296563 -0.0026509569 0.06946337 -0.012492727 0.02875271 -0.009923261 0.023670355
0.06347903 -0.01335457 0.030215913 -0.004881816 -0.0040197396 0.026472028 -0.008104761 0.034143705
-0.0048195045 -0.0044142976 -0.003816358 -8.368253e-08 0.025525555 -0.00027176662 -0.010674766 0.008119298
00000000: 69c1 21bb 3d4f 8b3d f2ec 5d3c 85ad cabc
00000010: 3a5b 8a3d 47dc 503b 4ad2 e43c 3f61 733d
00000020: 50d1 383d 6b22 bcbc adbb 2dbb d042 8e3d
00000030: 4bae 4cbc ce8a eb3c 2c95 22bc 55e8 c13c
00000040: 4b01 823d 20cd 5abc 5d87 f73c a4f7 9fbb
00000050: 05b8 83bb dedb d83c d5c9 04bc 45da 0b3d
00000060: efec 9dbb d0a5 90bb dd1b 7abb f5b4 b3b3
00000070: f81a d13c e67b 8eb9 37e5 2ebc ce06 053c

down_path.3.block.0.weight f4 [64, 32, 3, 3]
0.0031303389 0.00035262635 0.00020632753 0.00045404874 0.00057926663 0.00066858355 0.0006758985 0.00057886436
0.0006504122 -0.009008067 0.02327678 -0.03563706 0.019820508 0.004384359 0.0330189 -0.008746043
-0.007137218 -0.006485842 0.025056424 -0.022431558 -0.019613072 0.02845543 -0.033081427 0.041719105
0.0034600268 0.016579773 -0.036578514 3.907867e-05 8.63331e-06 9.677498e-05 8.30925e-06 -6.245923e-05
-1.3831136e-05 -0.00010093753 -1.2754353e-05 1.1153155e-05 0.02224584 -0.028612437 -0.04278381 0.026017062
-0.007138098 0.033760425 -0.04092631 0.00025597218 -0.0007020003 -0.0021727225 -0.0020854801 -0.0009470926
-0.0006023734 -0.0009789835 0.0004098891 0.0006115371 0.0011162605 2.2436412e-05 -0.004240477 -0.0035745094
-0.0055698277 -0.0036638384 -0.0034018634 -0.004274513 -0.038403396 -0.04826804 -0.00716536 -0.008254958
-0.03414769 -0.023515923 -0.0077218506 -0.049060017 -0.036671713 -0.009524941 -0.0050149257 0.0005304546
-0.0070276945 -0.011416338 0.030398164 0.03126465 -0.04434814 0.0057886564 -0.015047022 -0.018257454
-0.028529221 -0.008687583 0.008908057 -0.0041939067 -0.040032733 0.036094263 0.028317532 0.007213117
0.036868345 -0.012564776 -5.2101417e-13 6.736949e-13 -6.743562e-13 -7.988507e-14 3.2217393e-14 7.061718e-13
-6.2105003e-13 5.142362e-13 6.6248683e-13 0.016973091 -0.028834071 0.017369162 -0.0015886597 0.044091843
0.020908011 -0.010576082 -0.030333184 0.015716888 0.00011598195 0.003943017 0.012995694 -0.020550495
-0.026567606 -0.025782928 -0.019656159 0.022551255 -0.0012866958 -0.0065799416 -0.0059283907 -0.0070510744
-0.038232714 -0.027467912 -0.003850965 -0.031233475 -0.026481956 -0.0023567046 -5.82687e-12 2.4840725e-11
-4.881663e-11 -6.878294e-11 2.202903e-11 1.3699854e-11 -1.3473352e-11 -6.1706584e-11 1.7699205e-11 -0.0027468004
0.0024426084 -0.002727206 -0.002524026 -0.011072725 -0.0018178135 -0.016967863 -0.008855682 -0.0020279079
-0.014130478 -0.04369711 0.0213049 -0.009269277 -0.007016367 -0.006438327 -0.0014218491 -0.008721436
0.025100954 0.00024471097 0.00049542094 0.00024143959 0.0006693623 0.00017270185 0.0002548212 2.2644328e-05
0.00074431044 -0.00020142076 -0.035150874 0.040692974 -0.013983109 0.04061583 -0.003330091 0.0036130373
-0.004985081 0.024944292 0.028937975 -0.00079029205 -0.0012271208 -0.0012689002 -0.0014377125 -0.0009875651
-0.0009290557 0.0022618363 -0.0030774346 -0.0011196515 -0.001946258 -0.0021250513 0.0006874334 -0.0019512201
-0.001980443 -0.0063728285 -0.0021868115 -0.003517169 -0.00210676 -0.008808371 -0.007938128 -0.011396096
-0.009620313 -0.009180827 -0.013354045 -0.01010294 -0.0090906685 -0.012427766 -0.0034425226 0.02506606
-0.017230902 0.0012903376 -0.0042200647 -0.004748836 -0.0034439482 -0.02570024 -0.019895375 -0.0067263646
-0.005271305 -0.013119294 -0.0064477976 0.01026519 3.3018061e-06 -0.0106433695 0.028391052 -0.0042600855
0.009163149 0.0024235998 -0.0036737586 -0.00011625517 0.023813384 -0.004179152 0.0029552474 0.008148822
-0.003122009 9.1246655e-27 -5.208806e-22 2.6400082e-24 -1.7699039e-26 2.8816193e-22 1.4516394e-25 -3.8645333e-21
-3.967141e-20 -2.8393596e-25 5.889006e-15 5.270591e-15 -3.6002013e-15 -2.2906227e-16 1.3370052e-15 1.2323384e-15
6.808182e-15 7.714124e-15 -7.618555e-15 -2.3197794e-24 7.488155e-20 -4.495709e-20 -4.904837e-20 3.363207e-24
1.31044925e-20 -2.267301e-25 -4.1562434e-24 3.1991036e-25 0.038285766 0.022168437 0.02031601 0.036011558
00000000: 5f26 4d3b b5e0 b839 a059 5839 640d ee39
00000010: edd9 173a e243 2f3a c82e 313a eebe 173a
00000020: 6d80 2a3a 9296 13bc f2ae be3c 2af8 11bd
00000030: 9e5e a23c abaa 8f3b d33e 073d 904b 0fbc
00000040: 53df e9bb 3087 d4bb 2143 cd3c 63c2 b7bc
00000050: 98ab a0bc 5d1b e93c 6480 07bd a7e1 2a3d
00000060: 9ec1 623b 4ed2 873c 5ad3 15bd 67e8 2338
00000070: c9d7 1037 acf3 ca38 f567 0b37 8bfc 82b8
00000080: 470c 68b7 6cae d3b8 87fb 55b7 701e 3b37
00000090: e83c b63c a164 eabc 143e 2fbd bc21 d53c
000000a0: b5e6 e9bb 5f48 0a3d 59a2 27bd 0134 8639
000000b0: 7106 38ba 3c64 0ebb 8dac 08bb 4f46 78ba
000000c0: 98e8 1dba 3c51 80ba 62e6 d639 8f4f 203a
000000d0: 7d4f 923a d435 bc37 b3f3 8abb 5142 6abb
000000e0: 1a83 b6bb 021d 70bb ccf1 5ebb 3711 8cbb
000000f0: e14c 1dbd b5b4 45bd 65cb eabb ce3f 07bc
00000100: 73de 0bbd 77a4 c0bc 9407 fdbb 28f3 48bd
00000110: 1435 16bd 800e 1cbc 3f54 a4bb 350e 0b3a
00000120: 9348 e6bb 980b 3bbc 9205 f93c 5d0f 003d
00000130: 65a6 35bd c5ae bd3b c987 76bc a890 95bc
00000140: 1db6 e9bc 5d56 0ebc 19f3 113c 0a6d 89bb
00000150: 5df9 23bd 94d7 133d 2bfa e73c 035c ec3b
00000160: 4303 173d 7edc 4dbc 07a7 12ab d5a0 3d2b
00000170: 7cd0 3dab 9ce2 b3a9 2018 1129 0ac5 462b
00000180: 5fcf 2eab a0be 102b 3579 3a2b 270b 8b3c
00000190: 6e35 ecbc c649 8e3c 933a d0ba a699 343d
000001a0: 4747 ab3c 4e47 2dbc 4c7d f8bc b4c0 803c
000001b0: 563b f338 6d34 813b e4eb 543c 8359 a8bc
000001c0: 4fa4 d9bc b836 d3bc f405 a1bc 69bd b83c
000001d0: 59a6 a8ba 8d9c d7bb f242 c2bb b30c e7bb
000001e0: e899 1cbd 6304 e1bc 7960 7cbb 58dd ffbc
000001f0: b0f0 d8bc f172 1abb c703 cdac 5780 da2d
00000200: a4b2 56ae 5a41 97ae f7c4 c12d a802 712d
00000210: 9506 6dad b8b1 87ae 11af 9b2d aa03 34bb
00000220: 2b14 203b edba 32bb 216a 25bb 606a 35bc
00000230: b343 eeba 3000 8bbc 6c17 11bc a6e6 04bb
00000240: 8583 67bc befb 32bd 9d87 ae3c 2ade 17bc
00000250: 8de9 e5bb 9af8 d2bb 575d baba 5be4 0ebc
00000260: 84a0 cd3c 8d4c 8039 23df 013a f22a 7d39
00000270: 2578 2f3a 4d17 3539 8699 8539 53f4 bd37
00000280: d41d 433a 7934 53b9 5dfa 0fbd adad 263d
00000290: 6919 65bc c95c 263d a83d 5abb b5c8 6c3b
000002a0: e459 a3bb f957 cc3c 550f ed3c 9a2b 4fba
000002b0: 57d7 a0ba 3a51 a6ba a071 bcba 3071 81ba
000002c0: df8b 73ba 513b 143b c9ae 49bb 45c1 92ba
000002d0: 9519 ffba 7244 0bbb e034 343a 15c0 ffba
000002e0: 52ca 01bb 29d3 d0bb 9c50 0fbb 4e80 66bb
000002f0: 9111 0abb fc50 10bc ec0e 02bc b1b6 3abc
00000300: 849e 1dbc 2e6b 16bc edca 5abc cd86 25bc
00000310: 07f1 14bc d49d 4bbc f29b 61bb 5657 cd3c
00000320: d227 8dbc 8c20 a93a 7848 8abb 209c 9bbb
00000330: ddb3 61bb 4f89 d2bc a0fb a2bc d668 dcbb
00000340: e9ba acbb 4ff2 56bc 0c48 d3bb 542f 283c
00000350: 9994 5d36 8761 2ebc 5a94 e83c 3098 8bbb
00000360: 0821 163c 42d5 1e3b 71c3 70bb 05ce f3b8
00000370: 4914 c33c 45f1 88bb d3ac 413b a382 053c
00000380: 9f9a 4cbb 8dbb 3414 2f6d 1d9c c042 4c18
00000390: 6548 af94 e62e ae1b 4ab4 3316 79ff 919d
000003a0: cb57 3b9f 73bf af96 7e2c d427 9fe4 bd27
000003b0: ffb5 81a7 a00b 84a5 c9ae c026 4399 b126
000003c0: 654a f527 1ef7 0a28 623e 09a8 f77b 3398
000003d0: 1fcf b01f c94d 549f d79f 679f 971b 8218
000003e0: 7089 771e d256 8c96 71c9 a098 d203 c616
000003f0: 89d1 1c3d 959a b53c c36d a63c db80 133d

down_path.3.block.0.bias f4 [64]
0.0144419735 -0.040532194 -0.0046152542 -0.0015087677 -0.040525768 -0.008887311 0.018872887 -2.3158249e-05
0.04817833 -0.00025157194 0.029123059 -0.00033414247 -0.021952972 0.031403944 -0.015499815 -0.01010153
-0.0012794144 0.0676307 -1.8993761e-07 -1.7213134e-07 -0.00086859846 -0.014363678 -2.0552457e-12 0.05897477
0.05592101 -4.7301328e-05 -0.02532923 0.03392339 -0.0002300372 0.041730303 0.031299062 -0.0011238327
0.050333615 -2.666079e-05 0.024587538 -0.008661047 -0.008656949 0.06501583 0.014924777 0.019933628
0.049885955 0.05425357 -0.045489173 0.042470988 0.06899843 0.04697182 -0.023253556 0.027669467
-0.0020604697 -0.031640843 -2.9695138e-10 -0.024542024 -5.8240952e-05 -0.029458638 -0.0003134979 0.05582002
-0.0005575805 -0.0031701426 0.008725254 -0.003100058 0.05225506 0.03261492 -0.022925287 -5.9412047e-05
00000000: 079e 6c3c 1605 26bd 8f3b 97bb d8c1 c5ba
00000010: 59fe 25bd 169c 11bc 509b 9a3c f643 c2b7
00000020: a456 453d 6ae5 83b9 7b93 ee3c d82f afb9
00000030: b8d6 b3bc 6ca1 003d f0f2 7dbc e380 25bc
00000040: 06b2 a7ba f781 8a3d a7f1 4bb4 1ad3 38b4
00000050: a8b2 63ba a255 6bbc 04a0 10ac 878f 713d
00000060: 6e0d 653d 6a65 46b8 3f7f cfbc 41f3 0a3d
00000070: 2436 71b9 65ed 2a3d 7233 003d 914d 93ba
00000080: 9f2a 4e3d 9ca5 dfb7 ce6b c93c 10e7 0dbc
00000090: e0d5 0dbc 0527 853d 0d87 743c d94b a33c
000000a0: 3755 4c3d fe38 5e3d db52 3abd 0ff6 2d3d
000000b0: 0d4f 8d3d 8665 403d 3e7e bebc 14ab e23c
000000c0: f208 07bb d499 01bd 3140 a3af 5b0c c9bc
000000d0: bf47 74b8 3e53 f1bc fa5c a4b9 89a3 643d
000000e0: 982a 12ba 2bc2 4fbb 5ef4 0e3c 582a 4bbb
000000f0: 6709 563d 3997 053d d0cd bbbc 3331 79b8
