weights/old/unet-test12.pt (torch_old, 478380 bytes, 92 tensors)

down_path.0.block.0.weight f4 [8, 3, 3, 3]
-1.1597e-41 -1.5933e-41 -1.4604e-41 8.062e-42 1.418e-41 4.323e-42 8.21e-43 -5.943e-42
-9.739e-42 7.291e-42 7.362e-42 9.286e-42 -4.916e-42 -7.182e-42 1.2103e-41 1.3252e-41
3.604e-42 4.81e-42 5.183e-42 3.349e-42 -9.75e-42 6.34e-42 -1.4404e-41 1.756e-42
1.717e-41 1.4299e-41 7.577e-42 0.1087923 0.067198426 -0.35355577 0.11823636 -0.11593157
-0.32787368 -0.30344093 -0.32799715 -0.5028234 -0.039494995 -0.07777463 -0.27763918 -0.09448931
-0.25895452 -0.35810643 -0.2536891 -0.4316601 -0.15064433 0.9029005 0.6670286 0.41849676
0.7020268 0.44223744 0.51847476 0.48114955 0.5100733 0.42909667 -3.971e-42 -4.036e-42
1.376e-41 6.97e-42 -2.76e-42 1.424e-42 3.579e-42 3.28e-42 3.607e-42 1.5891e-41
-1.111e-42 3.645e-42 -1.2651e-41 1.489e-41 -1.1813e-41 -2.435e-42 1.1066e-41 -6.037e-42
-5.363e-42 -1.0441e-41 9.697e-42 -7.344e-42 -1.4887e-41 -7.49e-42 -1.2833e-41 1.31e-42
6.484e-42 -0.13213086 -0.16764162 -0.19515577 0.10251059 0.05844021 0.026845349 0.14609073
0.09020129 0.048614014 -0.1969935 -0.24503462 -0.28646424 0.07451409 0.02509196 -0.007976278
0.10207389 0.04564391 0.014916643 -0.14545992 -0.17825037 -0.19862653 0.044133335 -0.00018987515
-0.02744173 0.08347942 0.028174818 -0.006240384 1.4075e-41 3.3137e-41 -1.6504e-41 -8.234e-42
-2.0306e-41 -4.6262e-41 -7.221e-42 2.835e-42 -2.085e-41 -1.366e-42 -9.25e-42 -1.5526e-41
-8.242e-42 4.575e-42 -4.7406e-41 1.6594e-41 3.0963e-41 -3.0764e-41 2.9532e-41 2.1176e-41
1.7233e-41 -2.1635e-41 -5.623e-42 1.1615e-41 2.8473e-41 1.6935e-41 -2.45e-42 0.007984631
0.054618206 -0.4236808 0.18209095 0.120234236 -0.38584948 0.011116546 -0.2037458 -0.53640705
0.3399172 0.31129333 0.17941934 0.6125616 0.48338854 0.46989948 0.2550358 0.36118677
0.100664906 -0.12735175 -0.18133922 -0.40057844 0.17344536 0.45529443 -0.10097875 -0.37630156
-0.40259954 -0.49787468 1.0301282e-15 -1.4755292e-15 -1.496439e-15 6.6793874e-14 4.206771e-14 -4.525747e-15
2.0617103e-13 1.7680954e-14 -2.0221686e-15 -1.9299005e-13 -8.553183e-14 -2.2378482e-13 4.633119e-13 4.5198909e-13
-3.5771592e-13 -1.3277694e-12 -1.7448794e-12 -1.8342543e-12 -3.810572e-15 -2.9424036e-15 -1.6858737e-15 1.7372598e-14
1.1807101e-14 -1.13312154e-14 1.0020217e-15 2.9764924e-14 -4.3463605e-14 0.7394498 0.26721925 0.020564312
0.8843539 0.22114204 0.1420971 0.5432744 0.4518831 0.14278929 -0.20558938 -0.36360747
-0.5181407 -0.30953354 -0.34872133 -0.47085822 -0.287367 -0.3080744 -0.26534742 0.50518316
0.16460612 -0.00056166435 0.2555146 0.07858335 -0.28592157 0.116766594 0.008680792 -0.15180479
00000000: 5420 0080 6a2c 0080 b628 0080 7916 0000
00000010: 8727 0000 0d0c 0000 4a02 0000 9110 0080
00000020: 261b 0080 5314 0000 8614 0000 e319 0000
00000030: b40d 0080 0514 0080 bd21 0000 f124 0000
00000040: 0c0a 0000 690d 0000 730e 0000 5609 0000
00000050: 2e1b 0080 ac11 0000 2728 0080 e504 0000
00000060: dd2f 0000 dc27 0000 1f15 0000 7fce de3d
00000070: 549f 893d 4305 b5be e825 f23d 886d edbd
00000080: 0fdf a7be 9c5c 9bbe 3eef a7be 09b9 00bf
00000090: 81c5 21bd 4e48 9fbd b926 8ebe 9d83 c1bd
000000a0: b095 84be ba59 b7be 8ae3 81be 8d02 ddbe
000000b0: 8242 1abe 7d24 673f 63c2 2a3f 3545 d63e
000000c0: 07b8 333f f26c e23e c3ba 043f 3c59 f63e
000000d0: 2a94 023f 8fb2 db3e 120b 0080 400b 0080
000000e0: 5b26 0000 6e13 0000 b207 0080 f803 0000
000000f0: fa09 0000 2509 0000 0e0a 0000 4c2c 0000
00000100: 1903 0080 290a 0000 4423 0080 8229 0000
00000110: ee20 0080 ca06 0080 d91e 0000 d410 0080
00000120: f30e 0080 1b1d 0080 081b 0000 7914 0080
00000130: 8029 0080 e114 0080 c623 0080 a703 0000
00000140: 1312 0000 504d 07be 3faa 2bbe ead6 47be
00000150: 12f1 d13d 005f 6f3d c7ea db3c cf98 153e
00000160: 74bb b83d 7d1f 473d aab8 49be 5bea 7abe
00000170: 71ab 92be d89a 983d a78d cd3c efae 02bc
00000180: 1e0c d13d 1cf5 3a3d ef64 743c 72f3 14be
00000190: 4487 36be c164 4bbe 28c5 343d 3919 47b9
000001a0: 7bcd e0bc 42f7 aa3d e0ce e63c 237c ccbb
000001b0: 3c27 0000 5f5c 0000 022e 0080 f416 0080
000001c0: 9b38 0080 f680 0080 2114 0080 e707 0000
000001d0: 1f3a 0080 cf03 0080 c919 0080 482b 0080
000001e0: fa16 0080 c10c 0000 2684 0080 422e 0000
000001f0: 5056 0000 c255 0080 5352 0000 083b 0000
00000200: 0a30 0000 4f3c 0080 ad0f 0080 6120 0000
00000210: 5f4f 0000 352f 0000 d406 0080 f8d1 023c
00000220: 57b7 5f3d b1ec d8be 0d76 3a3e 5e3d f63d
00000230: 108e c5be 2c22 363c bda2 50be f951 09bf
00000240: a109 ae3e d761 9f3e b4b9 373e d6d0 1c3f
00000250: b47e f73e aa96 f03e 0d94 823e 79ed b83e
00000260: 6729 ce3d 7f68 02be fdb0 39be 9e18 cdbe
00000270: a99b 313e 5a1c e93e f2cd cebd 99aa c0be
00000280: 8721 cebe 6ee9 febe 0675 9426 6ba5 d4a6
00000290: dba8 d7a6 0c68 9629 c474 3d29 a60e a3a7
000002a0: c120 682a 8141 9f28 6db6 11a7 9849 59aa
000002b0: be99 c0a9 95f5 7baa 2469 022b 7e72 fe2a
000002c0: 4c60 c9aa efdd baab e891 f5ab fd12 01ac
000002d0: 534a 89a7 c405 54a7 c3f5 f2a6 7c7a 9c28
000002e0: a5b2 5428 0220 4ca8 1368 9026 9f0c 0629
000002f0: 20be 43a9 954c 3d3f f6d0 883e 7d76 a83c
00000300: 0465 623f 0f73 623e e781 113e 0814 0b3f
00000310: 395d e73e 5b37 123e 0686 52be c22a babe
00000320: dea4 04bf 2e7b 9ebe 9a8b b2be 5414 f1be
00000330: c421 93be eebb 9dbe 9edb 87be af53 013f
00000340: 828e 283e a83c 13ba cfd2 823e 4ff0 a03d
00000350: 5064 92be 5323 ef3d e139 0e3c b772 1bbe

down_path.0.block.0.bias f4 [8]
-3.04247e-40 -0.0084813135 5.749382e-39 0.032809116 1.923e-42 -0.025113195 -3.887725e-05 0.06922587
00000000: 1e50 0380 35f5 0abc f09a 3e00 da62 063d
00000010: 5c05 0000 30ba cdbc 2110 23b8 4bc6 8d3d

down_path.0.block.2.weight f4 [8]
-9.832e-42 0.8789732 -9.8639e-41 0.4388957 -3.991e-42 0.9991876 -7.184e-42 0.9042886
00000000: 681b 0080 6304 613f f712 0180 f0b6 e03e
00000010: 200b 0080 c2ca 7f3f 0714 0080 757f 673f

down_path.0.block.2.bias f4 [8]
-0.006915081 0.4490086 -0.039374065 0.14529188 -1.8572571e-05 0.22435078 -0.00025142168 -0.049247462
00000000: e797 e2bb 75e4 e53e b346 21bd 65c7 143e
00000010: 4bcc 9bb7 36bc 653e 3fd1 83b9 b5b7 49bd

down_path.0.block.2.running_mean f4 [8]
1.04e-42 0.3947533 6.893776e-39 0.0004770298 2.2087e-41 0.24519257 6e-45 0.19442762
00000000: e602 0000 1b1d ca3e 0b11 4b00 db19 fa39
00000010: 923d 0000 c313 7b3e 0400 0000 0918 473e

down_path.0.block.2.running_var f4 [8]
6e-45 0.12135806 6e-45 0.0002484879 6e-45 0.021243356 6e-45 0.037701074
00000000: 0400 0000 938a f83d 0400 0000 7b47 8239
00000010: 0400 0000 8c06 ae3c 0400 0000 716c 1a3d

down_path.0.block.3.weight f4 [8, 8, 3, 3]
-0.010778436 -0.010946639 -0.010953454 -0.010687416 -0.010855327 -0.010862046 -0.012083635 -0.012252811
-0.012246353 -0.12669429 -0.15106858 -0.2830291 0.07238771 0.0033294852 -0.11193677 -0.14214061
-0.21420489 -0.3437296 -0.035994172 -0.036925156 -0.036980197 -0.0357732 -0.03669269 -0.036762316
-0.039968252 -0.040897667 -0.04090979 0.19649966 0.21790235 0.22298504 0.025657767 0.029107774
0.046857513 0.08387398 0.12435575 0.15182976 -3.490416e-05 -3.6144345e-05 -3.673196e-05 -3.516129e-05
-3.6397047e-05 -3.698665e-05 -4.2470416e-05 -4.3714303e-05 -4.423734e-05 0.12140941 0.18227182 -0.16252463
0.24821478 -0.10392504 -0.33583787 0.15773158 -0.043553904 -0.20139349 1.5134875e-05 2.873585e-05
2.7104003e-05 1.8600667e-05 2.8912847e-05 2.675647e-05 9.793741e-05 0.000111985355 0.0001107389 -0.10365616
-0.11871196 -0.25817046 -0.08623205 -0.17943977 -0.35785848 -0.023555795 -0.22367375 -0.41626692
-0.0020210182 -0.001844152 -0.0018669956 -0.0020155108 -0.0018386809 -0.0018615626 -0.002125443 -0.001948597
-0.0019722912 0.26289847 0.10257664 0.027845524 0.30075905 0.14281763 0.073108286 0.35148573
0.24656874 0.22424966 0.01774293 0.018403709 0.018204752 0.017781764 0.018442558 0.018243657
0.016912427 0.01757338 0.01737163 -0.056425404 -0.053358525 -0.04830053 -0.0404878 -0.04823982
-0.050540183 -0.013750548 -0.020289864 -0.023200305 -1.821923e-05 -1.7622206e-05 -1.7572202e-05 -1.8304418e-05
-1.770202e-05 -1.7652052e-05 -1.8715513e-05 -1.8113848e-05 -1.807386e-05 0.10825045 0.07903744 -0.14663352
0.20068339 0.15833472 -0.0338564 0.06396871 0.1152205 0.017105231 7.839642e-05 7.472999e-05
7.659591e-05 7.721784e-05 7.349557e-05 7.519141e-05 7.604148e-05 7.241517e-05 7.4151714e-05 -0.015706785
-0.17003644 -0.2915134 -0.11469974 -0.2728583 -0.37833902 -0.13639592 -0.23334958 -0.27862966
-0.0024383527 -0.0024138235 -0.002503089 -0.0025943667 -0.0025695171 -0.0026587658 -0.0027999538 -0.0027752097
-0.0028681296 0.49015725 0.4651928 0.43990707 0.4335187 0.37404507 0.34320313 0.46073276
0.36436582 0.37036994 0.01574453 0.015724946 0.016262645 0.01575093 0.015731115 0.01626891
0.015025466 0.015005515 0.0155341225 0.047148924 0.03418105 0.024748683 -0.025149656 -0.031143645
-0.031750124 -0.0019026079 -0.009480272 -0.019612504 3.7903694e-05 3.7931684e-05 3.8262115e-05 3.7870883e-05
3.789884e-05 3.8229333e-05 3.928606e-05 3.9314327e-05 3.9637383e-05 -0.061141953 0.047441676 -0.04214902
-0.263484 -0.103691466 -0.18901685 -0.41077408 -0.4100381 -0.38684934 0.0004858624 0.0004880615
0.00048496987 0.0004863475 0.000488271 0.000485142 0.000476142 0.00047808475 0.00047480417 0.31435892
0.34481415 0.22398537 0.17575735 0.15692694 0.05777337 -0.098174125 -0.14331752 -0.16627172
0.015035979 0.015208021 0.015205069 0.015049271 0.015220516 0.015217842 0.015060995 0.015232086
0.015229198 0.2768273 0.13986526 0.065709725 0.11351317 -0.031381957 -0.13467188 0.20900187
0.015482683 -0.095428094 0.03415089 0.033599738 0.03359102 0.034491543 0.03393863 0.03392988
0.034534823 0.033981785 0.033973046 -0.10767906 -0.11842698 -0.14931731 -0.094235286 -0.07559661
-0.07111745 0.033818107 0.06291689 0.06711088 3.565875e-05 3.9690098e-05 3.9715163e-05 3.505855e-05
00000000: 0a98 30bc 8859 33bc 1e76 33bc 461a 2fbc
00000010: 8bda 31bc b9f6 31bc 70fa 45bc 04c0 48bc
00000020: eda4 48bc 26bc 01be b9b1 1abe 31e9 90be
00000030: 0240 943d 7e33 5a3b 1b3f e5bd 4f8d 11be
00000040: 8758 5bbe 53fd afbe a06e 13bd d53e 17bd
00000050: 8c78 17bd eb86 12bd 134b 16bd 1594 16bd
00000060: c0b5 23bd 5084 27bd 0691 27bd 3537 493e
00000070: cb21 5f3e 3156 643e 3d30 d23c 6d73 ee3c
00000080: aaed 3f3d 1fc6 ab3d 3aae fe3d 4379 1b3e
00000090: 0e66 12b8 b299 17b8 a410 1ab8 267a 13b8
000000a0: 08a9 18b8 1d22 1bb8 4322 32b8 e059 37b8
000000b0: 7b8b 39b8 7fa5 f83d 77a5 3a3e db6c 26be
000000c0: 042c 7e3e a7d6 d4bd f1f2 abbe 6384 213e
000000d0: 9465 32bd 183a 4ebe cbeb 7d37 c50d f137
000000e0: 675d e337 a108 9c37 de89 f237 1573 e037
000000f0: bf63 cd38 aed9 ea38 7f3c e838 ae49 d4bd
00000100: 421f f3bd eb2e 84be 6e9a b0bd 0fbf 37be
00000110: 3a39 b7be 15f8 c0bc bb0a 65be f020 d5be
00000120: 0f73 04bb 79b7 f1ba fab5 f4ba a916 04bb
00000130: e5ff f0ba adff f3ba 044b 0bbb 1168 ffba
00000140: 8e41 01bb a19a 863e b413 d23d 4c1c e43c
00000150: 17fd 993e c93e 123e ccb9 953d f0f5 b33e
00000160: 847c 7c3e b4a1 653e 9f59 913c 60c3 963c
00000170: 2222 953c 10ab 913c d914 973c b973 953c
00000180: ee8b 8a3c 0df6 8f3c f34e 8e3c 531e 67bd
00000190: 788e 5abd c7d6 45bd 89d6 25bd 1e97 45bd
000001a0: 3903 4fbd fa49 61bc ee36 a6bc 910e bebc
000001b0: 80d5 98b7 66d3 93b7 0468 93b7 708c 99b7
000001c0: cc7e 94b7 7e13 94b7 42ff 9cb7 31f3 97b7
000001d0: 529d 97b7 69b2 dd3d 62de a13d 1927 16be
000001e0: f27f 4d3e 7f22 223e 02ad 0abd 0702 833d
000001f0: baf8 eb3d 4520 8c3c c268 a438 5cb8 9c38
00000200: 1ea2 a038 03f0 a138 a221 9a38 15b0 9d38
00000210: 7578 9f38 99dd 9738 e681 9b38 84ab 80bc
00000220: 081e 2ebe 3f41 95be b3e7 eabd 15b4 8bbe
00000230: a7b5 c1be 5fab 0bbe 31f3 6ebe 8ca8 8ebe
00000240: c5cc 1fbb 3d31 1ebb dd0a 24bb 4006 2abb
00000250: 5865 28bb b03e 2ebb 6e7f 37bb 4be0 35bb
00000260: 3bf7 3bbb e4f5 fa3e c02d ee3e 803b e13e
00000270: 2af6 dd3e d682 bf3e 52b8 af3e 2ae5 eb3e
00000280: 288e ba3e 21a1 bd3e acfa 803c 9ad1 803c
00000290: 3d39 853c 1808 813c 8ade 803c 6146 853c
000002a0: 5f2d 763c b1d9 753c d582 7e3c 3b1f 413d
000002b0: 6e01 0c3d c0bd ca3c a706 cebc f520 ffbc
000002c0: 6b0c 02bd ed60 f9ba 2553 1bbc 67aa a0bc
000002d0: c8fa 1e38 d618 1f38 a27b 2038 8dd7 1e38
000002e0: 92f5 1e38 6f58 2038 16c7 2438 70e5 2438
000002f0: 5140 2638 fc6f 7abd 3452 423d 73a4 2cbd
00000300: 60e7 86be 315c d4bd a28d 41be fb50 d2be
00000310: 84f0 d1be 1e11 c6be 59bb fe39 81e2 ff39
00000320: 8e43 fe39 75fc fe39 a0fe ff39 a85a fe39
00000330: b3a2 f939 73a7 fa39 23ef f839 a7f3 a03e
00000340: 7b8b b03e 6c5c 653e bcf9 333e 75b1 203e
00000350: c5a3 6c3d 840f c9bd d4c1 12be 2243 2abe
00000360: 7859 763c 102b 793c af1e 793c 3891 763c
00000370: 795f 793c 4154 793c 64c2 763c 0090 793c
00000380: e383 793c 4fbc 8d3e d738 0f3e d292 863d
00000390: 9879 e83d 5e8a 00bd 6de7 09be 9604 563e
000003a0: 14ab 7d3c ce6f c3bd cee1 0b3d e19f 093d
000003b0: bd96 093d 0147 0d3d 3c03 0b3d 0ffa 0a3d
000003c0: 6374 0d3d 7c30 0b3d 5227 0b3d d786 dcbd
000003d0: d889 f2bd a3e6 18be 6efe c0bd 65d2 9abd
000003e0: 07a6 91bd db84 0a3d 92da 803d 6e71 893d
000003f0: 4b90 1538 eb78 2638 d593 2638 d50b 1338

down_path.0.block.3.bias f4 [8]
0.48671332 -0.5730171 0.31853256 -0.18281698 0.35422212 0.623798 -0.072275944 0.000946617
00000000: 7d32 f93e 40b1 12bf b316 a33e 6034 3bbe
00000010: 9a5c b53e 3ab1 1f3f 6905 94bd 6426 783a

down_path.0.block.5.weight f4 [8]
0.5359313 0.3085461 0.8285325 0.41960925 0.701728 0.5701297 0.5171443 0.040416043
00000000: cb32 093f c1f9 9d3e b51a 543f 06d7 d63e
00000010: 72a4 333f 05f4 113f 9263 043f 4b8b 253d

down_path.0.block.5.bias f4 [8]
-0.23277365 0.09475987 0.15520972 -0.36033043 0.099028245 0.2593347 0.17689674 0.10455385
00000000: 375c 6ebe 7611 c23d 4cef 1e3e 3b7d b8be
00000010: 52cf ca3d 85c7 843e 6b24 353e 5420 d63d

down_path.0.block.5.running_mean f4 [8]
0.9788101 0.56370217 1.8812248 0.3725376 0.5403209 1.652991 1.0257133 0.27251187
00000000: 4c93 7a3f c94e 103f f9cb f03f 40bd be3e
00000010: 7852 0a3f 3695 d33f 934a 833f ad86 8b3e

down_path.0.block.5.running_var f4 [8]
0.8776442 0.668104 7.1824193 0.31419402 0.91255915 1.3354443 2.6441312 0.06279582
00000000: 4aad 603f dd08 2b3f 61d6 e540 0ade a03e
00000010: 7a9d 693f d7ef aa3f 7239 2940 189b 803d

down_path.1.block.0.weight f4 [16, 8, 3, 3]
0.031091314 0.058295306 0.068879984 0.102153435 0.16167417 0.19866197 0.06837653 0.11206035
0.14359815 0.024887344 -0.016914701 -0.027779678 0.035175387 -0.017894933 -0.03450711 0.04306704
-0.0071347947 -0.026626185 -0.19640876 -0.23771258 -0.19913517 -0.20005244 -0.25416672 -0.21957567
-0.1449743 -0.19834268 -0.1857981 -0.14503133 -0.18420881 -0.16628367 -0.059503414 -0.103610784
-0.059125293 0.043363366 -0.0054395134 0.020579055 0.22143047 -0.007809407 0.0144868735 0.3146996
0.10936809 0.106479205 0.22109981 0.07344866 0.09924774 -0.10733095 -0.13693212 -0.13247778
-0.15399298 -0.20990062 -0.20509149 -0.17353144 -0.27020493 -0.2731354 0.21708423 0.16715479
0.1222522 0.13491704 0.073954776 0.019380843 0.05930048 0.008397985 -0.036371175 -0.08591629
-0.0867351 -0.08594033 -0.07471695 -0.07428861 -0.06954862 -0.06728958 -0.06627763 -0.060839895
0.099611744 0.07078456 0.018721078 0.07827252 0.06264236 0.02079084 0.063982785 0.052491937
0.015056807 0.11050353 0.11896114 0.11298901 0.10611988 0.12393973 0.1215533 0.15238525
0.17552374 0.17148498 -0.028538175 -0.033464275 -0.038536403 0.027311517 0.023043748 0.019793171
0.11503586 0.11689521 0.119536586 0.07036813 0.031598866 -0.017318733 0.08187896 0.0365665
-0.005670354 0.08707008 0.043045226 0.016495919 -0.019991593 -0.15044375 -0.17508507 0.011542798
-0.106902674 -0.12151017 0.076574005 -0.04736714 -0.070217974 0.17064804 0.15978985 0.22335865
0.18017614 0.1720716 0.22826093 0.24704091 0.2394138 0.29173717 0.0028536133 -0.0041401978
-0.002578971 -0.0060402066 -0.018846814 -0.020235693 0.012330946 0.0023690066 0.008457179 -0.023695633
-0.026760282 -0.024625879 -0.022065522 -0.0253943 -0.022361143 -0.0137408 -0.016413223 -0.012644106
-0.07465697 -0.072367266 -0.07595691 -0.07632088 -0.074474216 -0.07828019 -0.0770087 -0.07631344
-0.08016019 -0.042292356 -0.04293097 -0.045395754 -0.04251199 -0.04315931 -0.04657725 -0.041922495
-0.043187365 -0.04706574 0.10670734 0.10622097 0.10507604 0.11047795 0.10968038 0.10746458
0.11294438 0.112426326 0.1105594 -0.07850938 -0.075791225 -0.078109615 -0.07831269 -0.07571874
-0.07809043 -0.078898855 -0.07656425 -0.078974545 0.103838116 0.10271918 0.060423214 0.09879169
0.1017113 0.05916689 0.09277881 0.096167535 0.058547392 -0.09481221 -0.08319242 -0.0568871
-0.09519576 -0.08679329 -0.060831558 -0.0881925 -0.08201504 -0.059556264 0.10315301 0.1066281
0.104420066 0.10561809 0.109877296 0.10705059 0.1086379 0.11228808 0.10999457 -0.07510992
-0.074644156 -0.075065605 -0.07508262 -0.074700594 -0.07514078 -0.075007364 -0.07475403 -0.07530827
0.06246281 0.029099002 0.03125392 0.011600226 -0.036876466 -0.03720459 0.012287666 -0.034791037
-0.03573605 0.016191453 0.020522352 -0.0066110687 0.080402166 0.089877024 0.057778746 0.064834066
0.08144574 0.060443 0.1450752 0.22142482 0.28710273 0.101970576 0.20966354 0.2966477
-0.00892415 0.10990348 0.2138454 0.04081075 0.03364921 0.062323987 0.022885254 0.008882441
0.041660465 0.0111366175 -0.0051226434 0.023536934 0.16309099 -0.016809493 0.03465961 0.070171714
00000000: 36b3 fe3c 0fc7 6e3d f310 8d3d d235 d13d
00000010: ea8d 253e 0b6e 4b3e ff08 8c3d e67f e53d
00000020: 650b 133e 8be0 cb3c b390 8abc 3592 e3bc
00000030: 1114 103d 6598 92bc 5457 0dbd 1167 303d
00000040: ffca e9bb 281f dabc 611f 49be ed6a 73be
00000050: 17ea 4bbe 8cda 4cbe 2422 82be 72d8 60be
00000060: 2574 14be 581a 4bbe db41 3ebe 1883 14be
00000070: 3ca1 3cbe 4446 2abe dab9 73bd e431 d4bd
00000080: 5d2d 72bd c99d 313d f23d b2bb 6895 a83c
00000090: abbe 623e 0ee6 ffbb 5a5a 6d3c 4e20 a13e
000000a0: 61fc df3d c511 da3d fd67 623e 406c 963d
000000b0: 6642 cb3d 54d0 dbbd ef37 0cbe 41a8 07be
000000c0: 56b0 1dbe 30f0 56be 8103 52be 3ab2 31be
000000d0: 4d58 8abe 67d8 8bbe 544b 5e3e a02a 2b3e
000000e0: 5d5f fa3d b127 0a3e 9a75 973d 93c4 9e3c
000000f0: 0fe5 723d b497 093c f1f9 14bd e1f4 afbd
00000100: 2ca2 b1bd 7c01 b0bd 3305 99bd a024 98bd
00000110: 826f 8ebd 1fcf 89bd 91bc 87bd 4133 79bd
00000120: 3e01 cc3d 7ff7 903d f25c 993c 584d a03d
00000130: a34a 803d 8d51 aa3c 6809 833d c901 573d
00000140: d3b0 763c ad4f e23d e6a1 f33d c866 e73d
00000150: 6155 d93d 1dd4 fd3d f0f0 f83d e10a 1c3e
00000160: 7fbc 333e c299 2f3e e4c8 e9bc d611 09bd
00000170: 59d8 1dbd 67bc df3c 3ec6 bc3c 4a25 a23c
00000180: ec97 eb3d c266 ef3d 99cf f43d 2b1d 903d
00000190: d06d 013d 04e0 8dbc 28b0 a73d c1c6 153d
000001a0: 60ce b9bb cc51 b23d 3150 303d 7322 873c
000001b0: 69c5 a3bc ed0d 1abe 8049 33be 011e 3d3c
000001c0: caef dabd 53da f8bd d5d2 9c3d 0c04 42bd
000001d0: 71ce 8fbd 5cbe 2e3e f39f 233e 21b8 643e
000001e0: 1880 383e 8a33 303e 3cbd 693e 4bf8 7c3e
000001f0: e428 753e 935e 953e b003 3b3b 7faa 87bb
00000200: f403 29bb edec c5bb a264 9abc 53c5 a5bc
00000210: bc07 4a3c 5641 1b3b fb8f 0a3c 581d c2bc
00000220: 6138 dbbc 36bc c9bc c1c2 b4bc b507 d0bc
00000230: b72e b7bc 1821 61bc 0675 86bc 3929 4fbc
00000240: c1e5 98bd 4a35 94bd 4c8f 9bbd 1f4e 9cbd
00000250: f085 98bd 5d51 a0bd bdb6 9dbd 394a 9cbd
00000260: 072b a4bd c03a 2dbd 63d8 2fbd e6f0 39bd
00000270: 0d21 2ebd d1c7 30bd c9c7 3ebd ecb6 2bbd
00000280: 3ce5 30bd 01c8 40bd 6189 da3d 618a d93d
00000290: 1b32 d73d 4342 e23d 1ba0 e03d 6416 dc3d
000002a0: 624f e73d c63f e63d f76c e23d 87c9 a0bd
000002b0: 6e38 9bbd eff7 9fbd 6762 a0bd 6d12 9bbd
000002c0: e0ed 9fbd b995 a1bd b8cd 9cbd 68bd a1bd
000002d0: 14a9 d43d 6f5e d23d 557e 773d 4c53 ca3d
000002e0: 044e d03d fb58 723d d102 be3d 7cf3 c43d
000002f0: 64cf 6f3d e72c c2bd ca60 aabd 7302 69bd
00000300: fff5 c2bd aec0 b1bd 832a 79bd 459e b4bd
00000310: 80f7 a7bd 45f1 73bd e341 d33d d55f da3d
00000320: 30da d53d 4c4e d83d 5907 e13d 573d db3d
00000330: 8c7d de3d 4bf7 e53d d544 e13d 3bd3 99bd
00000340: 09df 98bd ffbb 99bd ebc4 99bd a0fc 98bd
00000350: 69e3 99bd 769d 99bd a418 99bd 393b 9abd
00000360: 01d9 7f3d 0861 ee3c 1c04 003d e00e 3e3c
00000370: c70b 17bd d763 18bd 3552 493c 0c81 0ebd
00000380: f75f 12bd f0a3 843c 7e1e a83c aaa1 d8bb
00000390: e4a9 a43d 7211 b83d 68a9 6c3d b9c7 843d
000003a0: 06cd a63d 1493 773d 988e 143e 30bd 623e
000003b0: 21ff 923e f3d5 d03d 0ab2 563e 35e2 973e
000003c0: 9936 12bc 1315 e13d 4afa 5a3e 2c29 273d
000003d0: c1d3 093d 7047 7f3d db79 bb3c a887 113c
000003e0: 2aa4 2a3d 5c76 363c d9db a7bb 87d0 c03c
000003f0: 5301 273e 10b4 89bc 3cf7 0d3d 30b6 8f3d

down_path.1.block.0.bias f4 [16]
-0.20025118 -0.027146786 -0.119926445 -0.72810507 -0.3426893 -0.04854798 -0.00022868652 -0.09069739
-0.2515402 -2.3764345e-08 -0.0033271073 0.8840115 -0.1403381 -0.30906776 -0.19593367 -0.01902925
00000000: a50e 4dbe f062 debc ff9b f5bd 1865 3abf
00000010: f974 afbe 3fda 46bd 92cb 6fb9 8ebf b9bd
00000020: e1c9 80be 5922 ccb2 990b 5abb 944e 623f
00000030: cab4 0fbe 213e 9ebe d6a2 48be 3be3 9bbc

down_path.1.block.2.weight f4 [16]
0.16716625 0.13977022 0.0011808313 0.30980957 0.9524155 -0.00017186774 -0.010963859 0.1890315
0.07515277 7.407515e-05 9.451397e-05 1.8545488 0.033342697 0.64969146 0.2982617 -0.00057013147
00000000: a12d 2b3e ed1f 0f3e 20c6 9a3a 5c9f 9e3e
00000010: 81d1 733f 6537 34b9 c2a1 33bc 7991 413e
00000020: b2e9 993d cb58 9b38 cd35 c638 db61 ed3f
00000030: 5a92 083d 2e52 263f c2b5 983e e074 15ba

down_path.1.block.2.bias f4 [16]
-0.010734018 -0.06569151 0.004799919 0.114978455 0.0135868555 -0.00010741306 0.008177552 0.3198288
-0.031518087 -0.0072438787 0.00048507343 0.20503241 0.0019957304 0.03070764 0.11061172 -0.0005983742
00000000: bcdd 2fbc 4589 86bd a448 9d3b d379 eb3d
00000010: 679b 5e3c f342 e1b8 24fb 053c 9ac0 a33e
00000020: 1c19 01bd 0f5e edbb 7451 fe39 04f4 513e
00000030: cdca 023b 978e fb3c 6688 e23d 36dc 1cba

down_path.1.block.2.running_mean f4 [16]
0.28795058 0.738002 0.7912502 0.433036 0.24100292 0.0033757722 0.24196827 0.75079197
0.14016195 6e-45 0.004436123 0.7850673 0.078784585 0.1304551 0.6246638 0.0038428232
00000000: 426e 933e b3ed 3c3f 608f 4a3f e5b6 dd3e
00000010: 78c9 763e 0f3c 5d3b 88c6 773e e733 403f
00000020: 9d86 0f3e 0400 0000 e65c 913b 2cfa 483f
00000030: d059 a13d 0696 053e f7e9 1f3f e0d7 7b3b

down_path.1.block.2.running_var f4 [16]
0.46890426 1.1627303 2.032928 1.5612731 0.39731562 0.00018920079 0.3153209 1.4958888
0.060655255 6e-45 0.00022316417 0.6438503 0.057865042 0.16935292 1.7728095 0.00013788423
00000000: 3814 f03e 59d4 943f 7e1b 0240 ccd7 c73f
00000010: f46c cb3e 3364 4639 be71 a13e 4979 bf3f
00000020: a571 783d 0400 0000 2d01 6a39 60d3 243f
00000030: e503 6d3d da6a 2d3e 6ceb e23f 0495 1039

down_path.1.block.3.weight f4 [16, 16, 3, 3]
-6.2833743e-07 -4.0198276e-07 -4.039052e-07 -6.414934e-07 -3.951374e-07 -3.921129e-07 -6.379723e-07 -4.3405947e-07
-3.6189135e-07 1.3423279e-07 -3.4342114e-07 -5.722747e-07 1.7419468e-07 -2.4676382e-07 -5.279925e-07 2.4930608e-07
-1.03483025e-07 -3.7511032e-07 -5.9449885e-08 -6.583365e-08 -6.5072705e-08 -6.739661e-08 -7.12692e-08 -7.043506e-08
-6.633429e-08 -6.7048944e-08 -6.531778e-08 -1.4336123e-05 -1.4743426e-05 -1.5022611e-05 -1.45217555e-05 -1.48713325e-05
-1.5207914e-05 -1.454851e-05 -1.4843365e-05 -1.5201036e-05 -3.6074816e-06 -2.5523861e-06 -6.380967e-06 -6.4924047e-06
-5.965065e-06 -9.239541e-06 -6.53999e-06 -6.0467883e-06 -8.4438425e-06 7.0050468e-09 4.9293294e-09 6.11248e-09
1.071728e-08 9.053933e-09 1.0076647e-08 9.063205e-09 7.78743e-09 8.707332e-09 7.688948e-08 4.87486e-08
1.6417621e-08 5.2650147e-08 3.8361193e-08 1.1771801e-08 1.7469267e-08 2.1666917e-08 1.0601978e-08 -1.1777328e-05
-1.1695445e-05 -1.1594777e-05 -1.1786846e-05 -1.1667937e-05 -1.1579123e-05 -1.1696881e-05 -1.1578361e-05 -1.150069e-05
7.400474e-08 6.281747e-08 3.8215013e-08 8.215387e-08 7.232954e-08 5.675221e-08 4.9385363e-08 5.2308636e-08
5.3183648e-08 7.2665756e-08 7.272142e-08 7.236592e-08 7.207449e-08 7.25295e-08 7.268573e-08 7.2698185e-08
7.2444884e-08 7.200236e-08 5.540314e-10 5.308657e-10 3.7195952e-10 4.435834e-10 3.716024e-10 1.3885078e-10
3.7132836e-10 2.8255118e-10 1.4488415e-10 1.4170289e-05 2.3902097e-05 1.225249e-05 -1.6375205e-05 -1.01382675e-05
-1.06558455e-05 -1.4486316e-05 -5.1366565e-06 -4.677325e-06 -2.7059912e-08 -3.3255194e-08 -1.3780222e-08 -8.186275e-08
-7.1758016e-08 -4.5299227e-08 -4.063646e-08 -3.5534015e-08 -4.7305157e-08 1.2130237e-05 1.0203794e-05 1.6468202e-05
7.867822e-07 -1.9804856e-06 1.9655736e-06 -6.595306e-07 -2.7486162e-06 1.4809177e-06 -1.3369806e-06 -1.9107044e-06
-2.0987868e-06 -1.6343594e-06 -2.160983e-06 -2.2856748e-06 -1.7350055e-06 -2.208021e-06 -2.1547012e-06 4.2581854e-09
7.733227e-09 6.3141785e-09 1.1644354e-09 4.5759503e-09 4.70541e-09 8.0576373e-10 3.3549663e-09 5.1963456e-09
0.058510646 0.06499501 0.004603157 -0.029049892 -0.011501011 -0.03531288 -0.12996043 -0.12754458
-0.18031563 -0.004006455 -0.14362843 -0.21441534 -0.04581738 -0.16241516 -0.22377013 -0.11358692
-0.20453797 -0.25550503 -0.0636392 -0.05952653 -0.052373957 -0.06713682 -0.06301563 -0.0524013
-0.06476139 -0.0597868 -0.047806464 -0.0060899733 -0.027904527 -0.058254752 -0.037275866 -0.060870234
-0.09263946 -0.066944495 -0.09297524 -0.12380475 -0.018363565 0.010775067 -0.0924573 0.17183913
0.04026509 -0.08381246 0.14254126 0.044787355 -0.103709295 -0.0017118243 -0.0023308075 -0.0020604662
-0.0020516035 -0.0027346872 -0.002621937 -0.0018716925 -0.0025370645 -0.0023757226 0.018192502 0.018731415
0.020390917 0.018946439 0.019002719 0.021284405 0.015575636 0.0164589 0.021781137 0.2208815
0.02501411 -0.14285907 0.18897054 0.023509411 -0.10627433 0.17675577 0.043315984 -0.07315367
-0.119591445 -0.10001421 -0.06771396 -0.08247502 -0.048962098 0.0020618136 -0.018101553 0.031098446
0.08324915 -0.005051925 -0.0041849753 -0.0041907243 -0.0050510033 -0.0041792737 -0.0041866573 -0.0048800446
-0.0040048836 -0.004006583 0.00041429617 0.00045611785 0.00043134775 0.00041202107 0.00044644455 0.00040975458
0.00032884313 0.00037260746 0.00034634984 -0.010304351 0.040422227 0.06475955 -0.1380541 -0.19574718
-0.3141918 -0.18699127 -0.100142434 -0.24966925 -0.017107548 -0.01957614 -0.015379966 -0.014627998
00000000: 05ab 28b5 17d0 d7b4 4fd8 d8b4 1733 2cb5
00000010: 4523 d4b4 9683 d2b4 1f41 2bb5 ae08 e9b4
00000020: f849 c2b4 a121 1034 715f b8b4 6b9e 19b5
00000030: 450a 3b34 f67a 84b4 5ebb 0db5 5ed8 8534
00000040: 653a deb3 c562 c9b4 d755 7fb3 6f60 8db3
00000050: 19be 8bb3 aebb 90b3 a80c 99b3 1542 97b3
00000060: a973 8eb3 8cfc 8fb3 d444 8cb3 2e85 70b7
00000070: 885a 77b7 9f09 7cb7 77a2 73b7 e37f 79b7
00000080: 7e25 7fb7 6015 74b7 c407 79b7 f407 7fb7
00000090: 1018 72b6 a949 2bb6 171c d6b6 55d9 d9b6
000000a0: 8527 c8b6 8703 1bb7 1672 dbb6 84e5 cab6
000000b0: 07aa 0db7 0bb1 f031 d75e a931 f105 d231
000000c0: 191f 3832 9e8b 1b32 901d 2d32 66b4 1b32
000000d0: 7bc9 0532 4097 1532 701e a533 a75f 5133
000000e0: bb06 8d32 7321 6233 94c2 2433 ee3c 4a32
000000f0: 530f 9632 0e1e ba32 fe23 3632 3d97 45b7
00000100: 8e37 44b7 3087 42b7 1ec0 45b7 68c1 43b7
00000110: f443 42b7 b93d 44b7 af40 42b7 16f3 40b7
00000120: 89ec 9e33 45e6 8633 da21 2433 916c b033
00000130: 9653 9b33 b7bf 7333 c81b 5433 f4a9 6033
00000140: 0a6c 6433 6c0c 9c33 062b 9c33 9667 9b33
00000150: 5fc7 9a33 84c1 9b33 6717 9c33 401e 9c33
00000160: ff92 9b33 b79f 9a33 7e4a 1830 5aec 1130
00000170: a67c cc2f d0dc f32f 634a cc2f 05ab 182f
00000180: d223 cc2f 8b55 9b2f 434d 1f2f eebc 6d37
00000190: 5d81 c837 0b90 4d37 7c5d 89b7 8717 2ab7
000001a0: 82c6 32b7 410a 73b7 8b5b acb6 eaf1 9cb6
000001b0: 6071 e8b2 79d4 0eb3 0fbe 6cb2 86cc afb3
000001c0: 6319 9ab3 078f 42b3 4388 2eb3 109e 18b3
000001d0: 922c 4bb3 f982 4b37 f630 2b37 3225 8a37
000001e0: 4333 5335 7ce8 04b6 4ce8 0336 990a 31b5
000001f0: de74 38b6 f2c3 c635 4e72 b3b5 a739 00b6
00000200: e2d8 0cb6 295c dbb5 6805 11b6 9863 19b6
00000210: 56de e8b5 832d 14b6 7c99 10b6 654f 9231
00000220: 18db 0432 1af4 d831 ee09 a030 7c3a 9d31
00000230: 39ad a131 957c 5d30 318d 6631 8a8b b231
00000240: dca8 6f3d 1b1c 853d 14d6 963b 0afa edbc
00000250: bd6e 3cbc 3da4 10bd 5914 05be 0c9b 02be
00000260: a9a4 38be 9548 83bb 5513 13be b28f 5bbe
00000270: 01ab 3bbd 2950 26be ff23 65be 42a0 e8bd
00000280: 6772 51be 8ed1 82be 4555 82bd 17d2 73bd
00000290: 1386 56bd 077f 89bd 570e 81bd bfa2 56bd
000002a0: 9fa1 84bd 01e3 74bd b6d0 43bd 668e c7bb
000002b0: 0998 e4bc 899c 6ebd 94ae 18bd 1153 79bd
000002c0: c2b9 bdbd 321a 89bd cd69 bebd 588d fdbd
000002d0: 306f 96bc e889 303c 415a bdbd 99f6 2f3e
000002e0: 02ed 243d dea5 abbd 56f6 113e f272 373d
000002f0: 8a65 d4bd 4b5f e0ba 76c0 18bb e308 07bb
00000300: 3274 06bb 7038 33bb ced4 2bbb 9453 f5ba
00000310: e144 26bb 03b2 1bbb 7108 953c a072 993c
00000320: da0a a73c 9035 9b3c 97ab 9b3c a25c ae3c
00000330: f430 7f3c d1d4 863c 5b6e b23c c32e 623e
00000340: 64ea cc3c a649 12be 7e81 413e cf96 c03c
00000350: 5ba6 d9bd 77ff 343e 1a6c 313d 97d1 95bd
00000360: 5cec f4bd 40d4 ccbd 9ead 8abd aae8 a8bd
00000370: 7b8c 48bd 7e1f 073b b549 94bc 2bc2 fe3c
00000380: 887e aa3d 9e8a a5bb 1e22 89bb 5852 89bb
00000390: e382 a5bb 4af2 88bb 3a30 89bb c8e8 9fbb
000003a0: 663b 83bb a749 83bb e435 d939 1a23 ef39
000003b0: 8426 e239 8804 d839 c610 ea39 54d4 d639
000003c0: 9468 ac39 875a c339 4a96 b539 95d3 28bc
000003d0: c791 253d a8a0 843d 0e5e 0dbe f371 48be
000003e0: bfdd a0be a47a 3fbe 7a17 cdbd 4ca9 7fbe
000003f0: 2125 8cbc 245e a0bc 41fc 7bbc 45aa 6fbc

down_path.1.block.3.bias f4 [16]
-9.8188735e-05 0.4105915 -0.107097566 -0.04883999 -0.027421173 -0.019889982 -0.037660748 -0.010831532
-0.24802984 -0.32179034 1.3635e-41 -0.42796612 0.09318573 -0.003673264 0.09400698 -0.5003564
00000000: adea cdb8 0d39 d23e f855 dbbd 710c 48bd
00000010: 5ea2 e0bc 51f0 a2bc 2842 1abd bd76 31bc
00000020: 89fb 7dbe b4c1 a4be 0226 0000 601e dbbe
00000030: 29d8 be3d 25bb 70bb bb86 c03d 5b17 00bf

down_path.1.block.5.weight f4 [16]
-4.762578e-06 0.43917626 0.52774155 0.37341142 -0.0008534754 -0.004158479 -0.0056498367 -0.0044820113
-0.06534039 -0.15271756 -1.7818422e-05 0.7559584 0.7358402 -0.0029515778 -0.0054710773 0.55585665
00000000: 3cce 9fb6 b6db e03e 121a 073f c82f bf3e
00000010: c4bb 5fba da43 88bb 4422 b9bb d6dd 92bb
00000020: 2fd1 85bd fe61 1cbe c578 95b7 7d86 413f
00000030: 0660 3c3f 426f 41bb b946 b3bb 9f4c 0e3f

down_path.1.block.5.bias f4 [16]
-8.0123704e-05 0.02641735 0.21909542 0.22999226 -0.0003081692 0.007486825 -0.0013100309 -0.00095143623
-0.0071617984 -0.04856155 -1.3229639e-05 -0.21181914 0.029598393 -0.002538033 0.017539138 0.18890841
00000000: 1608 a8b8 3369 d83c 8d5a 603e 1783 6b3e
00000010: c591 a1b9 0a54 f53b 58b5 abba ce69 79ba
00000020: 85ad eabb 7ae8 46bd def4 5db7 1ee7 58be
00000030: 5478 f23c 2155 26bb 3dae 8f3c 3571 413e

down_path.1.block.5.running_mean f4 [16]
8.949353e-07 0.65683305 0.52089316 0.4541505 0.061218742 0.09695446 0.35703415 0.04513216
0.047925487 0.12581249 6e-45 0.4131371 0.8567038 0.5028664 0.64790714 0.1953304
00000000: 7c3b 7035 3626 283f 4159 053f 6a86 e83e
00000010: 81c0 7a3d 0f90 c63d 2ecd b63e 80dc 383d
00000020: 844d 443d fdd4 003e 0400 0000 b586 d33e
00000030: f150 5b3f dabb 003f 3edd 253f b104 483e

down_path.1.block.5.running_var f4 [16]
1.1185388e-10 0.4036004 1.2166151 0.5198372 0.02911386 0.03383502 0.5866557 0.009957769
0.04078671 0.10152661 6e-45 1.7730554 3.7348354 1.0582739 0.9415695 0.57164246
00000000: 23f8 f52e b6a4 ce3e 0bba 9b3f 0d14 053f
00000010: 3180 ee3c 9796 0a3d 112f 163f e925 233c
00000020: f70f 273d 2fed cf3d 0400 0000 7bf3 e23f
00000030: 8b07 6f40 8575 873f b30a 713f 2957 123f

down_path.2.block.0.weight f4 [32, 16, 3, 3]
-7.683e-42 1.8105e-41 -1.5863e-41 -1.267e-41 -2.0826e-41 2.0382e-41 6.234e-42 1.8179e-41
6.674e-42 2.5974303e-38 -2.975559e-38 -1.1516787e-38 -1.0814908e-38 -2.830215e-39 4.44886e-40 2.17444e-40
5.7439e-41 5.092e-42 -1.387e-41 -1.2099e-41 3.5e-42 -2.54e-43 3.882e-42 -1.3696e-41
3.964e-42 -4.127e-42 4.23e-42 5.6e-44 -1.135e-42 3.618e-42 -1.2438e-41 -3.915e-42
-5.73e-43 -1.1038e-41 -4.529e-42 -1.1676e-41 1.2624e-41 7.482e-42 1.0748e-41 1.6055e-41
1.6059e-41 3.667e-42 1.5622e-41 -5.743e-42 5.287e-42 -5.506e-42 -1.654e-42 -6.576e-42
7.744e-42 -1.8651e-41 9.956e-42 1.3535e-41 1.6418e-41 -3.554e-42 -1.493e-41 1.7352e-41
1.164e-42 -2.47e-42 -1.7062e-41 1.4765e-41 -1.7725e-41 5.62e-42 -1.3085e-41 2.0491e-41
-1.8277e-41 -9.701e-42 -2.406e-42 -2.0568e-41 4.975e-42 -6.792e-42 -2.542e-42 -1.4237e-41
5.388e-42 -3.439e-42 2.0364e-41 1.372e-42 -1.5894e-41 2.17e-42 -1.8389e-41 -9.548e-42
1.6107e-41 -6.359e-42 1.822e-42 -1.4304e-41 -7.54e-43 -1.561e-42 -1.277e-42 -6.048e-42
1.6591e-41 1.8396e-41 -8.593e-42 3.642e-42 -1.367e-41 1.516e-42 -4.102e-42 -9.219e-42
-2.2593e-41 1.8332e-41 -6.746e-42 -9.427866e-25 -1.1613925e-25 1.3962944e-25 -1.9851449e-25 6.314015e-27
2.4469442e-25 -5.9683504e-24 -1.9761015e-26 2.0288875e-25 3.83495e-40 2.5672e-40 1.540477e-39 -7.620903e-39
2.8085158e-36 -1.5474041e-38 1.822855e-36 2.942731e-35 5.6829306e-38 -1.802e-41 8.287e-42 -1.9597e-41
-1.003e-41 2.149e-41 1.6809e-41 -1.93e-42 1.4463e-41 -9.976e-42 3.095e-42 9.079e-42
-1.3559e-41 -1.05e-42 -4.937e-42 1.7613e-41 -4.917e-42 -1.9423e-41 -1.327e-41 1.3314e-41
4.67e-43 -8.877e-42 -1.3989e-41 -1.4007e-41 1.911e-42 7.487e-42 4.554e-42 -5.84e-42
-0.00027775764 -0.00028082266 -0.00033940218 -6.947713e-05 -6.624155e-05 -0.00022409474 -7.249319e-05 -3.9881652e-05
-0.00013770525 -0.111969486 -0.10840591 -0.10704671 -0.12602521 -0.12125607 -0.12062755 -0.12566626
-0.12665646 -0.122199275 -0.03457241 -0.029126206 -0.03767998 -0.052344818 -0.06601292 -0.082366414
-0.050276496 -0.07594008 -0.09883123 0.06865589 0.06943075 0.08430316 0.08669252 0.080867656
0.09442738 0.08026254 0.0690235 0.08147851 -0.0005458332 -0.0005838435 -0.00060242903 -0.0005765077
-0.00060584873 -0.0006229376 -0.00061539066 -0.00063987926 -0.0006493059 -5.3728818e-05 -5.2846666e-05 -8.6670116e-05
-4.9855185e-05 -5.170668e-05 -8.4906074e-05 -6.165894e-05 -6.295306e-05 -0.00010109767 -0.00011474903 -0.00011510065
-7.028253e-05 -0.000106109765 -0.00010599571 -7.1425326e-05 -8.720354e-05 -9.9356555e-05 -7.19882e-05 -0.000328593
-0.00033685152 -0.00035516452 -0.00032865192 -0.00033196027 -0.000349075 -0.0003197779 -0.00033341013 -0.00034134655
-0.0011906697 -0.0010838428 -0.0010181043 -0.0013290079 -0.0012069513 -0.0011374609 -0.0012812826 -0.0011063723
-0.00096637127 0.021469837 0.021667495 0.0224253 0.020824825 0.02255581 0.024024183 0.014625015
0.015869664 0.017451553 8.996411e-06 9.238092e-06 9.581261e-06 9.288854e-06 9.837622e-06 1.0288019e-05
1.0506519e-05 1.0748638e-05 1.1057148e-05 -0.03694807 -0.0688682 -0.034934696 -0.030154277 -0.06373271
-0.039976753 -0.034134064 -0.07109355 -0.055284698 -0.16838984 -0.16472207 -0.159773 -0.1718201
00000000: 6b15 0080 7832 0000 382c 0080 5223 0080
00000010: 0e3a 0080 d138 0000 6111 0000 ad32 0000
00000020: 9b12 0000 e56a 0d01 3d01 2281 1e68 7d80
00000030: 90c3 7580 7dd1 1e80 29d8 0400 255e 0200
00000040: 1ea0 0000 320e 0000 aa26 0080 ba21 0080
00000050: c209 0000 b500 0080 d20a 0000 2e26 0080
00000060: 0d0b 0000 810b 0080 cb0b 0000 2800 0000
00000070: 2a03 0080 160a 0000 ac22 0080 ea0a 0080
00000080: 9901 0080 c51e 0080 a00c 0080 8c20 0080
00000090: 3123 0000 db14 0000 f61d 0000 c12c 0000
000000a0: c42c 0000 390a 0000 8c2b 0000 0210 0080
000000b0: bd0e 0000 590f 0080 9c04 0080 5512 0080
000000c0: 9615 0000 fe33 0080 c11b 0000 bb25 0000
000000d0: c42d 0000 e809 0080 9e29 0080 5f30 0000
000000e0: 3f03 0000 e306 0080 902f 0080 2929 0000
000000f0: 6931 0080 ab0f 0000 7a24 0080 1f39 0000
00000100: f332 0080 0b1b 0080 b506 0080 5639 0080
00000110: de0d 0000 ef12 0080 1607 0080 b027 0080
00000120: 050f 0000 9609 0080 c438 0000 d303 0000
00000130: 4e2c 0080 0d06 0000 4333 0080 9e1a 0080
00000140: e62c 0000 ba11 0080 1405 0000 e027 0080
00000150: 1a02 0080 5a04 0080 8f03 0080 dc10 0080
00000160: 402e 0000 4833 0000 f417 0080 270a 0000
00000170: 1b26 0080 3a04 0000 6f0b 0080 b319 0080
00000180: fb3e 0080 1a33 0000 ce12 0080 a0e3 9197
00000190: ffc5 0f96 56da 2c16 c1bf 7596 b81f fa13
000001a0: 6175 9716 aee3 e698 20b4 c394 032a 7b16
000001b0: 072d 0400 a2cb 0200 39c6 1000 fafb 5280
000001c0: 0fec 6e04 557f a880 4412 1b04 6176 1c06
000001d0: 3fb4 9a01 3c32 0080 1a17 0000 a136 0080
000001e0: f61b 0080 e83b 0000 db2e 0000 6105 0080
000001f0: 5128 0000 cf1b 0080 a108 0000 4f19 0000
00000200: cc25 0080 ed02 0080 c30d 0080 1931 0000
00000210: b50d 0080 2536 0080 fe24 0080 1d25 0000
00000220: 4d01 0000 bf18 0080 ff26 0080 0c27 0080
00000230: 5405 0000 df14 0000 b20c 0000 4810 0080
00000240: 00a0 91b9 613b 93b9 caf1 b1b9 40b4 91b8
00000250: 29eb 8ab8 f9fa 6ab9 7c07 98b8 9946 27b8
00000260: f964 10b9 4250 e5bd eb03 debd 4e3b dbbd
00000270: c10c 01be 1a55 f8bd 940b f7bd a8ae 00be
00000280: 3bb2 01be 9d43 fabd cd9b 0dbd 159a eebc
00000290: 5356 1abd 8567 56bd c831 87bd b9af a8bd
000002a0: baee 4dbd 7986 9bbd 0768 cabd 769b 8c3d
000002b0: b631 8e3d 23a7 ac3d d98b b13d f19d a53d
000002c0: 2463 c13d b060 a43d 315c 8d3d 34de a63d
000002d0: 3f16 0fba 130d 19ba 54ec 1dba c720 17ba
000002e0: d2d1 1eba a24c 23ba 2b52 21ba 92bd 27ba
000002f0: 2e36 2aba e15a 61b8 ada7 5db8 aac2 b5b8
00000300: 991b 51b8 a0df 58b8 9a0f b2b8 e44e 81b8
00000310: ab05 84b8 6604 d4b8 6ba5 f0b8 3162 f1b8
00000320: a564 93b8 3f87 deb8 034a deb8 2eca 95b8
00000330: 0be1 b6b8 a55d d0b8 5ff8 96b8 0247 acb9
00000340: 729b b0b9 6035 bab9 ea4e acb9 f40a aeb9
00000350: 0e04 b7b9 dda7 a7b9 8dcd aeb9 c2f6 b2b9
00000360: 3f10 9cba bb0f 8eba e971 85ba 1b32 aeba
00000370: 9132 9eba db16 95ba b6f0 a7ba b203 91ba
00000380: 1454 7dba 83e1 af3c 0880 b13c 43b5 b73c
00000390: d398 aa3c f6c6 b83c 5dce c43c c29d 6f3c
000003a0: 1901 823c 8ff6 8e3c 4bef 1637 4efd 1a37
000003b0: 34bf 2037 53d7 1b37 440c 2537 b59a 2c37
000003c0: 2845 3037 0c55 3437 1782 3937 dc56 17bd
000003d0: c50a 8dbd af17 0fbd 1a06 f7bc 4c86 82bd
000003e0: aabe 23bd 29d0 0bbd 7f99 91bd 3572 62bd
000003f0: 636e 2cbe e7ac 28be 899b 23be 9cf1 2fbe

down_path.2.block.0.bias f4 [32]
-7.279157e-14 -0.058201652 0.0023178498 -2.6078539e-19 -0.00030899592 -1.4347781e-13 0.3164423 0.060523346
-5.8653014e-21 -0.017661836 0.039620485 -0.05670409 -5.4913883e-15 0.06190039 -4.6572135e-14 0.23448358
-5.5590623e-13 -0.17508718 0.21726747 -0.00094840606 -0.017706307 -0.007682418 -0.09317859 -0.009164098
-0.0055619515 -2.529978e-16 -0.011387388 0.03262357 -1.0624462e-25 -0.015371822 -2.0377945e-31 0.02058247
00000000: 7ce9 a3a9 db64 6ebd 11e7 173b c6f0 99a0
00000010: bb00 a2b9 aa8a 21aa ba04 a23e 54e7 773d
00000020: b795 dd9d 8eaf 90bc 1749 223d 8c42 68bd
00000030: 1ed9 c5a7 438b 7d3d 04be 51a9 771c 703e
00000040: 4479 1cab 0e4a 33be 5d7b 5e3e 749e 78ba
00000050: d10c 91bc cbbc fbbb 6bd4 bebd 0325 16bc
00000060: 0841 b6bb e3d7 91a5 2b92 3abc 4ba0 053d
00000070: 4486 0396 18da 7bbc ab42 848c 919c a83c

down_path.2.block.2.weight f4 [32]
9.0065205e-06 0.015702808 8.540106e-06 -9.26912e-06 -0.009203283 -0.00013162165 0.55142254 0.6470969
-0.0011031568 -0.0015039528 0.0043713455 -0.04980776 -2.8412029e-05 0.0037878815 -8.779532e-05 0.4943267
-0.0012018472 0.5760369 0.7727984 0.006441015 -0.0042640306 0.0018499921 -0.024245739 6.563277e-05
-0.00096073543 -0.0001535215 -0.001096914 0.97375774 1.533559e-05 0.015898889 6.103286e-06 -0.001972286
00000000: b61a 1737 2da3 803c 7a47 0f37 9182 1bb7
00000010: 5ec9 16bc eb03 0ab9 072a 0d3f 24a8 253f
00000020: cd97 90ba 4820 c5ba 813d 8f3b 3903 4cbd
00000030: 5e56 eeb7 1b3e 783b c11e b8b8 6418 fd3e
00000040: 4d87 9dba 2777 133f 1ed6 453f 260f d33b
00000050: 48b9 8bbb 6f7b f23a 009f c6bc 53a4 8938
00000060: ddd9 7bba 9dfa 20b9 54c6 8fba 3048 793f
00000070: eea4 8037 633e 823c d4ca cc36 7841 01bb

down_path.2.block.2.bias f4 [32]
-4.0218645e-05 -0.02850446 -3.949602e-05 0.0012361386 0.00083168456 -0.0015922578 0.20943932 0.15869832
-0.00022631983 -2.426784e-05 -0.006425293 -0.0012914973 -0.00046718773 0.003961446 1.6450196e-05 -0.3547346
0.0030607767 0.18872558 0.10344228 -0.00016770704 0.0029695102 0.00036339535 0.0017041035 0.0006545691
0.001954168 0.019106053 -5.068468e-05 -0.007726038 2.9485978e-05 0.00976642 -0.004041244 -0.008204584
00000000: 71b0 28b8 2f82 e9bc 87a8 25b8 ee05 a23a
00000010: 6805 5a3a 4eb3 d0ba 4377 563e d081 223e
00000020: 4450 6db9 ca92 cbb7 448b d2bb 7547 a9ba
00000030: e0f0 f4b9 05cf 813b 87fe 8937 c69f b5be
00000040: 5097 483b 4741 413e 8cd9 d33d 84da 2fb9
00000050: 1d9c 423b 1986 be39 3a5c df3a 6497 2b3a
00000060: 8011 003b 4c84 9c3c 4396 54b8 b42a fdbb
00000070: a858 f737 5603 203c 696c 84bb 856c 06bc

down_path.2.block.2.running_mean f4 [32]
6e-45 0.066771545 0.015515454 6e-45 5.7e-43 6e-45 0.14281304 0.07788736
6e-45 1.328697e-06 0.47750816 1.3003962e-18 6e-45 0.43923637 6e-45 0.43111116
6e-45 0.19358851 1.1762179 6e-45 0.020103253 0.0017923294 0.003040924 0.0002050971
0.012219815 6e-45 0.0016979885 1.1323487 6e-45 0.17383203 6e-45 0.025443627
00000000: 0400 0000 85bf 883d 8834 7e3c 0400 0000
00000010: 9701 0000 0400 0000 953d 123e 6883 9f3d
00000020: 0400 0000 ae55 b235 f37b f43e 94e7 bf21
00000030: 0400 0000 97e3 e03e 0400 0000 9aba dc3e
00000040: 0400 0000 113c 463e 4f8e 963f 0400 0000
00000050: 94af a43c 98ec ea3a 3d4a 473b 550f 5739
00000060: 9e35 483c 0400 0000 0a8f de3a cdf0 903f
00000070: 0400 0000 0601 323e 0400 0000 276f d03c

down_path.2.block.2.running_var f4 [32]
6e-45 0.036081873 0.0001260307 6e-45 6e-45 6e-45 0.14402947 0.11303152
6e-45 1.8655347e-08 0.08606875 5.6711756e-19 6e-45 0.10561561 6e-45 0.31234625
6e-45 0.21546958 0.8283448 6e-45 0.004315304 0.00012673163 0.0005420456 2.4268031e-06
0.0012176364 6e-45 5.7468827e-05 1.1454902 6e-45 0.07764711 6e-45 0.002444725
00000000: 0400 0000 96ca 133d 1c27 0439 0400 0000
00000010: 0400 0000 0400 0000 767c 133e 127d e73d
00000020: 0400 0000 8b3f a032 d044 b03d 3162 2721
00000030: 0400 0000 ff4c d83d 0400 0000 d9eb 9f3e
00000040: 0400 0000 0fa4 5c3e 680e 543f 0400 0000
00000050: 6567 8d3b 43e3 0439 1018 0e3a 29dc 2236
00000060: 1999 9f3a 0400 0000 af0a 7138 6c9f 923f
00000070: 0400 0000 7305 9f3d 0400 0000 ae37 203b

down_path.2.block.3.weight f4 [32, 32, 3, 3]
1.8814791e-15 7.203537e-15 5.547968e-15 3.5124644e-15 4.3755774e-15 7.074411e-15 8.051555e-15 8.590767e-15
7.3688605e-15 -1.2414235e-12 -1.2422799e-12 -1.2365424e-12 -1.2417002e-12 -1.2438427e-12 -1.2373032e-12 -1.2416947e-12
-1.2431406e-12 -1.2365064e-12 5.2901252e-15 5.3053485e-15 5.252879e-15 5.2980378e-15 5.3122438e-15 1.5416233e-14
5.248312e-15 5.2627428e-15 5.209399e-15 3.292042e-13 3.3371618e-13 3.5087027e-13 3.3973453e-13 3.1801674e-13
3.3892642e-13 3.6415597e-13 3.396887e-13 3.4720436e-13 -8.1432826e-13 -8.1301865e-13 -8.2180096e-13 -7.773867e-13
-7.9236655e-13 -8.2181045e-13 -8.34428e-13 -8.0974295e-13 -8.316459e-13 -2.9809575e-13 -2.835958e-13 -2.8518862e-13
-2.0382498e-13 -2.3898548e-13 -2.651399e-13 -2.5197455e-13 -2.9362482e-13 -3.0770867e-13 -1.2830281e-09 -1.4891174e-09
-8.4200197e-10 -7.3447026e-10 -6.838169e-10 -4.0678247e-10 -1.3750422e-10 -1.1675437e-10 -7.066487e-11 -2.9436496e-13
-3.0292072e-13 -3.0574726e-13 -2.844891e-13 -2.9792236e-13 -3.043806e-13 -2.750639e-13 -2.8969977e-13 -3.2455795e-11
1.170562e-13 1.169256e-13 1.1616927e-13 1.1696074e-13 1.1652456e-13 1.1563339e-13 1.1607818e-13 1.1602426e-13
1.1567831e-13 -6.2948905e-15 -6.6162404e-15 -6.572961e-15 -6.5674276e-15 -6.389647e-15 -6.486879e-15 -5.1336054e-15
-5.9907464e-15 -5.69048e-15 6.5167e-13 6.426234e-13 6.1364466e-13 6.543442e-13 -5.93959e-13 -1.5903199e-12
6.430991e-13 6.1523367e-13 5.9297613e-13 -4.311369e-15 -4.3252857e-15 -4.177047e-15 -4.3469113e-15 -4.3494193e-15
-4.190878e-15 -4.1310716e-15 -4.127887e-15 -3.9663804e-15 6.017444e-14 5.4434023e-14 7.5485604e-14 4.977388e-14
4.168773e-14 6.674953e-14 4.969028e-14 4.0766385e-14 6.2310434e-14 1.5188216e-12 1.6457325e-12 1.7429989e-12
1.5260732e-12 1.9487064e-12 1.7487283e-12 7.4494274e-13 1.0191838e-12 1.2794819e-12 -9.401284e-15 -9.333126e-15
-9.410911e-15 -9.351388e-15 -9.258039e-15 -9.35745e-15 -9.371922e-15 -9.396682e-15 -9.367402e-15 6.439118e-09
1.4334437e-08 1.5132226e-08 9.411585e-09 2.3040654e-08 1.4739365e-08 1.0230638e-08 1.4528486e-08 1.69286e-08
3.4544175e-13 3.4618372e-13 2.0360353e-13 3.075117e-13 3.41144e-13 3.3717584e-13 2.848863e-13 3.6300374e-13
3.4092485e-13 4.4991192e-13 5.0207424e-13 5.423541e-13 -8.239841e-12 -2.39692e-11 5.580373e-13 -5.4690388e-11
-4.038604e-11 7.0445586e-13 3.3637433e-11 5.364471e-11 7.3198864e-10 -1.1771528e-11 1.3279704e-10 9.10363e-10
2.4073937e-12 1.983142e-11 1.9570705e-10 -7.559074e-16 -9.026382e-16 -1.1579727e-15 -1.1493988e-15 -1.3320057e-15
-1.4984898e-15 -1.7809912e-15 -1.898923e-15 -1.9141323e-15 3.3827094e-14 -3.1303543e-14 -5.867169e-14 -1.9482266e-14
2.043663e-15 -4.979111e-14 -2.3975096e-14 6.2765853e-15 -5.3955026e-14 -2.3262413e-14 -2.2371236e-14 -2.5506542e-14
-2.5639113e-14 -2.555055e-14 -2.560273e-14 -2.4849062e-14 -2.5037344e-14 -2.5236803e-14 1.5635487e-13 1.5661035e-13
1.5709757e-13 1.5569097e-13 1.5586141e-13 1.5714338e-13 1.5675575e-13 1.569203e-13 1.579991e-13 4.892448e-14
5.170881e-14 5.208004e-14 5.2071188e-14 5.0454812e-14 5.2693323e-14 5.169156e-14 4.7581947e-14 5.2669637e-14
2.0656974e-14 2.770953e-14 -8.815624e-14 -8.986269e-15 2.7781215e-14 2.5173279e-14 -3.599176e-14 7.906687e-15
2.651864e-14 2.3862904e-12 1.5767463e-12 2.142042e-12 2.720161e-12 2.3607726e-12 2.3756429e-12 2.7524326e-12
2.6157804e-12 2.754992e-12 2.283758e-14 2.1738362e-14 2.1075152e-14 2.1285367e-14 2.0821268e-14 2.0504997e-14
2.1228782e-14 2.0917689e-14 2.108283e-14 -5.3210357e-07 -1.5897947e-07 -2.9143897e-07 -1.3882085e-07 1.7885661e-07
1.0038205e-07 -9.742333e-07 -3.1332544e-07 -7.303797e-07 1.427342e-13 1.438218e-13 1.4368517e-13 1.4409781e-13
00000000: 2a93 0727 73c4 0128 f9e2 c727 8819 7d27
00000010: 94a5 9d27 ede1 fe27 3e0b 1128 ecc1 1a28
00000020: dfbe 0428 ffb6 aeab dad5 aeab 2307 aeab
00000030: f7c0 aeab 280e afab 8c22 aeab c4c0 aeab
00000040: dcf4 aeab d705 aeab cb98 be27 3425 bf27
00000050: 4241 bd27 c6e1 be27 cd64 bf27 6adb 8a28
00000060: 2217 bd27 3c9c bd27 3ab0 bb27 5353 b92a
00000070: 92dd bb2a bc85 c52a e840 bf2a 0b07 b32a
00000080: 72cc be2a 6800 cd2a 4d3a bf2a 6c75 c32a
00000090: 8936 65ab 2bd8 64ab 0051 67ab 9ed0 5aab
000000a0: 0708 5fab af51 67ab e0de 6aab 21ec 63ab
000000b0: 6716 6aab 20d0 a7aa 76a6 9faa 038c a0aa
000000c0: 8d7c 65aa 7089 86aa b042 95aa 5cd9 8daa
000000d0: cc4b a5aa 7e39 adaa 8a56 b0b0 a9a9 ccb0
000000e0: 9f72 67b0 c0e3 49b0 56f7 3bb0 8ba1 dfaf
000000f0: ff2f 17af 6f5f 00af c964 9bae 76b6 a5aa
00000100: 7a87 aaaa d31e acaa 3327 a0aa 23b7 a7aa
00000110: de59 abaa e3d8 9aaa 2316 a3aa fabd 0eae
00000120: 27cb 032a 82a5 032a 83cb 022a a3af 032a
00000130: eb31 032a 0e31 022a 42b1 022a b7a1 022a
00000140: 013e 022a 1ecc e2a7 0c60 eea7 ddd0 eca7
00000150: d49d eca7 1736 e6a7 e6b6 e9a7 27f5 b8a7
00000160: e2d6 d7a7 6a05 cda7 c66d 372b e5e1 342b
00000170: c2b9 2c2b 782e 382b 422f 27ab 50d1 dfab
00000180: 2d04 352b 422c 2d2b 6fe8 262b 5c55 9ba7
00000190: b8d5 9ba7 757e 96a7 2e9d 9ca7 50b4 9ca7
000001a0: 07fe 96a7 69d6 94a7 0ab9 94a7 67e7 8ea7
000001b0: 3480 8729 2826 7529 7dfa a929 6029 6029
000001c0: aebe 3b29 7c4e 9629 fec8 5f29 7198 3729
000001d0: 854f 8c29 51c1 d52b c39d e72b 274e f52b
000001e0: 95c6 d62b c620 092c 941c f62b c8ae 512b
000001f0: f76f 8f2b 3212 b42b c55b 29a8 7221 28a8
00000200: 2b88 29a8 aa75 28a8 2bc7 26a8 9f91 28a8
00000210: 5dd4 28a8 8c46 29a8 84bf 28a8 153f dd31
00000220: 8543 7632 1efc 8132 97b0 2132 efea c532
00000230: 6a38 7d32 d2c2 2f32 f598 7932 636a 9132
00000240: 6777 c22a 55e2 c22a b93c 652a 1b1d ad2a
00000250: 080c c02a 29d0 bd2a 7160 a02a 5a5a cc2a
00000260: 73ec bf2a 2447 fd2a 4352 0d2b bba8 182b
00000270: f2f4 10ad d7d5 d2ad d312 1d2b e787 70ae
00000280: a49e 31ae 6549 462b 62f0 132e 93ee 6b2e
00000290: 1f35 4930 4016 4fad 0b03 122f 1a3d 7a30
000002a0: c067 292c 6370 ae2d a32e 572f 1fe0 59a6
000002b0: 7915 82a6 a7e1 a6a6 55a5 a5a6 56f6 bfa6
000002c0: 84f4 d7a6 7d55 00a7 f2d4 08a7 82ed 09a7
000002d0: fc57 1829 87fa 0ca9 ed1d 84a9 0c7b afa8
000002e0: ee42 1327 3e3d 60a9 cff2 d7a8 4823 e227
000002f0: e9fd 72a9 7987 d1a8 8f80 c9a8 15be e5a8
00000300: c5ef e6a8 8f23 e6a8 e09b e6a8 09d2 dfa8
00000310: 2f84 e1a8 1b50 e3a8 390a 302a dc53 302a
00000320: 4be0 302a de4a 2f2a fe7b 2f2a 7fed 302a
00000330: c57d 302a 32ad 302a 24e4 312a 1656 5c29
00000340: 33e0 6829 338c 6a29 fe81 6a29 703a 6329
00000350: 444f 6d29 50cc 6829 404a 5629 f533 6d29
00000360: bd0f ba28 d395 f928 9d82 c6a9 dae1 21a8
00000370: 1f3b fa28 a1bd e228 ad17 22a9 286f 0e28
00000380: d2db ee28 96eb 272c 46e8 dd2b 99bb 162c
00000390: 106a 3f2c e61f 262c c72b 272c 6baf 412c
000003a0: b611 382c 86dd 412c e0b3 cd28 40cd c328
000003b0: fed3 bd28 b7b8 bf28 938a bb28 4eb1 b828
000003c0: 3d36 bf28 e868 bc28 b2e5 bd28 e1d5 0eb5
000003d0: f2b3 2ab4 1177 9cb4 c90e 15b4 bb0b 4034
000003e0: 9e91 d733 67c2 82b5 1f37 a8b4 500f 44b5
000003f0: 55b4 202a d0ed 212a 6ec6 212a 5e3d 222a

down_path.2.block.3.bias f4 [32]
-4.447963e-06 0.008326854 -3.7317945e-28 0.031750266 -0.010740694 -0.0475841 -0.006215261 -0.18085772
-0.3365884 0.002902242 -0.04882433 -0.004090821 0.06582786 -0.01544751 -2.6494507e-05 -6.793672e-06
-0.4226633 -0.014211495 -0.012790533 0.012547904 -0.12194479 -0.118210554 -0.12040853 -0.00013495241
0.060479175 -0.12631276 -0.02657236 -0.024686504 -0.0047967453 -0.010789451 -0.15197723 -0.05348616
00000000: b63f 95b6 5b6d 083c d487 ec91 910c 023d
00000010: bcf9 2fbc 8ce7 42bd 63a9 cbbb c432 39be
00000020: 5155 acbe 8a33 3e3b 05fc 47bd 4b0c 86bb
00000030: c2d0 863d 8e17 7dbc 8540 deb7 33f5 e3b6
00000040: 5367 d8be 55d7 68bc 628f 51bc b995 4d3c
00000050: 31be f9bd 6018 f2bd bf98 f6bd 0382 0db9
00000060: 03b9 773d 2258 01be 47ae d9bc 5a3b cabc
00000070: 042e 9dbb 3dc6 30bc eb9f 1bbe 4e14 5bbd

down_path.2.block.5.weight f4 [32]
-0.00058359775 -0.0059493217 -3.157122e-05 0.16106838 -0.0027525248 -0.029996598 -0.0018151656 0.09646479
0.07036653 -0.23835966 0.0053229034 -0.010976713 0.45311257 -0.0004452895 -0.00066192664 -7.1385566e-06
-0.16045955 -0.0006437293 -0.0006880443 0.0036283995 -0.009414178 -0.0038004983 -0.03807107 -4.62897e-05
-0.28517628 -0.021409713 0.006170258 0.00017401755 0.0010161538 -0.0030447766 0.33194262 -0.0077577196
00000000: 95fc 18ba 87f2 c2bb 576b 04b8 1cef 243e
00000010: b463 34bb 6dbb f5bc daea edba 558f c53d
00000020: 541c 903d 8e14 74be c06b ae3b acd7 33bc
00000030: 5ffe e73e bf75 e9b9 2585 2dba bc87 efb6
00000040: 824f 24be f1bf 28ba df5d 34ba 71ca 6d3b
00000050: ed3d 1abc c811 79bb 69f0 1bbd 3027 42b8
00000060: a002 92be 6c63 afbc e02f ca3b 7b78 3639
00000070: 7730 853a e08a 47bb 62f4 a93e 7834 febb

down_path.2.block.5.bias f4 [32]
-1.2464651e-06 -0.024147527 9.117899e-05 0.25722033 0.0045178127 -0.030866714 0.0034201718 0.03908184
0.016799828 -0.2477002 -0.04340868 -0.0094049955 0.3273232 -0.0060765343 -4.6305337e-05 0.00045479307
-0.03814249 -0.00020217693 0.0015068846 0.0045751855 -0.013366933 -0.023991555 -0.022447532 -3.269047e-05
0.2542704 -0.01434668 0.015077242 0.0004558017 -0.0047367592 0.0009339836 0.500906 -0.006782173
00000000: 374c a7b5 09d1 c5bc 5937 bf38 62b2 833e
00000010: 290a 943b 31dc fcbc f624 603b 4814 203d
00000020: cb9f 893c 1fa5 7dbe 4dcd 31bd 6917 1abc
00000030: e896 a73e aa1d c7bb fa37 42b8 4b71 ee39
00000040: 4d3b 1cbd 75ff 53b9 a882 c53a 70eb 953b
00000050: fb00 5bbc f089 c4bc e3e3 b7bc 201d 09b8
00000060: bb2f 823e 560e 6bbc 8906 773c abf8 ee39
00000070: d136 9bbb 94d6 743a 603b 003f fe3c debb
