weights/old/unet-test14-15epochs-weighted-upconv.pt (torch_old, 510397 bytes, 92 tensors)

down_path.0.block.0.weight f4 [8, 3, 3, 3]
00000000: 182b c43c 1f0d 783c 871c e63e 3668 4cbe
00000010: 06d8 84be 51d5 de3e 63b3 7c3e f783 eb3d
00000020: 6c16 073f c04e e0bd 728d 83be 73e5 793e
00000030: c6c5 01bf 5b64 69be ae41 a4bd 3035 33be
00000040: c09c 3f3c 9abf 4c3d cc5f 9cbd 52a0 cd3d
00000050: edf4 713d 9470 84be 859e fdbd fdb2 0b3e
00000060: 0789 58be e38d 673e f86d 913e 015f 8102
00000070: def8 678a 0d11 d51e 08d1 16b2 5bf4 d5b2
00000080: c9f7 de33 c7ed 8db1 4ab4 60b3 cb9e ac32
00000090: edd6 1d0d 9616 c18a 604c 7f9b 7b70 7733
000000a0: d91d 65b3 571f b434 f6f1 f5b3 6c2d 50b4
000000b0: 0495 a4b3 3fd9 3f83 e6cc 4c82 de50 f99a
000000c0: 65de a92f fac1 5db4 b588 b634 b003 19b3
000000d0: e22b 9632 3e2e 30b4 d20f 0080 9e00 0000
000000e0: ed02 0080 d427 0000 9010 0000 6017 0000
000000f0: 1119 0080 3203 0080 d713 0000 fa0f 0080
00000100: 8f24 0000 4024 0080 9023 0000 8a1e 0080
00000110: 8905 0000 ac08 0080 0310 0000 4f01 0080
00000120: 671f 0080 0225 0000 0918 0080 3921 0000
00000130: 9726 0000 0326 0080 4904 0080 0e1d 0080
00000140: 6003 0080 275b 0a3f 68db 6f3d 3f56 f6bc
00000150: 6ae3 313f 9490 9d3e 6825 68be 32f2 ef3e
00000160: fbc4 6e3e c161 8ebe 5506 45be a510 3dbd
00000170: 2856 e3be faec 2c3e b192 b3be 22cd f0be
00000180: 9771 753d 48c7 54bc 71d1 efbe 2b7d c93d
00000190: c851 683e eb38 70be 4ddb 193f 59ee c03d
000001a0: 9388 04be 9a8a a93e 77c6 12be 1324 72be
000001b0: 6ace 1d2f bb73 83b1 9ae5 a7b3 a398 baae
000001c0: 5c5e 02b2 20d5 0c2f 527e 4baf eed9 23b1
000001d0: ae18 71b2 bc83 0bb1 bf05 4233 a238 d7b3
000001e0: 6c9b cc2f 5a94 3f33 f146 91b3 4316 beb0
000001f0: be8e 9532 d0d7 11b4 92f5 d029 41ff de2c
00000200: 4dbf cab1 34df c4ab ba35 d9ae 6609 ebb1
00000210: dd28 dfa9 7df2 8aaf 4eb3 0332 3bbe 0c3e
00000220: f7db 3d3e 7db9 873d d37a 823e f9ef c2bc
00000230: 10ae c13e fb6e 0dbe 0dc6 33bd 15a7 a5bc
00000240: d525 39be c6ed aabd f647 13be 7ed0 68be
00000250: 6c2b 3fbd 415e b6bd 0635 7cbe ab14 ebbe
00000260: 7439 b0be ee1c 303d a1bc 85bd 3393 7b3e
00000270: 6700 813d 7425 863e 5dbf 373d c6f0 56be
00000280: 82f2 f1bd 4260 543e cc16 1d27 23be 6aac
00000290: 38ec 1caa 71b7 dd29 a3c2 bfae 2238 ecab
000002a0: e924 51ad 4ef3 e6ae d0ac 25ae 6416 ceae
000002b0: 7288 292f 5f44 082f f7cc 9bb0 ee6e d0b2
000002c0: e04a 0730 ea75 b9b1 a564 8f32 b3fc cbb2
000002d0: 6ad2 072f 7635 5b32 1c44 f4b0 0744 93b1
000002e0: 3523 7330 5c13 8731 3349 b2b2 005a fcb2
000002f0: 9b3c 0bb3 cd2c 14be fc51 bcbc 6391 9cbe
00000300: 2153 51bd fcbc 04be 0866 94bd 9b9a 42be
00000310: dd57 bdbd c830 21be a0bd bebd 2e45 6cbe
00000320: 5a62 0ebf 7f52 38be be1c dcbc 622a 07bf
00000330: de66 63be d3ab f33d dcf0 92be d908 0b3f
00000340: dd7b 2a3f c32e c23e 654c f03e 411c ea3e
00000350: d539 b13e 76d8 6d3e fc06 063f 03aa dd3e
0.02394633 0.015139847 0.4494364 -0.19961628 -0.25946063 0.43522123 0.24677806 0.1149978
0.5276859 -0.1095252 -0.25693852 0.24403934 -0.50692403 -0.22792189 -0.0802034 -0.17500758
0.011695087 0.049987413 -0.07635459 0.10040344 0.05907147 -0.2586714 -0.12383751 0.13642497
-0.21146022 0.22612719 0.28404212 1.9009376e-37 -1.1169052e-32 2.2559304e-20 -8.778677e-09 -2.4907584e-08
1.03827524e-07 -4.1306722e-09 -5.2318036e-08 2.0095646e-08 4.863807e-31 -1.859372e-32 -2.1117784e-22 5.761147e-08
-5.3345364e-08 3.3550415e-07 -1.1452714e-07 -1.9388034e-07 -7.663951e-08 -5.637924e-37 -1.5046356e-37 -1.03114634e-22
3.0898942e-10 -2.0652797e-07 3.399961e-07 -3.5626442e-08 1.7482254e-08 -1.64081e-07 -5.675e-42 2.21e-43
-1.05e-42 1.4288e-41 5.942e-42 8.385e-42 -8.992e-42 -1.146e-42 7.117e-42 -5.731e-42
1.3115e-41 -1.3004e-41 1.2757e-41 -1.0955e-41 1.986e-42 -3.111e-42 5.744e-42 -4.7e-43
-1.1265e-41 1.3276e-41 -8.622e-42 1.1918e-41 1.3843e-41 -1.3636e-41 -1.537e-42 -1.0423e-41
-1.211e-42 0.5404534 0.05855885 -0.030070422 0.6948763 0.30774367 -0.2267052 0.46864468
0.2331733 -0.27808955 -0.19240697 -0.04615845 -0.4440167 0.16887274 -0.35072854 -0.47031504
0.05992278 -0.0129869655 -0.4683948 0.09838327 0.22687447 -0.23459212 0.6010025 0.09420461
-0.12942724 0.33113557 -0.14333521 -0.23646574 1.43524e-10 -3.825759e-09 -7.818308e-08 -8.4854145e-11
-7.588451e-09 1.2808643e-10 -1.850762e-10 -2.38435e-09 -1.4033658e-08 -2.0302044e-09 4.517437e-08 -1.0022019e-07
3.7217818e-10 4.4605578e-08 -6.764993e-08 -1.3830647e-09 1.7410795e-08 -1.358269e-07 9.279655e-14 6.3379584e-12
-5.900722e-09 -1.3988589e-12 -9.877561e-11 -6.8404686e-09 -9.910278e-14 -2.5274352e-10 7.665973e-09 0.13744442
0.18540941 0.06627176 0.25484332 -0.023796069 0.37828112 -0.13811867 -0.043890048 -0.020221272
-0.18080838 -0.08346133 -0.1438292 -0.22735783 -0.04667227 -0.08904696 -0.24629602 -0.45914206
-0.34418833 0.04299634 -0.06530119 0.24567871 0.06298905 0.2620045 0.044860233 -0.20990285
-0.11813833 0.20739844 2.1800485e-15 -3.3358947e-12 -1.3937538e-13 9.8461935e-14 -8.720249e-11 -1.6784389e-12
-1.188847e-11 -1.0502409e-10 -3.7670145e-11 -9.371773e-11 1.5418936e-10 1.2393418e-10 -1.1335989e-09 -2.4264832e-08
4.921912e-10 -5.397614e-09 1.6693159e-08 -2.3747225e-08 1.2352933e-10 1.2759633e-08 -1.7772694e-09 -4.285997e-09
8.8452917e-10 3.931218e-09 -2.0755214e-08 -2.9377588e-08 -3.241858e-08 -0.14470215 -0.022988312 -0.3057967
-0.05110467 -0.12962717 -0.072460234 -0.1900429 -0.09245274 -0.15741265 -0.09313512 -0.23073265
-0.5561882 -0.1800022 -0.026869174 -0.52799046 -0.2220721 0.11898007 -0.28699386 0.54310375
0.6659525 0.379263 0.46933284 0.4572468 0.34614435 0.23227105 0.5235441 0.4329377

down_path.0.block.0.bias f4 [8]
00000000: b833 133e 6013 bbb6 92d7 3389 9651 5c3d
00000010: c9e8 22ba 2fc4 0a3f b34e 1cb9 0da9 d33c
0.14375198 -5.57529e-06 -2.1647702e-33 0.053788744 -0.0006214497 0.542056 -0.00014906637 0.025837446

down_path.0.block.2.weight f4 [8]
00000000: 1d50 503f 615e 5103 b717 0080 f280 733f
00000010: 680f 0000 9ed0 593f c512 8216 e35f 673f
0.81372243 6.152792e-37 -8.507e-42 0.9511863 5.527e-42 0.8508395 2.1014478e-25 0.90380687

down_path.0.block.2.bias f4 [8]
00000000: ca68 813d afd6 2e3e 2a09 1fb5 d06e 62be
00000010: 13d1 9fba 7077 83be 86f0 b2be d3ec 2f3e
0.06318815 0.17074083 -5.924545e-07 -0.22112584 -0.0012193046 -0.2567706 -0.3494913 0.17180185

down_path.0.block.2.running_mean f4 [8]
00000000: 78eb 6a3e 0400 0000 0400 0000 1e4a 2a3e
00000010: 0400 0000 8143 a23e 0400 0000 84e2 3f3e
0.22941387 6e-45 6e-45 0.16629836 6e-45 0.31692126 6e-45 0.18738753

down_path.0.block.2.running_var f4 [8]
00000000: ad3e 163c 0400 0000 0400 0000 877c 913c
00000010: 0400 0000 70eb 423c 0400 0000 4228 023d
0.0091702165 6e-45 6e-45 0.017759575 6e-45 0.011896953 6e-45 0.031776674

down_path.0.block.3.weight f4 [8, 8, 3, 3]
00000000: 8e01 bd3d 3962 c63d 77d7 10be b1b4 203e
00000010: 7e19 843d a674 74be 690d 633d 3e58 363e
00000020: 3bd7 c6be 850f 983d e3be 973d 2936 983d
00000030: 1a2f 923d 465e 923d de71 903d 620b 973d
00000040: 73cc 983d 936b 963d 8522 0d35 7fe0 0b35
00000050: c520 1135 da21 0f35 5622 0e35 00e6 1235
00000060: 58f6 0a35 abd5 0935 4bb0 0e35 2c2a edbe
00000070: 03f1 b0be e473 723e 5d02 03bf b78d 9b3c
00000080: 131c 3f3e 49e8 c2be 60bf 3abe 2293 313d
00000090: 7ed4 7739 866f 7b39 9500 7e39 1f09 7e39
000000a0: bb0e 8039 0c4a 8039 3cc0 7d39 1f1c 8139
000000b0: 0685 8239 0b6e 503d c9a1 4dbe dcad ddbe
000000c0: e259 033e 5ec3 cbbe 8c07 8abe 5e18 093c
000000d0: 8f92 01bd ac4c b6be 4d23 25be 354d 19be
000000e0: ce9b 22be 48d8 1bbe e3cf 15be 7286 1fbe
000000f0: 3af9 22be 3efc 24be ba31 25be c682 ae3d
00000100: 1a68 e13d 93bd 103e 3255 853d 4603 08be
00000110: 5fc2 cc3d d140 4bbe af7a 57be a599 123e
00000120: 3b1c ee3d a314 963e 2815 c53e a5c7 e0bd
00000130: 2595 f63d 1f99 163e 9314 8bbd ffbd 093e
00000140: 392a e63d d105 a23c e4b7 8b3c 5f96 883c
00000150: 6ee4 923c 4b5e 753c f169 733c 7c52 d63b
00000160: ea27 603b badf 593b b24a 9e35 3a39 a035
00000170: c138 a035 d435 9f35 f123 a135 8b23 a135
00000180: c56a 9f35 8956 a135 ad56 a135 b06d f83d
00000190: ea1b 56bd f36a 18be b032 1fbe 1a5d e9bd
000001a0: 36ab 6abe 8759 29be 3449 37be 3b63 69bd
000001b0: 3cc7 d23a c084 d33a 5349 d23a 88ff d53a
000001c0: d71f d73a a92d d43a 41ae d63a 7390 d93a
000001d0: 3f9b d73a f053 83be 49d7 67be f8eb 29be
000001e0: 1f3b b03c 7d2a 223e 9dae 3f3e 4bf9 a1be
000001f0: e7b5 67be 2f46 49be 911c ffbc 38f0 dabc
00000200: 9f97 d6bc 9107 e6bc cfb6 bbbc dc0a bbbc
00000210: fd92 26bc edf7 99bb 50c3 a7bb 92fd d63d
00000220: 9454 083e 1204 753e 00bd f5bd 8408 afbb
00000230: 411f 703c 863a 13be 4fbe 18be c8ff 0f3e
00000240: 1f46 193e c215 f33d de59 c13d 9bc8 f4be
00000250: 0ba3 bdbe 042e f6be 6722 c83c e89c 913e
00000260: ba7a 0c3e 8540 cdbd 1d95 aebc 320a b6bc
00000270: b54e 3b3d b587 fe3d 926c fd3d e681 4bbc
00000280: 4d73 873d 0586 863d 8a61 9034 abc7 82b3
00000290: c232 80b3 d30c ad31 1072 a9b4 6bcf a8b4
000002a0: 06d5 8234 a8b3 b4b3 d52a b2b3 0d1d 683e
000002b0: 3504 c23d 4fa1 8a3e e560 00be 7752 89be
000002c0: 31c6 05be d6d1 a43c a4ca 58be 4de3 9c3d
000002d0: 167b 1237 7f65 1fb9 4d44 1eb9 be34 ceb9
000002e0: 928a 11ba 623d 11ba 83c9 5bb9 7498 c1b9
000002f0: 4d08 c1b9 9f31 65be 621e 703e 7bc2 6c3c
00000300: 3e7c f2bd 4b18 bd3e 4d12 353e d9cd d4be
00000310: e3d4 1f3c 44d9 b8be 6ab8 4d3e 791b 933d
00000320: 3ec6 8e3d d19e 1dbd 38a0 30be 8a96 2ebe
00000330: 4757 933d fd8e 76bd 5f3a 73bd c953 123e
00000340: 567e 53bd 7a81 683d 9ebf dabd 5fcb 57be
00000350: 822f 44be 1184 543e f9a3 26bc 03a4 123a
00000360: d2f4 fdbc 6ad1 45bc a85c b6bb c3ff d1bd
00000370: a025 4b3c cc85 743d fb07 3b3e d0c3 bb3c
00000380: 80ea ec3d 93b7 113d ebc6 163d 56e2 193d
00000390: 718e 1e3d 0b9e 233d e360 253d 0b3b 0a3d
000003a0: ab33 0f3d c021 113d 2141 b535 08fb b435
000003b0: 13a6 b435 c4df b235 979a b235 9f48 b235
000003c0: 46f9 b635 6eb1 b635 085c b635 79e3 33bd
000003d0: dbd2 7d3c 2a2c 25bd d1fd 723e 62ce ad3d
000003e0: b947 1abd 8136 6d3e 4d3f 4a3d 08ba 203d
000003f0: dcf0 093b f0eb 063b b4a6 063b 7ede 0b3b
0.09228812 0.09686703 -0.14144693 0.15693928 0.06450175 -0.23872623 0.05543271 0.17807099
-0.38836083 0.07424835 0.074094556 0.07432205 0.0713789 0.071468875 0.070529684 0.07375218
0.074608706 0.07344737 5.2576826e-07 5.210822e-07 5.4064395e-07 5.332091e-07 5.294909e-07 5.472393e-07
5.1767483e-07 5.1347405e-07 5.315566e-07 -0.46321237 -0.34558877 0.23677021 -0.5117548 0.018988473
0.18663053 -0.38067845 -0.18237066 0.043353207 0.00023634915 0.00023978771 0.00024223544 0.00024226726
0.00024425038 0.00024469232 0.00024199573 0.0002462575 0.00024894642 0.050886195 -0.20081247 -0.43296707
0.12827256 -0.3979749 -0.26958883 0.008367626 -0.03163391 -0.3560537 -0.16126747 -0.14970858
-0.15879747 -0.15219223 -0.14630084 -0.1557863 -0.15915385 -0.16111848 -0.1613225 0.08521037
0.11006184 0.14134817 0.0651039 -0.13282499 0.09998011 -0.19848944 -0.21042894 0.14316423
0.11626478 0.2931262 0.38492703 -0.10975579 0.12040166 0.14706849 -0.067910336 0.13451384
0.11238522 0.019778164 0.01705546 0.016673265 0.01793119 0.0149760945 0.014856801 0.0065405946
0.0034203478 0.0033244924 1.1793657e-06 1.1937584e-06 1.1937447e-06 1.1862089e-06 1.2005895e-06 1.2005779e-06
1.1877497e-06 1.202062e-06 1.2020661e-06 0.12130296 -0.052272715 -0.14884548 -0.1554668 -0.11394711
-0.22916874 -0.16538058 -0.17899019 -0.0569794 0.0016081105 0.0016137585 0.0016043581 0.0016326765
0.0016412687 0.0016187924 0.0016378836 0.0016598835 0.0016449465 -0.25649977 -0.22640719 -0.16593921
0.021512566 0.1583652 0.18718953 -0.31635508 -0.22627984 -0.19655679 -0.031141551 -0.026725873
-0.026195345 -0.02807978 -0.022914318 -0.022832327 -0.010166881 -0.0046987445 -0.0051197186 0.104975834
0.13313514 0.23927334 -0.119989395 -0.0053415913 0.014655889 -0.14377794 -0.14916347 0.14062417
0.14968155 0.11869384 0.09440969 -0.478093 -0.37038454 -0.48081982 0.024430467 0.28440022
0.13718691 -0.10022072 -0.021311337 -0.022221658 0.045729358 0.12428228 0.12374224 -0.012421107
0.06613789 0.06568531 2.689306e-07 -6.089916e-08 -5.969697e-08 5.0364206e-09 -3.1561694e-07 -3.1443355e-07
2.4369382e-07 -8.4145825e-08 -8.296562e-08 0.22667332 0.09473459 0.27076194 -0.12536962 -0.26820728
-0.13063885 0.020119589 -0.21171051 0.07660542 8.730936e-06 -0.00015201232 -0.00015093498 -0.00039330678
-0.00055519596 -0.0005540458 -0.00020960536 -0.00036925415 -0.00036818013 -0.2238221 0.2344909 0.014450665
-0.118401036 0.36932597 0.17682762 -0.415633 0.009755346 -0.3610326 0.2008988 0.07182974
0.069714054 -0.038481537 -0.17248619 -0.17049614 0.07194381 -0.060194958 -0.05938184 0.14289774
-0.051634155 0.056764103 -0.10681079 -0.21073674 -0.19158748 0.20753504 -0.01017093 0.00055938977
-0.031000528 -0.012073854 -0.0055652447 -0.10253861 0.012399107 0.05969791 0.18264763 0.02292052
0.11568165 0.03557546 0.036810797 0.037569366 0.03871006 0.039945643 0.0403756 0.033747714
0.034961384 0.035432577 1.3504506e-06 1.3484105e-06 1.3459379e-06 1.3327158e-06 1.3307025e-06 1.3283169e-06
1.3632605e-06 1.3611696e-06 1.3586841e-06 -0.043918107 0.015492166 -0.04032532 0.23729636 0.0848663
-0.037666056 0.23165323 0.049376775 0.039239913 0.0021048104 0.0020587407 0.002054614 0.0021342332

down_path.0.block.3.bias f4 [8]
00000000: 58c9 cc3e f13f 753d 6434 28bd 13cb 0f3e
00000010: 5d06 a53e c2f5 3abd a1f9 3f3c 2d95 223e
0.39997363 0.059875432 -0.04106559 0.1404231 0.32231417 -0.04564453 0.011717231 0.15877219

down_path.0.block.5.weight f4 [8]
00000000: 3d90 4d3f 20e8 123f 070d 0f3f d219 a23e
00000010: 70c6 bc3e 22d1 0f3f 7d48 f63e 830b 473f
0.80298215 0.57385445 0.55879253 0.31660324 0.36870146 0.56178486 0.4810218 0.7775194

down_path.0.block.5.bias f4 [8]
00000000: 0b66 173d 5632 e43e 745f 42bd 80e4 3abe
00000010: d217 de3d e8ea d3be abfe 373d edba 26bf
0.03696255 0.44569653 -0.047454312 -0.18251228 0.10844387 -0.41390157 0.044920605 -0.65128976

down_path.0.block.5.running_mean f4 [8]
00000000: 90a5 e53f e08f 5e3f 1bdf 403e 72b0 013f
00000010: 124d a53f c954 2b3f 1dbd 283e 2c08 863f
1.7941151 0.86938286 0.18835108 0.5065986 1.2914145 0.66926247 0.16478391 1.0471244

down_path.0.block.5.running_var f4 [8]
00000000: 59e9 8e3f bc30 8d3f f534 a33d cf8e 033f
00000010: 1596 e63f c84f ff3e d11e a83e cf07 8d3f
1.1164962 1.1030498 0.07969085 0.51389784 1.8014551 0.49865556 0.3283601 1.1018008

down_path.1.block.0.weight f4 [16, 8, 3, 3]
00000000: 2b2c f4bd 43ec b8bd ab3a 973d 8410 2fbe
00000010: 2640 3ebe 1281 36bd 99c5 9abd e1c4 a6bd
00000020: f8a3 8ebc d656 ebbd 21d5 4dbe 04b0 42be
00000030: dee9 bebd d4d9 12be f235 23be 9545 1bbd
00000040: afe3 efbd 1971 07be 9ccf cabd 79eb 5dbe
00000050: 43f9 2ebe 1da8 87bd ed5a 04be 797d a8bd
00000060: 234d 44bd c632 42bb b6df d43d 8f7f 00be
00000070: c0ae e8bd 565f 0abe 8ad8 cfbd 6875 dfbd
00000080: 8877 bebd ed40 34bd 9bf0 23bd 1e9b 84bc
00000090: febd 5a3d f77f 413d c419 1bbd 1e84 1f3d
000000a0: a319 40bc e88b 02be 4e23 c63c fb9b 693b
000000b0: 8721 eebd e25f 0abe 1d0d 32bd 51b6 ee3c
000000c0: 25b6 c4bd 6ec3 8a3c 38a7 bc3d 0284 2b3c
000000d0: 257e fa3d fd5b 5d3e 9a1f 723d 0d6d febb
000000e0: 5828 b63c 6ef5 e03c 8a62 8d3c e024 a43c
000000f0: fb28 d33c 7c69 133d b9aa a03d 79d0 31be
00000100: a8e7 ba3d 72b9 ff3d 2e27 a3be f128 603d
00000110: 622e c23d 7800 70be 6178 f63d 4046 2b3e
00000120: 73f8 3ebe 9392 343e ee3d e33b 1015 c03d
00000130: 07c9 913e c550 26bf 92a2 18be d9ba ed3d
00000140: 8c72 06be 847d 953d 5bb4 6cbc 7f73 1cbe
00000150: 4d75 223d d95c 80be 29ae e3bd 1877 aa3c
00000160: 2194 093e 4942 fe3d f816 783d 59eb 0e3e
00000170: 7099 78bd df66 86be c059 18ba dfc0 6ebd
00000180: 63ce 583d 8abd 5c3e 8cfb 21be 10a9 443e
00000190: e40d 193e c700 3b3d 6e0b 1fbe 85ba bdbc
000001a0: 2777 a73b 88d9 38bd 380a 2abd a978 20be
000001b0: 7c1a 52bd 9ed8 1cbd 2dce 06bd 0564 f23c
000001c0: 1a9c 0a3e 9ed3 033e 7d62 39bd d627 eb3d
000001d0: 98b7 093e 2f59 d23e 29ea 9a3e 1e77 5b3e
000001e0: d274 cdbd 7349 1abe 1641 363d 38c9 1fbe
000001f0: bcba 54be 0df6 f7bd 7063 e13c bf6e 4ebe
00000200: 1f75 d3be a5c0 36bc b59c 39ba 6c67 9ebb
00000210: 570a 13bc f94b b1bc 55db ab3d 39f6 033e
00000220: ea6b d23d 96fb af3e 9f2d b0bb 583e 35bf
00000230: 68fa 84be a74c c33d bdb9 f3bd b11c c4be
00000240: a07e 0d3e 6064 ee3d 7ba2 093e c422 553e
00000250: 477f 433d afe9 283e 2a4b 793d b628 86bc
00000260: c241 b43d a7b2 40bd e8ec 37bc 7824 4ebc
00000270: 9ea0 afbd 3b36 97bc 1385 2abc 1424 acbd
00000280: cc92 35bd 73f5 11bd 316e 3f3d 8234 ec3d
00000290: dc52 343d 9a9a b6bb 754d fb3c cca4 3abd
000002a0: 25d5 01bd 33e8 463c 5337 f7bc b781 243c
000002b0: 70f8 953d f668 d93b 2926 9a3d 6ef6 bc3d
000002c0: e190 933d 92f6 eb3d eb1a 173e 924f cd3d
000002d0: ffb9 333d 9bb8 b13c 6ad5 b4bb b753 003d
000002e0: 2f30 4239 571b a2bb 52c2 d6ba fff9 a2bc
000002f0: f91e fbbc fb88 10ba fadf 0d3e e704 d13c
00000300: 6e39 0d3e 73d6 103e f478 083e 132f f53d
00000310: 518b 473e 6ca8 133e 1795 0a3e 5543 ca3d
00000320: 5688 853b 387a a43d 7081 1f3d e33e 83bd
00000330: 716f e63d 2013 bc3d 599f 4fbc 9917 f1bd
00000340: 4ab1 05bc 7179 6f3d ee01 c2bd a3f3 cc3d
00000350: 9cc4 1e3e 5fd7 c8bd b883 1d3d 4c83 393e
00000360: af52 c83e 5c21 d83d 7a6d bb3e 6417 6b3e
00000370: 2902 233d 8a16 78be 1c5f 8ebe fd18 8cbe
00000380: 118a 53be 0706 053d 93f9 653c 1c1c a4ba
00000390: b29f 80bd 2f37 ddbd 19f0 5ebd e255 32be
000003a0: e5e4 dfbd 8ad0 34bd 359c bb3d bd47 093e
000003b0: 152c e43d 3589 8bbe 979b 72be 62cd 08be
000003c0: 6a8a bdbd 3305 fbbd a2ba 65be e698 f7bd
000003d0: 4b01 08bd 54af 4ebc 626a bcbd b3f2 883c
000003e0: 9cb7 613d 76a3 25be d0c6 a1bd b93a 9ebd
000003f0: 1ab7 6aba 911b dfbc 2540 9abd 7d77 a5bd
-0.11922487 -0.09029438 0.07384237 -0.17096144 -0.18579158 -0.044556685 -0.0755722 -0.081430204
-0.01741217 -0.11491172 -0.20100833 -0.19012457 -0.093219504 -0.14340907 -0.15938547 -0.037908155
-0.11713349 -0.13226737 -0.099028796 -0.21671857 -0.17087273 -0.06623862 -0.1292531 -0.08227057
-0.047925126 -0.0029632314 0.10394232 -0.1254866 -0.11361456 -0.1351293 -0.101487234 -0.10911065
-0.093001425 -0.04400723 -0.04002438 -0.016187247 0.053403847 0.047241177 -0.03786637 0.038944356
-0.011724862 -0.12748682 0.024186756 0.003564595 -0.116274886 -0.13513139 -0.043469537 0.02913967
-0.09605054 0.016938891 0.09211582 0.010468485 0.122310914 0.21617122 0.05911217 -0.0077644647
0.022236034 0.02746078 0.017258901 0.020037115 0.025776377 0.03598927 0.07845063 -0.17364682
0.09126216 0.12486543 -0.3186583 0.054726545 0.09481503 -0.23437679 0.12034679 0.16726017
-0.18649463 0.17634039 0.006934873 0.09379017 0.28473684 -0.64966995 -0.14905766 0.11607904
-0.13129634 0.07299331 -0.014447297 -0.15278433 0.039662648 -0.25070837 -0.11117203 0.020808741
0.13435413 0.12414987 0.06056878 0.13956966 -0.060693204 -0.2625036 -0.00058117136 -0.058289405
0.0529312 0.21556678 -0.15818614 0.19205117 0.14946705 0.04565504 -0.15531704 -0.023160229
0.0051106396 -0.04512933 -0.04151365 -0.15671028 -0.05129479 -0.03829252 -0.03291147 0.029588709
0.1353611 0.12873694 -0.04525994 0.114822075 0.13448942 0.41083667 0.30256775 0.21432158
-0.10032047 -0.15067081 0.044495665 -0.15604103 -0.20774359 -0.12107477 0.027513236 -0.20159434
-0.41300294 -0.0111543285 -0.0007080541 -0.004834106 -0.008974633 -0.021642672 0.08391444 0.12886895
0.10274489 0.34371632 -0.005376532 -0.70798254 -0.25972295 0.09536105 -0.11900661 -0.3830314
0.13817835 0.11640239 0.13440888 0.20814043 0.047728803 0.16495393 0.060862698 -0.016376834
0.08801605 -0.047045376 -0.011225916 -0.012581937 -0.08575557 -0.018458476 -0.010407704 -0.08405319
-0.04432945 -0.03563447 0.046735946 0.115334526 0.044024333 -0.005572629 0.030676583 -0.04556732
-0.03169741 0.012140322 -0.030177748 0.010040692 0.07322776 0.006634827 0.0752681 0.0922669
0.07205368 0.11521639 0.14756362 0.100249425 0.04387855 0.021694472 -0.005518605 0.031329837
0.00018519232 -0.004947107 -0.0016384816 -0.019894598 -0.030654417 -0.0005513576 0.13854972 0.025515033
0.13791439 0.14144306 0.1332739 0.11971869 0.19486739 0.14419717 0.13533436 0.09876124
0.0040750904 0.08031124 0.0389418 -0.06408479 0.112517245 0.09183335 -0.012672269 -0.11772079
-0.008159945 0.058465425 -0.09473024 0.100074075 0.15504688 -0.09806704 0.038455695 0.18116492
0.39125583 0.10553238 0.3660696 0.22958142 0.039796982 -0.24227348 -0.27806938 -0.27362815
-0.20658137 0.03247645 0.014036554 -0.0012520584 -0.062804595 -0.10801541 -0.054428194 -0.17415574
-0.1093233 -0.04414419 0.091606535 0.13406272 0.111412205 -0.27253118 -0.23692165 -0.13359597
-0.09254916 -0.12256851 -0.22434476 -0.1208971 -0.033204358 -0.012615044 -0.091999784 0.01671729
0.055106744 -0.16175637 -0.078992486 -0.07726044 -0.0008953676 -0.027234824 -0.07531766 -0.08079431

down_path.1.block.0.bias f4 [16]
00000000: 1431 67be 434c ec3e 53ee 54be f453 0a3e
00000010: 50b1 003e 9038 99bc 374d 82be 594e cb3d
00000020: c76f fdbd 3deb 47bc 480e 0eb5 30a6 f6bd
00000030: b760 f9bd eb39 a2bd 803e 83b7 e418 3dbe
-0.22577316 0.46151933 -0.20794038 0.13508588 0.1256764 -0.018703729 -0.25449535 0.09927053
-0.123748355 -0.012202081 -5.2919904e-07 -0.120434165 -0.1217665 -0.07921203 -1.564552e-05 -0.18466526

down_path.1.block.2.weight f4 [16]
00000000: 8311 8c3e abbd 713f d0af a13e 64f3 cc3e
00000010: b469 873f 1d08 813e 5f9b 7d3e 04c4 5e3e
00000020: 35d5 983e e5c0 be3e 21be e3b7 47be 6e3f
00000030: d8b4 ba3e fc0a 063f 51d6 a5b6 c470 a93e
0.2735711 0.94430035 0.31579447 0.40029442 1.0579133 0.25201502 0.247663 0.21754462
0.29850164 0.37256542 -2.7149044e-05 0.9325909 0.36466098 0.5236051 -4.942333e-06 0.33093846

down_path.1.block.2.bias f4 [16]
00000000: 8e46 0dbe 0b62 913d 745e ff3d b610 e93d
00000010: 4c98 47bd 598f cfbc e78b a43e a3a7 f73c
00000020: 012c d93d 339a 193e 81e4 3b39 ceba 1a3c
00000030: a361 313e 5a58 9c3d a197 d638 d9f1 d03d
-0.13796446 0.07098778 0.124691874 0.113801405 -0.048729226 -0.025336908 0.32137987 0.030231303
0.10604096 0.15000229 0.00017918834 0.009443952 0.17322402 0.07634039 0.00010232558 0.10202379

down_path.1.block.2.running_mean f4 [16]
00000000: 69e0 bb3d 69b1 503f 1ecf 523e 23d0 883e
00000010: 7dd6 1c3f 2164 0f3f 0736 4e3f 8638 3e3e
00000020: 53f6 c73d 5aad 8a3d 0400 0000 2079 5c3e
00000030: 4ee2 9b3d e65a 1a3d 7a94 e934 f89c d23c
0.09173662 0.81520706 0.20586821 0.26721296 0.61264783 0.5601216 0.8055119 0.1857625
0.097637795 0.067713454 6e-45 0.2153058 0.076115236 0.037684344 4.3507663e-07 0.025709614

down_path.1.block.2.running_var f4 [16]
00000000: 4574 823d 4d60 b43e 40f9 a83e 147c 383e
00000010: 3159 2e3f 96c3 523f 8a29 9a3f e389 3b3e
00000020: 501f c03d cde3 b23d 0400 0000 9fbb f83e
00000030: 4c3b 893d cd7e f63c 93c9 952d b890 b03c
0.06369833 0.35229722 0.33002663 0.18016082 0.68104845 0.8232969 1.2043927 0.18314318
0.093809724 0.08734856 6e-45 0.48580644 0.06700763 0.03008976 1.7028856e-11 0.021553382

down_path.1.block.3.weight f4 [16, 16, 3, 3]
00000000: 0824 e3bc 9655 2d3d f6ef 063d 8ed5 61bd
00000010: 085a f63c d967 6b3c 58cc 12be 7046 4abd
00000020: c097 b8bd 69a4 98bc 4aab 43be 6b6a 213e
00000030: 67d0 2a3e 10ba ccbd 8285 573d 4404 5d3d
00000040: e786 813d 2464 633d 22fd 04be 9a7d 10be
00000050: f8e2 d5bd d8ff c8bd 820c f2bd 1be6 9fbd
00000060: 51f5 f6bd 524f 0abe e187 c4bd 6191 0b3e
00000070: f533 17bd 2935 473e e11f 563c a351 09be
00000080: e756 66bd f388 1dbe eab9 2cbe a628 6abe
00000090: e32b 8dbc 1b99 58be f722 653e 193e fabd
000000a0: e53d 31be a39c 7e3b f684 2cbe 4529 1cbe
000000b0: a8cd e5bd bcb6 a5bd f463 a5bd 7ecc 87bd
000000c0: 0695 d8bd a668 c8bd 4168 c0bd c267 0ebe
000000d0: d77e e7bd 908c f3bd c1a4 03be 3aa4 efbd
000000e0: 32f0 d8bd a5cc e2bd 4c83 b9bd 3bd5 8cbd
000000f0: e812 bdbd 8b5b acbd c53f 6cbd ad76 0f3c
00000100: 23db 57bb 8c1e 0b3b 2bf6 a4bb 450a 13bc
00000110: 124b ecba 6c4a 313d 9dd2 4a3d c5c8 843d
00000120: 41c6 943d 55ba 2e3d e1b5 483d 5826 923d
00000130: 7da6 423d 08ac 883d bbb1 79bb f0fa 89bb
00000140: 13f4 543d 7d29 a5bc 956a 7b3c a2a1 473d
00000150: cf27 91bb e7be 8a3c e8e5 523d aaad 26bd
00000160: 4ccf c7bc 33fe be3b 2cb0 06b9 5f7e 06b9
00000170: 2d86 06b9 6722 08b9 a802 08b9 cdfe 07b9
00000180: 940e 08b9 b2fc 07b9 87fc 07b9 7e94 acbd
00000190: 452d 34be ed63 33bd ccd0 d0bd 873a 1dbe
000001a0: bb8f 89bd 853e ffbd 8c3b e8bd bd4c ecba
000001b0: 324d cabd 4ec4 abbd dd3f 87bd 816c 36bd
000001c0: 5d67 a23c a43f d93d 28cb 0dbe 4433 2bbd
000001d0: 5bb3 913d 2399 4c3d 7fff 90bc 7666 fb3c
000001e0: c92a 3c3d 79d2 08bd 5e99 c63c 3c32 303d
000001f0: a318 21bd 1024 393d 3b31 e338 f095 e238
00000200: f477 e238 9a62 e438 81bd e338 8f9b e338
00000210: 6bed e338 ec6e e338 ab57 e338 d695 b7ba
00000220: f60b 56bd a6f1 9ebc 899c a53c 1dee c6bc
00000230: 07d4 3b3c 48a3 583c d590 a7bc a31a 353c
00000240: 56fa 10be 0ead a4bd 193d cfbd ecbf 5cbd
00000250: af0b 28bd 526e 40bd b336 a63d a7e5 783c
00000260: 3cd9 2a3d 9685 e3bb 8d6a 8a3d f812 983d
00000270: 71e9 e93d f23f 07bd 5965 30bd 4a55 213e
00000280: 6b23 c63a 6ece 4fbd db0b 953d bf38 f23c
00000290: 280e 243d fb2f f4bc 6e80 1a3d 301b aa3c
000002a0: 0a01 b0bd 28ee 833c 483d 9fbc 6318 3fbd
000002b0: 95a7 acbd 59dd 50be fa4b 63bc 4ddd c2bd
000002c0: 2771 a4bd def0 30be 3142 e6bd 751f 393c
000002d0: a176 5abe f8dd 9fbd 8f8d 043d 2270 c2bd
000002e0: dd24 22be e0ef 0cbd adcf 083e 6115 693d
000002f0: 6acb 9e3c 73ac 2d3e f22a 173e 5173 de3d
00000300: 1c3f ff3d d6ae 003e 3c29 e83d 7b27 f13d
00000310: c837 f73d bd06 0f3e d688 843c d857 eb3b
00000320: 1d7c 2b3c 6e07 1fbd 0e13 2dbd 66ed 06bd
00000330: e7f2 8ebd 1e67 93bd 5673 6cbd 0392 8b3d
00000340: 8281 883d a146 52bc 712c 913d d21f 893d
00000350: 9c9b c43c 5f01 bf3d 52b8 253c af80 773c
00000360: 5120 fabd 4b04 15bd cf84 c7bb bf66 07be
00000370: 8bc9 d5bd c0ad 89bd dc20 e6bd 9168 cabd
00000380: 3b52 0bbd c0fb 9fbd 635d 19bd 78fc 37bd
00000390: a360 cbbd 3207 91bd f58e 07be 7ed7 05bd
000003a0: 3eeb a83c 619b c5bd 873e 4539 9390 4639
000003b0: ecc1 4439 de7b 4539 e79f 4539 cdc8 4339
000003c0: 3376 4539 826f 4439 6f91 4239 5ae8 003e
000003d0: 61f2 9a3e bd7e fb3c 5e88 6cbd 818c 763d
000003e0: 9164 bfbd 7377 36be 18c0 81be b7f4 2fbe
000003f0: 6b04 fe3a a04e cb3c 5020 6abd 45e3 71bd
-0.027727142 0.04231795 0.03294369 -0.055135302 0.030072227 0.014368021 -0.14335763 -0.04938358
-0.09013319 -0.018633084 -0.1910831 0.15763251 0.16681062 -0.09996426 0.052617557 0.053959146
0.06324559 0.055515423 -0.12987188 -0.14110413 -0.104436815 -0.09814423 -0.11818792 -0.07807561
-0.12058509 -0.13506821 -0.09596229 0.13629676 -0.036914784 0.19453873 0.013069124 -0.13410048
-0.05623522 -0.15384273 -0.16867796 -0.22867069 -0.01723284 -0.21152155 0.2237662 -0.122188754
-0.17308767 0.0038850687 -0.16847596 -0.15250118 -0.112208664 -0.080914944 -0.08075705 -0.06630801
-0.10575299 -0.09785585 -0.09394885 -0.13906768 -0.1130349 -0.118920445 -0.12855817 -0.117012456
-0.105926886 -0.11074189 -0.09058246 -0.06876608 -0.09232122 -0.08415898 -0.057678003 0.008756322
-0.0032937012 0.0021227924 -0.0050342283 -0.008974616 -0.0018027744 0.043283865 0.049517263 0.06483606
0.072643764 0.04265817 0.04900158 0.0713622 0.047522057 0.06673437 -0.003810032 -0.0042108223
0.05199058 -0.020161385 0.015345235 0.04873813 -0.0044297944 0.016936732 0.051488787 -0.040692963
-0.024390839 0.0058286428 -0.00012844865 -0.00012826313 -0.0001282922 -0.00012982787 -0.0001297096 -0.00012969524
-0.00012975401 -0.0001296874 -0.00012968677 -0.0842676 -0.17595394 -0.04379647 -0.10196075 -0.15354358
-0.067168675 -0.124630965 -0.11339483 -0.0018028241 -0.09878005 -0.083870515 -0.06603978 -0.04453707
0.019824678 0.106078416 -0.13847029 -0.041796938 0.071142875 0.04995073 -0.017699955 0.030688506
0.04593924 -0.033403847 0.024243053 0.043016657 -0.039330136 0.045200408 0.000108333734 0.00010804448
0.00010798863 0.00010890253 0.00010859501 0.000108531785 0.00010868426 0.00010844864 0.00010840533 -0.0014006447
-0.0522575 -0.019402336 0.020216243 -0.024283463 0.0114641255 0.013222523 -0.020454803 0.011053714
-0.14157996 -0.0804082 -0.10119075 -0.05389397 -0.041026767 -0.04698021 0.08115902 0.015191472
0.041711077 -0.006943415 0.06758604 0.07425493 0.114214785 -0.033019967 -0.043065403 0.15755191
0.0015116757 -0.050733976 0.07277652 0.029568074 0.040052563 -0.029808035 0.037720136 0.020764917
-0.08593948 0.016104773 -0.0194384 -0.046654116 -0.08430401 -0.20396937 -0.013873095 -0.09514866
-0.080293946 -0.17279384 -0.11243094 0.011299004 -0.21334316 -0.07806009 0.032361563 -0.09494044
-0.15834375 -0.03440845 0.13360472 0.056905154 0.019384105 0.16960315 0.14762476 0.108618386
0.12463209 0.12566695 0.1133599 0.117751084 0.12071186 0.13967414 0.01617853 0.0071821027
0.010466603 -0.038825445 -0.0422545 -0.032941245 -0.06979924 -0.071974024 -0.05772718 0.06814959
0.06665327 -0.012834222 0.07088555 0.06695522 0.023999982 0.093264334 0.010114746 0.015106364
-0.12213195 -0.036381047 -0.00608883 -0.13222788 -0.10438832 -0.06722593 -0.11236736 -0.09883226
-0.034013968 -0.078116894 -0.037442576 -0.044918507 -0.09930541 -0.070814505 -0.13238128 -0.032676212
0.020619985 -0.09648777 0.00018810677 0.0001893661 0.00018764258 0.00018833528 0.00018846952 0.00018671453
0.00018831417 0.00018733556 0.0001855546 0.12588635 0.30263045 0.030700082 -0.057747237 0.06019259
-0.093453534 -0.17819004 -0.25341868 -0.17183195 0.0019379979 0.024817765 -0.05715972 -0.05905463

down_path.1.block.3.bias f4 [16]
00000000: e081 903e f018 3cbe c1b8 a1bd 7e84 4dbe
00000010: 0640 93be bea9 973d 1484 98be 6838 83bd
00000020: 179f 5ebe 7b4e 8e38 af7b 7fbe be7d 3bbe
00000030: a299 e2bd d833 16bd 225a 743c d28c debd
0.28224087 -0.18368888 -0.07896567 -0.20070073 -0.28759784 0.07405423 -0.29788268 -0.06407243
-0.21740375 6.785706e-05 -0.24949525 -0.18309686 -0.110644594 -0.036670536 0.014914067 -0.10866703

down_path.1.block.5.weight f4 [16]
00000000: 7b66 673e 73cf 613e 3c91 143f c9d2 253f
00000010: 3530 353e b226 303e 7efe e73e e3a6 bc3e
00000020: b715 a33e cd19 9cb8 48ce f03e 2713 e13e
00000030: c25a 643e e34d c53e 6535 003f 0de3 803e
0.22597687 0.22051792 0.5803411 0.6477476 0.17694171 0.17202261 0.4531135 0.36846074
0.31852505 -7.4434654e-05 0.4703238 0.43959925 0.22300246 0.38535985 0.50081474 0.25173226

down_path.1.block.5.bias f4 [16]
00000000: c960 1a3c 2b1e cb3c 3f12 6f3d 48b4 323d
00000010: 35bb 89bc 89be 42bc 34e0 1b3a 5ce8 b93d
00000020: 2541 ad3c bf48 cbb8 c952 c83d 29dc f43d
00000030: 5074 a73c f96b 863d e9d4 4d3d 82d3 353d
0.009422489 0.024794659 0.05836701 0.04362896 -0.0168129 -0.011886247 0.00059461896 0.09077522
0.021149227 -9.693344e-05 0.09781415 0.11956055 0.020441204 0.06563563 0.050251875 0.044391163

down_path.1.block.5.running_mean f4 [16]
00000000: 10d9 be3e 7f01 8e3d 51db cb3e 81b5 cf3e
00000010: b294 473e 68b1 bc3e b9d7 1f3e a922 fa3d
00000020: 14ad e03d 6639 a538 9df9 203e 8d82 bf3d
00000030: 258a d23c 7fe1 8b3d 153e e23b c1ca cb3d
0.3727498 0.06933879 0.39815763 0.40568164 0.19490317 0.368541 0.15609635 0.12213642
0.10970512 7.8785044e-05 0.1572022 0.093510725 0.025700638 0.06830119 0.0069043734 0.099507816

down_path.1.block.5.running_var f4 [16]
00000000: fe72 153e 23a5 4c3d fc55 513f 94b8 a63f
00000010: edc1 233e 2811 fe3d 1cd1 983e b96d 3a3e
00000020: 7a5e 213e 0514 8f33 b314 ad3e 9eb0 013e
00000030: 9e61 6b3c 41c6 923d c042 ea3b ddb7 993d
0.14594647 0.049962174 0.81771827 1.3025079 0.15991946 0.12405616 0.29847038 0.18205918
0.15758696 6.662598e-08 0.33804855 0.1266503 0.0143665355 0.0716672 0.0071490705 0.07505772

down_path.2.block.0.weight f4 [32, 16, 3, 3]
00000000: f7c5 2833 6814 cc32 f8df e031 dd36 49b2
00000010: f936 27b3 cbc7 90b3 e4a2 d7b2 4fc9 5db3
00000020: 11b4 b7b3 41f6 f3b2 77fb 2eb3 c9d2 14b3
00000030: d941 10b3 a366 01b3 96d7 edb2 b563 88b2
00000040: dc9b 9bb2 0102 9fb2 5bc4 2235 ebf2 f5b3
00000050: 528e ecb4 3cb0 d234 1ac9 0fb4 1a6e e133
00000060: 0dcc 1c35 17f2 6f34 a93b a334 324e 61b4
00000070: 08db 03b5 ef6a deb4 ea8a 13b4 9a51 adb4
00000080: 191e b1b4 bb66 2ab4 7aba acb4 26e8 e3b4
00000090: 7b4e ab31 84ee a831 2d9e d7b1 0623 e3b2
000000a0: e15b 16b3 aaaf 28b3 b079 75b2 ece4 aab2
000000b0: ad4d ebb2 a3d9 6c35 1fa2 2a35 9311 be34
000000c0: 5480 3f35 8505 fc34 6dc6 4c34 8c9e 2b35
000000d0: 1cd3 d734 12c5 0134 8078 2fb5 aa45 04b4
000000e0: 819a 11b4 3512 42b5 909b bab3 9685 acb3
000000f0: bee0 5cb5 f77f cdb3 4ad6 82b3 d9b8 79b3
00000100: 3e06 47b3 2d9c 30b3 7027 0eb3 e2dd d9b2
00000110: 6ede 08b3 979a edb2 e0e6 f4b2 a650 0fb3
00000120: f007 7835 e35d 6b35 aa79 f232 6d65 91b4
00000130: 0e95 c0b4 10a4 cfb4 f43e 6bb4 c77d 69b4
00000140: 2326 52b4 c0fc 8aad 122d 88ad bb57 80ad
00000150: 606a 8cad 3f04 8bad 1b32 85ad a1cc 8aad
00000160: c8e8 89ad 2198 87ad 5f32 38b3 c72b c7b2
00000170: 5753 cbb2 745c d6b2 f348 aeb2 98b0 c3b2
00000180: 8e12 cbb2 ec20 d8b2 efde e3b2 47c2 ecb1
00000190: fc9f 0cb2 dc60 ccb2 ebf2 d3b2 17fb bfb2
000001a0: 9fd5 11b3 7546 edb2 3b62 ccb2 d843 d6b2
000001b0: 2e8a 03b3 f8df d0b2 d47e ffb2 80e0 98b2
000001c0: 08a9 8eb2 254c d5b2 6fca c6b2 936f bcb2
000001d0: 51d5 d9b2 c953 15b3 2879 88b3 45b0 b0b3
000001e0: af52 7ab3 395f aab3 15e3 b9b3 5499 e332
000001f0: f8ce 75b3 b251 aeb3 ab58 a032 0d34 b832
00000200: d9b2 9232 3596 c1b1 f68a 0830 fcea 39b1
00000210: 3b6e 37b2 2cf4 fdb1 5014 4bb2 a6ba cab3
00000220: 7d49 6fb3 f557 8cb3 a72e 14b3 6804 cbb2
00000230: 9e77 12b3 28e7 02b3 d0df feb2 57f1 e0b2
00000240: ca12 093b 80e6 74bc dd3a 47bd 0f8c 843b
00000250: 7d81 c4bc ae49 3dbd e1bb fb3d d7c7 e73d
00000260: 8ec5 ae3d 53a1 963d 0064 563d 813d 123d
00000270: 66be d63d 9c63 ee3c c0f0 2cbd eb4c 193e
00000280: c627 443d 54ce 40bc 04e2 713d 768f cdbd
00000290: b187 f6bd 2093 cdbc 589e f1bd 8ad2 f9bd
000002a0: 6bee a93c 3e1b 26bc f97e 1b3b 330c 913d
000002b0: 0b35 993d 0ba2 293d 117f 2a3d ef22 723d
000002c0: 4310 743d 3844 0b3d b759 24bd 06ee d5bd
000002d0: 171b 9dbd 0b06 84bc 906f 09bd 34ca 803d
000002e0: 3a00 bf3d 5026 553d e6c9 2b3d 8303 763d
000002f0: e6e5 bb3c f923 3e3d 9840 b23b b45c 31bc
00000300: 7862 883c 69f1 08bd 7015 33bd 8177 1a3d
00000310: 9a4c c8bc b819 21bd 5e8f 813c 915b be3b
00000320: 5a51 533d df25 ba3d c726 143d dab3 f43c
00000330: 9f18 19bd e49b 9bbc 8dfb 623c 8ae9 2bbd
00000340: 0619 67bd f684 82bd 0060 e9bb 6a97 31bb
00000350: 1914 ba3b 46d5 9ebc 3cbe a8bc 4b58 94bd
00000360: 1bf9 00ba d6aa c03d a11c a83d 4acc 173e
00000370: 9be4 d93d 6fce 953d b903 033e 2048 d03d
00000380: 6256 263d d149 9638 7de5 8938 d2f1 8638
00000390: 5c3f 9038 6a94 8538 95f4 8738 93af a038
000003a0: 1e01 9a38 58ad 9f38 c8de 373d 23db c2bc
000003b0: 5973 8b3b 06e3 e1bc 8413 56ba 55fc 113d
000003c0: 46c1 d0bd 349c f6bd f108 debd 70a1 c1bd
000003d0: eba9 cabd 5b06 94bd 660c 4d3a e9b2 d43b
000003e0: dd00 db3c 3927 64bd 067c a5bd c33d cebd
000003f0: cb1e 583d 566b e03c 5a5b a8bc 780f ed3c
3.9295596e-08 2.3758005e-08 6.5447203e-09 -1.1712214e-08 -3.8932715e-08 -6.741865e-08 -2.5103368e-08 -5.163866e-08
-8.5543554e-08 -2.8400907e-08 -4.0741238e-08 -3.4650643e-08 -3.35875e-08 -3.01285e-08 -2.7688468e-08 -1.5877825e-08
-1.8115252e-08 -1.8510947e-08 6.063544e-07 -1.1452888e-07 -4.4061977e-07 3.9243776e-07 -1.3391073e-07 1.0497406e-07
5.841146e-07 2.2346681e-07 3.0404524e-07 -2.0983205e-07 -4.9120035e-07 -4.1428527e-07 -1.3740978e-07 -3.2283134e-07
-3.2990718e-07 -1.5869857e-07 -3.2173176e-07 -4.2450955e-07 4.985677e-09 4.9165596e-09 -6.275306e-09 -2.6442205e-08
-3.500816e-08 -3.9275314e-08 -1.42885455e-08 -1.9894706e-08 -2.7392923e-08 8.8233554e-07 6.356585e-07 3.5403045e-07
7.1339787e-07 4.6942674e-07 1.9071167e-07 6.393318e-07 4.0200473e-07 1.2085755e-07 -6.536793e-07 -1.2318802e-07
-1.3560386e-07 -7.2297127e-07 -8.6895966e-08 -8.033673e-08 -8.228343e-07 -9.569333e-08 -6.092576e-08 -5.814295e-08
-4.6338975e-08 -4.1120234e-08 -3.309782e-08 -2.5363025e-08 -3.1867266e-08 -2.766073e-08 -2.8510328e-08 -3.336813e-08
9.239875e-07 8.7680945e-07 2.8227834e-08 -2.7082152e-07 -3.5871238e-07 -3.8676126e-07 -2.1908983e-07 -2.1745574e-07
-1.9571648e-07 -1.5801027e-11 -1.5481425e-11 -1.4590875e-11 -1.5963397e-11 -1.5804356e-11 -1.51426e-11 -1.5779657e-11
-1.5678472e-11 -1.5415282e-11 -4.288665e-08 -2.3186557e-08 -2.3670209e-08 -2.4954922e-08 -2.028944e-08 -2.2781293e-08
-2.3640748e-08 -2.516068e-08 -2.6527657e-08 -6.8905908e-09 -8.185449e-09 -2.3792772e-08 -2.46741e-08 -2.2349509e-08
-3.395473e-08 -2.7622471e-08 -2.3793396e-08 -2.494373e-08 -3.0626488e-08 -2.4316236e-08 -2.9743582e-08 -1.779722e-08
-1.6607842e-08 -2.483109e-08 -2.314229e-08 -2.1936819e-08 -2.535913e-08 -3.4767968e-08 -6.355032e-08 -8.227702e-08
-5.828286e-08 -7.933563e-08 -8.65604e-08 2.6496004e-08 -5.7231745e-08 -8.117367e-08 1.8666773e-08 2.144409e-08
1.7077967e-08 -5.634116e-09 4.9673987e-10 -2.7054616e-09 -1.06770655e-08 -7.3910282e-09 -1.1820774e-08 -9.440309e-08
-5.571336e-08 -6.535257e-08 -3.4501365e-08 -2.3634314e-08 -3.4102065e-08 -3.047822e-08 -2.967127e-08 -2.618678e-08
0.002091574 -0.014947534 -0.04864012 0.0040450166 -0.023987526 -0.046212845 0.122916944 0.11317413
0.08533774 0.07354989 0.05234146 0.035703186 0.10485534 0.029100232 -0.042221785 0.14970748
0.047889493 -0.011767942 0.059053436 -0.100371286 -0.120376 -0.025094569 -0.1179778 -0.1219836
0.02074357 -0.010138331 0.0023726805 0.07082405 0.0748082 0.0414143 0.041625086 0.059115347
0.05958582 0.034000605 -0.04012462 -0.1044579 -0.076711826 -0.016116163 -0.03355366 0.06288567
0.09326215 0.05203849 0.041940592 0.060061943 0.022936773 0.046421025 0.005439829 -0.010825325
0.016648516 -0.03343335 -0.043721616 0.037711624 -0.024450589 -0.039331168 0.015815433 0.0058092554
0.051591255 0.090892546 0.036169793 0.029870916 -0.037376996 -0.018995233 0.01385392 -0.041970767
-0.05642035 -0.063730165 -0.00712204 -0.0027098306 0.0056786654 -0.019388806 -0.020598523 -0.07243403
-0.0004919932 0.09407584 0.082085855 0.14824024 0.10639306 0.07314765 0.12794389 0.10170007
0.040609725 7.166307e-05 6.5754146e-05 6.4346605e-05 6.878257e-05 6.3695785e-05 6.4828586e-05 7.662098e-05
7.3435e-05 7.6139986e-05 0.044890195 -0.023786133 0.004255694 -0.027574074 -0.000816636 0.035641033
-0.10193114 -0.12041512 -0.10841549 -0.0945462 -0.098956905 -0.07227775 0.0007821977 0.0064910543
0.02673381 -0.05570147 -0.08080296 -0.10070374 0.05276374 0.027394932 -0.020551372 0.02893804

down_path.2.block.0.bias f4 [32]
00000000: 774b 4ab6 2ec8 0bbe 67b2 83b6 4243 e03e
00000010: 7d25 533e ec15 2ebe 8224 513e 2246 babd
00000020: c84a 32a6 2291 21b0 0b9e 369e 7a63 8ead
00000030: 1291 86bd 178f 139c b4b6 a93e 3b9f 53b9
00000040: 7aee 163a fdf1 1abd f3bb 99b4 aa8d 303d
00000050: 3239 f6a7 5bf5 c83d 40ed 76b1 c2c2 9fb2
00000060: 3f22 1c94 a6af 7dbe 82eb 063e 3d31 5a3d
00000070: 88fc cdb1 d69f 4592 da18 3ebd e266 803e
-3.0144272e-06 -0.13650581 -3.924873e-06 0.43801314 0.2061977 -0.1700055 0.20424083 -0.09095408
-6.1857503e-16 -5.8777705e-10 -9.667682e-21 -1.6187707e-11 -0.06570639 -4.882316e-22 0.33147204 -0.00020181846
0.00057575817 -0.037828434 -2.8635222e-07 0.04310385 -6.8340727e-15 0.09812423 -3.5932572e-09 -1.8598602e-08
-7.882741e-27 -0.24774036 0.13175777 0.053269614 -5.9949947e-09 -6.235925e-28 -0.04641042 0.25078493

down_path.2.block.2.weight f4 [32]
00000000: ac1b f9b4 0bd2 cf3e 0308 45b6 fcf0 e93e
00000010: a6ed db3e 7a8b 923e 3049 e63e 0ff6 9a3e
00000020: 0b7e 0938 da87 70af 5141 a436 2f4d 5d3a
00000030: dd02 7d3e f2bb 4035 bf08 1c3f 8d02 cf39
00000040: 4c6f c636 3a79 e03e 214f 3aba b20b d33e
00000050: 9196 0d36 4c69 743e 1474 14b6 9e55 00b7
00000060: 2673 5eb4 290a bd3e eab7 143f 42f2 b63e
00000070: 7c46 0338 5c57 44ae c24e d23e 729f bd3e
-4.6399998e-07 0.40589938 -2.935995e-06 0.4569167 0.4295475 0.28622037 0.44977713 0.30265853
3.2780732e-05 -2.1876137e-10 4.8951847e-06 0.0008441982 0.24708124 7.179907e-07 0.60950845 0.00039484017
5.9138165e-06 0.4384249 -0.0007107128 0.4121986 2.1098278e-06 0.23868293 -2.2121285e-06 -7.649329e-06
-2.0717252e-07 0.36921814 0.5809313 0.35731703 3.1298478e-05 -4.464283e-11 0.41075712 0.3703571

down_path.2.block.2.bias f4 [32]
00000000: 3d2d a4b8 528b 903d bc43 21ba 8bb7 bf3d
00000010: aab2 d1bd 8d5f 083e 1d9b c13d ff23 7c3d
00000020: 33eb 8138 e3d6 03bb c158 773a b621 3fba
00000030: 9507 583d c484 b4b9 7aca 0a3c 2e34 ac36
00000040: ddf1 1eb8 2fe6 833e c763 4536 062b ac3d
00000050: f94e fc36 3a90 39be 1b1e 0dba 6f1e d2b9
00000060: 6d6c 70ba 0493 333d 8be6 c73d f346 62be
00000070: 6449 afb8 ecfc eeb8 c194 f33d 58cb 4b3d
-7.828556e-05 0.07057823 -0.0006151756 0.0936118 -0.102391556 0.133177 0.09453414 0.061557766
6.1950086e-05 -0.0020117096 0.00094355276 -0.0007291095 0.052741606 -0.00034431193 0.008471126 5.132074e-06
-3.789539e-05 0.25761554 2.9413366e-06 0.084066436 7.519379e-06 -0.18121424 -0.0005383209 -0.00040076996
-0.000917143 0.043841377 0.097607695 -0.22097377 -8.35832e-05 -0.00011395835 0.11893607 0.04975447

down_path.2.block.2.running_mean f4 [32]
00000000: 4191 4833 5338 ce3d 3e1d 570d f271 e53e
00000010: e29d b33e 92c4 ac3d 59a0 553e bcbf 413d
00000020: 0400 0000 bdfa 8b27 0400 0000 0400 0000
00000030: 90c6 aa3c 0400 0000 e6cb c03e 01d9 0616
00000040: dcbf 113a 6695 803e 0400 0000 9307 f73d
00000050: 0400 0000 6d8a c63d 0400 0000 0400 0000
00000060: 0400 0000 d74f a23c 3bd4 0b3f 9e7e eb3d
00000070: 0400 0000 0400 0000 e148 873d 625e 083e
4.6698236e-08 0.10069337 6.628719e-31 0.44813496 0.35081393 0.0843593 0.20861949 0.047301993
6e-45 3.88521e-15 6e-45 6e-45 0.020846635 6e-45 0.37655562 1.0892908e-25
0.00055599003 0.25113982 6e-45 0.120619915 6e-45 0.09694371 6e-45 6e-45
6e-45 0.019813461 0.54620713 0.1149876 6e-45 6e-45 0.066056974 0.13317254

down_path.2.block.2.running_var f4 [32]
00000000: 95fc 122a 9a04 c63d 1bea 0804 e15e 863e
00000010: 3910 233e 9c42 883d 1e72 f33d caf6 fa3c
00000020: 0400 0000 e1ed 8b19 0400 0000 0400 0000
00000030: 79aa ac3b 0400 0000 5135 723e 59e4 5711
00000040: 831e 6e31 be6a 853e 0400 0000 1ce4 a23d
00000050: 0400 0000 ee6a c23c 0400 0000 0400 0000
00000060: 0400 0000 362c 303c d2d0 b33e 0fe1 cc3c
00000070: 0400 0000 0400 0000 dae9 153d 678b ed3d
1.3055037e-13 0.096688464 1.609422e-36 0.26244262 0.15924157 0.0665333 0.118870005 0.030635256
6e-45 1.4468342e-23 6e-45 6e-45 0.0052693454 6e-45 0.23653151 1.7030875e-28
3.4650902e-09 0.26058 6e-45 0.07953665 6e-45 0.023732629 6e-45 6e-45
6e-45 0.010752728 0.35120255 0.02500966 6e-45 6e-45 0.03659997 0.115988545

down_path.2.block.3.weight f4 [32, 32, 3, 3]
00000000: 6b1f aa38 ff71 9d38 8aec 9a38 4b74 a738
00000010: 54c1 a438 64dd a638 525a a138 26c7 9a38
00000020: 8679 a038 2b97 45bc 85e5 e33d 42d3 b83d
00000030: 03e8 d3bc f082 26bc 9ad8 a4bd 9848 9b3e
00000040: d25b 7f3e 993b 823e 0495 5e3a 6fcd 573a
00000050: 3b56 533a 0650 5d3a 6a78 563a 12dd 513a
00000060: 28da 5c3a 179c 553a 2a0f 513a 1329 a4bd
00000070: 8912 b9bd e0cc 02be 0fe2 6dbd c77c abbc
00000080: 3fc8 86bd b9bd acbd 8aad 30be 99ef cbbd
00000090: cbc3 8d3e 2079 1bbd b133 45be 8d10 123e
000000a0: cf2c 343c 89b2 ecbd a22e 6f3e 47fc f1bd
000000b0: 76b4 81be 83f3 b0bd 235d 3fbd a9c5 c2bd
000000c0: 2966 1fbd a8df d23c 4c91 f0bc 48f8 493d
000000d0: 39ac e93d 5a0c 1c3d ae12 bebd 8067 14bd
000000e0: 2885 1ebd 2de8 9bbc 6a0e a03c d96a 8c3d
000000f0: fb27 36bd b409 db3d 73ce a53d 9e09 593c
00000100: 9ec7 353e 8406 833d 818c 7ebb 6576 ab3d
00000110: 14e0 42bc 978d 28bd 8b40 9e3d badd 263a
00000120: b3f3 41b8 7f96 43b8 18b2 44b8 097e 41b8
00000130: 1a5a 43b8 e095 44b8 afb0 42b8 f6b1 43b8
00000140: d091 44b8 47c5 e83a 8da5 e83a 4345 e83a
00000150: 697b e83a cf5d e83a 8eff e73a 95b5 e83a
00000160: 159a e83a 433d e83a e34a 6aba bf11 69ba
00000170: 9c5c 67ba 97fa 69ba a690 68ba daae 66ba
00000180: 7e8e 6aba b00d 69ba bc13 67ba a61f 433a
00000190: 1c3a 3f3a 943b 393a 8083 423a d4c2 3e3a
000001a0: 587e 383a fca6 413a 9f97 3d3a 81c2 373a
000001b0: 4fc3 983b a3e6 153d 818e 75bd 365b 33bd
000001c0: 3491 093d c8b7 d1bc c760 07be 04e4 46bd
000001d0: 7341 b0bd 9164 003a 37c7 f539 30ea f139
000001e0: c5b7 ff39 1abc f439 abde f039 155d 003a
000001f0: 97aa f539 84b9 f139 3367 803e dcc9 fa3d
00000200: d723 91bd cb5b 0e3d 835d 2b3d 37b4 37be
00000210: efa3 4d3e 887d 943d d6d4 7abe 3d90 27b8
00000220: 6afe 75b7 d6f3 f9b6 fe70 16b8 ab96 29b7
00000230: 0ca8 13b6 a1ac 1cb8 f969 44b7 7607 7db6
00000240: c2d8 7539 2e84 0f38 8581 ebb8 dabc 6b39
00000250: 99d6 a938 de4a 50b8 9520 1939 d07c 3f38
00000260: e1f1 06b8 5c4b de3d 8647 213b 6f0c bc3a
00000270: a69d 903d d9ec 223c 07c6 aebb 0364 993c
00000280: 1faa e7bc 598d afbd 7a8d f635 0dc3 98b6
00000290: 6646 e5b7 a5b0 8e37 b2ed 8a37 6b4d b5b5
000002a0: 0eac 9336 e263 9135 3482 6ab7 1802 eabd
000002b0: 96c2 94bd d0a1 82bc 999a 3bbe 578a 1ebe
000002c0: 4f0d 47bd 2ffb 24be 23c8 ffbd 768a be3d
000002d0: 5832 c7b8 c4b6 03b9 dc18 0bb9 17f3 c8b8
000002e0: 4598 04b9 13e7 0bb9 eb5f c2b8 3749 01b9
000002f0: 2999 08b9 096d 5c3e f93a 143d bda4 d9bd
00000300: 2a49 1f3e 7857 f33c 37f7 debd eb5f 3c3e
00000310: 93d0 0d3d b062 18be dba2 f739 c3b8 f639
00000320: 248e f639 9398 f839 5fe7 f739 16b7 f739
00000330: 52ad f639 8704 f639 ad0f f639 d968 a939
00000340: e48e a639 f50c a539 b0c2 a939 dd2d a739
00000350: e78e a539 d894 aa39 2fe1 a739 24ce a539
00000360: d569 563a b92c 553a c589 543a 4ed0 563a
00000370: d9af 553a 6f0d 553a edcd 563a 2d98 553a
00000380: 93df 543a 7fee 0bbd 159b d83c 701e 043b
00000390: 0bc2 41bd db56 4cbd 95de fbbc ecc6 84bc
000003a0: fd2f 5fbd da45 e0bc d8ab 553c efca 823b
000003b0: 1b88 81be 52ff 22bc 7797 393d 6fcc 16be
000003c0: 10f9 a4bd 91fa 3b3c 9c91 6dbd f5b2 66bc
000003d0: 40dd e73d 1316 463d 1525 a9bd 3830 a63c
000003e0: 01b6 97bc 6721 103d 0d74 b23d 42cf 6bbc
000003f0: d405 4539 2b5b 2739 5e52 2139 26eb 4139
8.112084e-05 7.507577e-05 7.387351e-05 7.984842e-05 7.8561396e-05 7.956734e-05 7.693902e-05 7.3803865e-05
7.65203e-05 -0.012059967 0.11127762 0.09024669 -0.025867468 -0.010163054 -0.08049126 0.30328822
0.2493737 0.25436094 0.0008490833 0.0008232211 0.00080618606 0.00084424054 0.0008181395 0.00080056593
0.0008424842 0.00081485644 0.0007974977 -0.08015647 -0.090367384 -0.12773466 -0.058076914 -0.020933522
-0.06581163 -0.08434624 -0.172537 -0.09957809 0.2768844 -0.03795731 -0.19258 0.14264126
0.010997011 -0.115574904 0.23357633 -0.11815696 -0.25332993 -0.08640196 -0.04671968 -0.09510357
-0.038915787 0.025741413 -0.029366158 0.049309045 0.11409802 0.038097717 -0.092809066 -0.036231518
-0.038701206 -0.019031608 0.019538123 0.06856317 -0.044471722 0.1069521 0.08096018 0.013246922
0.17751929 0.06397727 -0.003884107 0.08372191 -0.011894245 -0.041150656 0.07727154 0.00063654373
-4.624175e-05 -4.6631783e-05 -4.6895904e-05 -4.6132165e-05 -4.6575537e-05 -4.6869623e-05 -4.6417754e-05 -4.6657362e-05
-4.686584e-05 0.0017758989 0.0017749533 0.0017720837 0.0017736974 0.0017728152 0.0017700063 0.0017754311
0.0017746115 0.0017718453 -0.00089375506 -0.0008890889 -0.00088257506 -0.00089255854 -0.0008871652 -0.00087998586
-0.00089476246 -0.0008890284 -0.00088148913 0.00074433757 0.0007294731 0.0007066068 0.0007420108 0.00072769565
0.00070378697 0.00073872483 0.0007232371 0.00070098793 0.0046619545 0.036596905 -0.059950355 -0.043788157
0.033585742 -0.025600329 -0.13220511 -0.048557296 -0.086062334 0.0004897798 0.00046878468 0.00046141585
0.0004877431 0.00046679453 0.00045942268 0.0004896683 0.0004685714 0.00046105322 0.25078735 0.12245533
-0.07086914 0.03475551 0.041837227 -0.1793984 0.20082067 0.07250506 -0.24495253 -3.9950235e-05
-1.4662373e-05 -7.4491645e-06 -3.586802e-05 -1.0108265e-05 -2.2002523e-06 -3.735407e-05 -1.1707184e-05 -3.770428e-06
0.0002344577 3.421696e-05 -0.00011229798 0.00022481699 8.09852e-05 -4.966079e-05 0.00014603355 4.565419e-05
-3.2173357e-05 0.108542174 0.0024609282 0.0014346967 0.07061319 0.009944164 -0.0053336653 0.018724447
-0.028279362 -0.08571882 1.8369603e-06 -4.55266e-06 -2.733171e-05 1.7009976e-05 1.6561567e-05 -1.3508082e-06
4.400971e-06 1.0832412e-06 -1.3977802e-05 -0.114261806 -0.07263677 -0.015946299 -0.18320693 -0.1548246
-0.048596676 -0.16111444 -0.12489345 0.09303753 -9.498437e-05 -0.00012561219 -0.00013265334 -9.582022e-05
-0.00012645226 -0.00013342155 -9.268507e-05 -0.00012329673 -0.00013027027 0.21525969 0.036189053 -0.106271245
0.15555254 0.029704794 -0.10886996 0.18395965 0.03462274 -0.14881396 0.00047232848 0.00047058435
0.0004702668 0.00047415923 0.00047283896 0.0004724792 0.0004704991 0.0004692415 0.00046932456 0.0003231231
0.0003176845 0.00031480906 0.00032379245 0.00031886893 0.00031577723 0.00032535824 0.00032020497 0.0003162484
0.00081792224 0.00081319694 0.00081076875 0.0008194492 0.00081515085 0.0008127307 0.00081941375 0.0008147981
0.00081204734 -0.034162994 0.026441136 0.0020159744 -0.047304194 -0.04988752 -0.030745784 -0.016208135
-0.054489125 -0.027377058 0.013041459 0.0039914767 -0.25299153 -0.009948568 0.045310464 -0.14726423
-0.080553174 0.011473314 -0.058000192 -0.014080753 0.11321497 0.048360895 -0.08259026 0.020286664
-0.018519403 0.035188105 0.08713541 -0.014392676 0.00018789555 0.00015960324 0.0001538484 0.00018493514

down_path.2.block.3.bias f4 [32]
00000000: 0327 ecbd d762 8cbd 698b 443b b271 99bc
00000010: 6551 9dbc 596b 85ba fd7b 04bd 2377 6ebe
00000020: 173d df96 34f5 6ca6 2875 1bb9 182e ba3d
00000030: dc4b 54b0 fb31 c93d 8c38 563e bf43 18be
00000040: 3b5b f3bd d205 7bb8 f81f fcbd d219 bd99
00000050: e7e2 90bc fedf 01ba 2f9b ecb3 dbd6 e7bc
00000060: 07f4 17bb fdb5 10bb 3f70 1dbb 6dec 833a
00000070: 3928 11be f71a 993b ed2b d73d ae02 7fbd
-0.115308784 -0.0685479 0.0029990321 -0.018730972 -0.019203851 -0.0010179087 -0.032344807 -0.23287635
-3.6066146e-25 -8.221126e-16 -0.00014825596 0.09090823 -7.7232953e-10 0.09823986 0.20920008 -0.14869593
-0.11882635 -5.9848484e-05 -0.12310785 -1.955257e-23 -0.01768632 -0.0004954337 -1.1017834e-07 -0.028300693
-0.0023186223 -0.002208113 -0.0024023203 0.0010064967 -0.141755 0.004672404 0.10506425 -0.062258415

down_path.2.block.5.weight f4 [32]
00000000: 2740 ba3e ff15 46be 15d8 d1bd 6dc1 22bd
00000010: 47f9 003e 2833 9bb7 ddb5 7e3d 7429 a43e
00000020: 4153 8bb6 b719 80b7 7a26 adb9 49fd a43e
00000030: 98cd 86ba 52f2 323e 64ff bf3e b724 373e
00000040: ea10 f8bd 550c a9b8 383f e83d 85d2 2ab7
00000050: 2038 4d3e fc30 00b8 833a dcb3 3aad 86bd
00000060: 662a 56ba 6fcd 7fb9 5fee f9bb 884b 3bb6
00000070: 9c72 013e 8c55 dcbd f070 213e b697 a4bd
0.3637707 -0.19344328 -0.102462925 -0.039735246 0.12595092 -1.8501261e-05 0.062185157 0.32062876
-4.152215e-06 -1.5270763e-05 -0.000330258 0.3222449 -0.001028466 0.1747525 0.37499535 0.178851
-0.12112601 -8.060845e-05 0.11340183 -1.0181805e-05 0.20040941 -3.05632e-05 -1.02551915e-07 -0.06576009
-0.000816977 -0.00024395225 -0.007627293 -2.7909136e-06 0.12641376 -0.10758504 0.15765738 -0.08036749

down_path.2.block.5.bias f4 [32]
00000000: 218d 8e3c aa2c 9dbd 962a 13bd 307a 5cbb
00000010: c585 873c 5081 9cb7 6d5d 8dba 609c ef3d
00000020: ef8d 9b36 5791 d7b7 201b bdb6 89c9 7a3d
00000030: 829d 4037 1f1a 743b c3e6 da3c a1c0 68bd
00000040: d12e afbb 8d6b 1f36 0da6 2cbc 2800 00b8
00000050: 1b6e 473c 935a 4ab8 717b 2038 5dc2 dfbb
00000060: 71ee 9639 413c d839 c454 aaba 5cde 0db5
00000070: 074d f93c 2ba6 3dbc 40f1 0e3e 317d 903b
0.01740128 -0.076745346 -0.035929285 -0.0033642165 0.016543278 -1.8656865e-05 -0.0010785289 0.11699748
4.635883e-06 -2.5697676e-05 -5.6357967e-06 0.061227355 1.1480764e-05 0.0037247015 0.026721364 -0.05682433
-0.005346157 2.375545e-06 -0.0105376365 -3.0517724e-05 0.012172247 -4.8244907e-05 3.8261936e-05 -0.00682859
0.00028787882 0.00041243623 -0.0012995233 -5.285017e-07 0.030432237 -0.011575262 0.13959217 0.004409455
