weights/old/unet-test11.pt (torch_old, 478380 bytes, 92 tensors)

down_path.0.block.0.weight f4 [8, 3, 3, 3]
0	0x3e7a672b	0.24453418
1	0x3bf60861	0.007508323
2	0xbd98b905	-0.07457165
3	0x3ee12fad	0.43981686
4	0x3d940000	0.072265625
5	0x3c5f6b2a	0.01363639
6	0x3db3f70c	0.08787355
7	0xbe0a8d97	-0.13530575
8	0xbedc758a	-0.43058425
9	0xbb928370	-0.004471235
10	0xbeb892b5	-0.3604943
11	0xbf3349c0	-0.7003441
12	0x3df12e8c	0.11776456
13	0xbe2b5daa	-0.16734949
14	0xbf0052ec	-0.5012653
15	0xbe2d2399	-0.1690811
16	0xbe367a82	-0.1782017
17	0xbec4b7a9	-0.38421372
18	0x3ecdb54a	0.40177375
19	0x3e33b030	0.17547679
20	0x3e06eadc	0.13175529
21	0x3f2a9dda	0.6664711
22	0x3d65a1d9	0.056062553
23	0x3e86fff4	0.26367152
24	0x3f50e1aa	0.81594336
25	0x3d97b2c1	0.074071415
26	0x3e2d2851	0.1690991
27	0xbd6f6fd2	-0.05845625
28	0xbc765f20	-0.015037328
29	0x3d55c70c	0.05219178
30	0xbd347189	-0.044053588
31	0xbb9173d5	-0.004438857
32	0x3d8c5afd	0.06853292
33	0xbd72e1eb	-0.059297483
34	0xbc2cd60d	-0.010549081
35	0x3d838733	0.064222716
36	0xbdbaf99b	-0.0912964
37	0xbd5ffad5	-0.05468257
38	0xbbe8237a	-0.0070843073
39	0xbd84b951	-0.06480659
40	0xbd07c988	-0.03315118
41	0x3d4a9e27	0.049467232
42	0xbdaaea93	-0.08345523
43	0xbd020e22	-0.03175176
44	0x3d052c4f	0.03251296
45	0xbd8985c9	-0.067149706
46	0xbd13edb9	-0.036115382
47	0x3cb39fc5	0.02192677
48	0xbda02cf0	-0.07821071
49	0xbccbd30f	-0.024880914
50	0x3d08e2fd	0.033419598
51	0xbd8cb36a	-0.06870158
52	0xbcf3c26b	-0.029755792
53	0x3d17a8c3	0.037026178
54	0x05877b0b	1.2740538e-35
55	0x84ecdb63	-5.568481e-36
56	0x04790ce1	2.9275723e-36
57	0x8699979d	-5.777498e-35
58	0x84fc0e0d	-5.925782e-36
59	0x047917a0	2.9280657e-36
60	0x80001276	-6.623e-42
61	0x80042dcd	-3.83772e-40
62	0x00000b33	4.018e-42
63	0x00001210	6.48e-42
64	0x00001eab	1.1002e-41
65	0x00000153	4.75e-43
66	0x00001e3f	1.085e-41
67	0x800011bd	-6.363e-42
68	0x00001f40	1.121e-41
69	0x000003df	1.389e-42
70	0x80001beb	-1.0015e-41
71	0x80000ab8	-3.845e-42
72	0x00001ae1	9.642e-42
73	0x00001712	8.276e-42
74	0x8000115b	-6.226e-42
75	0x00001b0e	9.705e-42
76	0x80001aba	-9.588e-42
77	0x800007e5	-2.832e-42
78	0x80001602	-7.895e-42
79	0x80002169	-1.1985e-41
80	0x00000174	5.21e-43
81	0xbb19c54d	-0.0023463548
82	0x3cc26df4	0.02373407
83	0x3cef3092	0.029197965
84	0xbc05f640	-0.008176386
85	0xbbb4bc07	-0.0055155787
86	0x3cc48b90	0.02399233
87	0x3b7ca16a	0.0038548359
88	0xbc47ebb8	-0.012202196
89	0x3af1ce2a	0.0018448282
90	0x3a8a26d0	0.0010540131
91	0xbbee5e0a	-0.007274394
92	0x397b15c8	0.0002394534
93	0xba6decb2	-0.0009076103
94	0xbb5a973b	-0.00333543
95	0xbc2b5a85	-0.010458593
96	0xba731047	-0.000927214
97	0xbac47de3	-0.001499113
98	0xb978f049	-0.00023740636
99	0xbaba2813	-0.0014202617
100	0xbbacfb73	-0.0052789985
101	0xba821633	-0.0009924829
102	0xba21c79e	-0.0006171408
103	0xba40d756	-0.00073563063
104	0x3a079d26	0.0005173258
105	0x38c7bab0	9.523833e-05
106	0xb9b87e3c	-0.00035189267
107	0xbb89ee96	-0.00420935
108	0x3d89fa11	0.067371495
109	0xbdceb4ac	-0.10093054
110	0x3cf29c23	0.029615467
111	0xbd5cf48d	-0.05394416
112	0xbdaedb5d	-0.08537934
113	0xbc3ecf3a	-0.011646086
114	0x3dbff99e	0.093737826
115	0xbd667897	-0.056267347
116	0xbd40289f	-0.04691374
117	0xbcba74eb	-0.022760829
118	0xbd96b90d	-0.073595144
119	0x3c8be511	0.017077
120	0xbd17cd25	-0.037060875
121	0x3cbf5e13	0.023360288
122	0xbb58d3c8	-0.0033085216
123	0xbd88d525	-0.06681279
124	0xbbc57e0e	-0.00602699
125	0xbd868f30	-0.065702796
126	0xbc3153aa	-0.01082317
127	0x3c7ee5a4	0.01555768
128	0xbd8df908	-0.069322646
129	0x3c1f666a	0.009729007
130	0x3b458215	0.003013735
131	0xbc696111	-0.014244334
132	0xbcc3f628	-0.023921087
133	0x3cbe4aae	0.02322897
134	0x3d1b6d1f	0.037945863
135	0xbe23d26e	-0.15998241
136	0x3e3eb8d5	0.18625195
137	0x3eadf93b	0.3397921
138	0xbed3cdaa	-0.41367847
139	0xbdd6de0d	-0.104915716
140	0x3cd8a54e	0.02644601
141	0xbddae59a	-0.10688324
142	0xbddbfdc0	-0.10741758
143	0x3eed1edf	0.46312615
144	0xbdc287f0	-0.09498584
145	0x3d0317b5	0.03200503
146	0x3c4ef56e	0.012631757
147	0xbf1dbd1e	-0.61616695
148	0xbe825a16	-0.25459355
149	0x3df8cb98	0.121482074
150	0xbebc2d28	-0.367532
151	0xbd7697ce	-0.060203366
152	0x3e9cead6	0.30647916
153	0x3eb8d88d	0.36102715
154	0x3f372ec6	0.71555746
155	0x3f61e137	0.88234276
156	0xbced78a6	-0.028988194
157	0x3e9286f4	0.28618586
158	0x3f1762bb	0.59135026
159	0x3f10cdbc	0.56563926
160	0x3f12a075	0.5727609
161	0x3f6d20c7	0.9262814
162	0x3f356dfb	0.7087094
163	0x3ed3d1e1	0.41371062
164	0x3ec4adb1	0.38413766
165	0x3e390bb7	0.18070875
166	0x3e202363	0.15638499
167	0xbe09f901	-0.13473894
168	0x3f260353	0.6484882
169	0x3ee5cb39	0.4488161
170	0x3e95c65c	0.292529
171	0x3d4c2fdf	0.04985034
172	0xbe865fd7	-0.26244995
173	0xbef6f55d	-0.48234072
174	0xbeb4f547	-0.35343382
175	0xbedb2c17	-0.42807075
176	0xbf31a516	-0.69392526
177	0x3e0c0b4f	0.13676189
178	0xbe6c8647	-0.23098098
179	0xbe979073	-0.29602394
180	0x3e165e7c	0.1468448
181	0x3ce1d674	0.02756808
182	0xbe843589	-0.25822094
183	0x3d7534b0	0.0598647
184	0xbe2fe42c	-0.17176884
185	0xbdd6428c	-0.104619116
186	0x3f0e8064	0.5566466
187	0x3e464f51	0.19366194
188	0xbdd25c82	-0.10271551
189	0xbe4a00f1	-0.19726922
190	0xbb3d10b1	-0.002884906
191	0x3ce406da	0.027835298
192	0xbece9827	-0.40350458
193	0xbe1e84b2	-0.15480307
194	0xbc878079	-0.016540753
195	0xbd0b490a	-0.034005202
196	0x3d8a9109	0.067659445
197	0x3a910c65	0.0011066316
198	0xbc9f67a4	-0.0194586
199	0xbd3edefc	-0.046599373
200	0x3e971458	0.2950771
201	0x3e39748c	0.18110865
202	0xbdc831e3	-0.0977514
203	0xbde7bb45	-0.11315016
204	0xbe4d5f4d	-0.20055886
205	0x3d8f253c	0.06989524
206	0x3cc3f072	0.023918364
207	0xbe122fe1	-0.14276077
208	0x3dbff5f2	0.09373082
209	0xbde716c8	-0.11283642
210	0xbe2de1f5	-0.16980727
211	0xbe7c5847	-0.2464305
212	0xbe811d70	-0.25217772
213	0xbe845f1a	-0.25853807
214	0xbd991c76	-0.074761316
215	0x3d751be6	0.05984106

down_path.0.block.0.bias f4 [8]
0	0x3d8699eb	0.06572326
1	0xbc97514b	-0.01847138
2	0x9cf33bff	-1.60959e-21
3	0xbd4a6603	-0.049413692
4	0xbe2b98dc	-0.1675753
5	0x3e5da40e	0.21644613
6	0x3e88e142	0.26734358
7	0xbd4fefff	-0.050765987

down_path.0.block.2.weight f4 [8]
0	0x3fa4c9f7	1.2874135
1	0x3e6fc98f	0.23416732
2	0x0000061e	2.194e-42
3	0x3585edcf	9.978484e-07
4	0x3e84b48e	0.25919002
5	0x3f7de083	0.991707
6	0x3f6893fc	0.90850806
7	0x3e86baf8	0.2631452

down_path.0.block.2.bias f4 [8]
0	0x3e6ba2f6	0.23011383
1	0x3e45463e	0.19265077
2	0xb71e4e26	-9.435729e-06
3	0x33fd8b5a	1.18065785e-07
4	0x3d950097	0.07275503
5	0x3d62a971	0.055337373
6	0x3e91de2d	0.2848982
7	0xbdc82511	-0.09772695

down_path.0.block.2.running_mean f4 [8]
0	0x3e250ad1	0.16117407
1	0x3687f4c0	4.051806e-06
2	0x00000004	6e-45
3	0x2e491e63	4.5729098e-11
4	0x00000004	6e-45
5	0x3fb2dc3d	1.3973461
6	0x3ed549e9	0.4165795
7	0x28a8a1eb	1.8721968e-14

down_path.0.block.2.running_var f4 [8]
0	0x3cb5f782	0.022212747
1	0x341863fc	1.4192477e-07
2	0x00000004	6e-45
3	0x29f56853	1.0898283e-13
4	0x00000004	6e-45
5	0x3f321c3e	0.69574344
6	0x3d1d130c	0.038348243
7	0x2593073c	2.5505337e-16

down_path.0.block.3.weight f4 [8, 8, 3, 3]
0	0xbe546ec1	-0.20745374
1	0xbde84470	-0.113411784
2	0x3e14228e	0.14466307
3	0xbe65e784	-0.22451597
4	0xbe0dfe5a	-0.13866559
5	0x3e0ab090	0.13543916
6	0xbe8bebf0	-0.27328444
7	0xbe150e31	-0.14556195
8	0x3dcf6b25	0.10127858
9	0x3e0f18c0	0.13974285
10	0x3e093776	0.13400063
11	0x3e0597a1	0.13046123
12	0x3e0b34da	0.1359438
13	0x3e08ee9b	0.13372271
14	0x3e0043cc	0.12525862
15	0x3e06c950	0.13162732
16	0x3e025306	0.12726983
17	0x3dfa6eb1	0.12228144
18	0xb733b92c	-1.0712345e-05
19	0xb73311d7	-1.0673385e-05
20	0xb73303ab	-1.0670085e-05
21	0xb723d5fd	-9.76538e-06
22	0xb7232a19	-9.725359e-06
23	0xb7232c5c	-9.725885e-06
24	0xb71e1bd0	-9.4240095e-06
25	0xb71d55d5	-9.377914e-06
26	0xb71d7ff5	-9.387722e-06
27	0x344efaa9	1.9276435e-07
28	0x344f12cf	1.928522e-07
29	0x34532bef	1.9666889e-07
30	0x345fe73d	2.0852617e-07
31	0x345b8f59	2.0448114e-07
32	0x345bc059	2.046594e-07
33	0x3461ac85	2.101752e-07
34	0x345a8d3f	2.0354217e-07
35	0x345e1e6f	2.0686433e-07
36	0x3d2de1cf	0.042451676
37	0x3d316128	0.043305546
38	0x3d302ccc	0.04301147
39	0x3d1defac	0.038558647
40	0x3d2434ed	0.040089536
41	0x3d21f6f6	0.03954216
42	0x3d19549d	0.03743421
43	0x3d156156	0.03646978
44	0x3d1b8047	0.03796413
45	0x3e4cc1b4	0.19995767
46	0x3e9082d0	0.28224802
47	0x3eaf84fa	0.3428114
48	0x3e4edc14	0.2020114
49	0x3e5524ff	0.20814894
50	0x3e6ce6ad	0.23134871
51	0x3e007211	0.12543513
52	0x3e39045b	0.18068068
53	0x3e84cbbb	0.25936684
54	0xbe8dde76	-0.27708787
55	0xbe29f4ff	-0.16597365
56	0xbd22ecdf	-0.03977668
57	0xbeb34d3a	-0.35019857
58	0xbe8a7d25	-0.27048603
59	0xbe09892e	-0.13431236
60	0xbeac3fcf	-0.33642432
61	0xbe856a8d	-0.26057854
62	0xbde70535	-0.1128029
63	0xbd58c491	-0.052921835
64	0xbd6f4312	-0.058413573
65	0xbd6121c2	-0.054963835
66	0xbd335a51	-0.043787304
67	0xbd2ba450	-0.041904747
68	0xbd498eda	-0.0492085
69	0xbd19f8ee	-0.037590913
70	0xbd34808a	-0.044067897
71	0xbd34c03b	-0.044128638
72	0xbef3e10b	-0.47632632
73	0x3e787497	0.24263225
74	0x3eccd108	0.40003228
75	0xbe87bbd3	-0.26510486
76	0x3e51fe64	0.20507199
77	0x3f25013d	0.64455014
78	0xbed3e775	-0.41387525
79	0x3cc7b699	0.024379062
80	0x3f088b4f	0.5333757
81	0x3cb9b8bc	0.022671096
82	0x3d37fb01	0.04491711
83	0x3d23668c	0.03989272
84	0x3d1cadad	0.038251568
85	0x3d1b691e	0.037942044
86	0x3d5d34ec	0.05400555
87	0x3d421bd6	0.047389828
88	0x3d15dd3f	0.03658795
89	0x3d171ab1	0.03689069
90	0x3681bf2c	3.866755e-06
91	0x3681d51f	3.86931e-06
92	0x3685382b	3.9702477e-06
93	0x36138591	2.1982453e-06
94	0x3613b53f	2.2010206e-06
95	0x361a32c0	2.2977329e-06
96	0x361df2d4	2.3536168e-06
97	0x361e1fc0	2.3562316e-06
98	0x3624bd62	2.454814e-06
99	0xb55ecc1f	-8.299848e-07
100	0xb55fecaf	-8.3418394e-07
101	0xb562f4ba	-8.4547685e-07
102	0xb5100050	-5.3644635e-07
103	0xb5189664	-5.684326e-07
104	0xb518add3	-5.687736e-07
105	0xb5164f94	-5.5995156e-07
106	0xb51819c9	-5.6661935e-07
107	0xb51c99ab	-5.8338145e-07
108	0x3d072bf2	0.033000894
109	0xbabadf5c	-0.001425724
110	0x3c8130d1	0.015770348
111	0x3c11793a	0.008879
112	0x3cb365f4	0.021899201
113	0x3cb6fa96	0.022336286
114	0x3cb543d9	0.022127079
115	0xb983bc85	-0.00025126725
116	0x3c838245	0.016053328
117	0xbe5aa832	-0.21353224
118	0xbeeb8cac	-0.46005762
119	0xbf2e92c4	-0.68192697
120	0xbea20da1	-0.31651023
121	0xbeaecd14	-0.34140837
122	0xbec37d0e	-0.38181347
123	0xbcb1080b	-0.02161028
124	0xbf101668	-0.5628419
125	0xbf103c8e	-0.563424
126	0x3dc102d0	0.094243646
127	0x3edef2d9	0.43544653
128	0x3e9d0b8e	0.30672878
129	0x3e06954d	0.13142891
130	0x3e9df5a6	0.30851477
131	0x3eaf2a60	0.34212017
132	0x3e710045	0.23535259
133	0x3ddfc138	0.109255254
134	0x3eb855d0	0.3600297
135	0xbce30a37	-0.027714832
136	0xbd02422f	-0.0318014
137	0xbcc8cbbb	-0.024511209
138	0xbd55ef83	-0.05223037
139	0xbd15a845	-0.036537427
140	0xbd3f3328	-0.046679646
141	0xbce65eec	-0.028121434
142	0xbcf1c67f	-0.029513596
143	0xbccf525f	-0.025307832
144	0x3e833c77	0.2563207
145	0x3ed0ef47	0.40807554
146	0x3e79f117	0.24408375
147	0x3e78d68e	0.24300596
148	0x3ee7c7a5	0.45269504
149	0x3e725dcf	0.23668598
150	0x3ecb47d4	0.39703238
151	0x3f19572a	0.59898627
152	0x3e2cde3e	0.16881654
153	0x3db70b02	0.089376464
154	0x3da5b5d9	0.08091325
155	0x3dc8652d	0.09784923
156	0x3dcdd09f	0.10049557
157	0x3d9c50a4	0.076325685
158	0x3dbc2b74	0.091879755
159	0x3dafd0b2	0.08584727
160	0x3d983832	0.074325934
161	0x3dad9423	0.084755205
162	0xb65ffccd	-3.337674e-06
163	0xb660010f	-3.3379217e-06
164	0xb65c67c3	-3.2842952e-06
165	0xb65d6456	-3.298997e-06
166	0xb65d69f0	-3.299323e-06
167	0xb659cdba	-3.2455268e-06
168	0xb622f3f4	-2.428188e-06
169	0xb622bbbf	-2.4249164e-06
170	0xb61f3475	-2.372338e-06
171	0xb4b007be	-3.2788188e-07
172	0xb4a71a34	-3.112524e-07
173	0xb4b09a55	-3.2894846e-07
174	0xb4b0a990	-3.2905928e-07
175	0xb4ad4b46	-3.227853e-07
176	0xb4b0e537	-3.294933e-07
177	0xb4b9219d	-3.4483392e-07
178	0xb4b6a003	-3.4016566e-07
179	0xb4b9a048	-3.4575555e-07
180	0x3d28eae1	0.041239623
181	0x3d228699	0.039679144
182	0x3d14887d	0.036262978
183	0x3d5b37ea	0.05352012
184	0x3d4412d4	0.04786952
185	0x3d0463da	0.03232179
186	0x3d54d5fc	0.051961884
187	0x3d398caa	0.045300163
188	0x3d287cd6	0.041134678
189	0xbe5eff92	-0.2177718
190	0xbe35ef22	-0.17767003
191	0x3d6a95a4	0.057271615
192	0xbe98c204	-0.29835522
193	0xbe8a2000	-0.2697754
194	0xbe87c8dd	-0.26520434
195	0xbee829ee	-0.4534449
196	0xbeb600c5	-0.35547462
197	0xbd50e405	-0.050998706
198	0xbdd7e603	-0.10541918
199	0xbc8cb402	-0.017175678
200	0xbd650113	-0.055909228
201	0xbe914dde	-0.2837972
202	0xbe14e86a	-0.14541784
203	0xbe1d99ab	-0.15390651
204	0xbe32ea9b	-0.17472307
205	0xbda372cd	-0.07980881
206	0xbdb85637	-0.09000819
207	0xbd9a364b	-0.07529887
208	0xbd9acdff	-0.07558822
209	0xbd9996cf	-0.074994676
210	0xbda0714d	-0.078341104
211	0xbd9b49a2	-0.07582404
212	0xbd9c3bd9	-0.076286025
213	0xbd8b6fcc	-0.06808433
214	0xbd8be9c4	-0.06831697
215	0xbd8f9a38	-0.07011837
216	0xbebc2e36	-0.36754006
217	0xbe0f0cfe	-0.139698
218	0xbe13b4ef	-0.1442449
219	0xbe90e6d0	-0.28301096
220	0xbc6c7adf	-0.014433592
221	0x3dd69250	0.10477126
222	0xbe2dffc4	-0.16992098
223	0x3d8023e0	0.062568426
224	0xbcc6cb52	-0.024266873
225	0x3d03b251	0.032152478
226	0x3c8344b5	0.016023973
227	0x3dec7348	0.11545426
228	0x3bb9aea9	0.005666573
229	0x3d99879f	0.07496571
230	0x3d3a94c6	0.045552038
231	0x3d92bd7e	0.07165049
232	0x3de6947c	0.1125879
233	0x3dc45403	0.095863365
234	0xb78b44c7	-1.6602118e-05
235	0xb78c4a45	-1.6723885e-05
236	0xb78c31fb	-1.6712575e-05
237	0xb78e3e62	-1.6956768e-05
238	0xb78f4198	-1.7077473e-05
239	0xb78f2aaa	-1.7066795e-05
240	0xb7862eff	-1.5995929e-05
241	0xb787359b	-1.6118216e-05
242	0xb7871f10	-1.6107719e-05
243	0x34d52a0e	3.970494e-07
244	0x346f47ba	2.2284704e-07
245	0x34b4e053	3.369083e-07
246	0x3556bb3b	7.999367e-07
247	0x34fee038	4.7474327e-07
248	0x350bdad3	5.2099966e-07
249	0x34be5952	3.5455247e-07
250	0xb3a01f18	-7.4562365e-08
251	0xb2fc87f1	-2.939848e-08
252	0x3d6a3696	0.057180963
253	0x3ceec3fb	0.029146185
254	0x3c8fb4c3	0.017542249
255	0x3cc04e79	0.023474919

down_path.0.block.3.bias f4 [8]
0	0x3e35488e	0.17703459
1	0x3ec8f2ae	0.3924765
2	0x3f3cc347	0.7373547
3	0xbe2499cf	-0.16074298
4	0x3f00b51f	0.5027637
5	0xbd306096	-0.04306086
6	0xbe664434	-0.22486955
7	0xbe0624be	-0.13099954

down_path.0.block.5.weight f4 [8]
0	0x3f10210e	0.5630044
1	0x3f9486da	1.1603653
2	0x3f56241f	0.83648866
3	0x3f29fb8e	0.66399467
4	0x3eff799e	0.49897474
5	0x3f45af25	0.77220374
6	0x3f11da3b	0.5697362
7	0x3dcef327	0.101049714

down_path.0.block.5.bias f4 [8]
0	0x3eae88fb	0.34088883
1	0xbeed1bce	-0.46310276
2	0x3e8264f4	0.25467646
3	0xbcb4531c	-0.022012286
4	0x3e296310	0.16541696
5	0x3f01c530	0.5069151
6	0x3e57560d	0.2102892
7	0xbd9977ea	-0.07493575

down_path.0.block.5.running_mean f4 [8]
0	0x3ea538da	0.32269937
1	0x3fb70282	1.429764
2	0x3fc16792	1.5109732
3	0x3f6d6560	0.9273281
4	0x3f8472ef	1.0347575
5	0x3e8e2c1a	0.27768022
6	0x3f92f6dc	1.1481586
7	0x3e3c4998	0.18387449

down_path.0.block.5.running_var f4 [8]
0	0x3f27aac6	0.65494955
1	0x3ffd3b9d	1.9783818
2	0x402b5204	2.6768808
3	0x3fa2bc97	1.2713803
4	0x3fcb3f94	1.5878778
5	0x3e687674	0.22701436
6	0x40f24f4f	7.572181
7	0x3e7841dd	0.24243875

down_path.1.block.0.weight f4 [16, 8, 3, 3]
0	0x3c6bf864	0.014402483
1	0x3c2ae6e9	0.01043103
2	0x3b37f011	0.0028066675
3	0x3c80c4f2	0.01571891
4	0x3c5e2060	0.0135575235
5	0x3bcdd905	0.0062819743
6	0x3c6afbdd	0.014342275
7	0x3c6045af	0.013688489
8	0x3c026635	0.007958938
9	0xbc9056a0	-0.017619431
10	0x3c707e23	0.014678511
11	0x3cb1c51a	0.02170043
12	0xbcfd14f1	-0.030893775
13	0x3c1bc266	0.009506797
14	0x3cc66b3d	0.024221057
15	0xbcac0f30	-0.021003336
16	0x3bf1a2c3	0.007374139
17	0x3ccc8b0a	0.024968643
18	0xbc6df83a	-0.014524514
19	0xbc0b63a0	-0.008507639
20	0xb913ab05	-0.00014082722
21	0xbc1f3699	-0.009717607
22	0xbba0166d	-0.004885486
23	0x3baa6a2a	0.005200644
24	0xbc3bc7e0	-0.011461228
25	0xbc1994bc	-0.00937384
26	0x3a4e41a3	0.0007868057
27	0x3cb0a25d	0.021561796
28	0x3bd96d99	0.0066353795
29	0xba975ba9	-0.0011547703
30	0x3d0ed697	0.034872618
31	0x3cf28afc	0.029607289
32	0x3c4297d4	0.011877019
33	0x3d523357	0.051318493
34	0x3d41ad8a	0.04728464
35	0x3cfce0cd	0.030868912
36	0x3d4cd122	0.050004132
37	0x3cd2bcfc	0.02572488
38	0x3c8c6f1a	0.017142821
39	0x3d4148e4	0.047188655
40	0x3cef6fe0	0.02922815
41	0x3c8edcf5	0.017439345
42	0x3d2f64f6	0.042820893
43	0x3cfcf961	0.030880632
44	0x3ca72697	0.020404143
45	0x3be69f43	0.0070380284
46	0xbaa28372	-0.0012398793
47	0xbbb58bde	-0.005540355
48	0x3d168171	0.03674454
49	0x3cf2c5e8	0.029635385
50	0x3cee6c4f	0.02910438
51	0x3cb2807b	0.02178978
52	0x3c814ad7	0.015782757
53	0x3c9c880b	0.01910784
54	0xbb988503	-0.004654528
55	0xbb93d45f	-0.0045114006
56	0xbb8e0ea3	-0.004335241
57	0xbbc5ff05	-0.0060423636
58	0xbbcbaa1f	-0.0062153484
59	0xbbcfe9dd	-0.0063450173
60	0xbbd2ff31	-0.0064391126
61	0xbbda65cf	-0.0066649686
62	0xbbd06856	-0.006360094
63	0x3b77a113	0.0037785217
64	0x3b769d4b	0.0037630375
65	0x3b9140a3	0.004432754
66	0x3b57dfed	0.0032939867
67	0x3b556f51	0.003256757
68	0x3b650019	0.0034942685
69	0x3b58e023	0.003309258
70	0x3b5f9b03	0.0034119494
71	0x3b6deeb6	0.0036305613
72	0x383341fa	4.273837e-05
73	0x37bce9a3	2.2520142e-05
74	0xb7ed055e	-2.8255101e-05
75	0x3812f1ae	3.5034194e-05
76	0x3676048c	3.6659503e-06
77	0xb8a72b61	-7.9712605e-05
78	0x3896a99f	7.184152e-05
79	0x3787e5c7	1.6200253e-05
80	0xb804ac0a	-3.1631476e-05
81	0x3b5dcf49	0.0033845475
82	0x3bce2e03	0.006292106
83	0x3b06fda7	0.0020597966
84	0x3b88fd54	0.0041805897
85	0x3bdd490a	0.0067530917
86	0x3b108fe8	0.002205843
87	0x3b7365c4	0.0037139514
88	0x3bb90a02	0.005646945
89	0x3acbecf5	0.001555829
90	0x3a575a7a	0.0008215081
91	0x3a91aed1	0.0011114721
92	0x3a8029df	0.0009778104
93	0x3a478fec	0.00076126936
94	0x3a9b4298	0.0011845408
95	0x3a80fd12	0.0009841046
96	0x3a37a3cb	0.0007005303
97	0x3a909afd	0.0011032518
98	0x3a4ce6fb	0.0007816401
99	0x3a4f445f	0.00079066114
100	0x3a75509d	0.00093580206
101	0x3a98bb3f	0.0011652483
102	0x3a2e9e25	0.00066611386
103	0x3a4681f6	0.0007572466
104	0x3a7d4234	0.0009661049
105	0x3a312ef1	0.0006759009
106	0x3a34196e	0.00068702444
107	0x3a674183	0.00088217127
108	0xba35c128	-0.00069333846
109	0xba1e489e	-0.00060380425
110	0xb9dfafc2	-0.00042664824
111	0xba32213e	-0.00067951146
112	0xba22efbe	-0.0006215534
113	0xb9f9bc53	-0.00047633293
114	0xba248fc6	-0.00062775274
115	0xba126ab6	-0.0005585359
116	0xb9e0d8f5	-0.00042886255
117	0xb9bcfcfc	-0.00036046642
118	0xb988d3ee	-0.0002609784
119	0xb99f5be0	-0.00030395295
120	0xba0cfb23	-0.00053779985
121	0xba08b021	-0.00052142335
122	0xba037f0d	-0.00050161855
123	0xb9c902c6	-0.00038339774
124	0xb9c3c161	-0.00037337377
125	0xb99962fb	-0.0002925618
126	0xb917ed3f	-0.00014488863
127	0xb88df240	-6.7685265e-05
128	0xb94a53bb	-0.00019295413
129	0xb92c8c66	-0.00016455501
130	0xb8b320fd	-8.54153e-05
131	0xb97ccb63	-0.0002410836
132	0xb93ef911	-0.00018212596
133	0xb8f43490	-0.00011644617
134	0xb99a8f5a	-0.00029479974
135	0x3899343f	7.30534e-05
136	0x38dd350f	0.00010547984
137	0x3886c09f	6.4254964e-05
138	0x38950411	7.105631e-05
139	0x38e600d3	0.00010967408
140	0x3881ac2b	6.183268e-05
141	0x3887227d	6.4437256e-05
142	0x38d74a5d	0.0001026585
143	0x38481f0b	4.7712627e-05
144	0x3c3037ce	0.010755492
145	0x3c338073	0.010955918
146	0x3c2b99a2	0.010473641
147	0x3c270314	0.010193605
148	0x3c532045	0.012886112
149	0x3c5093e2	0.0127305705
150	0x3c066235	0.008202125
151	0x3c4f8a95	0.012667318
152	0x3c73e07f	0.014885067
153	0xbd78f221	-0.060777787
154	0xbca4cddc	-0.020117693
155	0xbd31724b	-0.04332189
156	0xbd5b24e6	-0.053501986
157	0xbd530be6	-0.05152502
158	0xbd3efdb6	-0.046628676
159	0xbd4201a3	-0.047364842
160	0xbd8752d3	-0.06607594
161	0xbd41481e	-0.047187917
162	0x3cf4fa4c	0.029904507
163	0x3d00af34	0.031417087
164	0x3cd4fc2d	0.025999153
165	0x3d00c31c	0.03143607
166	0x3cdbb84d	0.02682128
167	0x3cb1b7b4	0.021694042
168	0x3cb511e0	0.02210325
169	0x3c9432ca	0.018090624
170	0x3be7f3e9	0.007078637
171	0x3c152297	0.009102485
172	0x3af4e711	0.0018684586
173	0x3c52a484	0.012856606
174	0x3cfa7ba2	0.03057653
175	0x3d237f0c	0.039916083
176	0x3d2c2d04	0.042035118
177	0x3d39effb	0.04539488
178	0x3d7b9d55	0.06142934
179	0x3d9383c6	0.07202868
180	0x3bccb6b2	0.006247365
181	0x3b5ee5a0	0.003401138
182	0x3b682a5d	0.003542564
183	0x3c0c85bf	0.008576809
184	0x3c2324c5	0.009957497
185	0x3c37b3e5	0.011212324
186	0x3c0c8ffa	0.008579249
187	0x3cb1edcb	0.021719834
188	0x3cbe9bfb	0.023267737
189	0x3d0ce948	0.03440216
190	0x3d11af80	0.03556776
191	0x3d3017c3	0.04299141
192	0x3d5e2d39	0.054242346
193	0x3d8c324a	0.068455294
194	0x3da4f277	0.08054059
195	0x3d1a02cf	0.037600335
196	0x3d4f1a19	0.050561998
197	0x3d7c5e10	0.061613142
198	0x3d1f48ae	0.038887672
199	0x3d1d78f1	0.038445417
200	0x3d177f44	0.036986604
201	0x3ced74be	0.028986331
202	0x3cee2928	0.02907236
203	0x3cf206d8	0.029544279
204	0x3cf172db	0.029473713
205	0x3ce4dd62	0.027937595
206	0x3ce168e5	0.027515838
207	0x3c1d891c	0.009615209
208	0x3c1eb83f	0.009687482
209	0x3c135f1b	0.008994843
210	0x3be5acad	0.00700911
211	0x3bcb62d1	0.006206848
212	0x3beac484	0.00716454
213	0x3bb957dd	0.005656226
214	0x3ba398b4	0.004992569
215	0x3bde2f59	0.0067805466
216	0xbb3ab916	-0.0028491667
217	0xbb816fbb	-0.003950087
218	0xbb3aa600	-0.0028480291
219	0xb92e2576	-0.00016607888
220	0xbb532bf3	-0.003222224
221	0xbb7cb93d	-0.003856256
222	0x3b8c334b	0.0042785755
223	0xb9eb5fff	-0.00044894216
224	0xbad3e6e6	-0.0016166836
225	0x3bb734b2	0.0055909986
226	0x3ba08b83	0.0048994436
227	0x3b9ca26a	0.0047801035
228	0xbc11a19e	-0.00888863
229	0xbbfe66c5	-0.007763716
230	0xbbc60f21	-0.006044284
231	0xbc4f37ac	-0.012647551
232	0xbc36364e	-0.011121346
233	0xbc27b223	-0.010235342
234	0x3b8be015	0.004268656
235	0x3bb1b1b8	0.005422797
236	0x3bb81d3c	0.0056187194
237	0x3be9c3fe	0.00713396
238	0x3bb47b12	0.005507835
239	0x3bb0719c	0.005384637
240	0x3c28fe09	0.010314473
241	0x3c065801	0.008199693
242	0x3beb06f2	0.007172459
243	0x3bba7c77	0.005691107
244	0x3b8ff988	0.00439376
245	0x3bac3988	0.0052558817
246	0x3b602d73	0.0034206777
247	0x3b0a50b4	0.0021105232
248	0x3b36d813	0.0027899786
249	0x3b37f94f	0.0028072183
250	0x3af0e4ef	0.0018378774
251	0x3b1af787	0.0023646073
252	0x3c8d58de	0.01725429
253	0x3c40d24c	0.011768889
254	0x3bb0a28a	0.00539047
255	0x3c517774	0.0127848275

down_path.1.block.0.bias f4 [16]
0	0xbdb9cc5f	-0.09072184
1	0xbcfcdebb	-0.030867925
2	0xbca5024f	-0.020142702
3	0xbcbc74a9	-0.023004847
4	0xbc9ff778	-0.019527182
5	0xbdd5ed67	-0.104456715
6	0xbf085e8f	-0.53269285
7	0xbd81f710	-0.063459516
8	0xbc9185b4	-0.01776395
9	0x3f4a1540	0.78938675
10	0xbdb1046e	-0.08643423
11	0xbdeb2a16	-0.11482637
12	0xbe043d50	-0.12914014
13	0xbe1a67a4	-0.15078598
14	0xbeafb10a	-0.34314758
15	0xbb1b6a05	-0.0023714316

down_path.1.block.2.weight f4 [16]
0	0xbb41e9bf	-0.0029588786
1	0xba997efd	-0.0011710819
2	0xbad0811a	-0.0015907616
3	0x3bcd1014	0.00625802
4	0x3baafb6c	0.00521796
5	0x3d64b0bb	0.055832606
6	0x3f0bc809	0.54602104
7	0x3de63a39	0.11241574
8	0x3d0241a9	0.0318009
9	0x4016ff8e	2.3593478
10	0x3e3eb3e8	0.18623316
11	0x3e60f288	0.21967518
12	0x3e6e2387	0.2325574
13	0x3df8e8d2	0.12153782
14	0x3e9b6743	0.3035222
15	0x39b8e47d	0.00035265452

down_path.1.block.2.bias f4 [16]
0	0x3c7b09a7	0.0153221255
1	0xba079e2a	-0.00051734096
2	0x3c1dc550	0.0096295625
3	0x3ae16d16	0.0017198648
4	0xbc810f57	-0.015754385
5	0xbb970161	-0.0046083187
6	0x3e7986e9	0.2436787
7	0x3e269354	0.16267139
8	0x3cfc6d93	0.030813968
9	0xbe12b4e6	-0.1432682
10	0xbe2c84a0	-0.16847467
11	0xbe07a8f1	-0.1324804
12	0x3d9c2221	0.07623697
13	0xbc97d44f	-0.018533854
14	0x3b90627d	0.004406272
15	0x3910faf5	0.00013826399

down_path.1.block.2.running_mean f4 [16]
0	0x3e3e21bd	0.18567558
1	0x3b9f4903	0.0048609986
2	0x3f24827f	0.6426162
3	0x3cf739ef	0.030178992
4	0x3d0a723f	0.03380036
5	0x380ad5c9	3.3100867e-05
6	0x3db7e1c5	0.08978609
7	0x3eedd2e6	0.46449965
8	0x3e6bf8d7	0.23044144
9	0x40039968	2.0562382
10	0x3ffdbc8b	1.9823164
11	0x3ff0f15e	1.882366
12	0x3f9c30fe	1.2202451
13	0x3e8ed38a	0.27895766
14	0x3f4424f8	0.7661891
15	0x3b94002d	0.0045166225

down_path.1.block.2.running_var f4 [16]
0	0x3da01622	0.078167215
1	0x3a1eaf18	0.00060533127
2	0x3ebb192b	0.3654264
3	0x3bc5ae20	0.00603272
4	0x3c677fec	0.01412962
5	0x36a8ce91	5.0308377e-06
6	0x3e4a619b	0.19763796
7	0x3ee91c46	0.45529383
8	0x3ead7580	0.33878708
9	0x415c6d7f	13.776732
10	0x40a31033	5.0957274
11	0x40848ba4	4.142046
12	0x408580c1	4.171967
13	0x3e846c4a	0.25863868
14	0x404c5272	3.192532
15	0x38f48731	0.00011660008

down_path.1.block.3.weight f4 [16, 16, 3, 3]
0	0xb7e8616e	-2.7701924e-05
1	0x37440642	1.1683967e-05
2	0x3821edee	3.860698e-05
3	0xb815e1e8	-3.573476e-05
4	0xb684f3fb	-3.9623096e-06
5	0x37bfe087	2.2873528e-05
6	0xb825f6a5	-3.956877e-05
7	0xb770d1b7	-1.4353943e-05
8	0x36893a73	4.0897226e-06
9	0x376d9491	1.4160892e-05
10	0x3732d5c2	1.0659396e-05
11	0x370393aa	7.842589e-06
12	0x378c99ea	1.6760972e-05
13	0x3762946f	1.350521e-05
14	0x374583f6	1.177284e-05
15	0x37995146	1.8276867e-05
16	0x37766001	1.4685095e-05
17	0x3761d6e5	1.3461079e-05
18	0x35acd4a2	1.2876883e-06
19	0x3723dc24	9.766813e-06
20	0x373d514e	1.1284208e-05
21	0xb6336198	-2.6729886e-06
22	0x3587dc35	1.0122372e-06
23	0x365d20fd	3.2950768e-06
24	0x368e552c	4.241845e-06
25	0x368f690d	4.2739616e-06
26	0x34683543	2.162606e-07
27	0x3936e431	0.0001744188
28	0x391ede3b	0.00015150842
29	0x38ec9b58	0.00011282292
30	0x395a5c36	0.00020824451
31	0x39482118	0.00019085815
32	0x39293ea9	0.00016140439
33	0x3976c8df	0.00023535218
34	0x396360f7	0.00021684529
35	0x394bd7f7	0.00019440042
36	0x389a76f1	7.365447e-05
37	0x38be6ecc	9.0805435e-05
38	0x38e6e19e	0.00011009279
39	0x37a075a5	1.9128269e-05
40	0x380d6648	3.3712276e-05
41	0x38793b8d	5.9421687e-05
42	0xb7a2d394	-1.9410429e-05
43	0xb6fecb81	-7.593481e-06
44	0x37846745	1.5783715e-05
45	0x38ef56bd	0.00011412564
46	0x3914ab30	0.00014178152
47	0x39231ed9	0.00015556383
48	0x38defc5d	0.00010632791
49	0x390e789d	0.00013587107
50	0x391e03a9	0.00015069418
51	0x38e98d77	0.00011136656
52	0x3907f780	0.00012966804
53	0x390bd3a5	0.00013334917
54	0x3b632607	0.0034660117
55	0x3b175097	0.0023088807
56	0x3b6e38ed	0.0036349848
57	0x3af1a479	0.0018435857
58	0x3ab14253	0.0013523794
59	0x3af2c7bd	0.0018522661
60	0x3ab8ffe0	0.0014114343
61	0x3aa6100f	0.0012669581
62	0x3a6d5033	0.0009052783
63	0x3aced272	0.001577927
64	0x3afdf3f7	0.0019375075
65	0x3b0acdad	0.0021179721
66	0x3acf41ca	0.0015812453
67	0x3aecee5b	0.0018076407
68	0x3aeffa0a	0.001830877
69	0x3acf6eb9	0.0015825845
70	0x3ad0a63d	0.0015918683
71	0x3ac0c94c	0.0014708429
72	0xb81bb972	-3.712759e-05
73	0x38a03c98	7.640681e-05
74	0x395053fd	0.00019867714
75	0xb9b8f8fe	-0.00035280728
76	0xb97c4504	-0.00024058303
77	0xb8c1d870	-9.243272e-05
78	0xb9ed1104	-0.0004521684
79	0xb9b99687	-0.000353981
80	0xb972fb83	-0.00023172614
81	0xbc153b29	-0.009108343
82	0xbbca3dbe	-0.006171911
83	0xbc3d462d	-0.011552376
84	0xbc4173e8	-0.011807419
85	0xbc7173f3	-0.014737117
86	0xbc936443	-0.017992144
87	0xbc6d07c5	-0.014467184
88	0xbc87f19e	-0.016594704
89	0xbc9d9826	-0.01923759
90	0x3b9e8fc2	0.0048389146
91	0x3ba22397	0.0049480903
92	0x3baf23f2	0.005344861
93	0x3b8606fe	0.004090189
94	0x3b8ed60b	0.004359012
95	0x3ba310f8	0.004976388
96	0x3b5f30e3	0.0034056238
97	0x3b70597f	0.0036674438
98	0x3b933863	0.004492806
99	0x3bdc1e9c	0.006717516
100	0x3bbeab4f	0.0058187614
101	0x3b949291	0.0045340736
102	0x3c27a230	0.01023154
103	0x3c17af78	0.009258144
104	0x3bfc0d78	0.0076920353
105	0x3c52b5cd	0.0128607275
106	0x3c44a3be	0.01200193
107	0x3c31007d	0.010803339
108	0xbb6d5aa6	-0.003621736
109	0xbb5601a5	-0.0032654789
110	0xbb2e6443	-0.0026610054
111	0xbb888404	-0.004166128
112	0xbb7ae3be	-0.0038282718
113	0xbb54da72	-0.0032478836
114	0xbb5ebc1f	-0.003398664
115	0xbb46698e	-0.0030275318
116	0xbb220b37	-0.0024725923
117	0xbaf3cfcc	-0.0018601357
118	0xbacdda7c	-0.0015705372
119	0xbaa87b6c	-0.0012854165
120	0xbb0b6bdd	-0.0021274008
121	0xbafca030	-0.0019273814
122	0xbadf0ff5	-0.0017018305
123	0xbadc2c52	-0.0016797876
124	0xbad052d5	-0.0015893826
125	0xbabc229a	-0.0014353574
126	0xbb527720	-0.003211446
127	0xbb1bfba9	-0.0023801124
128	0xbb1b361d	-0.0023683377
129	0xbba1df68	-0.004939962
130	0xbb8aa7a1	-0.0042314087
131	0xbb857332	-0.0040725702
132	0xbbad2ff3	-0.005285257
133	0xbb952d75	-0.004552538
134	0xbb8bf10e	-0.0042706793
135	0xb52c5db4	-6.421135e-07
136	0x340c84e8	1.3086867e-07
137	0x353d9075	7.06182e-07
138	0xb5e70f6c	-1.721533e-06
139	0xb591612e	-1.0831625e-06
140	0xb4e45775	-4.2531943e-07
141	0xb615c371	-2.2316492e-06
142	0xb5e65323	-1.7160531e-06
143	0xb58bbafb	-1.0410726e-06
144	0x3aadd227	0.0013261483
145	0x3a9516f0	0.0011374634
146	0x3a4b71b1	0.0007760777
147	0x3a9c5366	0.001192671
148	0x3a85d817	0.0010211495
149	0x3a2c43f9	0.0006571408
150	0x393ecb2c	0.000181955
151	0x383d6fee	4.5165354e-05
152	0xb98fc87b	-0.00027424455
153	0x389d5ffa	7.5042204e-05
154	0x395171d1	0.00019974193
155	0x398ebcd2	0.00027225033
156	0x388a8a1b	6.606077e-05
157	0x394fac67	0.00019805283
158	0x399284d9	0.0002794627
159	0x388e4c9e	6.785359e-05
160	0x393f7905	0.00018260263
161	0x3988ae22	0.0002606968
162	0xb93cf261	-0.0001801937
163	0xb9a0eee1	-0.00030695557
164	0xb9bb3ba4	-0.00035711855
165	0xb9246808	-0.00015679013
166	0xb98eb661	-0.00027220233
167	0xb9ace1c4	-0.00032974605
168	0xba4bceaa	-0.0007774631
169	0xba637e3c	-0.0008678173
170	0xba6fe2d7	-0.0009150928
171	0xbb674370	-0.0035287999
172	0xbb6c4bf1	-0.0036056007
173	0xbb759d1e	-0.0037477682
174	0xbb65c37e	-0.003505915
175	0xbb689d48	-0.0035494138
176	0xbb70595b	-0.0036674354
177	0xbb4b6020	-0.0031032637
178	0xbb4c42c7	-0.0031167732
179	0xbb522072	-0.0032062796
180	0xb9a88d90	-0.0003214893
181	0xba11320a	-0.00055387674
182	0xba4713a8	-0.00075941766
183	0xb9726fa6	-0.00023120511
184	0xb9eedca8	-0.000455593
185	0xba370244	-0.00069812336
186	0x3a92d040	0.0011200979
187	0x3a7225c7	0.00092371966
188	0x3a473b9a	0.0007600129
189	0xbac93a4b	-0.0015352456
190	0xbae547ea	-0.0017492746
191	0xbadbe3bc	-0.0016776244
192	0xbab22901	-0.0013592542
193	0xbae72870	-0.0017635953
194	0xbae36056	-0.0017347436
195	0xba597b26	-0.00082962436
196	0xbab21490	-0.001358645
197	0xbab5ab2a	-0.0013860215
198	0x3b2b466c	0.0026134504
199	0xba257726	-0.0006312005
200	0xbb0c2447	-0.0021383928
201	0x3b298918	0.0025869068
202	0xba9afcf1	-0.001182465
203	0xbb075446	-0.0020649596
204	0x39c413aa	0.00037398684
205	0xbb68b88b	-0.0035510387
206	0xbb6de175	-0.0036297713
207	0x3c01ec03	0.007929805
208	0x3beea669	0.007283021
209	0x3bff71a8	0.0077955313
210	0x3c21c381	0.009873272
211	0x3c114622	0.008866819
212	0x3c116231	0.008873508
213	0x3c0cffed	0.008605939
214	0x3bed33c2	0.007238836
215	0x3be51dfa	0.006992099
216	0xb78dac0b	-1.6888624e-05
217	0xba6b7dda	-0.0008983292
218	0xbae0f4be	-0.0017162783
219	0x391e390e	0.00015089309
220	0xba2db5f7	-0.0006626541
221	0xbac6904b	-0.0015149204
222	0xba08a999	-0.00052132603
223	0xba9208d0	-0.0011141542
224	0xbaeca3d1	-0.0018054192
225	0x3be1c4e4	0.0068899263
226	0x3beab42b	0.007162591
227	0xbb2b7f91	-0.0026168565
228	0x3ca6d917	0.020367188
229	0x3cae0a41	0.021245124
230	0x3c886abd	0.01665246
231	0x3b8014d7	0.0039087343
232	0x3b877b4b	0.0041345707
233	0xbb8cd865	-0.004298257
234	0xbc97bd0f	-0.018522767
235	0xbc8d44dd	-0.01724475
236	0xbc7b9e5a	-0.015357578
237	0xbc9b8469	-0.018984037
238	0xbc92d01e	-0.017921504
239	0xbc83c928	-0.01608713
240	0xbc9ea6cf	-0.01936665
241	0xbc964e5c	-0.018347912
242	0xbc898458	-0.01678674
243	0xbc398b9d	-0.01132479
244	0xbc10835f	-0.008820384
245	0xbbe81954	-0.0070830975
246	0xbc0dd73e	-0.008657275
247	0xbbc77429	-0.0060868454
248	0xbb8eb11d	-0.0043546096
249	0xbbd198bf	-0.0063963826
250	0xbb8285ee	-0.003983251
251	0xbb1afe92	-0.002365027
252	0xbb340705	-0.0027470004
253	0xbb2085dc	-0.002449385
254	0xbb231da9	-0.0024889505
255	0xbb04f1d4	-0.0020285742

down_path.1.block.3.bias f4 [16]
0	0xbad589b7	-0.0016291653
1	0x3b1a1b78	0.0023514908
2	0xbe43f959	-0.19138087
3	0xbe00c18f	-0.12573837
4	0xbcf8d07e	-0.030372854
5	0xbd5ea20a	-0.05435375
6	0xbe45a467	-0.19300996
7	0x3eb9a979	0.3626211
8	0x3eabdb70	0.33565855
9	0xb9d24a7d	-0.0004010982
10	0x3bacd948	0.0052749254
11	0xbc941b3c	-0.018079393
12	0xbe13daa7	-0.14438878
13	0x3e1e235c	0.15443176
14	0x3df064dc	0.117379874
15	0x3db897a6	0.090133

down_path.1.block.5.weight f4 [16]
0	0x3bb2e644	0.0054595787
1	0x3ceca472	0.028887007
2	0x3f1d233a	0.61381876
3	0x3e5fb38d	0.21845837
4	0xbe1f5617	-0.15560184
5	0x3db086da	0.08619471
6	0x3f0cd1f1	0.55007845
7	0x3ed9fe9f	0.42577073
8	0x3f08dddd	0.53463537
9	0x3e66bcc4	0.22532946
10	0xbae3744e	-0.0017353387
11	0x3f10be80	0.5654068
12	0x3f543cf4	0.8290551
13	0x3e647200	0.22309113
14	0x3ecb7ae6	0.39742202
15	0x3deaa0db	0.11456462

down_path.1.block.5.bias f4 [16]
0	0xbc1566ec	-0.009118777
1	0xbcc97cd2	-0.024595652
2	0xbe33f1ab	-0.17572658
3	0x3cec5e28	0.028853491
4	0xbd22284b	-0.039589208
5	0xbcb7606a	-0.022384841
6	0x3d571009	0.052505527
7	0xbea2d4e6	-0.31803054
8	0xbd47d08e	-0.048782878
9	0x3dff8fed	0.124786235
10	0xbbd91737	-0.006625082
11	0xbdb1864e	-0.08668195
12	0x3db573e4	0.08859995
13	0xbd43f52e	-0.047841243
14	0xbe025991	-0.1272948
15	0xbcd1b062	-0.025596801

down_path.1.block.5.running_mean f4 [16]
0	0x3d73ad83	0.059491646
1	0x3d4f575f	0.050620433
2	0x3f1fd52b	0.62434644
3	0x3e87c5ba	0.2651804
4	0x3cf1535b	0.029458692
5	0x3e3feb6f	0.18742155
6	0x3e6b75cc	0.22994155
7	0x3f0d6fbf	0.55248636
8	0x3f5ea37f	0.86968225
9	0x3caf2402	0.021379475
10	0x3c91a0ef	0.017776934
11	0x3f442b5f	0.7662868
12	0x3f1e8f4f	0.6193742
13	0x3f0a4532	0.54011834
14	0x3f3713ed	0.7151478
15	0x3ea4659c	0.32108772

down_path.1.block.5.running_var f4 [16]
0	0x3b1d966d	0.002404596
1	0x3c139808	0.009008415
2	0x400c0922	2.1880574
3	0x3e527932	0.20554045
4	0x3bfc5cfb	0.007701514
5	0x3d3b4b99	0.045726392
6	0x3f281d38	0.65669584
7	0x3e48f5fa	0.19625083
8	0x400833f5	2.1281712
9	0x3c3423e9	0.01099489
10	0x3961724d	0.00021500252
11	0x3f080d21	0.53145033
12	0x40405fe2	3.0058522
13	0x3e15722a	0.14594331
14	0x3e8fae33	0.2806259
15	0x3d6f6385	0.05844452

down_path.2.block.0.weight f4 [32, 16, 3, 3]
0	0x3b164bf3	0.0022933453
1	0x3b6fa47f	0.0036566553
2	0x3b6a418c	0.0035744635
3	0x3b2c5e80	0.0026301444
4	0x3b8aba5d	0.004233642
5	0x3bbd6991	0.0057804068
6	0x3b697cde	0.0035627405
7	0x3bc273a8	0.0059341975
8	0x3bd414e7	0.0064722183
9	0x3bab131a	0.005220783
10	0x3c169cf7	0.009192697
11	0x3c4c2cbf	0.01246184
12	0x3b66776f	0.0035166403
13	0x3c00f753	0.007871467
14	0x3c508597	0.012727163
15	0x3b035704	0.002004088
16	0x3b78cb92	0.0037963134
17	0x3c128920	0.008943826
18	0x3ba16809	0.004925732
19	0x3c256cb8	0.010096721
20	0x3cd4f497	0.025995536
21	0xb9edbd45	-0.0004534518
22	0xbbe9bd19	-0.007133138
23	0x3b9d2c9c	0.0047965776
24	0x3c0d9e02	0.008643629
25	0x3c304416	0.01075842
26	0x3bde98c2	0.0067931125
27	0x3b8fa847	0.004384074
28	0x3bc0009e	0.0058594486
29	0x3c530d8b	0.012881647
30	0x3a5af530	0.0008352576
31	0xb8c68aff	-9.467266e-05
32	0x3c51b379	0.012799137
33	0x3c174293	0.009232181
34	0x3bcce522	0.0062529007
35	0x3c420866	0.011842823
36	0x3d02cfef	0.031936582
37	0x3cfacfc0	0.030616641
38	0x3ccfc275	0.025361279
39	0x3d03659a	0.032079317
40	0x3cded894	0.027202882
41	0x3c977a8f	0.018491058
42	0x3cef924f	0.02924457
43	0x3ccbdc91	0.024885448
44	0x3c510d46	0.012759512
45	0x3c76bc52	0.0150595475
46	0x3ce39c6b	0.027784547
47	0x3cb9c7be	0.022678252
48	0x3c00f44f	0.007870748
49	0x3cc78855	0.024357
50	0x3cd48330	0.025941461
51	0x3c34e24f	0.011040284
52	0x3ced8428	0.028993681
53	0x3ccdd527	0.025126053
54	0xbd948d82	-0.07253553
55	0xbd9a05dd	-0.075206496
56	0xbd9f5db6	-0.07781546
57	0xbd3df9a7	-0.046380665
58	0xbd5a3adb	-0.053278785
59	0xbd7cca2b	-0.06171624
60	0xbc9d297c	-0.01918482
61	0xbca84d2f	-0.020544617
62	0xbd0adda2	-0.03390277
63	0xbd6f40d2	-0.058411427
64	0xbcedf364	-0.029046722
65	0x3b909fc6	0.0044135777
66	0xbd82b670	-0.063824534
67	0xbd81eaab	-0.063435875
68	0xbd276ee9	-0.040877257
69	0xbc31e062	-0.01085672
70	0xbc28d134	-0.010303784
71	0xbbdf15d7	-0.0068080234
72	0xbb9ca8bf	-0.0047808583
73	0x3c3fc0ee	0.011703713
74	0x3c5e7df4	0.013579834
75	0x3b068635	0.002052677
76	0x3c8b13ca	0.01697721
77	0x3c807170	0.015679091
78	0xbc9bfafb	-0.019040575
79	0x3b8de7f2	0.0043306286
80	0x3c2b1b67	0.010443545
81	0xbd0686ee	-0.032843523
82	0xbcca3976	-0.024685603
83	0xbd1d6b9d	-0.038432706
84	0xbd2672e1	-0.0406369
85	0xbcf17c45	-0.029478202
86	0xbd1d0da8	-0.0383431
87	0xbd273b04	-0.040827766
88	0xbd03f878	-0.03221938
89	0xbcfea9c8	-0.031086817
90	0x3b644906	0.0034833564
91	0x3b630cbc	0.0034645041
92	0x3b55f3b3	0.0032646477
93	0x3b883f18	0.004157912
94	0x3b730020	0.0037078932
95	0x3b6c99e7	0.0036102475
96	0x3b80b8d4	0.003928283
97	0x3b82eb54	0.0039953385
98	0x3b8402ce	0.0040286547
99	0x3c856092	0.0162814
100	0x3cf019e9	0.02930923
101	0x3d2ef368	0.0427126
102	0xbccc36c3	-0.024928456
103	0xbc6ea19c	-0.014564898
104	0x3aaff594	0.0013424628
105	0xbd3953ae	-0.04524582
106	0xbd5629f8	-0.05228612
107	0xbd2926f1	-0.041296903
108	0x3c036b71	0.0080212215
109	0x3ba0f17c	0.0049115997
110	0xbb26ca8e	-0.0025450322
111	0x3ac62e6a	0.0015120034
112	0x3ae43174	0.0017409758
113	0x3b31a9ac	0.002710919
114	0x3c12dfa2	0.008964451
115	0x3ce0b324	0.02742917
116	0x3c706f05	0.014674907
117	0xbb280641	-0.0025638493
118	0x3c9fa0ab	0.019485792
119	0x3c9fa137	0.019486053
120	0xbca4cad5	-0.02011625
121	0x3b25ded0	0.0025309809
122	0x3c9566fd	0.018237585
123	0xbbb0165b	-0.0053737587
124	0x3c3a9812	0.011388795
125	0x3c655f66	0.013999796
126	0x3d29438a	0.041324176
127	0x3d5cb438	0.053882807
128	0x3d52b01b	0.05143748
129	0x3be6016b	0.007019212
130	0x3c95ee3b	0.018302074
131	0x3cec8832	0.028873537
132	0x3ba89308	0.0051444806
133	0x3b9acccd	0.004724121
134	0xbb6300ee	-0.0034638005
135	0xbb4d2309	-0.00313014
136	0x3c265d53	0.010154086
137	0x3c3d56c4	0.011556331
138	0xbc374d00	-0.011187792
139	0x3b3a1ece	0.0028399709
140	0x3c56e9b8	0.013117246
141	0x3b95aa60	0.0045674294
142	0x3c74b19f	0.014934926
143	0x3c6bc205	0.01438952
144	0xb86a4d56	-5.5861972e-05
145	0xbb3350be	-0.0027361359
146	0xbb3ed7b2	-0.0029120264
147	0xbb062989	-0.0020471534
148	0xbb912a30	-0.004430078
149	0xbb3237d0	-0.0027193911
150	0xbbb62183	-0.005558194
151	0xbbf44a44	-0.007455142
152	0xbbb68195	-0.0055696466
153	0xbabc6fd0	-0.0014376584
154	0xbb0ccc80	-0.0021484196
155	0xbb3842d5	-0.0028116007
156	0xbb728298	-0.003700411
157	0xbb9f0621	-0.0048530255
158	0xbbbfecd7	-0.005857091
159	0xbbb9ab64	-0.0056661833
160	0xbbe11b95	-0.006869743
161	0xbc047627	-0.00808481
162	0xbde7ca9a	-0.1131794
163	0xbd03b348	-0.032153398
164	0x3bbe8070	0.005813651
165	0xbeb6a3b6	-0.35671777
166	0xbe9cdd2c	-0.3063749
167	0xbe6fcb05	-0.2341729
168	0xbed90840	-0.42389107
169	0xbec8c4b4	-0.39212573
170	0xbe9d04f9	-0.30667856
171	0xbd5c797b	-0.05382679
172	0xbd275c7d	-0.040859688
173	0xbc38f14e	-0.011288
174	0xbd895a16	-0.06706636
175	0xbd4c3e01	-0.04986382
176	0xbc98393c	-0.018581979
177	0xbd17ac3d	-0.037029494
178	0xbc816744	-0.015796311
179	0x3c35f6bb	0.011106188
180	0xbbf1f706	-0.007384184
181	0xbc106d89	-0.008815178
182	0xbbe29569	-0.0069147837
183	0xbc2b4ea0	-0.010455757
184	0xbc409359	-0.01175388
185	0xbc14ee7d	-0.009090063
186	0xbc19c985	-0.009386425
187	0xbc292eb0	-0.010326073
188	0xbbbeb170	-0.005819492
189	0xbc14022f	-0.009033724
190	0xbc8f9068	-0.017524913
191	0xbcdfbbbb	-0.027311197
192	0xbc1ba035	-0.009498646
193	0xbc7480a0	-0.014923245
194	0xbc821f40	-0.015884042
195	0xbc480c59	-0.012209975
196	0xbc45f0c3	-0.012081328
197	0xbbfa88e3	-0.0076457127
198	0xbd5f9e7b	-0.054594498
199	0x3cf91d14	0.030409373
200	0x3d61b977	0.055108514
201	0xbd41069e	-0.04712545
202	0x3cb7747c	0.022394411
203	0xbd2e103c	-0.04249595
204	0xbb7224a2	-0.0036948104
205	0x3d1e4fb4	0.03865023
206	0xbd831e28	-0.06402236
207	0x3d1ce364	0.038302794
208	0xbc40d990	-0.011770621
209	0xbd91495f	-0.070940726
210	0x3caf0cb3	0.02136836
211	0x3d09d7df	0.033653136
212	0x3d21723b	0.03941558
213	0xbd3c4218	-0.04596147
214	0x3a72f96b	0.00092687336
215	0x3d8f269f	0.06989788
216	0xbda85c8b	-0.08220776
217	0xbe03b2a4	-0.12861115
218	0xbddd5369	-0.10806925
219	0xbd9d1116	-0.076692745
220	0xbe3c051e	-0.18361327
221	0xbe329b40	-0.17442036
222	0x3d12913d	0.03578304
223	0xbdd36486	-0.10321908
224	0xbde9fb90	-0.11424935
225	0x3cca5ab2	0.02470145
226	0x3d315eab	0.043303173
227	0xbb383ea1	-0.0028113502
228	0xbccf4055	-0.02529923
229	0xbc5815c6	-0.013188785
230	0xbd7fb9b2	-0.062432952
231	0xbcc0568b	-0.023478767
232	0xbc8fc29c	-0.017548852
233	0xbd884555	-0.06653849
234	0xbbc7640d	-0.006084925
235	0xbb8a1183	-0.0042135133
236	0xbba19d31	-0.0049320688
237	0xbbbe5c5f	-0.0058093513
238	0xbb9032b5	-0.004400576
239	0xbbc7fc3b	-0.0061030663
240	0xbb81cb7b	-0.0039610243
241	0xbb5f9acc	-0.0034119366
242	0xbba2fc64	-0.004973935
243	0x3e3959a4	0.18100601
244	0x3dc631d0	0.0967747
245	0x3d309b92	0.043117113
246	0x3e3360b9	0.17517366
247	0x3e02d7cd	0.12777634
248	0x3e11996c	0.14218682
249	0x3dd607ff	0.10450744
250	0x3df1fefe	0.11816214
251	0x3e439351	0.19099165
252	0xbebe14bd	-0.37125197
253	0xbebecf95	-0.37267748
254	0xbea822bb	-0.32838997
255	0xbea558d2	-0.32294327

down_path.2.block.0.bias f4 [32]
0	0xbd0f9397	-0.035052862
1	0xbd6b15d8	-0.05739388
2	0xbdb9565b	-0.09049674
3	0xbbe4e67f	-0.006985485
4	0xbd52eb2d	-0.051493812
5	0xbed3d344	-0.4137212
6	0xbea063d8	-0.31326175
7	0x3c3131c4	0.010815088
8	0x357182ac	8.996965e-07
9	0xbd2ffbd4	-0.04296477
10	0xb5e46f03	-1.7019632e-06
11	0xb95796ce	-0.00020560177
12	0xbd3b16f9	-0.045676205
13	0xb93c586c	-0.00017962017
14	0x35be43d2	1.4175841e-06
15	0x370f2125	8.531181e-06
16	0xbc87fa8a	-0.016598959
17	0xb8968fe3	-7.179358e-05
18	0xbdccd17a	-0.10000892
19	0xbd5fb76d	-0.054618288
20	0xba0ed707	-0.00054489117
21	0x381883cb	3.6362366e-05
22	0xbd25c257	-0.04046854
23	0x39c5bc09	0.00037714865
24	0x3e5a9bb5	0.2134846
25	0xb8519563	-4.996861e-05
26	0xbab95662	-0.0014140124
27	0xbd85837c	-0.06519219
28	0xbcf96037	-0.030441387
29	0x3e9403a4	0.28909028
30	0x3c78786b	0.015165429
31	0xb1b41044	-5.2405387e-09

down_path.2.block.2.weight f4 [32]
0	0x3dfdccdd	0.1239259
1	0x3ee2b7a8	0.44280744
2	0x3f238adc	0.6388376
3	0x3c4e3ad7	0.012587271
4	0x3f80cb89	1.0062114
5	0x3eef2e9d	0.4671525
6	0x3f3585a5	0.7090705
7	0x3a9f4f99	0.0012154459
8	0xb89fc4d2	-7.6183715e-05
9	0x3d5ed8f8	0.054406136
10	0xb7344b87	-1.0746421e-05
11	0xb870b09a	-5.7384932e-05
12	0x3f1f9b17	0.62346023
13	0x3a0d6069	0.00053930894
14	0xb8ec078c	-0.00011254763
15	0xb8e924bb	-0.000111171474
16	0xbc3cee8c	-0.011531483
17	0x3864bf5d	5.4537657e-05
18	0x3e5473fb	0.20747368
19	0x3ea2f247	0.31825468
20	0xbbac4421	-0.005257145
21	0xb94ae177	-0.00019348213
22	0xbe38b1cc	-0.18036574
23	0x3a80ed70	0.0009836387
24	0x3fa230db	1.267116
25	0x369d86bf	4.694651e-06
26	0xba2ce4b4	-0.0006595359
27	0xbe64cd17	-0.2234386
28	0x3cacc16f	0.02108833
29	0x3e9a30e8	0.30115438
30	0x3ce06076	0.027389746
31	0x321c815f	9.109811e-09

down_path.2.block.2.bias f4 [32]
0	0x3d0718f1	0.03298277
1	0x3c804bd1	0.015661152
2	0x3e6260cc	0.22107238
3	0xbb684266	-0.0035439967
4	0x3eccbace	0.3998627
5	0x3da58ab9	0.080831
6	0x3d257e9f	0.04040396
7	0x3b735e3c	0.0037135025
8	0xb5e262b9	-1.6867044e-06
9	0xbbea4c42	-0.007150204
10	0x38fbf7c6	0.00012014764
11	0x39a86c7c	0.00032124284
12	0x3e85d86f	0.26141688
13	0x39769220	0.00023514824
14	0x3402a84b	1.2168418e-07
15	0x388f897e	6.844381e-05
16	0xbb9e12d0	-0.00482402
17	0x38538954	5.0434217e-05
18	0xbc751204	-0.014957909
19	0xbd860ca3	-0.06545379
20	0x3ba53545	0.0050417506
21	0x38b14510	8.4528816e-05
22	0xbcab7672	-0.020930503
23	0xbaa55eb7	-0.0012616728
24	0x3ea5d39f	0.32388017
25	0x39cef54e	0.00039474148
26	0x3b0ee8f8	0.002180634
27	0xbdd6d31e	-0.10489486
28	0x3ca268cf	0.019825367
29	0x3e9cdfd0	0.30639505
30	0xbc0634b3	-0.008191275
31	0x3a076624	0.00051650614

down_path.2.block.2.running_mean f4 [32]
0	0x3ca9516e	0.020668712
1	0x3ef3db35	0.4762818
2	0x3ee6e2ff	0.4509506
3	0x396d989f	0.00022658937
4	0x3e7c62a6	0.24647006
5	0x3dad6e2f	0.084682815
6	0x3f733d46	0.9501537
7	0x3d1a74ad	0.037708927
8	0x3594d578	1.1088987e-06
9	0x3bfaf871	0.007659011
10	0x2d0490e7	7.535506e-12
11	0x35483d40	7.4594936e-07
12	0x3f8f8452	1.1212256
13	0x343adbd0	1.7402567e-07
14	0x35d0dc1b	1.5561267e-06
15	0x3882fcfe	6.2460065e-05
16	0x39ce207b	0.00039315582
17	0x348ad0b7	2.5856363e-07
18	0x3ca6cba4	0.020360775
19	0x3d9e7c38	0.077385366
20	0x3d0818b9	0.033226702
21	0x3805da79	3.191314e-05
22	0x3c5e8d72	0.013583528
23	0x3a7d0e76	0.0009653339
24	0x3ed5e072	0.417728
25	0x3092989d	1.0666273e-09
26	0x3ade6a83	0.0016968999
27	0x3d5d07f8	0.053962678
28	0x3c86cff3	0.01645658
29	0x3ec69ca6	0.38791388
30	0x3d4fe420	0.050754666
31	0x2b57819b	7.656321e-13

down_path.2.block.2.running_var f4 [32]
0	0x3b49116f	0.0030680557
1	0x3ec1fdbb	0.37888893
2	0x3f69f0e5	0.913832
3	0x36a512ed	4.9195864e-06
4	0x3edaa27d	0.42702094
5	0x3d860f80	0.06545925
6	0x40061c1c	2.0954657
7	0x3ae41483	0.0017401132
8	0x2d12fd7b	8.355423e-12
9	0x3a133a9b	0.0005616338
10	0x221e7586	2.147521e-18
11	0x2e300644	4.0023332e-11
12	0x3fc2b899	1.5212585
13	0x2e085833	3.1001157e-11
14	0x2baaf33f	1.2146741e-12
15	0x3272a0b8	1.4122797e-08
16	0x3729e57d	1.0126617e-05
17	0x2de46bfa	2.596855e-11
18	0x3bbd0669	0.0057685864
19	0x3cd6517d	0.026161904
20	0x3b22577c	0.0024771383
21	0x31c087d6	5.603378e-09
22	0x3b392890	0.0028252937
23	0x36ecc0de	7.055801e-06
24	0x3f430ae4	0.7618849
25	0x28dce9f0	2.452636e-14
26	0x371c7c85	9.327317e-06
27	0x3ca95be1	0.020673694
28	0x3a682903	0.0008856209
29	0x3e0f41e3	0.13989978
30	0x3b5fae24	0.0034130896
31	0x1d51435b	2.7695742e-21
