weights/old/unet-test6.pt (torch_old, 460306 bytes, 36 tensors)

down_path.0.block.0.weight f4 [8, 3, 3, 3]
00000000: 8429 0080 2c0f 0000 5ccd 0080 3cc1 0080
00000010: 3406 0000 19ae 0000 83ae 0000 9590 0080
00000020: 0331 0000 ff2f 0000 783f 0000 8e54 0080
00000030: ce51 0000 bc68 0080 ada9 0000 7394 0000
00000040: 4fa4 0080 48a0 0080 d123 0000 a281 0000
00000050: 56d5 0000 6fca 0000 640d 0000 48dc 0080
00000060: f6bf 0080 e14b 0000 19aa 0000 9fd8 a73d
00000070: 92f0 9b3b 2ef8 1d3d a3d5 92bc 856c 5c3d
00000080: 966d 36bd 8407 5fbd 9766 4d3d 8001 c73d
00000090: 5291 25bd e53d 07bd 1c56 6cbd 7c45 1fbd
000000a0: 3364 2c3d dd34 d33d 19dc 9b3d 96da 1bbd
000000b0: c1ba d2bd ef94 983d 095e 49bd 18a4 62bd
000000c0: fb17 aebd f7cf 2dbd 36e8 b0bc d855 14be
000000d0: ab95 3dbd 0979 77bc b17b f3bd 2959 57bd
000000e0: 90f9 adbd 73a6 83be 9cf2 1ebe ddf3 3cbd
000000f0: 6920 2dbe 8118 90be 0da5 46be e3cf 7bbe
00000100: c112 bbbd cc39 15be 8015 84be 98f1 86be
00000110: d770 65be ad35 61bd cab3 4abe 65df 67be
00000120: 7a9f b6bd 5da8 6ebd 3f9d 46be 7fea 40bc
00000130: 9f89 2abe 4d71 8ebd 48aa 48be 8ceb 74bd
00000140: 4449 34bd 3e3f 19be fedc 19be 32bd 19be
00000150: be86 1abe 0f31 1bbe fd17 1bbe cea9 19be
00000160: c857 1abe 6245 1abe 9166 2bbe 10f9 2bbe
00000170: e3cc 2bbe e98e 2cbe 992e 2dbe 580c 2dbe
00000180: 91cc 2bbe c769 2cbe 0c56 2cbe baff 28be
00000190: 9794 29be 4b50 29be 3051 2abe e5fd 2abe
000001a0: 73c1 2abe da67 29be 4423 2abe 4dea 29be
000001b0: 1993 87bc 94ec 6abe c482 8d3d b59f 2d3d
000001c0: d2e9 a1be 3676 873d 73e6 efbd 56fd 99be
000001d0: 2f72 63bd ba11 163f 0f6a 373f f01d 4c3f
000001e0: be81 0d3f 4d80 f93e 8aa3 213f 153c 383f
000001f0: ff25 243f 464f e43e c4c5 1cbf 664d 67bf
00000200: 9363 31bf b17e 3fbf 731b 84bf c785 25bf
00000210: 44f7 6ebf 68d8 60bf d7cf 72bf 1c2f 24be
00000220: 1c9c eebc fa93 36bc 8895 16be 9162 7dbd
00000230: 7269 1fbd deee 3ebe 8a77 50bd e64d eabd
00000240: ca3e 8e3b f14f 513c 1e43 5fbe c79f fbbd
00000250: 7718 edbc ba42 e7bd 9e40 f5bd 4d7b 0a3c
00000260: f79e 3bbe 97ec 08be 1290 65bd 49a3 6abe
00000270: 8014 6abb 0448 47bd 1930 e03b 053d 23be
00000280: d5ac 0fbe ed95 523a cbef 08be e4d4 45be
00000290: 7bea e7bd e9c0 cdbd ff5d 83bd a960 4abe
000002a0: f868 933c e192 86bd 85f8 62be 6b40 57be
000002b0: f4fd cebe 57c4 b7be 9303 b6be 0da3 c7be
000002c0: e822 71be e18c 32be 0b52 c3be ef6f cdbe
000002d0: 1aea 84be b845 b8be 908d 49be aa8b 15be
000002e0: a919 71be 8f1f 4fbe 42d0 97be 89a5 e8be
000002f0: 8228 94be fb9e 6bba f7e1 61ba 6d4d 5cba
00000300: 052d 1aba c84b 99ba 58ea 4eba c0fa 51ba
00000310: 9bd2 3eba e1b7 13ba 9732 d7ba a63b 00bb
00000320: f745 d7ba 7abd cfba 60b8 dbba de20 a1ba
00000330: daab e3ba b974 12bb 027a 0ebb 3a74 59ba
00000340: 401b 4bba f2f5 67ba d401 41ba 9080 1fba
00000350: 51da 95ba c9d9 88ba 26ed 9eba a265 19ba
-1.4893e-41 5.443e-42 -7.3669e-41 -6.932e-41 2.225e-42 6.2454e-41 6.2603e-41 -5.1866e-41
1.7582e-41 1.7218e-41 2.2768e-41 -3.0333e-41 2.9346e-41 -3.7572e-41 6.0868e-41 5.3254e-41
-5.8943e-41 -5.7498e-41 1.2849e-41 4.6503e-41 7.653e-41 7.262e-41 4.804e-42 -7.9022e-41
-6.8863e-41 2.722e-41 6.102e-41 0.08195614 0.004758903 0.03856676 -0.017924136 0.05381443
-0.044538103 -0.054450527 0.050146665 0.09717083 -0.04042179 -0.03301801 -0.057699308 -0.038884625
0.042087745 0.10312817 0.0761034 -0.038050257 -0.10289527 0.07450282 -0.049161945 -0.055332273
-0.08500668 -0.04243466 -0.021595102 -0.14485872 -0.046285313 -0.015104541 -0.11888827 -0.052575264
-0.08494866 -0.25712928 -0.15522236 -0.046131004 -0.16906895 -0.28143695 -0.193989 -0.24591021
-0.091344364 -0.14572829 -0.25797653 -0.26356196 -0.22406326 -0.05498283 -0.19795147 -0.22643812
-0.089171365 -0.058266032 -0.19395922 -0.011774658 -0.16654061 -0.06955204 -0.19596207 -0.059794948
-0.044015184 -0.14965531 -0.15025708 -0.15013579 -0.15090463 -0.15155433 -0.1514587 -0.15006182
-0.15072548 -0.1506553 -0.16738345 -0.16794229 -0.16777377 -0.16851391 -0.16912307 -0.1689924
-0.16777255 -0.16837226 -0.168297 -0.16503802 -0.16560589 -0.16534536 -0.16632533 -0.16698416
-0.16675358 -0.16543522 -0.16615015 -0.16593285 -0.016549634 -0.2294181 0.06909707 0.042388637
-0.31623703 0.06614344 -0.117138766 -0.30076092 -0.055528816 0.586208 0.7164621 0.7973318
0.55276096 0.48730698 0.63140166 0.7196668 0.6412048 0.4459173 -0.61239266 -0.90352476
-0.69292563 -0.7480269 -1.0320877 -0.64657253 -0.9334605 -0.8783021 -0.9484839 -0.16033596
-0.029127173 -0.011143679 -0.14705479 -0.06186158 -0.03891892 -0.18645808 -0.05089525 -0.11440639
0.004340981 0.012775407 -0.21802947 -0.122863345 -0.02894233 -0.11292024 -0.119752154 0.008452249
-0.18322359 -0.13371502 -0.0560456 -0.22913851 -0.0035717785 -0.048652664 0.006841671 -0.15941246
-0.14030774 0.0008033205 -0.13372724 -0.19319493 -0.113240205 -0.1004656 -0.06414413 -0.19763435
0.017994389 -0.06570984 -0.22165115 -0.21020667 -0.40428126 -0.35891983 -0.35549602 -0.38991585
-0.23548472 -0.17436554 -0.3814853 -0.4012446 -0.25959855 -0.3599069 -0.19682908 -0.14604059
-0.23544945 -0.20226882 -0.29651076 -0.45438793 -0.28937155 -0.00089882285 -0.000861674 -0.00084038713
-0.0005881342 -0.0011695558 -0.00078931963 -0.0008010082 -0.00072793075 -0.0005635005 -0.0016418275 -0.0019566803
-0.0016424049 -0.0015849315 -0.0016763322 -0.001229312 -0.0017369941 -0.0022347404 -0.0021740203 -0.0008295212
-0.0007747896 -0.00088485994 -0.0007362638 -0.0006084526 -0.0011432861 -0.0010440882 -0.0012125119 -0.0005851631

down_path.0.block.0.bias f4 [8]
00000000: 72e4 56b5 9a0b 91be 0145 b53d 36cc 39be
00000010: d1df ae3e f99f ba3d e758 c03e 5870 83bc
-8.0053644e-07 -0.28329164 0.08851052 -0.18144307 0.34155133 0.091125436 0.37567827 -0.01604478

down_path.0.block.2.weight f4 [8, 8, 3, 3]
00000000: 4004 0100 39ba 0000 3c1b 0180 7927 0100
00000010: e823 0180 d9b7 0080 ae31 0000 753c 0000
00000020: 4d43 0180 75af 33bd c222 87bd c579 c3bd
00000030: ba31 7abd 6192 cdbd 3661 debd fba9 96bd
00000040: 41b8 6abd f53f 1dbd b2a6 11bd a90b 09bd
00000050: cc9b 333d 8060 a43c 36e0 c4bc 4b73 e53c
00000060: 76e1 053b 7f92 223d 897b 1f3d 212b 0080
00000070: a204 0180 292f 0080 d1df 0080 8276 0100
00000080: 0364 0100 f390 0100 557a 0100 86e5 0000
00000090: 18d3 d1bd 30c9 70bd e853 d8bd 9900 84bd
000000a0: 9f6f a9bc 97d6 9abd 5dbc f9bd 44e0 8fbd
000000b0: 5202 cebd dec6 f93c 6a0a f9bb bc2a 63bd
000000c0: 3a32 be3b 01de b837 ae9c 3d3d 2040 16bd
000000d0: 75eb 52bc 8e5b 4dbd cb6d 7bbd db52 f43a
000000e0: 0fae 42bd 752d 10bd 715d 203c 7efd 8dbc
000000f0: b1a4 c5bb 2ca5 35bb fb42 58bd 3f83 2337
00000100: 10e5 2037 9fc5 1b37 06b5 2b37 ba7f e436
00000110: dd7d 1d37 1c24 0a37 bf6c 2237 5539 f536
00000120: eb30 0180 8cfe 0080 52d9 0000 d65e 0100
00000130: 210f 0100 9a41 0000 e490 0000 a954 0100
00000140: 5231 0100 4b6d febb 5670 01bc 5f02 cdbb
00000150: 498a edbb f097 f5bb 46da cebb a414 c4bb
00000160: b454 dabb 1f8a f3bb 940a c03a 1aed 80bc
00000170: c87d fe3b aa1f 9b3b 424b 35bc da53 bf39
00000180: ba4d 343c bb6f 06bc 3eae 663b a8bc 0100
00000190: 90df 0180 9955 0100 4edc 0280 99d9 0280
000001a0: 0d3d 0200 1924 0100 2c12 0180 114e 0180
000001b0: 958e 4cba 20d1 7cb9 aa23 40b9 2b7b d4b9
000001c0: 9a0a f3b9 6687 4dba dcd2 1bba 9ae4 50ba
000001d0: 177c 09ba 136e a4bc 8151 e83b ff51 603b
000001e0: 7791 8c3a a7d2 493c 4224 a4bc ac5f 85bc
000001f0: 95ca 8c3c 5369 b33b 001f 55bb cc29 26bc
00000200: 1568 1eb8 330e 91bb 4bdf cebb 151c afbb
00000210: e0c7 f73a 6328 b9bb a415 21bb 4a84 1a2b
00000220: 7c0d 102b 090f 222b 0886 fc2a d599 fd2a
00000230: b0d8 092b 49a2 082b 5f6e 0b2b 8e27 0e2b
00000240: d90f 0100 0c86 0100 d439 0100 bb47 0180
00000250: 48ed 0080 16cc 0080 8e33 0180 6a3b 0180
00000260: 5b11 0100 f89a 83bc fc44 6abc 209a 84bc
00000270: a088 6ebc b851 97bc c778 72bc 9376 8bbc
00000280: 0b72 8ebc c790 6fbc 37c4 82bb f263 8f3c
00000290: 30d9 d43c ae3a 39bd 7202 51bd b3a6 1abd
000002a0: d8f5 2ebc 057c 9abc 48a2 2bbc 4c67 0100
000002b0: 962b 0000 093e 0100 d576 0000 c4d6 0080
000002c0: 8695 0000 ad9d 0080 c65a 0000 e099 0100
000002d0: 40af cfbc 08c7 9fbc ae32 a9bc f66e 8bbc
000002e0: 5ffb acbc 974a 79bc 1232 c8bc f9e9 67bc
000002f0: b5c2 e7bc a37d c9bc 03b3 0c3c df9a 29bd
00000300: c61e b43c fed0 69bd a0fb 22bc d4ed 5c3b
00000310: dbad 92bc 8f52 873a e69c 6fbd fd75 93bb
00000320: 5c9b 74bd ab80 923b 0792 253b ff01 403b
00000330: 8d33 8c3c c7fe 72bc eb64 91bc bd3d 8e35
00000340: 1f71 8e35 a2cf b035 c14c 6535 dd7a 6535
00000350: e498 8235 8b64 6f35 c7e1 9835 44a4 9235
00000360: 1739 0000 091c 0100 5c18 0180 3312 0100
00000370: 3f9a 0080 a365 0080 d989 0100 af4c 0180
00000380: a876 0180 4c4e 96bd ed7e 1e3c fae1 953c
00000390: 9061 06bd 2f59 05bd 98cd 4fbd f0d9 95bd
000003a0: bd3a 9dbd c5f7 463a 32c0 9b3d 3ea7 243d
000003b0: ad0e c83d bba6 023d 2c61 ae3d 3885 803d
000003c0: 9cab 923d ecf9 12bd 9e7b 3fbd e671 37be
000003d0: 2585 37be c489 37be 0ea8 37be 37c1 37be
000003e0: e5cc 37be c260 37be 677f 37be 8891 37be
000003f0: 2abc e2be b742 00be f455 c2be a9df e8bd
9.336e-41 6.6804e-41 -1.01605e-40 1.05996e-40 -1.04716e-40 -6.5952e-41 1.7822e-41 2.1688e-41
-1.15978e-40 -0.0438685 -0.065984264 -0.0954471 -0.06108258 -0.10037685 -0.10858385 -0.0735664
-0.057304624 -0.038391072 -0.035559364 -0.033458386 0.04384975 0.020065546 -0.024032693 0.028009078
0.0020428575 0.03969049 0.03893617 -1.5472e-41 -9.3497e-41 -1.6918e-41 -8.029e-41 1.34348e-40
1.27713e-40 1.43833e-40 1.3572e-40 8.2337e-41 -0.10245341 -0.058785617 -0.10562879 -0.064454265
-0.020683108 -0.07560461 -0.121941306 -0.07025197 -0.10059036 0.030490335 -0.0076001184 -0.055460677
0.0058043273 2.2037888e-05 0.046292 -0.036682248 -0.01287352 -0.05013614 -0.061384004 0.0018640416
-0.047529276 -0.0351996 0.009787903 -0.017332789 -0.0060315956 -0.0027716858 -0.052798253 9.746115e-06
9.590076e-06 9.284732e-06 1.0234542e-05 6.809799e-06 9.387234e-06 8.233848e-06 9.681272e-06 7.3082433e-06
-1.09384e-40 -9.1314e-41 7.796e-41 1.25856e-40 9.7263e-41 2.3533e-41 5.1977e-41 1.22206e-40
1.09528e-40 -0.0077644936 -0.007900318 -0.006256386 -0.007249151 -0.007494919 -0.0063126413 -0.005983906
-0.0066629294 -0.007432237 0.001465159 -0.015738059 0.007766459 0.0047339993 -0.011065306 0.00036492833
0.01100486 -0.00820535 0.0035199071 1.59513e-40 -1.72035e-40 1.22542e-40 -2.62701e-40 -2.6173e-40
2.05572e-40 1.04785e-40 -9.8354e-41 -1.1984e-40 -0.0007803229 -0.00024110498 -0.00018323833 -0.00040527558
-0.0004635647 -0.00078403053 -0.0005944201 -0.00079686346 -0.0005244626 -0.020072019 0.007089794 0.003422856
0.0010724504 0.01231829 -0.02003682 -0.016280971 0.017186442 0.005475202 -0.0032519698 -0.010141801
-3.776707e-05 -0.0044267415 -0.0063132397 -0.005343924 0.0018904172 -0.0056505664 -0.002457955 5.489538e-13
5.117779e-13 5.7574827e-13 4.4857195e-13 4.504857e-13 4.897289e-13 4.854212e-13 4.953589e-13 5.050343e-13
9.752e-41 1.39922e-40 1.1258e-40 -1.17568e-40 -8.512e-41 -7.3212e-41 -1.1033e-40 -1.13149e-40
9.8061e-41 -0.016065106 -0.014298674 -0.016186774 -0.014558941 -0.018471584 -0.014799303 -0.017024314
-0.017388364 -0.01462192 -0.003990676 0.017503712 0.02598247 -0.045221977 -0.051027723 -0.037756633
-0.010678731 -0.018857965 -0.010475703 1.28891e-40 1.5636e-41 1.1409e-40 4.2629e-41 -7.7043e-41
5.3639e-41 -5.6563e-41 3.2563e-41 1.47035e-40 -0.02535212 -0.019504085 -0.020654049 -0.017020684
-0.021115957 -0.0152155375 -0.024437938 -0.0141549045 -0.028291086 -0.024596041 0.008587602 -0.041407462
0.02198733 -0.057084076 -0.009947687 0.0033711093 -0.017905166 0.0010324287 -0.05849924 -0.0045001493
-0.059718475 0.004470905 0.002526404 0.0029298065 0.017114425 -0.014831251 -0.017748317 1.0597793e-06
1.0612747e-06 1.3173451e-06 8.542084e-07 8.548794e-07 9.730252e-07 8.918075e-07 1.1390592e-06 1.0925655e-06
2.048e-41 1.01893e-40 -1.00574e-40 9.8364e-41 -5.5333e-41 -3.646e-41 1.41286e-40 -1.19344e-40
-1.34401e-40 -0.07339153 0.009673816 0.01829623 -0.032807887 -0.032555755 -0.05073318 -0.07316959
-0.07677219 0.0007590021 0.07605018 0.040198557 0.09768424 0.031897288 0.08514628 0.062754095
0.07161638 -0.035882875 -0.04674875 -0.17914543 -0.17921884 -0.17923647 -0.17935202 -0.179448
-0.17949255 -0.17908004 -0.17919694 -0.1792661 -0.44284183 -0.1252545 -0.37956202 -0.11370785

down_path.0.block.2.bias f4 [8]
00000000: ac38 1ebc 765e c2bb 077e 23bd 8201 063f
00000010: 25dc c73c 6471 d9b7 9f0a 50bd e5d0 4f3e
-0.009657066 -0.005931671 -0.03991511 0.5234605 0.024396965 -2.5921217e-05 -0.05079138 0.2029453

down_path.1.block.0.weight f4 [16, 8, 3, 3]
00000000: fa04 2938 9559 a339 b98d 1aba 8597 e4b8
00000010: 9ea0 5839 71d8 19ba bb5e e938 b859 51b9
00000020: 055b 8239 ceae 05af 88cc 53af f72f 21af
00000030: 0b72 48af f228 d9ae 72a5 a9af 892f 932e
00000040: 9e08 76af 454a 95af a758 05b8 1e3a 9d37
00000050: 279f 35b8 0e3c 44b8 eb9d 30b8 a3f0 a637
00000060: 925c 92b7 d69c aeb7 5630 8437 167f 91b8
00000070: cc7e 3838 44a7 60b8 0ddf 7f38 70aa 34b9
00000080: 82d8 aeb8 d3cf 7436 aae9 1038 813e 10b9
00000090: 3e0e b3b9 1095 703a 4454 d5ba b60a 31b9
000000a0: 921a 1cb9 72f8 9eba 07c4 8db9 e4bd 55ba
000000b0: b588 453a 5ea8 0200 300f 0180 a6b2 0100
000000c0: dfdf 0100 e760 932f 2f98 0180 cbf4 0200
000000d0: 0225 28af 87e7 0880 b740 9bb4 e9de 8334
000000e0: 7fb0 f333 4515 29b5 652d 5a34 a0ff 1ab5
000000f0: 5933 17b5 82ed 83b5 aa9a ba34 dec8 3e34
00000100: 4323 75b4 cf47 2a33 474c 6eb4 b1cd 9734
00000110: bd03 f0b4 2c54 2fb5 81d0 10b5 4d67 c534
00000120: 9d67 be8b 6d38 a30a b1b8 998a 511e d90c
00000130: 1d88 740d 7ecd 3d0d cdcb 590c 25fa 010c
00000140: dc5f b00b 08d2 0080 e37a 0080 074f 0080
00000150: 8d4c 0000 ca41 0000 e025 0080 a94b 0080
00000160: 2d16 0080 1d9c 0080 1da4 2e80 a0fe 2580
00000170: ef19 1580 36af 3880 693d 1280 4ab9 3280
00000180: d715 2480 099f 4a80 2e03 6980 aa8e 991e
00000190: aac3 8c1c 9ecf c49e 3add 839f 2158 889f
000001a0: 8353 829f 167f 54a0 7952 45a0 0337 29a0
000001b0: 3b80 131e 121d f61d f463 be1d 5bf0 2f1a
000001c0: f4a7 be1b b528 981c 8357 bc9d 2ba0 669d
000001d0: a4ae 9c9c e0bb 0200 3f5b 0100 39ba 0400
000001e0: a64d 0480 c344 0300 b3a5 0280 2ef6 d2a1
000001f0: 0a6f 0180 fbbd 0380 454d 0080 a102 0000
00000200: c236 0080 b354 0000 d3c0 0000 0b9f 0000
00000210: 7324 0000 955d 0000 2b28 0000 82c8 3320
00000220: 56ab 1520 3b4a e31f 05aa 209e 9ce2 3c9c
00000230: 0424 931e eccb 06a0 556f ac9f ab78 059f
00000240: 9a14 0080 13f1 0080 f828 0000 a1d6 0000
00000250: aeec 0080 ed03 0080 fa46 0000 6528 0000
00000260: 4ae9 0080 40c4 0100 11d4 0000 d387 0000
00000270: efb5 0180 a45c 0180 26b9 0000 9954 0000
00000280: 36e9 0180 26ac 0100 9ddf 0000 1bd6 0000
00000290: 5601 0180 170a 0100 a610 0100 350a 0180
000002a0: 2718 0100 7c59 0000 2121 0100 998f 7d8a
000002b0: 5d3a 1489 d437 9289 541e ff89 ffac 378a
000002c0: c80f b689 8403 ae89 c174 9089 6549 3389
000002d0: 986d 3a09 6889 4009 bf90 3909 69fb 3009
000002e0: ffb2 3809 31dd 3209 bc88 3409 cfdd 3009
000002f0: a663 4109 3fc1 0380 4e5d 0100 63d8 0380
00000300: e5c3 0000 901d 0400 0d6b 0280 6ba8 0080
00000310: ca10 0580 8d88 0780 1a53 0100 993d 0100
00000320: cad0 0100 fa32 0100 7d46 0080 991d 0180
00000330: 1db0 0180 47a1 0000 4399 0000 3f62 028b
00000340: e009 0b8b 915f 078b ebbf f28a 1fb2 0b8b
00000350: e5eb 0a8b f97c 068b bb2a 0c8b 14e4 f98a
00000360: d347 ba34 de8a a134 8068 1d35 5a40 3435
00000370: eebd 4034 9566 0935 9980 4f34 b9df a135
00000380: 9fe9 fa34 1dc6 1a27 5695 0627 5c51 e826
00000390: ec81 3b27 03bd f726 b85f ea26 547b 0e27
000003a0: 654b 9426 05e4 b426 f82e 9132 7f40 3532
000003b0: 7877 4832 49ac c832 79b6 7832 a317 b332
000003c0: 6a8d a032 2c27 c131 9c1c fc31 d35d 55b3
000003d0: ba07 7d34 382e 2434 94b1 91b3 d6a8 8134
000003e0: 7a1a 2e34 a49e 3334 6772 9fb3 a387 a2b2
000003f0: 02c8 8135 cf1c 6737 ca0f c9b5 197e 6837
4.0297375e-05 0.00031156527 -0.0005895752 -0.0001090011 0.000206592 -0.0005868739 0.00011127951 -0.00019965216
0.00024863347 -1.2158383e-10 -1.9263002e-10 -1.4659905e-10 -1.823041e-10 -9.875291e-11 -3.0858477e-10 6.69323e-11
-2.2376631e-10 -2.7155714e-10 -3.1792235e-05 1.8742921e-05 -4.3301985e-05 -4.678597e-05 -4.2108742e-05 1.9900797e-05
-1.7447663e-05 -2.0815449e-05 1.5758134e-05 -6.9378104e-05 4.3987107e-05 -5.356154e-05 6.100447e-05 -0.0001722963
-8.337294e-05 3.6479803e-06 3.4549892e-05 -0.00013756195 -0.00034152152 0.00091774855 -0.0016275723 -0.00016884026
-0.00014887218 -0.0012128486 -0.00027039667 -0.0008153601 0.00075353245 2.4407e-40 -9.7284e-41 1.55922e-40
1.72145e-40 2.6807997e-10 -1.46429e-40 2.71486e-40 -1.5292659e-10 -8.1774e-40 -2.8918086e-07 2.456284e-07
1.1347674e-07 -6.298836e-07 2.0319347e-07 -5.7741454e-07 -5.6326604e-07 -9.829384e-07 3.4757733e-07 1.7768204e-07
-2.2830231e-07 3.964652e-08 -2.2193227e-07 2.8275602e-07 -4.4706204e-07 -6.5315066e-07 -5.3947593e-07 3.676927e-07
-7.334124e-32 1.5717554e-32 -1.4802837e-32 3.345239e-31 7.5352145e-31 5.8487474e-31 1.6778401e-31 1.0013074e-31
6.793697e-32 -7.5345e-41 -4.4083e-41 -2.835e-41 2.7461e-41 2.36e-41 -1.3587e-41 -2.7142e-41
-7.955e-42 -5.6003e-41 -4.283306e-39 -3.489256e-39 -1.937849e-39 -5.205642e-39 -1.675069e-39 -4.658244e-39
-3.313913e-39 -6.852878e-39 -9.643868e-39 1.625851e-20 9.315001e-22 -2.0838176e-20 -5.5846647e-20 -5.774404e-20
-5.51953e-20 -1.7999148e-19 -1.6713837e-19 -1.4333059e-19 7.808633e-21 6.5145716e-21 5.039593e-21 3.638331e-23
3.15414e-22 1.0069039e-21 -4.985367e-21 -3.0523051e-21 -1.0368358e-21 2.51068e-40 1.24568e-40 4.34146e-40
-3.95197e-40 3.00174e-40 -2.43113e-40 -1.4295317e-18 -1.31669e-40 -3.43659e-40 -2.7719e-41 9.43e-43
-1.9643e-41 3.0384e-41 6.9172e-41 5.7054e-41 1.3076e-41 3.3571e-41 1.441e-41 1.5228232e-19
1.2677481e-19 9.6261044e-20 -8.505489e-21 -6.249687e-22 1.5579126e-20 -1.1417714e-19 -7.302902e-20 -2.826366e-20
-7.39e-42 -8.6481e-41 1.4697e-41 7.6994e-41 -8.4905e-41 -1.408e-42 2.5462e-41 1.4491e-41
-8.3688e-41 1.62237e-40 7.6075e-41 4.8725e-41 -1.57101e-40 -1.25069e-40 6.6419e-41 3.0348e-41
-1.75496e-40 1.53591e-40 8.0217e-41 7.6807e-41 -9.2315e-41 9.5455e-41 9.7808e-41 -9.5497e-41
1.005e-40 3.2101e-41 1.0372e-40 -1.22085146e-32 -1.7842294e-33 -3.5200722e-33 -6.1417537e-33 -8.8436664e-33
-4.3829747e-33 -4.1892282e-33 -3.4776534e-33 -2.1580851e-33 2.2440466e-33 2.3175767e-33 2.2336624e-33 2.1303442e-33
2.2232358e-33 2.1529974e-33 2.1731004e-33 2.1289523e-33 2.3278384e-33 -3.4483e-40 1.25307e-40 -3.53131e-40
7.0274e-41 3.77947e-40 -2.22074e-40 -6.0417e-41 -4.652e-40 -6.91834e-40 1.21647e-40 1.13933e-40
1.66735e-40 1.10122e-40 -2.5286e-41 -1.02453e-40 -1.55013e-40 5.7855e-41 5.498e-41 -2.5111e-32
-2.6777855e-32 -2.607195e-32 -2.3375944e-32 -2.690443e-32 -2.67553e-32 -2.590148e-32 -2.6995166e-32 -2.4063621e-32
3.469746e-07 3.0089626e-07 5.8639125e-07 6.714887e-07 1.795049e-07 5.1185754e-07 1.9325161e-07 1.2060547e-06
4.673611e-07 2.147919e-15 1.867719e-15 1.6120286e-15 2.6021894e-15 1.71903e-15 1.6262956e-15 1.9773315e-15
1.0289999e-15 1.2551814e-15 1.690158e-08 1.0550251e-08 1.1668696e-08 2.336141e-08 1.4476989e-08 2.0849091e-08
1.869076e-08 5.6214926e-09 7.337418e-09 -4.967826e-08 2.3565272e-07 1.5290505e-07 -6.78439e-08 2.4150967e-07
1.6214645e-07 1.6728387e-07 -7.424824e-08 -1.8920963e-08 9.669459e-07 1.37753805e-05 -1.4980262e-06 1.3857637e-05

down_path.1.block.0.bias f4 [16]
00000000: f3e4 373b 06df b3a0 990a 9e86 83bd d3b9
00000010: 0f09 a53b 8b8a 300c f4ed bf88 1a65 911e
00000020: fc42 91b7 f025 690f ae72 c80e 1c9f 073c
00000030: 1d97 8c1a 17cd d83b 00c6 7811 ec8b a93a
0.0028060048 -3.0471364e-19 -5.9448566e-35 -0.00040386253 0.0050364803 1.3600238e-31 -1.1551337e-33 1.5394287e-20
-1.7316539e-05 1.14950934e-29 4.941424e-30 0.008277681 5.814678e-23 0.0066162455 1.9624764e-28 0.0012935377

down_path.1.block.2.weight f4 [16, 16, 3, 3]
00000000: 40f6 dd37 8dbd 0c37 7d87 2bb8 8f05 7737
00000010: 4171 0fb8 28cc 6736 8948 a0b7 041f cfb7
00000020: 343c 22b7 3b00 1190 138f 8e90 6bef 0990
00000030: 15b8 d790 c0bf fa90 8a66 a890 2ee4 ef90
00000040: e43e e590 c03f f990 45e8 0000 d72d 0100
00000050: b547 0100 b90f 0000 c544 0100 a7fc 0000
00000060: b72b 0000 fddc 0080 334e 0180 b751 68b6
00000070: 21bb 9eb6 9d6a a5b6 5e41 82b6 ae09 e0b6
00000080: 2e6d dbb6 b4f1 c9b6 7fc7 bab6 fcea cbb6
00000090: fbf3 2fbb e4c7 27bb 6fea 193b ebf0 deb9
000000a0: f445 813a c671 75ba 858f 4e39 fe88 9538
000000b0: 430e 003b 689b 0100 012f 0280 1690 0180
000000c0: a1d2 0100 9c18 0000 0dc4 0100 2c70 0100
000000d0: e5bc 0280 d724 0180 e101 0280 99e9 0100
000000e0: 2eab 0080 8697 0180 3d8c 0000 5d9d 0180
000000f0: 6718 0100 c339 0280 08a4 0100 6bfa 0000
00000100: f6f0 0000 aaca 0000 dafa 0080 3967 0000
00000110: 0086 0080 03d8 0000 21f3 0000 42ed 0000
00000120: e9ba 25b7 4542 a135 3230 40b6 2c29 53b5
00000130: a2d6 cb35 b2c2 14b7 349f 17b6 667c c3b6
00000140: 8316 a636 e6f5 0200 3689 0200 1b84 0100
00000150: 0685 0000 704c 0100 0aba 0280 8e86 0200
00000160: 2159 0280 134e 0280 85a6 0280 d2f1 0100
00000170: 8c10 0280 c634 0280 d1ac 0200 65c8 0280
00000180: c30d 0280 1d82 0000 96e1 0280 d78f 0d39
00000190: 6239 1eb9 a50d 9338 013d 9eb8 7ce5 1739
000001a0: fd0c 3cb9 9953 2739 f81a f237 4604 1f39
000001b0: 11ec 0080 3f54 0080 1550 0200 b81e 0080
000001c0: 192c 0000 8981 0100 25b0 0180 b81d 0200
000001d0: bdef 0000 ea29 d6b9 a9aa b339 9fa0 84bb
000001e0: bd1d 2b3a 2bfc f03a 69b4 92bb de16 aeba
000001f0: 05e4 79bb f869 2d3a e5e2 0080 ce2d 0100
00000200: 7e9c 0180 6996 0280 d1c0 0100 2c22 0200
00000210: c4ac 0280 1f23 0080 4eb2 0080 b3b7 8837
00000220: 4797 f5b6 c515 6336 7af2 64b3 6f00 d5b5
00000230: bba4 56b6 1be1 1037 b948 8ab7 bf66 c6b6
00000240: 223c 0200 8f01 0080 7e10 0000 34f1 0100
00000250: d20c 0100 298c 0100 12e6 0180 8f1d 0100
00000260: a15e 0000 dd08 0280 56ae 0080 fbe8 0100
00000270: d258 0180 72dd 0000 b491 0580 9f2e 0180
00000280: 38c6 0480 974a 0380 4ead 0e00 0c69 0180
00000290: c783 0280 ea13 0100 70fb 0600 afd1 0280
000002a0: e427 0680 72a9 0580 5673 0400 dc74 ad3b
000002b0: dedf d93b 1ca2 4e3b a2fa ca3b aea1 933b
000002c0: c643 723b f59f 833b c8c6 4b3b 564e d53b
000002d0: e664 9125 234f 2826 baa4 5b26 c14d 9126
000002e0: 07e0 ff25 bc38 8826 46d0 7026 8393 8226
000002f0: 5cda 7926 cec5 0300 0920 0680 2bda 0580
00000300: b815 0680 9ed8 0500 b6e6 0080 20c9 0600
00000310: a74c 0680 4e7e 0880 0330 0000 3e08 0000
00000320: 7b04 0000 f906 0000 9a26 0080 fe01 0080
00000330: 5f2d 0000 8742 0000 b718 0000 1d0b 0300
00000340: ce23 0180 0e9d 0080 68c4 0100 91b1 0000
00000350: 0b6f 0180 e22f 0100 4a1c 0100 d6a7 0280
00000360: 0b33 0400 7f77 0580 4b15 0180 cf41 0480
00000370: 47fe 0900 8fa6 0500 3c13 0380 ba76 4d92
00000380: 45a7 0400 2a9d 0080 0ba0 0080 4fea 0080
00000390: 9fc5 0080 6bd6 0080 7acc 0080 1e4c 0000
000003a0: aed7 0080 59a5 0080 0b48 0000 0830 0000
000003b0: 3b49 0000 1932 0000 3310 0000 e82d 0000
000003c0: 9110 0000 1b32 0000 a63f 0000 8d1d 0080
000003d0: f37a 0180 1987 0180 6741 0100 4731 0100
000003e0: 6ef6 0180 7e0d 0280 b0ef 0000 ea1a 0280
000003f0: 8e8a 1b26 e83f 2226 7b73 3a26 cda5 2726
2.6459922e-05 8.3887835e-06 -4.089576e-05 1.47236415e-05 -3.4199333e-05 3.4540517e-06 -1.9107263e-05 -2.4690766e-05
-9.66997e-06 -2.8596385e-29 -5.6229565e-29 -2.7202927e-29 -8.508617e-29 -9.890305e-29 -6.64223e-29 -9.4620445e-29
-9.042147e-29 -9.8311405e-29 8.3323e-41 1.0828e-40 1.17559e-40 5.64e-42 1.16505e-40 9.0635e-41
1.5682e-41 -7.9276e-41 -1.19888e-40 -3.4618258e-06 -4.7305516e-06 -4.9297946e-06 -3.8819117e-06 -6.676847e-06
-6.539419e-06 -6.0184047e-06 -5.5664564e-06 -6.077227e-06 -0.0026848305 -0.0025601322 0.002348568 -0.00042522638
0.0009862767 -0.0009362962 0.00019699156 7.1303904e-05 0.001953975 1.47585e-40 -2.00533e-40 -1.43524e-40
1.67395e-40 8.828e-42 1.62165e-40 1.32075e-40 -2.51434e-40 -1.05051e-40 -1.84345e-40 1.75635e-40
-6.1408e-41 -1.46192e-40 5.0308e-41 -1.48287e-40 1.0059e-40 -2.04392e-40 1.50679e-40 8.9833e-41
8.644e-41 7.2702e-41 -8.9989e-41 3.703e-41 -4.807e-41 7.749e-41 8.7218e-41 8.5112e-41
-9.878285e-06 1.2014722e-06 -2.8638283e-06 -7.866354e-07 1.5187145e-06 -8.8668185e-06 -2.2593422e-06 -5.8259347e-06
4.949806e-06 2.71883e-40 2.32893e-40 1.39226e-40 4.772e-41 1.19256e-40 -2.50409e-40 2.3194e-40
-2.15644e-40 -2.11679e-40 -2.43407e-40 1.78584e-40 -1.89607e-40 -2.02603e-40 2.45666e-40 -2.55559e-40
-1.88608e-40 4.6676e-41 -2.64596e-40 0.00013500392 -0.00015089431 7.012048e-05 -7.54539e-05 0.00014485972
-0.00017933916 0.00015957504 2.8861206e-05 0.00015165014 -8.4685e-41 -3.0222e-41 2.12399e-40 -1.102e-41
1.5819e-41 1.38304e-40 -1.55024e-40 1.94332e-40 8.6002e-41 -0.0004084849 0.00034268692 -0.004047468
0.00065275637 0.0018385699 -0.004477073 -0.0013281961 -0.0038130295 0.0006615217 -8.1394e-41 1.08267e-40
-1.47974e-40 -2.37628e-40 1.61005e-40 1.9593e-40 -2.45648e-40 -1.2599e-41 -6.3964e-41 1.6298005e-05
-7.31918e-06 3.3838307e-06 -5.3305918e-08 -1.5869863e-06 -3.198437e-06 8.63548e-06 -1.6484746e-05 -5.912821e-06
2.05243e-40 -5.59e-43 5.916e-42 1.78363e-40 9.6435e-41 1.42115e-40 -1.74369e-40 1.02439e-40
3.3946e-41 -1.8685e-40 -6.254e-41 1.75413e-40 -1.23698e-40 7.944e-41 -5.11446e-40 -1.0856e-40
-4.3845e-40 -3.02264e-40 1.347867e-39 -1.29519e-40 -2.30944e-40 9.898e-41 6.41212e-40 -2.58891e-40
-5.65323e-40 -5.19963e-40 4.08717e-40 0.0052934717 0.0066490015 0.003152973 0.0061944285 0.0045053577
0.0036966666 0.004016871 0.0031093825 0.0065095825 2.5221862e-16 5.839396e-16 7.6204134e-16 1.0082471e-15
4.4387255e-16 9.452274e-16 8.354899e-16 9.060545e-16 8.668516e-16 3.46465e-40 -5.62505e-40 -5.37441e-40
-5.58804e-40 5.36885e-40 -8.2763e-41 6.23163e-40 -5.7851e-40 -7.79994e-40 1.7223e-41 2.957e-42
1.607e-42 2.501e-42 -1.3848e-41 -7.15e-43 1.6276e-41 2.3866e-41 8.866e-42 2.79493e-40
-1.0468e-40 -5.634e-41 1.62293e-40 6.3699e-41 -1.3167e-40 1.09013e-40 1.01984e-40 -2.43879e-40
3.85653e-40 -5.02045e-40 -9.9474e-41 -3.9095e-40 9.17737e-40 5.18927e-40 -2.82406e-40 -6.4832936e-28
4.27347e-40 -5.638e-41 -5.7413e-41 -8.4054e-41 -7.0893e-41 -7.6919e-41 -7.3352e-41 2.7306e-41
-7.7371e-41 -5.9316e-41 2.5844e-41 1.723e-41 2.627e-41 1.7972e-41 5.811e-42 1.6468e-41
5.943e-42 1.7974e-41 2.2833e-41 -1.0601e-41 -1.35941e-40 -1.403e-40 1.15297e-40 1.09513e-40
-1.80238e-40 -1.88511e-40 8.5984e-41 -1.93326e-40 5.3964204e-16 5.629165e-16 6.468822e-16 5.8164466e-16

down_path.1.block.2.bias f4 [16]
00000000: 069f 40b9 2f2b 3abc 40c7 8cbc c0fd 54a9
00000010: a560 58a8 a953 4d2b e25b 1f08 3c49 17a9
00000020: 3ed9 6502 adee e90e 38d1 29bb 22b0 c78e
00000030: b558 b685 68f9 a6bb a957 8329 b3e9 45a3
-0.00018369788 -0.011362835 -0.017184854 -4.729355e-14 -1.2011365e-14 7.294673e-13 4.795533e-34 -3.3592256e-14
1.6886608e-37 5.766877e-30 -0.0025912058 -4.9226897e-30 -1.7147784e-35 -0.0050956495 5.832775e-14 -1.0728879e-17

down_path.2.block.0.weight f4 [32, 16, 3, 3]
00000000: b483 0400 23c5 0280 42f2 0380 99ab 0080
00000010: 30d4 0380 1a1a 0180 533c 0180 5068 0280
00000020: bef7 0480 0404 0200 835b 0380 06c6 0200
00000030: 5632 0080 a163 0200 b689 0180 bb55 0380
00000040: d64a 0000 c1d4 0200 8475 0380 27cb 0200
00000050: 2b22 0180 eb4f 0380 5599 0000 8dbc 0280
00000060: 6ec6 0200 ffdc 0280 b5da 0080 44d4 0100
00000070: 6cf7 0280 3a3d 3d00 e31c 0480 ba3e 0200
00000080: c1af 0280 c265 0300 0582 0000 ce52 0280
00000090: e943 0400 b916 0400 022e 0680 a7d8 0600
000000a0: 5078 0000 cbd1 0380 7013 0600 d230 0380
000000b0: c832 0380 f097 0200 f485 d035 b01c 1180
000000c0: 83ef 0500 9be9 0300 78c8 0300 8913 0680
000000d0: c88d 0480 8f21 0480 134d 8e25 3ebc 0100
000000e0: 4f08 0280 2ec3 0080 8e17 0180 d040 0480
000000f0: 13f5 0280 5127 0500 0097 0300 7b63 0a80
00000100: 9d31 0480 7856 0580 cc4f 0780 2822 0d80
00000110: 9488 0180 ecdf 0100 638c 0900 f0aa 0980
00000120: 4249 0000 f84b 0080 5127 0580 f8c7 0180
00000130: f4b7 0600 69a7 0800 e23d 3d0c 4aa6 0b80
00000140: a7d5 0480 8aca 0880 baaa 0480 2cbf 0380
00000150: 7416 dc30 68ed 0300 7685 0300 7b3b 0400
00000160: f7f3 0100 4876 0180 f5d4 0380 2a42 0300
00000170: d599 0580 be3b 0380 cd4f 0780 7f61 0700
00000180: ccbf 0980 fe03 0000 31a2 0400 2b31 0480
00000190: b0fa 0100 2d26 0580 b5f8 0580 4dd3 0200
000001a0: 110a 0580 8b97 0780 658e 0300 8b21 0500
000001b0: 691f 0500 f4ba 0280 3770 0280 aa0a 0080
000001c0: 7986 0100 661d 0880 3d02 0180 a447 0400
000001d0: ffea 0280 63f3 0800 bbcf 0100 b065 0300
000001e0: 721d 0280 24e4 0280 9aae 0080 f76f 0100
000001f0: 69a2 0580 1979 0a80 3ca3 0180 9678 0180
00000200: 365f 0200 34d8 0600 cd63 0580 1d6e 0400
00000210: 0157 0580 7827 0a00 2e73 0000 7c86 e80c
00000220: 144d 0380 5d81 0400 3747 0300 ec2c 0780
00000230: 11b2 0180 3ed7 0880 3ace 0280 1257 0500
00000240: fec9 0080 dbf0 0180 2a6b 0180 22ad 0180
00000250: 660c 0000 6ce2 0280 f1a8 0000 3783 0100
00000260: ef9a 0180 5dc3 0080 66d5 0080 35d0 0080
00000270: ddb8 0080 d054 0080 aa68 0080 fd96 0080
00000280: 3e74 0000 b4de 0080 045f 0080 e438 0080
00000290: 6078 0100 71d8 0080 67b2 0100 4768 0000
000002a0: 9305 0200 c666 0180 e572 0100 4f1c 0280
000002b0: d4a3 0280 40fe 0580 4db3 0a80 585c 0300
000002c0: b42c 0200 9884 0180 4350 0580 edc4 0480
000002d0: 3905 0280 8b07 0a00 f197 0180 2fe9 0000
000002e0: 8e07 0280 513d 0480 07af 0400 e1cd 0580
000002f0: 3cc4 0480 ce42 0580 8ec2 0300 60c4 0080
00000300: 4002 0280 3db0 0500 73d5 0200 3bf5 0100
00000310: 39c1 0300 249e 0400 3c17 2300 14a5 1f36
00000320: a37e 0300 371b 0800 3d99 0180 0090 0800
00000330: 991f 0600 5484 0180 36e4 0100 76e6 0000
00000340: 17ef 0a00 02b7 0380 7004 0500 268a 0080
00000350: 1dba 0100 d61c 0400 ea68 0200 1e25 0100
00000360: f6ac 0100 bea5 0780 a549 0380 9347 0200
00000370: ede0 08b6 52af 0780 f596 1100 00d1 0380
00000380: dfec 0080 1640 0500 6985 5007 bfba 0100
00000390: 746a 0680 627b 0080 28f0 0380 ee7d 0300
000003a0: 7d8b 8b36 1469 b437 4d03 0280 bc57 0000
000003b0: 9e46 0300 1c30 0080 2c37 0180 2bc3 0200
000003c0: 2c35 0100 94ee 0180 e8b9 0180 e96a 0480
000003d0: c371 68b8 c720 0700 ca52 0700 9f24 0400
000003e0: c17e 7a38 f403 0180 9819 0680 94ba 0900
000003f0: 486b 0180 599e 0580 ae5d 0300 4952 0380
4.14588e-40 -2.5439e-40 -3.62412e-40 -6.1558e-41 -3.51625e-40 -1.01199e-40 -1.13476e-40 -2.21091e-40
-4.56215e-40 1.85112e-40 -3.08335e-40 2.54708e-40 -1.8057e-41 2.19411e-40 -1.41237e-40 -3.06261e-40
2.6846e-41 2.59993e-40 -3.17663e-40 2.56548e-40 -1.04093e-40 -3.04176e-40 5.5005e-41 -2.5131e-40
2.54854e-40 -2.6295e-40 -7.8457e-41 1.67982e-40 -2.72429e-40 5.623929e-39 -3.77705e-40 2.06173e-40
-2.4672e-40 3.1201e-40 4.6642e-41 -2.13376e-40 3.91704e-40 3.75493e-40 -5.67517e-40 6.28733e-40
4.316e-41 -3.50766e-40 5.57986e-40 -2.9302e-40 -2.93723e-40 2.38176e-40 1.5536193e-06 -1.571495e-39
5.45098e-40 3.59308e-40 3.47421e-40 -5.58021e-40 -4.18204e-40 -3.7938e-40 2.46853e-16 1.59364e-40
-1.86652e-40 -7.0017e-41 -1.00285e-40 -3.90592e-40 -2.71587e-40 4.73282e-40 3.29675e-40 -9.54042e-40
-3.8514e-40 -4.90197e-40 -6.71474e-40 -1.206114e-39 -1.4083e-40 1.72164e-40 8.76881e-40 -8.8784e-40
2.628e-41 -2.7252e-41 -4.73282e-40 -1.63571e-40 6.17003e-40 7.9474e-40 1.4578653e-31 -1.069844e-39
-4.43986e-40 -8.07341e-40 -4.28587e-40 -3.44086e-40 1.6013488e-09 3.60672e-40 3.23383e-40 3.8868e-40
1.79354e-40 -1.34267e-40 -3.51901e-40 2.99242e-40 -5.14362e-40 -2.96938e-40 -6.71476e-40 6.77823e-40
-8.95323e-40 1.432e-42 4.25525e-40 -3.8498e-40 1.81765e-40 -4.72872e-40 -5.48397e-40 2.59471e-40
-4.62789e-40 -6.97212e-40 3.26588e-40 4.7121e-40 4.70445e-40 -2.50737e-40 -2.23926e-40 -3.826e-42
1.40075e-40 -7.4523e-40 -9.2638e-41 3.93042e-40 -2.67972e-40 8.21995e-40 1.66355e-40 3.11985e-40
-1.94234e-40 -2.65512e-40 -6.2635e-41 1.32001e-40 -5.17439e-40 -9.61797e-40 -1.50393e-40 -1.35094e-40
2.17826e-40 6.28572e-40 -4.94979e-40 4.06843e-40 -4.90389e-40 9.32514e-40 4.1319e-41 3.58262e-31
-3.03157e-40 4.13749e-40 3.01054e-40 -6.58963e-40 -1.55714e-40 -8.11898e-40 -2.57651e-40 4.90412e-40
-7.2461e-41 -1.78238e-40 -1.30279e-40 -1.53944e-40 4.448e-42 -2.64896e-40 6.0605e-41 1.38907e-40
-1.47415e-40 -7.0083e-41 -7.6553e-41 -7.469e-41 -6.6316e-41 -3.0425e-41 -3.7546e-41 -5.4164e-41
4.17e-41 -7.9891e-41 -3.4085e-41 -2.0409e-41 1.35018e-40 -7.7645e-41 1.55834e-40 3.7408e-41
1.8567e-40 -1.28704e-40 1.33052e-40 -1.93826e-40 -2.42441e-40 -5.50385e-40 -9.82676e-40 3.08633e-40
1.99707e-40 -1.39401e-40 -4.8797e-40 -4.37986e-40 -1.85545e-40 9.21061e-40 -1.46342e-40 8.365e-41
-1.86381e-40 -3.89338e-40 4.3013e-40 -5.33033e-40 -4.37738e-40 -4.83142e-40 3.453e-40 -7.0446e-41
-1.84478e-40 5.224e-40 2.60242e-40 1.79808e-40 3.44822e-40 4.24072e-40 3.222577e-39 2.3788934e-06
3.20935e-40 7.44447e-40 -1.46807e-40 7.86341e-40 5.62348e-40 -1.39306e-40 1.73702e-40 8.2674e-41
1.004124e-39 -3.41157e-40 4.6077e-40 -4.9558e-41 1.586e-40 3.77686e-40 2.21307e-40 1.0515e-40
1.53882e-40 -7.02306e-40 -3.01925e-40 2.09347e-40 -2.0396503e-06 -7.05742e-40 1.615357e-39 -3.50482e-40
-8.4973e-41 4.82167e-40 1.5687387e-34 1.58827e-40 -5.89201e-40 -4.4261e-41 -3.61658e-40 3.20682e-40
4.1587614e-06 2.1506603e-05 -1.84855e-40 3.1473e-41 3.00839e-40 -1.7258e-41 -1.11627e-40 2.53684e-40
1.1091e-40 -1.77421e-40 -1.58526e-40 -4.05694e-40 -5.541906e-05 6.54607e-40 6.72548e-40 3.80479e-40
5.9722694e-05 -9.3254e-41 -5.60194e-40 8.93451e-40 -1.30321e-40 -5.15982e-40 3.09112e-40 -3.05025e-40

down_path.2.block.0.bias f4 [32]
00000000: 250c 0100 8a96 8baa 5c1e d281 c09b 0f81
00000010: baab c002 4777 ab82 a6b2 cc05 cc45 dfb6
00000020: 231d 0d04 06bc 67b9 7518 af05 894e 0980
00000030: 26bd f0bc a48f 3d3a e464 ab34 cc7a 5b0e
00000040: 9afb 8eb3 5824 3cb4 3bf9 67b7 d2e8 0000
00000050: 3221 40b8 8a15 0180 78c2 b5b8 49da af85
00000060: 3bbc 8b81 f93f 2006 c261 7788 66db ccb9
00000070: 6705 da38 6406 2eac 31fc 7f3a 6c03 819f
9.6192e-41 -2.4795818e-13 -7.718538e-38 -2.6376697e-38 2.831043e-37 -2.5194654e-37 1.9249693e-35 -6.6540433e-06
1.658785e-36 -0.00022099921 1.6465905e-35 -8.54693e-40 -0.029387068 0.0007231182 3.192464e-07 2.7052959e-30
-6.658156e-08 -1.7522086e-07 -1.3826701e-05 8.352e-41 -4.5807283e-05 -9.9562e-41 -8.666975e-05 -1.6537106e-35
-5.1330633e-38 3.0139655e-35 -7.4443773e-34 -0.00039073377 0.00010396056 -2.4730435e-12 0.00097650575 -5.4639286e-20

down_path.2.block.2.weight f4 [32, 32, 3, 3]
00000000: 79cc 0080 3534 0380 1b4c 0080 61a9 0100
00000010: 2d77 0300 1b05 0280 f237 0100 ab7d 0280
00000020: 714a 0380 e8d4 0000 6e2d 0000 5ef4 0000
00000030: 6412 0000 8e15 0080 d514 0080 554e 0000
00000040: 054b 0000 2ef6 0000 babf 0280 72fd 0380
00000050: 710d 0280 db1c 0100 b668 0100 e09e 0280
00000060: b01f 0100 6c8d 0280 156d 0180 7d47 0000
00000070: 57fe 0000 e0be 0000 f8fb 0000 a406 0180
00000080: 44be 0080 cd48 0080 d00d 0080 3adf 0080
00000090: e847 0380 7ab2 0380 bdd2 0300 2711 0380
000000a0: e14c 0080 cd7d 0200 a536 0480 717c 0480
000000b0: 6e6e 0280 b430 0380 2229 0200 057a 0280
000000c0: 8fa7 0180 6563 0100 ed6c 0080 ab1b 0280
000000d0: 7b39 0180 e1ce 0180 cb7d 0200 3f48 0080
000000e0: f569 0100 7d56 0080 e99a 0280 62d3 0080
000000f0: ff9e 0300 6326 0080 5784 0100 404d 41a9
00000100: 1780 72a9 f756 0da9 3187 53a9 fcc3 eba8
00000110: 78da 50a9 c4be 4da9 3c2f 02a9 11b6 49a9
00000120: 065a 8881 32c0 ad02 ca6e 7282 4f45 9a81
00000130: edc8 8582 b884 b982 2644 d882 651e c782
00000140: 8a20 ba82 a4cb d3b4 ab14 2db4 abe5 46b4
00000150: 5a71 abb4 fbcd a6b4 3a2b a1b4 1754 c4b4
00000160: 102f 85b4 4635 3cb4 2822 0200 6367 0180
00000170: 014d 0100 f0a9 0200 4e02 0100 3df2 0000
00000180: 71db 0380 c2b7 0200 df26 0180 1527 0000
00000190: b26b 0000 07c5 0280 fdb4 0200 918c 0180
000001a0: 9197 0000 1327 0280 c91e 0200 c955 0300
000001b0: b767 b208 2162 9609 b4dd 4408 a5f1 290a
000001c0: 8829 870a e640 250a b41f 7d88 e1a8 a808
000001d0: 7852 3f88 383c 94b4 0b4a 9ab4 b33c 8bb4
000001e0: eb81 85b4 a1ce 8cb4 f187 7bb4 e4a4 7eb4
000001f0: c187 4eb4 d00d 99b4 9791 aea8 2451 a9a8
00000200: 36af aea8 12e3 a5a8 7f9c 9fa8 cd8e a5a8
00000210: 3940 b1a8 3bd7 aba8 aaf1 b0a8 73b9 0280
00000220: c01c 0280 abf4 0180 17dd 0100 edb4 0180
00000230: 337f 0200 7c99 0080 aa85 0180 5310 0000
00000240: fbae 0100 1bd4 0000 f676 0080 d623 0180
00000250: 5fda 0000 9709 0100 990d 0180 724e 0180
00000260: b01a 0280 1e3b 0000 cc61 0000 89fa 0000
00000270: 7bd0 0000 403a 0000 1977 0000 e14a 0000
00000280: c0cc 0000 1451 0080 7855 a5a7 643a a7a7
00000290: 2690 8fa7 f7a1 a4a7 5e99 9aa7 b147 86a7
000002a0: ce0b b3a7 24df e2a7 028d f9a7 7208 0180
000002b0: 4201 0180 ac32 0180 8052 0000 be0e 0080
000002c0: 5340 0000 5b38 0100 10fe 0100 5a93 0080
000002d0: 0896 0000 6ab4 0080 15c0 0000 e988 0000
000002e0: fb12 0000 1b4b 0000 f2bf 0000 82c2 0000
000002f0: f0b2 0000 104a 0300 6f22 0400 de49 0400
00000300: 1aa2 0080 defa 0400 8fc1 0480 0c5c 0000
00000310: c62d 0480 e9dc 0200 15d1 a4ad 0945 77ad
00000320: 92f4 97ad 4696 90ad 3811 b1ad 215b b6ad
00000330: 6e3f 96ad e82f c5ad 9294 8fad 20f9 0200
00000340: d226 0200 78c5 0180 0589 0180 67ba 0100
00000350: 88d5 0080 55d3 0180 a4a9 0180 4b40 0080
00000360: 883d 0100 0e62 0180 dfdc 0100 9461 0100
00000370: 6b82 0100 3391 0080 aced 0180 b414 0080
00000380: 704a 0180 4ade 0380 bb51 0000 099b 0200
00000390: d86f 0100 d843 0000 7e63 0100 e442 0300
000003a0: 90d0 0000 08fa 0280 43fb 0080 dc4d 0100
000003b0: 09bc 0000 c627 0280 b574 0080 a578 0180
000003c0: ef93 0000 b5bc 0080 7294 0100 6ba2 9ba8
000003d0: a661 95a8 7adb 83a7 b26f 8ea8 159e d7a8
000003e0: c152 2fa8 ad6a 50a8 2dbd c7a7 e181 29a7
000003f0: 0779 9cb2 5914 96b2 581f 95b2 30fb 90b2
-7.3351e-41 -2.94235e-40 -2.7301e-41 1.52597e-40 3.18259e-40 -1.85502e-40 1.11905e-40 -2.28752e-40
-3.02211e-40 7.6376e-41 1.6297e-41 8.7662e-41 6.597e-42 -7.732e-42 -7.473e-42 2.81e-41
2.6912e-41 8.8313e-41 -2.5245e-40 -3.66426e-40 -1.88493e-40 1.02187e-40 1.29399e-40 -2.40665e-40
1.03203e-40 -2.34404e-40 -1.30967e-40 2.5645e-41 9.124e-41 6.8473e-41 9.039e-41 -9.4218e-41
-6.8254e-41 -2.6116e-41 -4.955e-42 -8.0079e-41 -3.01302e-40 -3.39532e-40 3.51105e-40 -2.8166e-40
-2.7579e-41 2.288e-40 -3.86945e-40 -4.11983e-40 -2.23286e-40 -2.92978e-40 1.98427e-40 -2.27443e-40
-1.51944e-40 1.27492e-40 -3.9075e-41 -1.93596e-40 -1.12456e-40 -1.6605e-40 2.28797e-40 -2.5917e-41
1.29846e-40 -3.1026e-41 -2.39242e-40 -7.583e-41 3.32544e-40 -1.377e-41 1.3931e-40 -4.2921612e-14
-5.3845895e-14 -3.138372e-14 -4.696867e-14 -2.6175236e-14 -4.637477e-14 -4.5684607e-14 -2.8906768e-14 -4.4788883e-14
-5.008769e-38 2.553038e-37 -1.7811147e-37 -5.667012e-38 -1.965792e-37 -2.7259484e-37 -3.1777463e-37 -2.9257868e-37
-2.734892e-37 -3.944998e-07 -1.61194e-07 -1.852374e-07 -3.1933706e-07 -3.106978e-07 -3.0020038e-07 -3.6569028e-07
-2.4807423e-07 -1.7528245e-07 1.95924e-40 -1.28924e-40 1.19459e-40 2.44633e-40 9.2662e-41 8.6899e-41
-3.54227e-40 2.49591e-40 -1.0578e-40 1.402e-41 3.8634e-41 -2.54351e-40 2.48597e-40 -1.42261e-40
5.4372e-41 -1.97688e-40 1.94715e-40 3.0628e-40 1.0737369e-33 3.6203466e-33 5.9242215e-34 8.182502e-33
1.301565e-32 7.956667e-33 -7.6171685e-34 1.0150835e-33 -5.7573913e-34 -2.7610963e-07 -2.873861e-07 -2.5934932e-07
-2.4867708e-07 -2.6227374e-07 -2.3425652e-07 -2.371558e-07 -1.9234632e-07 -2.850852e-07 -1.938102e-14 -1.8797958e-14
-1.9393866e-14 -1.8417156e-14 -1.7720415e-14 -1.838061e-14 -1.96788e-14 -1.9078155e-14 -1.964473e-14 -2.50198e-40
-1.93985e-40 -1.79606e-40 1.71148e-40 -1.5674e-40 2.29301e-40 -5.506e-41 -1.39785e-40 5.856e-42
1.54607e-40 7.6089e-41 -4.2675e-41 -1.04691e-40 7.8337e-41 9.5276e-41 -9.6713e-41 -1.19976e-40
-1.93245e-40 2.1207e-41 3.5083e-41 8.9875e-41 7.4789e-41 2.0896e-41 4.2724e-41 2.6861e-41
7.345e-41 -2.9085e-41 -4.5889365e-15 -4.641512e-15 -3.984676e-15 -4.5694747e-15 -4.2909867e-15 -3.72702e-15
-4.969528e-15 -6.296953e-15 -6.9264264e-15 -9.4865e-41 -9.2287e-41 -1.10013e-40 2.9595e-41 -5.289e-42
2.3075e-41 1.12052e-40 1.82976e-40 -5.286e-41 5.3821e-41 -6.472e-41 6.8906e-41 4.9114e-41
6.809e-42 2.6943e-41 6.8857e-41 6.9776e-41 6.419e-41 3.02075e-40 3.79694e-40 3.9384e-40
-5.8151e-41 4.57336e-40 -4.36778e-40 3.302e-41 -3.83762e-40 2.62919e-40 -1.8737492e-11 -1.4055653e-11
-1.7275324e-11 -1.643764e-11 -2.0130217e-11 -2.0731474e-11 -1.7081194e-11 -2.2417582e-11 -1.6323196e-11 2.7304e-40
1.97597e-40 -1.62674e-40 -1.40989e-40 1.58704e-40 -7.66e-41 -1.67647e-40 -1.52691e-40 -2.3064e-41
1.13909e-40 -1.27011e-40 1.71069e-40 1.2684e-40 1.3862e-40 -5.2088e-41 -1.77096e-40 -7.427e-42
-1.18539e-40 -3.55249e-40 2.932e-41 2.39287e-40 1.31957e-40 2.4338e-41 1.27527e-40 2.99502e-40
7.4818e-41 -2.73365e-40 -9.0136e-41 1.19766e-40 6.7454e-41 -1.97939e-40 -4.1867e-41 -1.35115e-40
5.3069e-41 -6.7695e-41 1.45088e-40 -1.7278894e-14 -1.6584671e-14 -3.659776e-15 -1.5813607e-14 -2.3938352e-14
-9.732396e-15 -1.1569451e-14 -5.54387e-15 -2.3523869e-15 -1.8215827e-08 -1.7471551e-08 -1.7360136e-08 -1.6878033e-08

down_path.2.block.2.bias f4 [32]
00000000: 13fa 9e3c 50b5 2d8b d36e 45bc eee1 c73c
00000010: 572a 14b7 f5fe ca11 fcbc 32b4 0756 49b8
00000020: dcd9 f889 40b8 9f0b 6141 da91 2901 5db9
00000030: 0dfe 2f09 a8dc a53c eeb1 0db7 c2c8 183c
00000040: 692d 42ba cbd3 0780 4b2b 290f fad9 0308
00000050: ea32 459c 36c7 9baf 2e35 4cb7 520b 1e8c
00000060: 94b6 2aba f6bb 9db6 6b89 65b9 885d 5db9
00000070: 0bc9 fbb7 ab83 643c f73b 28b9 76aa ee8e
0.019406354 -3.3454992e-32 -0.012050348 0.024399724 -8.831345e-06 3.202711e-28 -1.6646294e-07 -4.8002254e-05
-5.9908702e-33 6.15218e-32 -3.4434628e-28 -0.00021076635 2.1184313e-33 0.020246819 -8.445682e-06 0.009325208
-0.00074072793 -7.18825e-40 8.340681e-30 3.967761e-34 -6.5247637e-22 -2.8335884e-10 -1.2171729e-05 -1.2175284e-31
-0.00065121916 -4.700846e-06 -0.00021890334 -0.00021111045 -3.001515e-05 0.013947408 -0.00016044067 -5.8835678e-30

down_path.3.block.0.weight f4 [64, 32, 3, 3]
00000000: 7c12 0080 6c03 0000 3840 0080 22b3 0000
00000010: 08a2 0000 51c0 0000 1665 0000 c901 0080
00000020: e787 0080 17d9 0000 b7d4 0580 909a 0680
00000030: b238 0280 6e44 41ac f16e 0580 ee9c 0580
00000040: 4e7e 0580 de54 0380 746e 0080 c82b 0080
00000050: 78aa 0000 b927 0000 6c3d 0080 08b4 0080
00000060: 4573 0000 ad1a 0100 5544 0000 39cc 0000
00000070: 68aa 0000 ccbc 0000 6857 0080 8177 0080
00000080: d15e 0080 c005 0080 ac5c 0000 7b22 0080
00000090: 69b6 0080 aba2 0500 8cf4 0680 f790 0300
000000a0: 074c 0800 2309 0600 3d92 0580 b1f8 0400
000000b0: 24c5 0580 fc94 0480 fe0a 0180 f937 0a80
000000c0: c49c 0680 bcef 0580 eda3 0180 5a25 0500
000000d0: a142 0500 9842 0c00 cceb 0a80 6941 0080
000000e0: 816f 0500 88d1 0300 0a66 0600 c284 0380
000000f0: 8938 0300 0316 0280 d114 0480 c894 0380
00000100: 2dfe 0280 f8a5 0800 6000 0480 a718 0280
00000110: bcba 0680 fba9 0300 daa4 0280 01fd 1530
00000120: 5be7 0280 eafa 0600 b564 0200 8cec 0500
00000130: c436 0600 4f38 0300 472a 6988 b419 0400
00000140: bc1b 0480 d388 0380 0218 0580 2168 0200
00000150: 0a88 0380 cce5 0300 bbf4 0400 e850 7bb0
00000160: 5335 0900 a8b6 0400 c38a 0600 eb7e 0400
00000170: 676d 0080 385a 0380 99b5 0200 f8fa 0900
00000180: c290 0400 654a 0000 9b1f 0000 fae7 0480
00000190: 6b94 0a00 d78e 0600 d22c 0280 9d15 0480
000001a0: 5204 0200 0f26 0400 d93b 0480 ab71 0580
000001b0: e90c 0580 204e 0d00 f182 0400 f577 0100
000001c0: 9632 0600 23eb 0700 4e89 0100 29f1 0580
000001d0: 73f9 0300 da77 0000 7aca 0000 117b 0000
000001e0: 8141 0080 57a1 0080 e13f 0080 8010 0000
000001f0: e523 0000 6e0a 0080 6c23 0400 9f51 0300
00000200: 2730 0000 4877 0500 b405 0000 7564 0300
00000210: fb4d 0200 3e37 0600 6ca3 0380 2c30 0080
00000220: 9598 0000 11df 0000 7350 0000 7633 0080
00000230: 0059 0000 18c1 0080 7ba5 0000 71c6 0080
00000240: 076a 0300 f58a 0100 6939 0600 9cd6 0100
00000250: 480d 43b6 05ef 0280 2884 0c80 e0b8 0680
00000260: 1de3 0200 c83b 0580 5b4b 0600 decc 0180
00000270: 214a f0b6 8316 0400 a1c2 8e38 8228 0980
00000280: 2b8a 0800 2a83 0000 a749 0680 c4e1 0400
00000290: 6f39 0100 141b 0000 8e22 0700 cf16 0400
000002a0: 00fd 0580 11df 0600 2713 0000 9612 0100
000002b0: c445 0600 bbce 0400 41fb ac19 9f5c 0200
000002c0: 6f22 8f02 a151 0100 0209 0380 4de8 0080
000002d0: 33b5 0780 398d 0280 1f1e 0780 1dac 0a80
000002e0: b785 0b00 36f5 0580 0485 0500 2e8d 0480
000002f0: 8668 0000 273a 0600 be08 0780 695e 0380
00000300: fe28 0380 cf33 0480 e1bb 0500 a02f 0180
00000310: d2de 0000 0fa1 0600 2978 0300 49d4 0080
00000320: 9b5b 0e00 a507 0080 53c4 0600 63b7 0280
00000330: 7b45 0180 449d 0400 26b4 2800 7ef7 0380
00000340: cc9f 0900 0180 0500 f897 0680 5f44 0180
00000350: e377 0200 750e 0280 1da7 0580 4aa7 0080
00000360: 1972 0080 c15a 0080 2f68 0080 dfce 0000
00000370: 8c05 0080 93d1 0000 a794 0080 d46c 0080
00000380: b779 0080 52e2 9601 84e3 0380 701c 0000
00000390: 3803 0480 799d 0480 2039 0380 7a8b 0280
000003a0: c7dc 0380 1a40 0280 6098 0680 079e 0300
000003b0: 4df7 0180 6e12 0400 4a44 0300 c0f8 0500
000003c0: 18ef 0000 d115 0400 286b 0280 fb38 0600
000003d0: c11f 1280 a843 2534 6824 0080 f9b1 0000
000003e0: f5a8 0780 a43c 0100 7188 1200 cb80 0180
000003f0: cf6a 0080 2506 0300 23bc 0700 66ef 0780
-6.631e-42 1.228e-42 -2.3037e-41 6.4261e-41 5.8126e-41 6.899e-41 3.6263e-41 -6.4e-43
-4.8753e-41 7.7877e-41 -5.35485e-40 -6.0646e-40 -2.0401e-40 -2.7464936e-12 -4.98976e-40 -5.15473e-40
-5.04487e-40 -3.05951e-40 -3.9623e-41 -1.5706e-41 6.1153e-41 1.425e-41 -2.2034e-41 -6.4583e-41
4.1351e-41 1.01405e-40 2.4513e-41 7.3261e-41 6.113e-41 6.7728e-41 -3.1355e-41 -4.287e-41
-3.4014e-41 -2.063e-42 3.3244e-41 -1.2369e-41 -6.5436e-41 5.17532e-40 -6.3874e-40 3.2751e-40
7.61957e-40 5.5429e-40 -5.11638e-40 4.56556e-40 -5.29898e-40 -4.20788e-40 -9.5779e-41 -9.38434e-40
-6.0725e-40 -5.45178e-40 -1.50641e-40 4.72577e-40 4.8308e-40 1.125915e-39 -1.002943e-39 -2.3465e-41
4.99178e-40 3.50672e-40 5.87618e-40 -3.23131e-40 2.95787e-40 -1.91567e-40 -3.7481e-40 -3.28879e-40
-2.74852e-40 7.94222e-40 -3.67477e-40 -1.92515e-40 -6.18e-40 3.36484e-40 -2.42809e-40 5.4565424e-10
-2.66666e-40 6.41024e-40 2.19798e-40 5.44035e-40 5.70659e-40 2.95706e-40 -7.0165584e-34 3.76563e-40
-3.77291e-40 -3.2459e-40 -4.6779e-40 2.21025e-40 -3.24308e-40 3.57942e-40 4.55135e-40 -9.142824e-10
8.45649e-40 4.32867e-40 6.00791e-40 4.12872e-40 -3.9246e-41 -3.07871e-40 2.48816e-40 9.1655e-40
4.19271e-40 2.6688e-41 1.1338e-41 -4.5056e-40 9.71597e-40 6.02254e-40 -1.9975e-40 -3.75095e-40
1.85221e-40 3.80995e-40 -3.88811e-40 -4.99954e-40 -4.63809e-40 1.221887e-39 4.14315e-40 1.34868e-40
5.6916e-40 7.272e-40 1.41091e-40 -5.4569e-40 3.64992e-40 4.2995e-41 7.2635e-41 4.4148e-41
-2.3498e-41 -5.7878e-41 -2.2915e-41 5.919e-42 1.2877e-41 -3.741e-42 3.80049e-40 3.04787e-40
1.7274e-41 5.01968e-40 2.046e-42 3.11544e-40 2.11645e-40 5.7083e-40 -3.34131e-40 -1.7281e-41
5.4736e-41 8.0021e-41 2.886e-41 -1.8461e-41 3.1927e-41 -6.9269e-41 5.9363e-41 -7.1187e-41
3.13542e-40 1.41684e-40 5.71608e-40 1.68823e-40 -2.9064995e-06 -2.69415e-40 -1.149435e-39 -6.17334e-40
2.65144e-40 -4.80623e-40 5.78045e-40 -1.65328e-40 -7.161187e-06 3.75418e-40 6.80734e-05 -8.41051e-40
7.84249e-40 4.7053e-41 -5.77434e-40 4.48331e-40 1.12439e-40 9.714e-42 6.55244e-40 3.75524e-40
-5.49937e-40 6.31034e-40 6.87e-42 9.8503e-41 5.7604e-40 4.41503e-40 1.7885864e-23 2.16897e-40
2.1031725e-37 1.21118e-40 -2.78738e-40 -8.3334e-41 -7.0785e-40 -2.34332e-40 -6.53654e-40 -9.80098e-40
1.058158e-39 -5.47143e-40 5.06894e-40 -4.17988e-40 3.7496e-41 5.71874e-40 -6.45985e-40 -3.09374e-40
-2.90212e-40 -3.85927e-40 5.26576e-40 -1.0892e-40 7.9933e-41 6.0879e-40 3.18612e-40 -7.6154e-41
1.318559e-39 -2.742e-42 6.21441e-40 -2.49458e-40 -1.1676e-40 4.23758e-40 3.738045e-39 -3.6429e-40
8.83844e-40 5.05097e-40 -6.05529e-40 -1.16362e-40 2.26678e-40 -1.88857e-40 -5.19126e-40 -6.0012e-41
-4.093e-41 -3.2556e-41 -3.7374e-41 7.4211e-41 -1.99e-42 7.5181e-41 -5.3326e-41 -3.904e-41
-4.3663e-41 5.542605e-38 -3.57124e-40 1.0201e-41 -3.68497e-40 -4.23833e-40 -2.95999e-40 -2.33706e-40
-3.54706e-40 -2.06666e-40 -6.05675e-40 3.32196e-40 -1.8055e-40 3.73953e-40 3.00004e-40 5.48412e-40
8.577e-41 3.75168e-40 -2.22111e-40 5.71454e-40 -1.66443e-39 1.5391436e-07 -1.306e-41 6.3845e-41
-7.03459e-40 1.13589e-40 1.701985e-39 -1.38038e-40 -3.8316e-41 2.77711e-40 7.10339e-40 -7.28728e-40

down_path.3.block.0.bias f4 [64]
00000000: ff41 feb5 83ce d83c 35c7 f188 f80a 54b3
00000010: 6f2e 028c 88b1 0d8c 1771 8f3a 974e 0db7
00000020: eaec 4800 65ab 8807 ab5f f611 5df6 52b3
00000030: 1e30 21ac 031b 9e04 734c 149c c658 da8d
00000040: 50d7 0080 4fab 6592 21d4 0080 502d 1ab9
00000050: 31e8 eca8 bd45 1012 3b20 e2ae 8d2e 12b4
00000060: 89da 223c 7cc5 3b13 576e faa3 0b7c dfaf
00000070: 7ebc 0080 ea16 0200 d507 68b2 790d 9133
00000080: dc5b fcb2 b3b5 463b f397 0180 b9ed c737
00000090: 9b2c 1eb3 02da 61a0 b547 aba7 8aa1 b1b1
000000a0: caa0 543a 7238 0180 e55c 72b4 0150 158c
000000b0: 96ae 3db3 49d4 6c1f dfcd 0080 5c62 ae0f
000000c0: 7c4f 6a0a 45e8 a93b bd10 4692 764f 633b
000000d0: 9683 3580 3179 9732 e21b 3723 c303 b63b
000000e0: fef6 1787 fb2d cc90 db2b 9b05 394e 0180
000000f0: abad 0080 398d 0080 97d9 adb3 7a69 0c99
-1.8943682e-06 0.02646566 -1.4551493e-33 -4.9370072e-08 -1.0028809e-31 -1.0915669e-31 0.0010943738 -8.422553e-06
6.697144e-39 2.0563742e-34 3.8870916e-28 -4.91185e-08 -2.2906186e-12 3.7170428e-36 -4.90679e-22 -1.3456659e-30
-7.724e-41 -7.2470813e-28 -7.6098e-41 -0.00014703465 -2.630196e-14 4.5524347e-28 -1.02830154e-10 -1.3614245e-07
0.009939798 2.3700086e-27 -2.7151785e-17 -4.0651602e-10 -6.7618e-41 1.91891e-40 -1.3505958e-08 6.754539e-08
-2.9378434e-08 0.0030320704 -1.46345e-40 2.3833347e-05 -3.682781e-08 -1.9130374e-19 -4.753978e-15 -5.169743e-09
0.00081111176 -1.12084e-40 -2.2571801e-07 -1.1502618e-31 -4.4163777e-08 5.0150542e-20 -7.3853e-41 1.7195611e-29
1.12816395e-32 0.0051851594 -6.2498415e-28 0.0034684814 -4.914485e-39 1.7633825e-08 9.926354e-18 0.0055546477
-1.1432562e-34 -8.0534656e-29 1.459224e-35 -1.19896e-40 -6.23e-41 -5.0661e-41 -8.0955196e-08 -7.259131e-24
