weights/unet-test2.pt (torch_old, 459765 bytes, 36 tensors)

down_path.0.block.0.weight f4 [8, 3, 3, 3]
0	0xbcf28365	-0.02960367
1	0x39a894ca	0.00032154314
2	0x3d83da18	0.064380825
3	0x3e448c91	0.19194247
4	0xbd8475dc	-0.064677924
5	0x3c91c2e6	0.01779313
6	0xbc458535	-0.012055685
7	0x3e36a4fd	0.17836376
8	0x3d9eb2d1	0.0774895
9	0x3e3c8aeb	0.18412368
10	0x3e4b6dcb	0.19866101
11	0x3e4f1bbe	0.20225427
12	0xbdcf2fb6	-0.10116522
13	0xbdd0c402	-0.101936355
14	0x3dfa4115	0.12219445
15	0x3d83bc91	0.064324506
16	0x3e56b140	0.20966053
17	0xbe1fb1d0	-0.15595174
18	0x3ddd9e2e	0.10821186
19	0x3d91b073	0.07113733
20	0x3e5365de	0.20644328
21	0x3daee1c2	0.08539154
22	0x3dc0a96b	0.09407314
23	0x3df7313d	0.12069938
24	0x3c50f287	0.0127531355
25	0x3e462d5f	0.19353245
26	0xbe0e6d7f	-0.13908957
27	0x385852b6	5.1575444e-05
28	0x388c2ab6	6.683676e-05
29	0x254a8fca	1.7569425e-16
30	0xb3570d3c	-5.0070625e-08
31	0x3828b655	4.022413e-05
32	0x28516ee2	1.16258745e-14
33	0xb9b73023	-0.00034940345
34	0x3027f4c1	6.110206e-10
35	0x2223733f	2.215163e-18
36	0x2d4dada8	1.169146e-11
37	0x2e73717d	5.53526e-11
38	0x32b8e3c3	2.1523993e-08
39	0x371a4724	9.195679e-06
40	0x32346a2a	1.0501518e-08
41	0xb95cfbbb	-0.00021074612
42	0xb3d4df10	-9.912594e-08
43	0x2f4c4a63	1.858012e-10
44	0xb9e0f33e	-0.0004290584
45	0xba10bc11	-0.0005521188
46	0x285a55ed	1.2120063e-14
47	0xb6e0d556	-6.700556e-06
48	0xae963471	-6.830526e-11
49	0xb63c1b39	-2.8030029e-06
50	0xb75cebdd	-1.3167938e-05
51	0x36da9a22	6.5148497e-06
52	0x32500ae5	1.2109671e-08
53	0x2110070e	4.8798435e-19
54	0x3d3c4dd3	0.045972656
55	0xbdf35e1b	-0.118831836
56	0xbe12a171	-0.14319398
57	0xbd8c1f24	-0.06841877
58	0x3d061c84	0.03274204
59	0x3db2ed25	0.08736638
60	0x3dd67653	0.10471787
61	0xbe019d4c	-0.1265766
62	0xbd969573	-0.07352724
63	0xbe106ee5	-0.14104803
64	0xbdc74636	-0.097301885
65	0x3d7fc8b1	0.062447254
66	0x3dc14a03	0.09437945
67	0x3d1f6bc4	0.038921133
68	0xbda1921e	-0.07889198
69	0xbd721668	-0.0591034
70	0x3da5a3ae	0.0808786
71	0x3d45fdfc	0.04833792
72	0x3d1dfdc6	0.038572095
73	0x3e23532a	0.15949693
74	0x3dc23f75	0.0948476
75	0x3d789fb6	0.060699187
76	0x3cac8fd0	0.021064669
77	0xbd7ec982	-0.06220389
78	0xbd8e7df6	-0.06957619
79	0x3cc58302	0.024110321
80	0x3d802608	0.06257254
81	0xbd6d46bc	-0.057928786
82	0x3d8d6ff9	0.06906123
83	0x3caa2487	0.02076937
84	0x3e5008c5	0.20315845
85	0xbc2b4bc1	-0.010455073
86	0x3e1d2dac	0.15349454
87	0x3d66c8e5	0.05634393
88	0x3e17483b	0.14773647
89	0x3de80539	0.11329121
90	0x3e2f6154	0.17126971
91	0x3ce7ad52	0.028280888
92	0x3e5a9bfd	0.21348567
93	0x3e121fbd	0.1426992
94	0x3cb159dd	0.021649295
95	0xbdded9ef	-0.10881411
96	0x3e275b4c	0.1634342
97	0x3e2f0498	0.17091596
98	0x3d72fc56	0.059322678
99	0xbd5c57af	-0.05379456
100	0xbdd42e0d	-0.10360346
101	0x3dd03cc0	0.10167837
102	0x3de5a873	0.1121377
103	0xbc478044	-0.012176577
104	0xbc8f01ee	-0.017456975
105	0x3da270fa	0.07931705
106	0xbdad2c06	-0.084556624
107	0x3d56fdc1	0.052488092
108	0x2b6fc134	8.517798e-13
109	0x357fa155	9.522967e-07
110	0x303f34fb	6.9560685e-10
111	0x2b7eb234	9.0486234e-13
112	0x2b60289f	7.963716e-13
113	0x2b5c03d7	7.816503e-13
114	0x39863054	0.0002559448
115	0x39840d29	0.00025186807
116	0x2b0bfaf5	4.9730993e-13
117	0xb5335dbd	-6.6819103e-07
118	0xb1850e1e	-3.8724144e-09
119	0xae9a1022	-7.005975e-11
120	0x2bb12d9c	1.2589266e-12
121	0xb1197216	-2.232928e-09
122	0x36d2d68d	6.2834647e-06
123	0xb39eca48	-7.394243e-08
124	0xb775381d	-1.4616203e-05
125	0x2b26d2fa	5.9267836e-13
126	0x38f8f708	0.00011871575
127	0xb7e30c8e	-2.7066355e-05
128	0x2b195ee5	5.448821e-13
129	0x3112c58c	2.1358089e-09
130	0x2b9717d1	1.0735806e-12
131	0xb5882017	-1.0142129e-06
132	0x389022f9	6.872969e-05
133	0x2b5fbb4c	7.948544e-13
134	0xba1952f5	-0.00058488484
135	0x3dde5300	0.10855675
136	0x3e431b8e	0.1905348
137	0x3e416799	0.18887176
138	0xbe2aaed4	-0.16668254
139	0x3e1fac36	0.15593037
140	0x3d8e219f	0.069400065
141	0xbdce3ae1	-0.10069824
142	0x3e3ea804	0.1861878
143	0x3ca80eab	0.020514807
144	0xbd32d19d	-0.043656934
145	0x3e0c4a15	0.13700135
146	0x3d181a10	0.03713423
147	0xbd04ed9a	-0.032453157
148	0xbd3b15be	-0.04567503
149	0xbda3b4c0	-0.0799346
150	0x3c0076a6	0.007840788
151	0x3d9fb1a5	0.07797555
152	0xbdc1c26a	-0.0946091
153	0x3d80cb76	0.06288807
154	0xbe396770	-0.18105865
155	0x3e3642ee	0.17798969
156	0xbd4e72d0	-0.050402462
157	0x3e381ddb	0.17980139
158	0xbda8cd47	-0.082422785
159	0x3e1a3dde	0.15062663
160	0xbccfe3cf	-0.025377182
161	0xbe06fa2c	-0.1318137
162	0x3d178a36	0.036997043
163	0x3e291dfa	0.16515341
164	0x3e1ee25c	0.15516037
165	0x3e434863	0.19070582
166	0xbdd76a0a	-0.10518272
167	0xbdf85443	-0.12125447
168	0xbc0793be	-0.008274971
169	0x3dc4afbb	0.096038304
170	0xbe24f3c6	-0.16108617
171	0x3db2847f	0.08716678
172	0xbd0a1b07	-0.03371718
173	0xbcf10c05	-0.029424677
174	0xbc10b134	-0.008831311
175	0x3e4abb3f	0.19797991
176	0xbdbc65bd	-0.091990925
177	0x3e026d47	0.12736998
178	0xbd0cb0da	-0.034348346
179	0x3e452c02	0.19255069
180	0xbd1a8462	-0.037723906
181	0xbdd20e2e	-0.10256611
182	0x3dce9bca	0.10088308
183	0xbcb74959	-0.022373842
184	0x3ddce608	0.107860625
185	0x3d5b6b43	0.05356909
186	0x3d9d8b4f	0.07692587
187	0x3d7b855f	0.06140649
188	0x3de5841a	0.11206837
189	0xbd3d92f4	-0.046282724
190	0x3e5e84af	0.21730302
191	0xbdecfba4	-0.11571434
192	0x3e544eeb	0.2073323
193	0x3d90f8a3	0.07078674
194	0xbdba8198	-0.09106749
195	0x3e4eca76	0.2019442
196	0x3e0a9acb	0.13535611
197	0x3e52e3b7	0.20594679
198	0xbdc13591	-0.09434045
199	0x3cf5508b	0.029945632
200	0x3deb2d15	0.11483208
201	0x3e210c14	0.15727264
202	0x3e34d6b9	0.17660035
203	0x3df29e41	0.11846591
204	0xbe1a33b1	-0.15058781
205	0x3e25c4de	0.1618838
206	0x3e19dc51	0.1502545
207	0x3d5a5e59	0.053312633
208	0xbe05f68a	-0.13082328
209	0x3e40dbcc	0.18833846
210	0x3d448ffc	0.047988877
211	0x3dbcbf79	0.09216208
212	0xbde04f8b	-0.109526716
213	0xbde9f739	-0.11424107
214	0xbe0d8a64	-0.13822323
215	0x3e355575	0.1770838

down_path.0.block.0.bias f4 [8]
0	0x3cd169d0	0.02556315
1	0xb924af2f	-0.0001570552
2	0xbda1140b	-0.07865151
3	0x3e254be9	0.16142239
4	0xb7a850e3	-2.0064826e-05
5	0x3d6fe47b	0.058567505
6	0xbdf6df23	-0.12054279
7	0xbc9b3756	-0.018947285

down_path.0.block.2.weight f4 [8, 8, 3, 3]
0	0x3dc472b5	0.09592191
1	0xbc645ce1	-0.01393816
2	0xbd81a7e8	-0.06330854
3	0xbdb9a29d	-0.09064219
4	0x3c50d9dc	0.012747254
5	0x3cfd9474	0.030954577
6	0xbd8d290d	-0.068925954
7	0xb98d2de2	-0.000269278
8	0x3df11070	0.11770713
9	0x1d11f063	1.9314867e-21
10	0x34f9bb42	4.6516112e-07
11	0x1cdbbd34	1.4541112e-21
12	0x1d177c9f	2.0049111e-21
13	0xa6b6a71f	-1.2674085e-15
14	0x2e874a9d	6.152343e-11
15	0x9c82aaa3	-8.646787e-22
16	0x1b6fe316	1.9842992e-22
17	0x28e79613	2.5711236e-14
18	0xbb0d2e44	-0.002154247
19	0xbab3da2f	-0.001372164
20	0xbc3ce784	-0.011529807
21	0x3c17439b	0.009232427
22	0x3c8affe6	0.016967725
23	0x3c6e104a	0.014530251
24	0x3cc16de0	0.023611963
25	0xbb969fcd	-0.0045966865
26	0xbca28884	-0.019840486
27	0xbd803bb1	-0.06261385
28	0x3d96efcb	0.07369956
29	0xbda241a4	-0.07922676
30	0x3de0d1dc	0.109775275
31	0x3e00dea9	0.12584938
32	0xbdb6432d	-0.088995315
33	0xbd3f3ff2	-0.046691842
34	0x3d23ea15	0.04001816
35	0xbd0c7890	-0.034294665
36	0xb462ab04	-2.1110105e-07
37	0x2fd10df3	3.802679e-10
38	0x2e94d568	6.7681694e-11
39	0x2e8df736	6.455851e-11
40	0x2ee2b272	1.03089884e-10
41	0x2ee9c5ef	1.0630773e-10
42	0x2e16dd47	3.4302585e-11
43	0x2ea90df8	7.6877116e-11
44	0x2ede891a	1.0119745e-10
45	0x3d074ce1	0.0330323
46	0x3dff9867	0.1248024
47	0x3e076e37	0.13225637
48	0x3dfb4355	0.12268702
49	0x3c9d8272	0.01922724
50	0xbcd0765d	-0.025447065
51	0x3d294bf6	0.041332208
52	0x3b9a34ed	0.0047060163
53	0xbc84213c	-0.016129129
54	0x3c733213	0.014843482
55	0x3d57777b	0.05260418
56	0xbd137f01	-0.036009792
57	0x3d03297d	0.03202199
58	0x3d87d18c	0.06631765
59	0x3de02670	0.10944831
60	0xbbb7df73	-0.005611354
61	0xbcb52173	-0.022110676
62	0x3d41e4a7	0.0473372
63	0xbd5a206f	-0.053253587
64	0xbdb85f46	-0.09002547
65	0x3dc0175d	0.09379456
66	0x3d1a3928	0.037652165
67	0x3d55265f	0.052038547
68	0x3d005311	0.03132922
69	0xbd1dc712	-0.038519926
70	0xbc509777	-0.0127314245
71	0x3e0a41b0	0.1350162
72	0x2a067930	1.1943636e-13
73	0x2a16b19d	1.3384298e-13
74	0x2a22730d	1.4428407e-13
75	0x2a24fe18	1.4654283e-13
76	0x2a228746	1.4435423e-13
77	0xaf0e1653	-1.2922756e-10
78	0x309d3e97	1.1441043e-09
79	0x2a2e577c	1.5484657e-13
80	0xae968081	-6.844037e-11
81	0xb3c9ba73	-9.393707e-08
82	0x24d99b10	9.4371435e-17
83	0x179e1f53	1.0218418e-24
84	0x989e5318	-4.0925946e-24
85	0x16aa6c6c	2.7533405e-25
86	0xb2c63b61	-2.3077236e-08
87	0x2f97062b	2.7471123e-10
88	0x9f646ebe	-4.8372482e-20
89	0x263f4937	6.636566e-16
90	0xacf87794	-7.0618598e-12
91	0x2fbc5b72	3.4261977e-10
92	0xa23cc428	-2.5582595e-18
93	0xa0ac8e42	-2.9232072e-19
94	0x2f1322f6	1.3381993e-10
95	0xa0907cf3	-2.4477233e-19
96	0x268b158e	9.650905e-16
97	0xad8a2873	-1.5706747e-11
98	0xa0049e5c	-1.1233232e-19
99	0x2a4a843d	1.7987083e-13
100	0x2a2d7e93	1.5409401e-13
101	0x2a280633	1.4923548e-13
102	0xae9a58e3	-7.018899e-11
103	0xab7c1198	-8.95528e-13
104	0x2a3e3b36	1.6895933e-13
105	0x2a3f91b7	1.7014763e-13
106	0x2dab6689	1.9485984e-11
107	0x2a377871	1.6295452e-13
108	0xaa76efe8	-2.1932423e-13
109	0x222c207e	2.3327548e-18
110	0x233c3579	1.0202824e-17
111	0x2399acb7	1.666144e-17
112	0x22eb668b	6.380545e-18
113	0x239b9943	1.6870043e-17
114	0x229ea88e	4.300445e-18
115	0xae496ec5	-4.5800492e-11
116	0x30a8ffbd	1.2296294e-09
117	0x29588332	4.807543e-14
118	0x2a23aad8	1.4536582e-13
119	0xa9872f64	-6.003425e-14
120	0x3213a649	8.594335e-09
121	0x3056ceb7	7.8146506e-10
122	0x298f6c69	6.369282e-14
123	0x2a031306	1.1641737e-13
124	0x29a4b46c	7.314361e-14
125	0x29820c3c	5.775282e-14
126	0x34e3421c	4.2330146e-07
127	0xb18b6b22	-4.057612e-09
128	0xb0a872e4	-1.2256263e-09
129	0x29720e81	5.3747375e-14
130	0x319877ec	4.4374158e-09
131	0x290945cf	3.048066e-14
132	0xaaabafff	-3.0497824e-13
133	0xb483e2fe	-2.456581e-07
134	0xa98246fe	-5.785475e-14
135	0x2a0ecdc4	1.2683523e-13
136	0x2a1055b6	1.2819506e-13
137	0xa7fb2f74	-6.9717944e-15
138	0xb05868d5	-7.872932e-10
139	0x29a73916	7.4261926e-14
140	0x2a0afc01	1.2344294e-13
141	0x34dc1165	4.099085e-07
142	0x300cbf6b	5.1203725e-10
143	0x29fbd1e8	1.1183052e-13
144	0x1e7b1881	1.3292897e-20
145	0x1c04771c	4.382908e-22
146	0x2c0deaba	2.0167605e-12
147	0x9e8b9a84	-1.4781104e-20
148	0x1e8fd005	1.5226749e-20
149	0xb316e735	-3.5134878e-08
150	0x1f6b8d04	4.987983e-20
151	0xb51247a6	-5.44935e-07
152	0x9bded4a7	-3.6864243e-22
153	0x16852e93	2.1516701e-25
154	0x1f54c523	4.5055814e-20
155	0x17a00a48	1.0342353e-24
156	0x98bf8ee1	-4.9516614e-24
157	0xafb3f45f	-3.2733546e-10
158	0x978c8362	-9.080454e-25
159	0x1857e188	2.7901963e-24
160	0x926c17c3	-7.449776e-28
161	0x25b6c9d7	3.170874e-16
162	0xa428146e	-3.6446498e-17
163	0x339b9d8a	7.246406e-08
164	0xb0c805d0	-1.4553567e-09
165	0x96ac04e8	-2.7791195e-25
166	0x9d7ba566	-3.3305082e-21
167	0x9e792ab9	-1.3190785e-20
168	0x22a2cee8	4.412926e-18
169	0x2a951ca6	2.6487596e-13
170	0x1f074ba9	2.8649947e-20
171	0x1d7beae1	3.3341003e-21
172	0x1d0e5353	1.8836621e-21
173	0xa15513e7	-7.219355e-19
174	0x2318defe	8.287157e-18
175	0x1dc6a9f0	5.2585875e-21
176	0xa6803156	-8.895157e-16
177	0x9e11a242	-7.70979e-21
178	0x20b25c57	3.0215478e-19
179	0x318c117a	4.076523e-09
180	0xb09df3da	-1.149256e-09
181	0x9d8ada37	-3.6753925e-21
182	0x9a409a46	-3.982929e-23
183	0x304846a7	7.285998e-10
184	0x1a2343e9	3.3762467e-23
185	0x14fabb10	2.5317332e-26
186	0x17f0c1bd	1.5558543e-24
187	0x20164b02	1.2730312e-19
188	0x9ab4723f	-7.463083e-23
189	0x34053b31	1.2408124e-07
190	0xb42bfd16	-1.6017688e-07
191	0xa10dabbc	-4.7999947e-19
192	0xb2b6b67e	-2.1270576e-08
193	0x1f121ea3	3.0942045e-20
194	0x9c4dd51f	-6.8104263e-22
195	0x30a2c647	1.1843405e-09
196	0xb49ce1a1	-2.922143e-07
197	0x1d0b0d9d	1.8403535e-21
198	0x9d61e6ca	-2.9897817e-21
199	0x9b2261cd	-1.3431927e-22
200	0x1e3c1ced	9.958619e-21
201	0x33768e8c	5.7405984e-08
202	0x1a27c134	3.469086e-23
203	0x2958ba8c	4.8123438e-14
204	0x9b2855c3	-1.3924345e-22
205	0x9aa802d2	-6.948773e-23
206	0x26a1c86b	1.1225943e-15
207	0x315a7f25	3.1795448e-09
208	0x1c9c252a	1.0332821e-21
209	0x9b5bed27	-1.8191883e-22
210	0x1cb63415	1.2057213e-21
211	0xb29a549b	-1.7966434e-08
212	0xae1b0c5d	-3.52539e-11
213	0x3126d729	2.4278484e-09
214	0xb518acc8	-5.687584e-07
215	0x19ac778c	1.7832668e-23
216	0x3dfd9487	0.12381845
217	0x3da8748b	0.08225354
218	0x3a017e11	0.0004939745
219	0x3b3df841	0.0028987082
220	0xbb473f40	-0.003040269
221	0x3c880f1d	0.01660877
222	0xbcb5a3e3	-0.022172874
223	0xbdafe4d6	-0.08588569
224	0x3d9ba25b	0.07599326
225	0x1e1d10e3	8.315003e-21
226	0xb053986c	-7.697796e-10
227	0x1d8bdd62	3.70219e-21
228	0xa58aa2f7	-2.4049613e-16
229	0x9c4891e7	-6.6363023e-22
230	0x1d9f54c8	4.217461e-21
231	0x9ca51e72	-1.0926654e-21
232	0x9c30f6bb	-5.8552407e-22
233	0x3342e36d	4.5375987e-08
234	0xbba3e2f7	-0.0050014216
235	0xbd49d428	-0.049274594
236	0xbda22bc0	-0.07918501
237	0x3daf3544	0.085550815
238	0xbd92138a	-0.07132633
239	0xbcc399a8	-0.02387698
240	0x3d8bef62	0.06832768
241	0x3c8b4a80	0.017003298
242	0x3b852778	0.004063543
243	0xbce4c592	-0.02792624
244	0x3da8d3c7	0.08243518
245	0xbd25e729	-0.040503655
246	0x3c9fea4f	0.019520907
247	0x3dd8d340	0.10587168
248	0xb9b590b9	-0.00034630837
249	0xbda5dbd1	-0.08098567
250	0x3db0984a	0.08622797
251	0x3dea8080	0.11450291
252	0x3246cfb8	1.1572347e-08
253	0xb0b4f047	-1.3165015e-09
254	0x2f9ebd68	2.8874614e-10
255	0x2f0528bc	1.2110751e-10

down_path.0.block.2.bias f4 [8]
0	0x3db98ccc	0.09060058
1	0xb48481a2	-2.4681236e-07
2	0x1ee9ffaf	2.4775583e-20
3	0x3d97055a	0.073740676
4	0xbdb4ff6e	-0.08837782
5	0xb50c75d7	-5.2325544e-07
6	0xbccf0f45	-0.025275836
7	0xba3867d1	-0.0007034513

down_path.1.block.0.weight f4 [16, 8, 3, 3]
0	0x3cb6013d	0.022217387
1	0x3dc2d7af	0.09513795
2	0x3d55e432	0.052219577
3	0x3c3b18ca	0.011419484
4	0x3d09bc6e	0.033626966
5	0x3da9efb4	0.08297673
6	0xbd71a5c6	-0.058995984
7	0xbd97e5c2	-0.0741687
8	0x3dccd370	0.10001266
9	0x28700d6b	1.3325586e-14
10	0x3516fd2a	5.6247757e-07
11	0x28735296	1.3507118e-14
12	0x288d8456	1.5711536e-14
13	0x286ab28c	1.30283256e-14
14	0x2c077364	1.9248709e-12
15	0x28be800e	2.1149772e-14
16	0x2869497c	1.2950033e-14
17	0x284948ab	1.1173499e-14
18	0x9a1993cf	-3.1759057e-23
19	0x1cf82a59	1.642221e-21
20	0xb3f150e4	-1.1237151e-07
21	0x1af5db8f	1.0168434e-22
22	0x329b9345	1.8111345e-08
23	0x34562860	1.9944991e-07
24	0x2c4d9c7a	2.9219114e-12
25	0x9f4f1f17	-4.3859672e-20
26	0x1bb160f0	2.9344838e-22
27	0xbd8f5b27	-0.06999808
28	0xbdb58a2f	-0.08864247
29	0x3e0185fb	0.12648766
30	0x3df6fa58	0.12059468
31	0xbd2032bb	-0.03911088
32	0x3dfc870b	0.12330445
33	0x3d710530	0.058842838
34	0xbd75c3ce	-0.060001187
35	0x3c1684b4	0.009186912
36	0x3de7b2b8	0.11313385
37	0xbc24f6ab	-0.010068576
38	0x3db2470e	0.08704959
39	0xbc8fd127	-0.017555786
40	0x3daed7da	0.08537264
41	0xbd974adc	-0.07387325
42	0xbb0993f5	-0.002099273
43	0x3dd72adc	0.10506222
44	0x3d96f328	0.07370597
45	0x18e8b550	6.0153673e-24
46	0x1985f841	1.3852147e-23
47	0x19044208	6.837575e-24
48	0x1924a2be	8.511467e-24
49	0x266b9683	8.1735985e-16
50	0x19279fab	8.665942e-24
51	0x191edfe8	8.213626e-24
52	0x33b4a71b	8.4122995e-08
53	0x9774b026	-7.9062983e-25
54	0xb634fb7d	-2.6968476e-06
55	0xb712171f	-8.707661e-06
56	0x34ccbe5f	3.8136474e-07
57	0xb6c21a59	-5.784718e-06
58	0xb5c7f4e1	-1.4897925e-06
59	0x34c8f5aa	3.7431647e-07
60	0x34d09555	3.8851672e-07
61	0x34cf977b	3.866697e-07
62	0x34c9d246	3.7592162e-07
63	0x3d26d4ec	0.040730402
64	0xbd592e12	-0.05302245
65	0x3d5b8ee6	0.053603075
66	0x3c74c133	0.01493864
67	0x3ddb763e	0.10715912
68	0xbd905127	-0.070467286
69	0xbd2dfc85	-0.04247715
70	0x3d8f0d3a	0.06984945
71	0xbc4f2c79	-0.01264488
72	0xbd3d022e	-0.046144657
73	0x3db33361	0.08750034
74	0xbd56286d	-0.052284647
75	0xbd0bf580	-0.034169674
76	0xbcbf69d3	-0.02336589
77	0x3da48ba2	0.08034445
78	0x3dd118d6	0.10209815
79	0xbc18b151	-0.009319619
80	0x3cd2a872	0.025715087
81	0x28380fa7	1.0217446e-14
82	0x281c45b8	8.6748574e-15
83	0x280c6fcd	7.795804e-15
84	0x286de2dd	1.3205336e-14
85	0x281c1198	8.663555e-15
86	0xada5f3f7	-1.886667e-11
87	0x2827bb5d	9.31099e-15
88	0x287cd753	1.4035501e-14
89	0x339c5f20	7.281619e-08
90	0x1b164c1b	1.24323e-22
91	0x2fb37d83	3.2649092e-10
92	0xb20d15f4	-8.212272e-09
93	0x9aa7647d	-6.923193e-23
94	0xacede066	-6.7608584e-12
95	0x1b74127a	2.0189177e-22
96	0x1b056f8d	1.1037546e-22
97	0xb52394bc	-6.093867e-07
98	0x1a62417c	4.6788602e-23
99	0xbd4aebd7	-0.04954132
100	0xbdb158d0	-0.08659518
101	0x3d7540f1	0.059876386
102	0xbd7e78b2	-0.062126823
103	0x3e0367b8	0.12832534
104	0x3d352d57	0.044232693
105	0xbda9078a	-0.08253391
106	0x3dc3300b	0.09530648
107	0xbc3ea8c2	-0.011636915
108	0x3db701bf	0.0893588
109	0xb9c3cb8c	-0.00037344953
110	0x3e0431ac	0.12909573
111	0xbd9fe898	-0.078080356
112	0x3b83890e	0.004014141
113	0x3d210551	0.03931171
114	0x3d367a2d	0.04455011
115	0x3dc01b0d	0.093801595
116	0xbcf2666d	-0.029589856
117	0x1562769c	4.5733903e-26
118	0x298cc0a4	6.250667e-14
119	0x32d65b17	2.4954302e-08
120	0xaf239c38	-1.4880264e-10
121	0x1d91c488	3.858439e-21
122	0xa114aad9	-5.0370465e-19
123	0x22c65f56	5.376895e-18
124	0x98e1f28e	-5.8406054e-24
125	0x1cc94c3a	1.3320768e-21
126	0x34928667	2.729241e-07
127	0x349db141	2.9372498e-07
128	0x348c1694	2.609346e-07
129	0x34993216	2.8534913e-07
130	0x349a3162	2.8720666e-07
131	0x349cceb3	2.9207658e-07
132	0x347edade	2.3735217e-07
133	0x3480306e	2.3877095e-07
134	0x34877915	2.5233808e-07
135	0x3d0c29ac	0.03421943
136	0x3c1fb71c	0.0097482465
137	0x3cf0b6fd	0.02938413
138	0x3bd1a410	0.0063977316
139	0x3ddbbd01	0.10729409
140	0xbd9b9894	-0.07597461
141	0x3c72646b	0.014794449
142	0xbd8a65bd	-0.06757686
143	0xbb05f374	-0.0020439299
144	0xbbfb7cd6	-0.0076747937
145	0x3db74c4e	0.08950101
146	0xbd962073	-0.07330408
147	0x3dd4c21e	0.103885874
148	0x3d7b4c6d	0.061352182
149	0xbd357e38	-0.044309825
150	0x3cc39594	0.023875035
151	0x3da37be3	0.07982614
152	0xbcaec0a9	-0.021332102
153	0x29081c9c	3.022288e-14
154	0xb19dde39	-4.594565e-09
155	0x28136ca4	8.183697e-15
156	0x34b37215	3.3424354e-07
157	0x28479f6d	1.1081289e-14
158	0x28104038	8.007531e-15
159	0x285b6578	1.2178945e-14
160	0x281a2330	8.556347e-15
161	0xb1b5c738	-5.290442e-09
162	0xac6a4abb	-3.3294884e-12
163	0x2e950816	6.777172e-11
164	0xb2a69825	-1.939413e-08
165	0x1b04a687	1.0972592e-22
166	0xb1383f60	-2.6811549e-09
167	0xa0c8f768	-3.4045038e-19
168	0x19d6b617	2.2200627e-23
169	0x34f04452	4.4753193e-07
170	0x28fe8eb7	2.8261558e-14
171	0x3dec20b5	0.11529676
172	0x3dd80e0c	0.10549554
173	0xbada999b	-0.0016677858
174	0x3dd6cd69	0.10488398
175	0xbd7b2a92	-0.061319895
176	0xbd87aa89	-0.06624324
177	0xbdb61a04	-0.08891681
178	0x3c3ec6dd	0.011644092
179	0xbd926df6	-0.0714988
180	0xbcf9690a	-0.030445594
181	0x3dafdf99	0.0858757
182	0x3cb0b19b	0.021569064
183	0x3d9d8138	0.07690662
184	0x3de74162	0.11291768
185	0xbcc3ebd8	-0.02391617
186	0x3de7a819	0.11311359
187	0x3db8d279	0.090245195
188	0x3dc8c235	0.09802667
189	0x975b16d7	-7.0791544e-25
190	0x97f09142	-1.5546305e-24
191	0x30bae73a	1.3599e-09
192	0x19a90fc5	1.748056e-23
193	0x197ee3fd	1.3177534e-23
194	0x18f0f1a3	6.2282537e-24
195	0x99396fa7	-9.586824e-24
196	0x9f348ce4	-3.8233025e-20
197	0x31a376bd	4.7574233e-09
198	0xb60a1a2e	-2.057884e-06
199	0x348f80d5	2.6729563e-07
200	0x34992f3d	2.853284e-07
201	0x349cf169	2.9232913e-07
202	0x34167e92	1.4015885e-07
203	0x349ac3c1	2.8827165e-07
204	0x348edc87	2.6610016e-07
205	0x34910435	2.7011416e-07
206	0x34867abc	2.5048746e-07
207	0x3d2d342b	0.04228608
208	0x3d8be62e	0.06831013
209	0xbc9305c6	-0.017947089
210	0xbd8dbd8c	-0.06920919
211	0x3d21eb31	0.039530937
212	0x3c232564	0.009957645
213	0x3c65b995	0.014021297
214	0x3d239b8c	0.039943263
215	0x3d26977a	0.040671803
216	0xbc533b6a	-0.012892583
217	0x3daff11f	0.08590912
218	0xbd0ae385	-0.033908386
219	0x3d1e7ce9	0.038693342
220	0x3d84e195	0.06488339
221	0xbd0f8c52	-0.03504593
222	0x3cfe53ef	0.031045882
223	0xbbaf2bfb	-0.005345819
224	0xbd8cc2aa	-0.06873067
225	0x27da0d02	6.052126e-15
226	0xaf8cd4d4	-2.5617075e-10
227	0x27c790bb	5.5390513e-15
228	0x30df4fbf	1.6248051e-09
229	0x27f785a5	6.870117e-15
230	0x2f023418	1.1841939e-10
231	0x27d3b05e	5.8755482e-15
232	0xa71645ea	-2.0854582e-15
233	0x27aec4bd	4.8508006e-15
234	0x1cdf473f	1.4775319e-21
235	0x2f63a5f5	2.070449e-10
236	0xa985e8f6	-5.946799e-14
237	0x1ac0d00a	7.9745444e-23
238	0x9b1a5a6b	-1.2767797e-22
239	0x9a48dd5d	-4.1537846e-23
240	0x9b159e74	-1.237619e-22
241	0x1bf165cd	3.9935893e-22
242	0xb1c3949f	-5.692143e-09
243	0x3cde8a81	0.027165653
244	0x3caf94b8	0.02143322
245	0x3c84d918	0.0162168
246	0x3cbc4c47	0.02298559
247	0x3d4caf13	0.04997165
248	0xbd5fc65f	-0.05463254
249	0xbda4697d	-0.08027933
250	0xbd1565a3	-0.03647388
251	0x3de7e693	0.113232754
252	0xbd2de537	-0.042454924
253	0x3db0a15c	0.08624527
254	0x3cc50578	0.02405046
255	0xbcb97225	-0.022637436

down_path.1.block.0.bias f4 [16]
0	0x3e109050	0.14117551
1	0x3dfa601c	0.12225363
2	0xbc85622e	-0.016282167
3	0xbd717c79	-0.058956597
4	0xa1c18e3e	-1.311584e-18
5	0x3dbd0009	0.09228522
6	0x3cb04cf3	0.021521067
7	0x3db079a3	0.0861695
8	0xb1ce7f3a	-6.009853e-09
9	0xaf6df710	-2.1642799e-10
10	0x21667edd	7.8094933e-19
11	0x3d9e8778	0.07740682
12	0x3ce62b3c	0.028096788
13	0x3d5fdf38	0.054656237
14	0x3e050a2d	0.12992163
15	0xa3117c3a	-7.886772e-18

down_path.1.block.2.weight f4 [16, 16, 3, 3]
0	0x3d6d1d88	0.05788949
1	0x3d9f2736	0.07771151
2	0x3daf095b	0.08546706
3	0x3d7b765c	0.061392173
4	0xbb9d6371	-0.004803114
5	0x3d7d8d07	0.061902072
6	0xbd488553	-0.048955273
7	0xbd21dabe	-0.03951525
8	0x3b793adc	0.0038029468
9	0x3c0ea741	0.008706869
10	0x3d82422d	0.06360278
11	0x3d67c5f2	0.05658526
12	0x3d904a99	0.070454784
13	0x3cef4c84	0.02921129
14	0xbd2c4382	-0.042056568
15	0xbcb659a5	-0.022259543
16	0x3cc6b6a3	0.02425701
17	0xbc677f92	-0.014129536
18	0x3ce533a9	0.027978735
19	0x3d3e96ff	0.04653072
20	0xbd2be856	-0.04196962
21	0xbc6bb6f9	-0.014386886
22	0x3c7a77f5	0.015287389
23	0x3d8fa584	0.070139915
24	0xbc955247	-0.01822771
25	0xbd42045c	-0.04736744
26	0x3d6e238c	0.05813937
27	0x3d6968fd	0.05698489
28	0x3c9c5a26	0.019085955
29	0xbcda6d82	-0.026663546
30	0x3d0b8828	0.034065396
31	0x3d0f472c	0.034979984
32	0x3cf54054	0.0299379
33	0x3d6bf964	0.057610884
34	0x3cf5662e	0.02995595
35	0x3d806fee	0.06271349
36	0x29298b6c	3.7646467e-14
37	0xa0bdd039	-3.2155636e-19
38	0xa0f9758a	-4.2260022e-19
39	0x9e32146c	-9.427465e-21
40	0x1b7efc9c	2.109201e-22
41	0xa7be8f58	-5.2891007e-15
42	0x9726c91f	-5.3891343e-25
43	0x1bb609bc	3.0115665e-22
44	0x1e02bd27	6.9212585e-21
45	0x3d8a24ee	0.06745325
46	0xbd28831d	-0.041140664
47	0x3d89fd95	0.0673782
48	0x3c17f0df	0.009273737
49	0x3c0c27fc	0.008554455
50	0xbd0e3e05	-0.034727115
51	0x3c9c13f0	0.019052476
52	0x3d176103	0.036957752
53	0x3d945060	0.07241893
54	0x34de2bca	4.1382583e-07
55	0x34de2877	4.1380164e-07
56	0x34cdc2dd	3.8326007e-07
57	0x34d411c2	3.9500998e-07
58	0x34d77253	4.0130053e-07
59	0x34d3f697	3.948123e-07
60	0x34d24bf0	3.91708e-07
61	0x34cc9dfd	3.8112913e-07
62	0x34ce3f9e	3.8416778e-07
63	0xbc970aab	-0.018437704
64	0x3d676fa5	0.056502957
65	0x3d908751	0.070570596
66	0x3d1d3adb	0.038386207
67	0xbcaf73b5	-0.021417478
68	0x3d55d7fa	0.052207924
69	0xbc1542ee	-0.009110196
70	0x3bcb6b20	0.0062078387
71	0x3cba1162	0.022713367
72	0x2b93c546	1.0499733e-12
73	0x2b95cd93	1.0644145e-12
74	0x2bc241b0	1.3802761e-12
75	0x2bc253ba	1.3807768e-12
76	0x2bcb54d7	1.4447565e-12
77	0x2b9da66f	1.1201716e-12
78	0x2b6ed5d6	8.485134e-13
79	0x2bd14e72	1.4872116e-12
80	0x2bb1d99d	1.2637006e-12
81	0xab81d516	-9.225145e-13
82	0x2bfa7528	1.7796086e-12
83	0x2c23bde7	2.326911e-12
84	0x2bb41761	1.2796258e-12
85	0x2c059260	1.8981691e-12
86	0x2c235b5e	2.3214412e-12
87	0x2c4a72d8	2.8769678e-12
88	0x2c020240	1.847536e-12
89	0x2c17dfb0	2.1582562e-12
90	0x1ead7efa	1.8369604e-20
91	0x2915f19b	3.3294205e-14
92	0x27b4445d	5.0034156e-15
93	0x9edc0a54	-2.3297678e-20
94	0x25889c63	2.369821e-16
95	0x279e4d60	4.39377e-15
96	0xa7b8b685	-5.1268147e-15
97	0x25f772db	4.29255e-16
98	0x28164d05	8.343374e-15
99	0xbb4ae3bc	-0.0030958494
100	0x3cb9451c	0.022615962
101	0xbc53b904	-0.012922529
102	0x3d0f6e46	0.035017274
103	0x3d8e64d4	0.06952825
104	0x3daef7d4	0.08543363
105	0x3da31c95	0.07964436
106	0x3d8f2728	0.0698989
107	0x3cb92be7	0.022603942
108	0xbd60091b	-0.054696184
109	0x3db7570d	0.089521505
110	0x3db68619	0.08912296
111	0x3d99c97b	0.075091325
112	0x3c1c8278	0.009552591
113	0x3dce91a9	0.10086376
114	0x3da21e3d	0.07915924
115	0x3ce9f011	0.028556855
116	0x3d94c264	0.072636396
117	0x3d86d1f6	0.065830156
118	0x3c0fb72d	0.0087717
119	0xbcc11802	-0.023571018
120	0x3db54c9d	0.088525034
121	0x3d375926	0.044762753
122	0xbbbf5fee	-0.005840293
123	0x3ce0e288	0.027451769
124	0x3dc94f8d	0.09829626
125	0x3dbf7aab	0.09349569
126	0x3d21e268	0.03952256
127	0x3dc92444	0.0982137
128	0xbc103ad7	-0.008803091
129	0x3d62e8d1	0.055397812
130	0x3d865543	0.06559231
131	0x3bea7539	0.0071550873
132	0xbd0a86e5	-0.03382005
133	0x3c4f70d0	0.012661174
134	0x3cd48170	0.025940627
135	0xa0095c35	-1.163486e-19
136	0x26487eab	6.9560606e-16
137	0xa03ed4c8	-1.616403e-19
138	0xa6c50c40	-1.3672941e-15
139	0xa39d5168	-1.7056451e-17
140	0x9ec8a16e	-2.124259e-20
141	0x1849a2ef	2.6060902e-24
142	0xa62bfe39	-5.967208e-16
143	0x1f350da8	3.8339537e-20
144	0x3d9facba	0.07796617
145	0xbce4d149	-0.027931826
146	0x3c95335b	0.018212965
147	0xbcb5abf0	-0.022176713
148	0xbd237436	-0.03990575
149	0x3c59eb86	0.013300782
150	0x3d7e6762	0.062110312
151	0x3da69637	0.0813412
152	0x3d8564df	0.0651338
153	0x3ce7a0c1	0.028274896
154	0xbd207ab3	-0.039179515
155	0xbc827c27	-0.015928341
156	0x3a33e573	0.00068624987
157	0x3d3c37d6	0.045951687
158	0xbd7c26d6	-0.061560474
159	0xbd221b90	-0.039577067
160	0x3d7bffc4	0.061523214
161	0x3c3b61a5	0.0114368545
162	0xbb6666aa	-0.0035156407
163	0x3d057d8b	0.03259043
164	0x3d7f7274	0.06236501
165	0x3cfd37d6	0.030910414
166	0x3d213f14	0.039366797
167	0x3c8e7281	0.017388584
168	0x3db447ee	0.08802782
169	0x3d2c1569	0.042012606
170	0xbd572d14	-0.052533224
171	0x3c33b7d1	0.010969118
172	0x3ca0e60a	0.019640941
173	0x3d336c62	0.043804534
174	0x3cea2408	0.028581634
175	0x3d7ba456	0.06143602
176	0x3c874b65	0.016515443
177	0xbc94422d	-0.018097961
178	0x3c3a71b3	0.011379647
179	0x3c63009e	0.013855128
180	0x23d7ca47	2.3396014e-17
181	0x204824eb	1.6952874e-19
182	0x1fae6b0c	7.386896e-20
183	0x9dea1c63	-6.1968635e-21
184	0x9d34e51b	-2.3941246e-21
185	0x9e19890e	-8.128095e-21
186	0x198fa198	1.485112e-23
187	0x1f18fc94	3.239618e-20
188	0x1e69264b	1.2342836e-20
189	0xbd115378	-0.035479993
190	0x3d695315	0.056964
191	0x3c0bf162	0.008541437
192	0x3d9487c2	0.07252456
193	0x3d9fa939	0.077959485
194	0x3da7baa7	0.08189898
195	0x3d32d05b	0.043655735
196	0xbc11e3b8	-0.00890439
197	0x3d6b53b9	0.05745289
198	0x351285fe	5.458422e-07
199	0x34b1fa48	3.3150923e-07
200	0x351c9c2c	5.834179e-07
201	0x350e9c0a	5.312619e-07
202	0x350f2d2c	5.3337385e-07
203	0x350be02c	5.210775e-07
204	0x35794719	9.286319e-07
205	0x350a69e9	5.1563126e-07
206	0x35093065	5.11069e-07
207	0xbd4e8d23	-0.050427567
208	0xbc6b95f2	-0.0143790115
209	0x3d81b91f	0.06334137
210	0x3dc76ce9	0.0973757
211	0xbd116fc4	-0.03550698
212	0x3da3564d	0.07975445
213	0x3bdcf0c3	0.006742568
214	0x3d450510	0.04810053
215	0xbb8306f6	-0.0039986325
216	0x2c38fd79	2.6288678e-12
217	0x2bd3abd9	1.5040149e-12
218	0x2beaf78e	1.669541e-12
219	0x2bdb86d6	1.559831e-12
220	0x2be9cd45	1.661262e-12
221	0x2c0316aa	1.86288e-12
222	0x2bc61c2f	1.4076569e-12
223	0x2bfc7d4c	1.7940454e-12
224	0x2c10b8b7	2.0566168e-12
225	0x2c63c175	3.236603e-12
226	0x2c835fb0	3.7338674e-12
227	0x2be47a33	1.6234291e-12
228	0x2c55a4c5	3.0360586e-12
229	0x2c3440e9	2.561557e-12
230	0x2c44042f	2.7855598e-12
231	0x2c788400	3.5316194e-12
232	0x2c9eea29	4.516627e-12
233	0x2be0fd16	1.5986403e-12
234	0x1f265466	3.522168e-20
235	0x262a9f1f	5.919625e-16
236	0x285eb6f2	1.23631455e-14
237	0x26e0ee25	1.5607672e-15
238	0x25905e6a	2.5043996e-16
239	0x2898951c	1.6940056e-14
240	0x2101b208	4.394252e-19
241	0x258911dd	2.3777816e-16
242	0x272b30b4	2.375742e-15
243	0x3bde235e	0.0067791184
244	0x3d2b41bd	0.04181074
245	0x3db09814	0.086227566
246	0x3c1d6432	0.009606408
247	0xbd28a919	-0.04117689
248	0xbd43b1d8	-0.047777027
249	0x3dbc5bff	0.09197234
250	0x3dc54ec7	0.09634166
251	0xbb92ef89	-0.004484121
252	0xbc1cf384	-0.009579543
253	0xbd03b33a	-0.032153346
254	0x3cc4c1e9	0.024018245
255	0x3d838112	0.064211026

down_path.1.block.2.bias f4 [16]
0	0x3d661a77	0.056177583
1	0x3d49db44	0.049281374
2	0x3d8cf801	0.068832405
3	0x35a55598	1.2318369e-06
4	0x3da45661	0.08024288
5	0x3c7b1679	0.015325182
6	0xbcdbb7e7	-0.02682109
7	0xa2c49993	-5.328851e-18
8	0xa1b4e185	-1.2256969e-18
9	0x3dcaa7b8	0.09895271
10	0x3dc893c9	0.09793813
11	0xba2d3227	-0.00066068996
12	0x3d68ee2e	0.05686777
13	0xbc3429b1	-0.010996268
14	0xbd0a2e4c	-0.03373556
15	0xa5aec30c	-3.0316357e-16

down_path.2.block.0.weight f4 [32, 16, 3, 3]
0	0x1bafa592	2.905832e-22
1	0x1a70df6e	4.9811322e-23
2	0x1b7c6f22	2.088086e-22
3	0x1cf525b7	1.6222489e-21
4	0xa8a5b566	-1.8397349e-14
5	0x269fc493	1.1086123e-15
6	0x1b9be053	2.5787565e-22
7	0x1b95325a	2.468252e-22
8	0x1c025f16	4.313629e-22
9	0x9d93cb74	-3.912094e-21
10	0x2635d4ca	6.3085373e-16
11	0x9b58de1f	-1.7938872e-22
12	0xa7a47e86	-4.565632e-15
13	0x1b56838d	1.7744171e-22
14	0x1b8670db	2.2241372e-22
15	0x1c81ac91	8.581111e-22
16	0x1cb87fd8	1.2209145e-21
17	0x1d75b8b9	3.252098e-21
18	0x26e42837	1.5831578e-15
19	0x9992fefb	-1.5199032e-23
20	0x22c8ffa7	5.448079e-18
21	0x9aaa13e5	-7.0342493e-23
22	0x1bacd9e3	2.859582e-22
23	0x985da3c5	-2.8646263e-24
24	0x25c37428	3.3905818e-16
25	0x1b9d7985	2.6052001e-22
26	0x1b35bff8	1.5033998e-22
27	0x229cbdd5	4.2484877e-18
28	0x9da82dcb	-4.451658e-21
29	0x9678362a	-2.0050372e-25
30	0x15a76a91	6.7618895e-26
31	0x9549acb2	-4.072786e-26
32	0x964657fb	-1.6022074e-25
33	0x983dccab	-2.4531008e-24
34	0xa017eedf	-1.2869233e-19
35	0x185a49bb	2.8213064e-24
36	0x1b46875b	1.6421912e-22
37	0x1f25ba5c	3.5094262e-20
38	0x1b4fc72e	1.7186997e-22
39	0x1c191be1	5.0659486e-22
40	0x1a6628af	4.759575e-23
41	0x1932cb5a	9.243451e-24
42	0x2998b478	6.781462e-14
43	0x9af67c9a	-1.0194452e-22
44	0x299a1096	6.841851e-14
45	0x1da530df	4.3725668e-21
46	0xa6deb15f	-1.5452421e-15
47	0x1b7a5d12	2.0709588e-22
48	0x9b37de00	-1.5209137e-22
49	0x1b861fff	2.2189117e-22
50	0x1c1b6276	5.1412456e-22
51	0x1bc3de0d	3.240354e-22
52	0x9ca1e0d8	-1.0712207e-21
53	0x9b9888d0	-2.5234704e-22
54	0x9bbd1e48	-3.1286996e-22
55	0x1b77b26c	2.0489012e-22
56	0x9b1ba7af	-1.2875481e-22
57	0x9a9cb361	-6.480989e-23
58	0x1aa4affa	6.8113116e-23
59	0xa316186e	-8.1366895e-18
60	0x9f69adfd	-4.948359e-20
61	0x1b3111b0	1.4646812e-22
62	0x1b50bcd4	1.726637e-22
63	0x9c4090b5	-6.37145e-22
64	0x205426a5	1.7969885e-19
65	0x98bb9094	-4.8484354e-24
66	0x960d255e	-1.140168e-25
67	0x97eb3369	-1.5199497e-24
68	0xa197db03	-1.029013e-18
69	0x97605f10	-7.249829e-25
70	0x1ab47021	7.462741e-23
71	0x223f6531	2.5938897e-18
72	0x14a18788	1.6310303e-26
73	0x976f0ecc	-7.724374e-25
74	0x9ecb4c85	-2.1525109e-20
75	0xa1025d0e	-4.416887e-19
76	0x1b1e24df	1.3081367e-22
77	0x169af4f7	2.5034636e-25
78	0x1a13ab9a	3.0537506e-23
79	0x1bbe1bfd	3.145095e-22
80	0xa5e7a366	-4.0182835e-16
81	0x1a65bc4a	4.750819e-23
82	0xa6d26f81	-1.46019e-15
83	0x1b3aad82	1.5441623e-22
84	0x1b9e58b9	2.6196243e-22
85	0x1b72b7f3	2.0077208e-22
86	0x1b52371a	1.7388597e-22
87	0x9b8c9757	-2.3258858e-22
88	0x26abde6c	1.1925796e-15
89	0x9b9827d1	-2.5172021e-22
90	0x1bd23665	3.4776737e-22
91	0x9a144b9e	-3.0666766e-23
92	0x1b2ffa1e	1.4556478e-22
93	0x1b0bae0e	1.155405e-22
94	0x1b353ff3	1.4992632e-22
95	0x1a1e3c3e	3.2722297e-23
96	0x1b82b417	2.1623076e-22
97	0x1b52c9f1	1.7436044e-22
98	0x19bc4cdf	1.9469792e-23
99	0x1af5d949	1.0168067e-22
100	0x967e3e9c	-2.0537713e-25
101	0x15a3f86c	6.6227116e-26
102	0xa40b54c6	-3.0212626e-17
103	0x95d99906	-8.788703e-26
104	0x1c889f66	9.040929e-22
105	0x17a5a027	1.0703303e-24
106	0x1b2445e9	1.3588351e-22
107	0x25b66552	3.1640625e-16
108	0x1b778665	2.0474786e-22
109	0x1b25947d	1.3696459e-22
110	0x29170c58	3.3539442e-14
111	0x9b103a6a	-1.1930275e-22
112	0x1b9fee69	2.6458412e-22
113	0x9b018506	-1.0713612e-22
114	0x1c6c2099	7.812798e-22
115	0x1f4c5c2b	4.327492e-20
116	0x1b9f8f77	2.6397055e-22
117	0x1b46149b	1.6384834e-22
118	0xaa37b7de	-1.6317457e-13
119	0xa189561a	-9.306272e-19
120	0x1b40d636	1.5951083e-22
121	0x1af3febd	1.00913996e-22
122	0x9b216283	-1.3349439e-22
123	0x9a87fd6e	-5.624413e-23
124	0x9a842e93	-5.4669165e-23
125	0x1b5cb16a	1.8255299e-22
126	0x1bc14ddf	3.1979495e-22
127	0x1b835112	2.1724523e-22
128	0x1b373279	1.5153714e-22
129	0x1bacda58	2.8596114e-22
130	0x9bd84470	-3.577843e-22
131	0x1ba52533	2.7321e-22
132	0x1bc1f17b	3.2085225e-22
133	0x1a9a9cce	6.394624e-23
134	0xa28be5df	-3.791941e-18
135	0x9808e9a2	-1.7695542e-24
136	0x23c8d205	2.177299e-17
137	0x291a8190	3.4307247e-14
138	0x959e4181	-6.391904e-26
139	0x2948c4df	4.457968e-14
140	0x26bcfaa5	1.3113058e-15
141	0x9ad08f90	-8.625872e-23
142	0x9cc1af80	-1.2817034e-21
143	0xa98a0030	-6.1284636e-14
144	0xbd55bc44	-0.052181497
145	0xbca672e7	-0.020318462
146	0xbade9c13	-0.001698377
147	0x3cd9f9fb	0.026608458
148	0xbd03d7e4	-0.03218831
149	0x3d04aad2	0.03238947
150	0x3bd221bd	0.0064127133
151	0x3d8bd45c	0.06827614
152	0x3d9a68ad	0.075394966
153	0x3d1850f7	0.03718659
154	0x3c8f26a2	0.017474476
155	0x3da10bc6	0.07863574
156	0x3d1209be	0.035653822
157	0xbc81e1a6	-0.015854668
158	0x3d989f13	0.07452216
159	0x3c937b4d	0.01800313
160	0xbd0c978b	-0.03432421
161	0xbca704f2	-0.0203881
162	0x3dad2cbe	0.084557995
163	0x3d1fe1a3	0.039033543
164	0xbc322476	-0.010872951
165	0x3d5e3e0e	0.0542584
166	0xbcf3625c	-0.029709987
167	0x3da289e6	0.07936458
168	0x3c478a99	0.01217904
169	0xbcd024e0	-0.025408208
170	0x3d4cf6de	0.05004012
171	0x2d4e034e	1.1710478e-11
172	0x2d2fb0d9	9.986866e-12
173	0x2d44436f	1.1156283e-11
174	0x2d51cf04	1.1926241e-11
175	0x2d48be90	1.1410997e-11
176	0x2d380fa0	1.04626585e-11
177	0x2d41f599	1.10253135e-11
178	0x2d5c67cd	1.25286006e-11
179	0x2d449bc4	1.1175897e-11
180	0x3d65ed18	0.056134313
181	0x3ce2ff0b	0.027709505
182	0xbd5a6b4e	-0.05332499
183	0x3cf847c2	0.030307654
184	0xbb9cd94e	-0.004786647
185	0xbc235b46	-0.009970492
186	0xbd2c60af	-0.042084392
187	0xbd242bfc	-0.04008101
188	0xbd53234a	-0.051547326
189	0xbba508e6	-0.005036461
190	0x3d15bfad	0.03655975
191	0xbc92e35f	-0.017930685
192	0x3d32752a	0.043568768
193	0x3c9aa0fa	0.018875588
194	0xbce84d15	-0.028357068
195	0xbcc6e9bd	-0.024281377
196	0x3d5e2d14	0.05424221
197	0x3d0d87fe	0.03455352
198	0x3d833d7c	0.064082116
199	0x3d2a9e45	0.041654844
200	0x3d03a9c7	0.032144334
201	0xbad7024e	-0.0016403885
202	0xbd50885d	-0.050911296
203	0x3cf1b56a	0.02950545
204	0x3d3231ab	0.0435044
205	0x3bf36fe5	0.0074291104
206	0x3c6a9e3f	0.014319955
207	0xa4b1d603	-7.7124064e-17
208	0x1fcd1ab2	8.686504e-20
209	0xa313adc0	-8.005679e-18
210	0x209b9a7c	2.636025e-19
211	0x20b4cd0f	3.0628882e-19
212	0x2026939b	1.4109585e-19
213	0x1fe7c7d9	9.8162926e-20
214	0x21003cfc	4.34488e-19
215	0x2006e26f	1.1425162e-19
216	0xa4a7d58d	-7.2786474e-17
217	0x1e80f365	1.3653193e-20
218	0x1e635750	1.2035336e-20
219	0xa8a41f2f	-1.8221181e-14
220	0x1effd9d9	2.7089275e-20
221	0x243df9cd	4.119443e-17
222	0xa19e8482	-1.0741571e-18
223	0x1ecd722a	2.1752436e-20
224	0xa1a08004	-1.0875907e-18
225	0x3c96638b	0.018358013
226	0xbcec737f	-0.028863667
227	0x3d8617ba	0.06547494
228	0x3caa98cc	0.020824812
229	0x3d651e82	0.055937298
230	0xbd4b8ca5	-0.049694676
231	0xbb63bbe2	-0.0034749438
232	0x3d076058	0.033050865
233	0x3d87a032	0.06622352
234	0x3cc40945	0.023930201
235	0x3d66752c	0.056264088
236	0x3cf1fe7c	0.029540293
237	0xbcd6ab96	-0.026204865
238	0x3c3e63a9	0.0116204405
239	0xbd534e32	-0.051588245
240	0xbcd70f38	-0.026252374
241	0x3d971d3b	0.07378622
242	0x3cb7f7d6	0.022457045
243	0x9da59fa9	-4.384022e-21
244	0x1c00269c	4.240155e-22
245	0x1942aa17	1.0063914e-23
246	0x21366f16	6.181102e-19
247	0x1a027ca1	2.6984044e-23
248	0x24bee8cc	8.279374e-17
249	0x1e7cf87d	1.3392155e-20
250	0x2035f831	1.5413416e-19
251	0x99925b61	-1.5132954e-23
252	0xbc959365	-0.01825876
253	0xbd0b61e7	-0.034028914
254	0x3d83aa77	0.06428998
255	0x3cac27b3	0.021015024

down_path.2.block.0.bias f4 [32]
0	0x27c66ac5	5.50718e-15
1	0x3da72b4a	0.081625536
2	0xa276725c	-3.3399758e-18
3	0x9bba3c98	-3.0810277e-22
4	0xbd4ccba6	-0.0499989
5	0x3d9bd06d	0.076081134
6	0x9ff8980d	-1.0528363e-19
7	0x201b2ca7	1.3143785e-19
8	0x3db84ef7	0.08999436
9	0xbc635df4	-0.013877381
10	0x3d803ba0	0.062613726
11	0x96b866c0	-2.9791648e-25
12	0xbce223fc	-0.02760505
13	0x3d199942	0.037499674
14	0x3d964441	0.07337237
15	0xb4669402	-2.1474264e-07
16	0x3cd00d03	0.02539683
17	0x3db588d5	0.08863989
18	0x3cfd80d0	0.030945212
19	0xbcb9d359	-0.022683786
20	0x3d95d2d7	0.07315605
21	0x219bdf83	1.0562372e-18
22	0xbc9d32ba	-0.019189227
23	0xbcc62472	-0.0241873
24	0x3c39ff30	0.011352345
25	0x3ca40918	0.020023867
26	0x3d969ec0	0.07354498
27	0x35bb3e0e	1.3950646e-06
28	0x3d61ad63	0.055096995
29	0x3d12cbb8	0.035838813
30	0x3c564281	0.013077379
31	0x3cf7367b	0.030177345

down_path.2.block.2.weight f4 [32, 32, 3, 3]
0	0x973a76b7	-6.024968e-25
1	0x1e7af48e	1.32854625e-20
2	0x16ad0cff	2.795786e-25
3	0x9b8d9ff0	-2.342985e-22
4	0x19babdfc	1.9308683e-23
5	0x9adc3ac0	-9.108478e-23
6	0x1ac096b9	7.9652844e-23
7	0x16f02d5b	3.8802715e-25
8	0x9c938fba	-9.764796e-22
9	0x1a555c23	4.4121795e-23
10	0x1dfe76f8	6.735625e-21
11	0x9f428def	-4.1198503e-20
12	0x1f583837	4.578628e-20
13	0x1c18e29e	5.0585477e-22
14	0x19afadba	1.8164743e-23
15	0x993e29c5	-9.831205e-24
16	0x96b6fe75	-2.956427e-25
17	0x168ae852	2.2441717e-25
18	0x94f5fd7b	-2.4838658e-26
19	0x187e51ed	3.2870093e-24
20	0x1b2dea8a	1.4386008e-22
21	0x14ac68d1	1.7408904e-26
22	0x17a4a5b2	1.0640079e-24
23	0x973439b5	-5.8233973e-25
24	0x1cf31c9f	1.6087789e-21
25	0x16d71b19	3.4752224e-25
26	0x1b1a713a	1.2775167e-22
27	0x95f8cf9d	-1.0049396e-25
28	0x1e813d21	1.3683689e-20
29	0x16dd20b6	3.572512e-25
30	0x9da72906	-4.424695e-21
31	0x15ee2127	9.617974e-26
32	0x1c3f6ef6	6.334001e-22
33	0x15fd2e89	1.02259306e-25
34	0x164f14aa	1.6727847e-25
35	0x9d6725b8	-3.0592096e-21
36	0x96016b9e	-1.0454495e-25
37	0x9a83fe10	-5.459079e-23
38	0x9780624a	-8.296618e-25
39	0x9e5e8c91	-1.17816506e-20
40	0x98a56ba0	-4.2760174e-24
41	0x96f865a8	-4.0130715e-25
42	0x177eb235	8.2296755e-25
43	0x1979e3bb	1.2918988e-23
44	0x9f0cea54	-2.9839985e-20
45	0x1bdc4596	3.6440916e-22
46	0x163a1369	1.5031085e-25
47	0x1adf263c	9.229241e-23
48	0x978ad762	-8.972411e-25
49	0x1c01ec9c	4.298833e-22
50	0x97adf41e	-1.1241487e-24
51	0x17f9e6b8	1.6149489e-24
52	0x9799527f	-9.908218e-25
53	0x18366db5	2.3578337e-24
54	0x14356c32	9.1595025e-27
55	0x16af66c0	2.833762e-25
56	0x9a687b85	-4.8076254e-23
57	0x1b20ce93	1.3301638e-22
58	0x95b0ff6b	-7.148881e-26
59	0x9641bd42	-1.5650135e-25
60	0x17078d6d	4.3799357e-25
61	0x1bbcc18e	3.1227073e-22
62	0x18ac9914	4.4615527e-24
63	0x1650e176	1.6873249e-25
64	0x96289c25	-1.3620202e-25
65	0x9680198e	-2.0695643e-25
66	0x9c588b24	-7.164824e-22
67	0x1a14105c	3.0618898e-23
68	0x183af9b1	2.4165998e-24
69	0x178cd18b	9.100184e-25
70	0x95aaa651	-6.8924854e-26
71	0x1d3e5478	2.518996e-21
72	0x19908484	1.4942774e-23
73	0x9b26d171	-1.3798872e-22
74	0x1a966721	6.220516e-23
75	0x182f7e2e	2.2681924e-24
76	0x15998728	6.2009447e-26
77	0x1bfb7870	4.1602298e-22
78	0x95947ffc	-5.997865e-26
79	0x17626ca4	7.316166e-25
80	0x96b8491a	-2.9772937e-25
81	0x17903aff	9.320675e-25
82	0x961b48ec	-1.254381e-25
83	0x187c04e3	3.2572704e-24
84	0x16a1e1ad	2.6153374e-25
85	0x1da33581	4.3201062e-21
86	0x1d538f0c	2.799957e-21
87	0x18469d2e	2.5670256e-24
88	0x96d1fc76	-3.3925096e-25
89	0x1d6a7229	3.1028662e-21
90	0x99041dfb	-6.8302946e-24
91	0x9d98ea7a	-4.047651e-21
92	0x169bb7f8	2.51577e-25
93	0x16598dea	1.75739e-25
94	0x97466fbe	-6.411829e-25
95	0x1a9e9554	6.558852e-23
96	0x17cae89d	1.3112664e-24
97	0x165290ac	1.7009315e-25
98	0x958f531b	-5.788836e-26
99	0x18b83c0b	4.7623513e-24
100	0x9a0bcc47	-2.890954e-23
101	0x1671f3d3	1.9544762e-25
102	0x190a1615	7.138892e-24
103	0x1e626751	1.1985706e-20
104	0x1d3a172f	2.462888e-21
105	0x187d53ce	3.2741794e-24
106	0x953690e8	-3.6868918e-26
107	0x99eda060	-2.457e-23
108	0x1671afbc	1.9523277e-25
109	0x9f401eb3	-4.0682975e-20
110	0x1c0e2326	4.7029287e-22
111	0x99c2cb18	-2.0141159e-23
112	0x98509d82	-2.6962891e-24
113	0x99bccba1	-1.952099e-23
114	0x1a53b587	4.3780414e-23
115	0x97b4aa3e	-1.1675203e-24
116	0x15fe32d9	1.02670006e-25
117	0x1e15d81c	7.932685e-21
118	0x96072952	-1.0918252e-25
119	0x1a7291fd	5.0162355e-23
120	0x1cd99f37	1.4401012e-21
121	0x96bf8709	-3.0942933e-25
122	0x9e3ed7f3	-1.01031735e-20
123	0x9cc2773b	-1.2868663e-21
124	0x9f2ac5cf	-3.6162524e-20
125	0x173982f6	5.994202e-25
126	0x16d9aa20	3.5165605e-25
127	0x9e6417fd	-1.207518e-20
128	0x17e1420e	1.4556959e-24
129	0x9d05f989	-1.773141e-21
130	0x17984a05	9.841455e-25
131	0x96684b8d	-1.876465e-25
132	0x9705e451	-4.3262794e-25
133	0x9636388b	-1.4719685e-25
134	0x98fd1d68	-6.542866e-24
135	0x174d4138	6.632139e-25
136	0x16b633bf	2.9436342e-25
137	0x99d5fb02	-2.2125065e-23
138	0x1f5841bd	4.5794157e-20
139	0x9f5aea75	-4.6357234e-20
140	0x181448de	1.916534e-24
141	0x9a689b25	-4.81018e-23
142	0x1e663fce	1.2189293e-20
143	0x968be697	-2.2602184e-25
144	0x96a75321	-2.7032767e-25
145	0x172bfecf	5.5574694e-25
146	0x98a6b64b	-4.3094063e-24
147	0x17febba3	1.6461731e-24
148	0x17ceb2bf	1.335756e-24
149	0x9cab54cc	-1.133775e-21
150	0x166ade25	1.8972466e-25
151	0x152120c1	3.253953e-26
152	0x15297087	3.4218047e-26
153	0x1c75171a	8.109356e-22
154	0x16150db4	1.2040448e-25
155	0x982c4ac8	-2.2268234e-24
156	0x18cc5f3e	5.2828934e-24
157	0x185d3dfd	2.8594877e-24
158	0x978aa4b8	-8.959622e-25
159	0x97200a7a	-5.171201e-25
160	0x98db5923	-5.670018e-24
161	0x1882e7c3	3.383823e-24
162	0x96af961f	-2.8367515e-25
163	0x183e8c90	2.462789e-24
164	0x9a899df4	-5.691706e-23
165	0x97124237	-4.725872e-25
166	0x9c4af3bd	-6.715122e-22
167	0x9625c42b	-1.3390494e-25
168	0x96107371	-1.1668654e-25
169	0x95ca34b6	-8.1670313e-26
170	0x96255e1a	-1.3358287e-25
171	0x1a35da80	3.7606426e-23
172	0x179b1e79	1.0024333e-24
173	0x1802de38	1.6914298e-24
174	0x96f9e703	-4.0373909e-25
175	0x1a723d81	5.009411e-23
176	0x985fbc34	-2.8917093e-24
177	0x12ad2105	1.0925975e-27
178	0x98ce91df	-5.3397044e-24
179	0x96866143	-2.1710248e-25
180	0x1b0d58c0	1.1691923e-22
181	0x96fc0e19	-4.0721693e-25
182	0x1583584e	5.30498e-26
183	0x98de75ba	-5.750453e-24
184	0x164c1f81	1.648893e-25
185	0x966a2b46	-1.8916024e-25
186	0x17f2b4c6	1.5684517e-24
187	0x9e13910f	-7.812113e-21
188	0x984cafad	-2.6455076e-24
189	0x1bac3f48	2.8495908e-22
190	0x1773da2c	7.8792906e-25
191	0x97975010	-9.778357e-25
192	0x1532d68b	3.6116058e-26
193	0x15a5c247	6.6949485e-26
194	0x151415c2	2.9905526e-26
195	0x1768b999	7.51975e-25
196	0x98594e3d	-2.8086093e-24
197	0x1716d189	4.8732085e-25
198	0x157be77d	5.0871658e-26
199	0x9a69a4a6	-4.8316273e-23
200	0x18197715	1.9834908e-24
201	0x971e533f	-5.1157625e-25
202	0x160800de	1.0986266e-25
203	0x194b7ef8	1.0520495e-23
204	0x161eef2b	1.2838606e-25
205	0x180081bd	1.6609113e-24
206	0x174bde2b	6.5873253e-25
207	0x181eef37	2.0541794e-24
208	0x1766164a	7.434514e-25
209	0x97474201	-6.4383677e-25
210	0x1717d87b	4.906397e-25
211	0x1cb3e3fe	1.1904161e-21
212	0x9715cf13	-4.840586e-25
213	0x1a74c48a	5.061678e-23
214	0x1ac39588	8.089169e-23
215	0x159eb541	6.410166e-26
216	0x17a4bead	1.0646385e-24
217	0x99221d46	-8.3811154e-24
218	0x15a85a28	6.79969e-26
219	0x187684c4	3.1861784e-24
220	0x14675fc6	1.16814076e-26
221	0x1775f61d	7.947441e-25
222	0x16285084	1.3596338e-25
223	0x17b8482a	1.1908938e-24
224	0x9c70cd25	-7.967448e-22
225	0x1678edfa	2.0108373e-25
226	0x186290b7	2.9282878e-24
227	0x95d661fe	-8.6588516e-26
228	0x977651aa	-7.958996e-25
229	0x18faa324	6.4788215e-24
230	0x168d802b	2.2860664e-25
231	0x9c05753e	-4.415754e-22
232	0x9d923ebe	-3.8710752e-21
233	0x9ab64498	-7.5384255e-23
234	0x1daf004e	4.632243e-21
235	0x9798c72e	-9.87305e-25
236	0x980a93a6	-1.7910625e-24
237	0x98ab416c	-4.4268523e-24
238	0x16e0e488	3.6333375e-25
239	0x184f6005	2.68026e-24
240	0x19fb1807	2.5962496e-23
241	0x96ad01be	-2.7950757e-25
242	0x1635ae19	1.4675999e-25
243	0x179af405	1.0013616e-24
244	0x18ba5467	4.8165098e-24
245	0x978abcac	-8.965668e-25
246	0x1803dbed	1.7042387e-24
247	0x19c9d063	2.086708e-23
248	0x9c9578c3	-9.891209e-22
249	0x9c45c91f	-6.5441775e-22
250	0x1855d51f	2.7637203e-24
251	0x97093582	-4.4334624e-25
252	0x190aab0e	7.168977e-24
253	0x970dbdc2	-4.5799065e-25
254	0x9ad0a573	-8.629408e-23
255	0x9ca59657	-1.0957646e-21

down_path.2.block.2.bias f4 [32]
0	0x1930c149	9.13802e-24
1	0x3d19fa78	0.03759238
2	0xbcd3f49a	-0.025873471
3	0x3d4ff6e0	0.050772548
4	0x3d4fc720	0.05072701
5	0x18a92378	4.372129e-24
6	0x3b180412	0.0023195785
7	0xad1c2583	-8.875903e-12
8	0xbc7b310a	-0.015331516
9	0x3a91eb5c	0.0011132765
10	0x1758ba01	7.0028134e-25
11	0x3d61df05	0.05514433
12	0x3d25199d	0.04030763
13	0x3da78a8e	0.08180724
14	0x183b7431	2.4227845e-24
15	0xa6900fd2	-9.996295e-16
16	0x36c85ea4	5.971482e-06
17	0x3d8d01e6	0.06885128
18	0x3d3081ae	0.043092422
19	0x3da7c4a5	0.08191804
20	0xbb2c2c4c	-0.002627152
21	0x3c967686	0.018367063
22	0x198585ed	1.380597e-23
23	0x18d774c3	5.5694097e-24
24	0x99cfa6e6	-2.1470708e-23
25	0x3652c785	3.1408574e-06
26	0x3bf25fab	0.0073966584
27	0x19fa19ec	2.5859864e-23
28	0x3d952159	0.07281751
29	0x3c9a2f3d	0.018821353
30	0x3cf3beaa	0.029754002
31	0x3d9a9a2f	0.075489394
