weights/unet-test3.pt (torch_old, 459765 bytes, 36 tensors)

down_path.0.block.0.weight f4 [8, 3, 3, 3]
3.499226e-29 5.289373e-29 3.0897787e-29 1.975797e-29 3.9758103e-29 6.353057e-29 5.3438754e-29 1.4682957e-29
2.6837747e-29 2.482902e-29 8.1859805e-29 3.9761025e-29 6.955366e-29 3.3914074e-29 4.9434048e-29 2.7614348e-29
5.809425e-29 4.2474718e-29 6.751923e-29 1.7074159e-29 5.5410834e-29 5.7307995e-29 7.080278e-29 2.3193831e-29
7.326098e-29 7.844556e-29 7.185773e-29 -0.04851187 -0.029224709 -0.1085184 0.025610559 0.08854944
0.018128552 0.072642915 0.09201992 0.13464366 -0.0482102 -0.04541928 0.16604245 1.7289713e-05
0.0587289 0.14651106 -0.010929778 -0.0562868 0.008669622 0.07243006 0.19862804 0.10626374
0.030799896 0.15401955 -0.13652755 0.0036096713 0.016330617 -0.0183815 0.1731938 0.18185048
0.11815933 -0.01892393 0.20203376 0.124700606 0.17415385 0.1251437 0.20196025 0.061384108
0.18037064 0.13959475 0.08434063 0.095700055 0.14099887 0.126414 0.09894208 -0.01289505
0.0005989891 0.18911351 0.19853784 -0.012457638 0.091978945 -0.034400336 -0.09666854 0.042862438
-0.14627045 0.10934314 -0.105642535 -0.039539464 0.118672594 0.077964246 0.05152716 -0.032286853
-0.007962238 0.03887726 0.04249323 0.08983517 0.099535465 -0.04015978 0.0082068695 -0.0782511
0.06551804 -0.11469274 0.04519175 -0.013870621 -0.058118373 -0.0073338654 0.0012440364 -0.101119705
0.02389184 0.04980105 -0.07208788 0.07624399 0.10757391 0.08805471 0.17743656 -0.11296258
0.10847622 0.09838872 -0.13834731 0.18347114 0.13277471 -0.11774909 -0.045224994 0.1488214
-0.031957522 -0.066974744 -0.14945132 0.12459576 0.096253306 0.03654953 -0.06650575 -0.06498404
0.034352437 0.10567609 -0.082704335 -0.0970989 0.037030905 0.050949126 -0.009506455 -0.03530727
0.18257463 0.07933901 -0.044975143 -0.00842178 0.08036052 0.19358696 -0.101299554 0.11451309
-0.12086656 0.12065348 0.19969536 -0.12215238 0.04851189 0.10747886 0.040591452 -0.14719756
-0.06777339 -0.045256004 0.04397817 0.18534753 -0.008673134 0.112693116 -0.09865345 0.16904524
-0.15861094 0.16043554 0.030021403 -0.084788345 -0.013085717 0.010839065 0.11300374 -0.11636964
0.10974854 0.09827725 -0.06615551 -0.078522496 -0.13997874 0.025637593 -0.1467139 0.098556414
0.08023697 0.060477138 0.09192941 0.014374029 -0.09771309 0.02151218 0.03141265 0.03621877
-0.09020668 0.06469382 0.061276358 0.09103627 0.059771705 0.0020815798 -0.14775224 0.13448085
-0.14217034 0.04609502 0.16986758 0.10846409 -0.007370495 -0.1150574 0.18533541 0.20506349
-0.10209665 0.03550589 0.1434292 -0.10330116 0.12585647 -0.00575384 -0.078513935 0.18609883
0.14494218 -0.11426156 -0.094323 0.020952873 -0.048801914 -0.068189576 0.16654517 0.11392069
00000000: 8d6e 3110 fe19 8610 9fab 1c10 9f5e c80f
00000010: f898 4910 b311 a110 bc7b 8710 23e7 940f
00000020: 6315 0810 d2cb fb0f 0d8a cf10 c39c 4910
00000030: e856 b010 fcf6 2b10 10a9 7a10 7905 0c10
00000040: 5349 9310 565f 5710 7c2e ab10 0d27 ad0f
00000050: b07b 8c10 044b 9110 a281 b310 a136 eb0f
00000060: 18bd b910 14e2 c610 552e b610 62b4 46bd
00000070: a868 efbc e53e debd 3ccd d13c 6959 b53d
00000080: 5482 943c cfc5 943d f174 bc3d 07e0 093e
00000090: 0f78 45bd 9109 3abd 0807 2a3e 6009 9137
000000a0: b78d 703d ff06 163e d012 33bc fd8c 66bd
000000b0: 080b 0e3c 3656 943d 2665 4b3e cea0 d93d
000000c0: 1050 fc3c 4db7 1d3e e1cd 0bbe 3c90 6c3b
000000d0: c9c7 853c cd94 96bc b759 313e 0337 3a3e
000000e0: 85fd f13d 5c06 9bbc f0e1 4e3e 0863 ff3d
000000f0: 6355 323e ac25 003e abce 4e3e e76d 7b3d
00000100: 15b3 383e edf1 0e3e c8ba ac3d 64fe c33d
00000110: 0262 103e ac72 013e 25a2 ca3d c345 53bc
00000120: 7a05 1d3a f9a6 413e 814d 4b3e 1f1b 4cbc
00000130: 755f bc3d 5ee7 0cbd 28fa c5bd 8690 2f3d
00000140: ecc7 15be 4cef df3d 1d5b d8bd 22f4 21bd
00000150: 9e0a f33d b8ab 9f3d 250e 533d 383f 04bd
00000160: 0c74 02bc c33d 1f3d 620d 2e3d 80fb b73d
00000170: 40d9 cb3d 957e 24bd 1b76 063c 1d42 a0bd
00000180: 522e 863d 07e4 eabd fc1a 393d 9a41 63bc
00000190: 880d 6ebd ec50 f0bb ef0e a33a d917 cfbd
000001a0: d2b8 c33c 30fc 4b3d cfa2 93bd cf25 9c3d
000001b0: b64f dc3d 0756 b43d eeb1 353e ed58 e7bd
000001c0: c828 de3d 0680 c93d ebaa 0dbe dcdf 3b3e
000001d0: 18f6 073e 6f26 f1bd d83d 39bd a364 183e
000001e0: e4e5 02bd 0e2a 89bd c409 19be 102c ff3d
000001f0: 7420 c53d f6b4 153d 2b34 88bd 5a16 85bd
00000200: 24b5 0c3d b56c d83d e460 a9bd cadb c6bd
00000210: b8ad 173d 08b0 503d f6c0 1bbc 5b9e 10bd
00000220: d8f4 3a3e 7e7c a23d db37 38bd 81fb 09bc
00000230: 0e94 a43d a93b 463e 2476 cfbd d785 ea3d
00000240: e388 f7bd 2c19 f73d f17c 4c3e 072b fabd
00000250: 67b4 463d e01d dc3d 3943 263d f5ba 16be
00000260: c6cc 8abd 5c5e 39bd 7422 343d becb 3d3e
00000270: c319 0ebc a6cb e63d d20a cabd 321a 2d3e
00000280: e86a 22be 3749 243e 72ef f53c 83a5 adbd
00000290: 7a65 56bc 5596 313c 816e e73d 3553 eebd
000002a0: d8c3 e03d 9545 c93d 8a7c 87bd 67d0 a0bd
000002b0: 9656 0fbe ee05 d23c 2b3c 16be f2d7 c93d
000002c0: 4853 a43d e0b6 773d 7d45 bc3d 0c81 6b3c
000002d0: cd1d c8bd 503a b03c 8daa 003d 225a 143d
000002e0: 48be b8bd 327e 843d ebfc 7a3d 3971 ba3d
000002f0: 2dd3 743d 1d6b 083b 5d4c 17be 59b5 093e
00000300: 1a95 11be 22ce 3c3d c4f1 2d3e 6c22 de3d
00000310: 3184 f1bb 37a3 ebbd 91c8 3d3e 2afc 513e
00000320: 0c18 d1bd a06e 113d 1bdf 123e 8f8f d3bd
00000330: 85e0 003e b58a bcbb eacb a0bd b190 3e3e
00000340: b96b 143e f701 eabd 6b2c c1bd 5ca5 ab3c
00000350: 84e4 47bd faa6 8bbd d18a 2a3e 404f e93d

down_path.0.block.0.bias f4 [8]
6.569951e-28 -0.07898646 0.16132277 -0.11736014 0.1093087 0.036546797 0.11120092 0.21439615
00000000: c635 5012 a7c3 a1bd cc31 253e 835a f0bd
00000010: 3ddd df3d 18b2 153d 4fbd e33d aa8a 5b3e

down_path.0.block.2.weight f4 [8, 8, 3, 3]
-5.8723e-41 -5.4056e-41 -2.9878e-41 -1.7885e-41 4.2078e-41 -1.526e-41 4.4931e-41 -1.1366e-41
1.421e-41 4.1223541e-25 4.2236264e-25 4.8450723e-25 5.0675226e-25 5.294977e-25 4.0878077e-25 5.0013057e-25
4.9442084e-25 4.572913e-25 5.2558004e-24 4.5857423e-24 5.549856e-24 4.9771057e-24 6.6142346e-24 5.372117e-24
8.531019e-24 4.913464e-24 5.0049888e-24 7.396454e-28 7.4164587e-28 8.307273e-28 9.840543e-28 1.1815922e-27
7.1972103e-28 1.0045566e-27 7.758249e-28 7.6818663e-28 1.8597394e-24 1.7273163e-24 1.6496616e-24 1.749218e-24
1.9185634e-24 1.9072631e-24 1.8816449e-24 1.8896668e-24 1.8720395e-24 1.6132762e-24 1.6083201e-24 1.554004e-24
1.641443e-24 1.111286e-24 1.6100323e-24 1.6183406e-24 1.595138e-24 1.6092417e-24 1.6468294e-24 1.6103383e-24
1.5986533e-24 1.6412957e-24 1.7669019e-24 1.3206143e-24 1.4582132e-24 1.5650772e-24 2.1760894e-24 3.551537e-24
5.973135e-24 3.603583e-24 3.6302795e-24 3.582271e-24 3.6533955e-24 3.5305257e-24 3.6463013e-24 2.9607644e-24
6.4549685e-29 1.0129372e-28 5.452687e-29 6.4222493e-29 5.977536e-29 1.290899e-28 6.3422293e-29 6.154666e-29
4.5434042e-29 -0.009105758 0.06558663 0.017982125 -0.003656468 0.080680065 -0.05339091 -0.030379472
0.099551044 0.016485875 0.046193026 0.03326383 0.11743866 0.03173846 -0.063345574 -0.060524255
-0.0063006226 0.098696135 0.06610988 -0.024075508 -0.008326492 0.026461685 -0.027298953 0.008996844
-0.023629319 -0.02748757 0.0085045025 0.00028021232 0.04261897 -0.06994953 0.026525905 -0.007863575
0.10346034 -0.04148781 0.01469693 0.11348173 -0.020607961 0.098699406 -0.023482177 0.09755359
-0.05555633 -0.025203148 -0.08081729 0.10019291 0.0416445 -0.0844997 0.13425323 0.12971385
-0.07140113 -0.058178715 -0.0688739 0.06400502 -0.02882718 0.09747154 -0.006451352 0.085550755
0.06924749 0.09839384 0.083338216 0.02281864 -0.0440614 0.021877699 -0.07910157 0.049754962
2.6309214e-28 1.2467488e-28 8.834527e-29 1.2925526e-28 9.3150695e-29 1.3999358e-28 1.511402e-28 8.954196e-29
9.9959267e-29 0.05580448 -0.06927996 0.0767023 -0.020781953 -0.02236024 0.0097223185 0.08833066
0.048222855 0.034648392 0.081868716 -0.016930925 0.06354107 0.12597923 0.09437634 0.08108509
-0.044115394 -0.02449107 0.05453005 -0.024921792 0.03031889 -0.015182074 -0.02078056 -0.023858292
0.001727482 0.012183004 0.016072068 0.0011381244 0.056635667 -0.046328343 0.07648956 0.12130373
0.072789565 -0.064197995 -0.050282955 -0.00037801365 0.11320401 0.09120356 0.038674742 0.0108624995
0.06030153 -0.033116728 0.13452134 0.017925171 0.070254594 0.12782453 -0.03652673 -0.034881666
-0.081205785 0.034613777 0.025086181 -0.07622469 -0.08437124 -0.06843927 0.10943716 0.0317798
0.11929976 0.031665705 -0.07714849 0.13867268 0.058354314 -0.0001972232 -0.039558884 -0.022814963
1.1491181e-28 2.703097e-28 9.312939e-29 1.3811919e-28 2.0246623e-28 1.6169707e-28 1.1368236e-28 9.369702e-29
1.215062e-28 0.09215497 0.08705645 0.100443386 0.006867729 0.03465257 -0.070783846 -0.019138776
0.083521895 0.009139204 0.014213991 0.12700675 -0.07677178 0.11104448 0.12317675 -0.003915588
0.088784374 -0.015757818 0.07116098 -0.017544335 0.008455719 -0.027842881 -0.029150076 0.050065074
0.013079036 -0.02974788 0.02262521 -0.023904601 -0.027935745 0.07023489 -0.07852353 0.106528655
00000000: b2a3 0080 b096 0080 4a53 0080 db31 0080
00000010: 4c75 0000 8a2a 0080 407d 0000 af1f 0080
00000020: 9d27 0000 4f29 ff16 04b7 0217 9ef2 1517
00000030: 0dd5 1c17 21df 2317 e605 fd16 6dc8 1a17
00000040: 0e04 1917 5986 0d17 ed52 cb18 fe66 b118
00000050: 1db3 d618 de8a c018 35e0 ff18 dfd2 cf18
00000060: 8f03 2519 9714 be18 029f c118 2a67 6a12
00000070: 7609 6b12 4ea2 8312 fced 9b12 133b bb12
00000080: b516 6412 a82d 9f12 65de 7512 b472 7312
00000090: efe3 0f18 06a5 0518 d445 ff17 d556 0718
000000a0: 1071 1418 3d91 1318 d195 1118 b534 1218
000000b0: 90d7 1018 74a4 f917 20e0 f817 7178 f017
000000c0: 4200 fe17 93f6 ab17 f323 f917 136d fa17
000000d0: edd5 f617 a204 f917 a2d5 fe17 1330 f917
000000e0: 2f61 f717 6cfa fd17 19b5 0818 ec5a cc17
000000f0: c7a5 e117 182f f217 e45d 2818 b864 8918
00000100: 1013 e718 2868 8b18 8c70 8c18 1895 8a18
00000110: 7a55 8d18 a294 8818 380f 8d18 fb13 6518
00000120: 24a7 a310 b167 0011 f63d 8a10 c8d2 a210
00000130: 6d8c 9710 11a4 2311 6ccb a010 110a 9c10
00000140: c260 6610 5130 15bc 4852 863d 404f 933c
00000150: 5aa1 6fbb 973b a53d 6db0 5abd 5fde f8bc
00000160: 6be1 cb3d 630d 873c e634 3d3d a73f 083d
00000170: ae83 f03d 3000 023d 53bb 81bd 48e8 77bd
00000180: 7475 cebb 3321 ca3d 9e64 873d 003a c5bc
00000190: d76b 08bc 2dc6 d83c 0ea2 dfbc 8067 133c
000001a0: 4692 c1bc 9d2d e1bc 7856 0b3c 76e9 9239
000001b0: 3b91 2e3d b341 8fbd db4c d93c 39d6 00bc
000001c0: 04e3 d33d 1fef 29bd 64cb 703c 1c69 e83d
000001d0: 07d2 a8bc ea22 ca3d b25d c0bc 2dca c73d
000001e0: 098f 63bd d576 cebc 8983 a5bd f131 cd3d
000001f0: 6c93 2a3d 2e0e adbd ae79 093e b5d3 043e
00000200: c13a 92bd ce4c 6ebd c20d 8dbd 1015 833d
00000210: fa26 ecbc 299f c73d dd65 d3bb 3c35 af3d
00000220: a1d1 8d3d b682 c93d 3aad aa3d 28ee ba3c
00000230: ba79 34bd dc38 b33c 0100 a2bd dccb 4b3d
00000240: 24c1 a611 500b 1e11 5cfb df10 bbd9 2311
00000250: 422a ec10 8476 3111 cd97 3f11 0e04 e310
00000260: 466d fd10 3d93 643d a7e2 8dbd 1816 9d3d
00000270: ea3e aabc d22c b7bc 5c4a 1f3c b4e6 b43d
00000280: 5485 453d 79eb 0d3d c9aa a73d b9b2 8abc
00000290: d221 823d b300 013e 6248 c13d f10f a63d
000002a0: 58b2 34bd 7fa1 c8bc e75a 5f3d c928 ccbc
000002b0: 525f f83c 3cbe 78bc fe3b aabc 7772 c3bc
000002c0: ad6c e23a 399b 473c 92a9 833c 1e2d 953a
000002d0: cdfa 673d cac2 3dbd 8fa6 9c3d 176e f83d
000002e0: b212 953d 3d7a 83bd 80f5 4dbd 2230 c6b9
000002f0: 81d7 e73d efc8 ba3d 6869 1e3d a0f8 313c
00000300: bdfe 763d 68a5 07bd f6bf 093e cfd7 923c
00000310: a4e1 8f3d 6fe4 023e 0d9d 15bd 14e0 0ebd
00000320: 384f a6bd 2dc7 0d3d 8981 cd3c b11b 9cbd
00000330: d4ca acbd e329 8cbd 9720 e03d 892b 023d
00000340: 6f53 f43d e6b3 013d 0700 9ebd 3600 0e3e
00000350: ef04 6f3d b3cd 4eb9 7f08 22bd 72e6 babc
00000360: 04ab 1111 4254 ab11 6e1c ec10 3d16 2f11
00000370: 0654 8011 b3f9 4c11 091c 1011 d88c ed10
00000380: 0407 1a11 bfbb bc3d a74a b23d 43b5 cd3d
00000390: b00a e13b daef 0d3d 1ff7 90bd ecc8 9cbc
000003a0: 870d ab3d 9abc 153c cde1 683c 0f0e 023e
000003b0: 863a 9dbd 4a6b e33d 1844 fc3d 554e 80bb
000003c0: 95d4 b53d 8a16 81bc d9bc 913d 23b9 8fbc
000003d0: db89 0a3c c116 e4bc 24cc eebc 0911 4d3d
000003e0: 7449 563c d3b1 f3bc 8158 b93c 95d3 c3bc
000003f0: 81d9 e4bc 4fd7 8f3d f2d0 a0bd b22b da3d

down_path.0.block.2.bias f4 [8]
1.0886004e-23 0.12516856 0.030197052 -0.05444051 4.247757e-39 -7.2098e-41 3.9465203e-23 4.3664336e-06
00000000: e290 5219 302c 003e cf5f f73c 03fd 5ebd
00000010: 0541 2e00 fbc8 0080 8ed7 3e1a 6183 9236

down_path.1.block.0.weight f4 [16, 8, 3, 3]
2.328071e-39 1.00902e-40 2.504293e-39 4.824198e-39 2.529711e-39 2.314478e-39 4.93022e-40 2.66068e-39
3.238876e-39 1.8782647e-11 1.6323115e-11 1.4994984e-11 1.7370503e-11 1.6196034e-11 1.4860162e-11 1.6943532e-11
1.5607522e-11 1.4755381e-11 1.7864826e-11 1.6338137e-11 1.5611493e-11 1.7576848e-11 1.6146884e-11 1.5215983e-11
1.7620766e-11 1.5578797e-11 1.4327561e-11 1.842379e-11 1.5778023e-11 1.45457925e-11 1.6403425e-11 1.551806e-11
1.3164595e-11 1.5384003e-11 1.4168962e-11 1.3779801e-11 4.8165e-41 1.7237e-41 -5.2652e-41 2.005e-41
1.5693e-41 1.3548e-40 7.4936e-41 -2.732e-40 -1.4209e-41 -3.7227e-41 -2.7143e-41 -2.3828e-41
4.205e-41 -3.1043e-41 -7.5684e-41 -1.40407e-40 -3.0163e-41 -6.8567e-41 4.6098756e-34 1.9773367e-33
4.5953917e-34 3.3322822e-34 3.1404592e-34 4.496592e-34 4.0223947e-34 2.784892e-34 7.926823e-35 5.20238e-16
5.3750704e-16 6.510684e-16 5.6781076e-16 6.693346e-16 6.289233e-16 6.5528645e-16 6.5579546e-16 5.7195185e-16
7.2854e-41 4.0796e-41 -1.5811e-41 8.653e-41 -7.3693e-41 2.5055e-41 -1.3792e-41 -1.57694e-40
5.014e-42 -1.20493e-40 -3.4884e-41 -3.8457e-41 2.1048e-41 1.81306e-40 5.4215e-41 5.7438e-41
5.041e-41 1.21791e-40 -2.5547e-41 -2.6693e-41 -1.7014e-40 5.4614e-41 6.6629e-41 -3.5125e-41
-3.6588e-41 -5.851e-41 -7.5418e-41 -4.1955e-41 -1.06727e-40 -1.08616e-40 -7.6084e-41 7.9644e-41
-1.7428e-41 -6.9937e-41 1.8536e-41 7.189e-42 -2.4e-43 -7.6411e-41 2.851e-41 6.233e-42
3.1001e-41 -3.5048e-41 -7.6651e-41 2.1458e-41 5.1587e-41 1.7889e-41 -7.2796e-41 4.1474e-41
8.5661e-41 -3.12522e-40 -3.6835e-41 -7.6397e-41 -5.2736e-41 -1.7219e-40 5.765e-41 5.9798e-41
-8.639e-41 3.43e-42 -5.0803e-41 9.9981e-41 3.1587e-41 -3.9283e-41 2.36609e-40 -5.395e-41
-2.7203e-41 3.3009e-41 1.0333e-41 -2.30923e-40 5.7689e-41 -2.0595e-41 2.97735e-40 -5.7436e-41
2.9786757e-24 2.8425049e-24 3.073476e-24 4.6842115e-24 2.9682359e-24 3.088725e-24 3.0574046e-24 3.1284028e-24
1.9678011e-24 0.11793967 0.00090008654 0.075841494 0.076721385 0.05855941 -0.017012775 0.03350527
0.07280286 -0.039072555 -0.07659791 0.0800412 -0.011827998 0.087467775 0.0868693 0.107243195
0.08191632 0.020230448 0.010570053 -0.0019111683 0.08024342 0.09708052 -0.044718064 -0.05748547
0.07431464 -0.054401975 0.043270126 0.11336786 -1.465362e-39 5.27415e-40 -1.93233e-39 -1.58051e-40
3.27188e-40 -2.96312e-40 -7.8418e-41 -6.91793e-40 1.228521e-39 -4.367e-41 2.0038e-40 3.4641e-41
-3.0076e-41 3.191e-41 1.39191e-40 -5.0445e-41 -4.4537e-41 -4.7759e-41 1.25626975e-23 1.2631163e-23
1.2418511e-23 1.1350454e-23 1.2712563e-23 1.1464648e-23 1.26101735e-23 1.262347e-23 1.2581488e-23 1.3133318e-06
1.1871981e-06 1.1865466e-06 1.197823e-06 1.1725571e-06 2.156293e-06 1.1989221e-06 1.1535828e-06 1.2219674e-06
9.19333e-33 1.5149373e-31 1.272137e-31 1.03126075e-32 1.1141132e-31 2.936576e-31 1.535852e-32 1.7997156e-31
3.687736e-31 0.03368351 0.0005030517 0.035293505 0.009053198 -0.010973736 0.0210376 -0.03567228
-0.024229102 -0.012679311 0.021012742 0.009528369 0.0008722778 -0.034480006 -0.038449124 0.00022892293
0.014147463 0.010161509 0.023773093 -0.025522597 -0.037035346 0.012631666 0.014797359 0.0008505581
0.03118356 -0.03122892 -0.0069595138 0.024898797 -3.047e-41 7.41e-42 1.7205e-41 -1.89e-43
00000000: b759 1900 4619 0100 f344 1b00 e787 3400
00000010: ce8b 1b00 d333 1900 585e 0500 e5f8 1c00
00000020: ab44 2300 c336 a52d 6394 8f2d b4e5 832d
00000030: e5ca 982d 3a76 8e2d 1cb6 822d 7109 952d
00000040: 0449 892d 2aca 812d 0324 9d2d 37b6 8f2d
00000050: f551 892d 8b9b 9a2d 8d07 8e2d 59d7 852d
00000060: 70fe 9a2d 5508 892d 990d 7c2d b00e a22d
00000070: f3c8 8a2d 6de4 7f2d 3b49 902d 917f 882d
00000080: 1198 672d b251 872d 5543 792d b56a 722d
00000090: 4486 0000 0d30 0000 c692 0080 e437 0000
000000a0: bf2b 0000 aa79 0100 e4d0 0000 92f9 0280
000000b0: 9c27 0080 c667 0080 aa4b 0080 6c42 0080
000000c0: 3875 0000 8956 0080 fad2 0080 6687 0180
000000d0: 1554 0080 23bf 0080 7c30 1908 4d45 2409
000000e0: 45b5 1808 d877 dd07 25b8 d007 c66c 1508
000000f0: c0aa 0508 7b16 b907 29bb d206 caf2 1526
00000100: 05ed 1a26 5ea8 3b26 0aa9 2326 2dec 4026
00000110: 5946 3526 9bdf 3c26 2a05 3d26 99da 2426
00000120: 16cb 0000 b971 0000 132c 0080 36f1 0000
00000130: 6dcd 0080 d845 0000 7226 0080 96b7 0180
00000140: fa0d 0000 e34f 0180 3e61 0080 346b 0080
00000150: ac3a 0000 68f9 0100 2197 0000 1da0 0000
00000160: 868c 0000 8153 0100 3747 0080 694a 0080
00000170: 48da 0180 3e98 0000 bcb9 0000 ea61 0080
00000180: fe65 0080 1aa3 0080 3cd2 0080 f474 0080
00000190: 8329 0180 c72e 0180 17d4 0080 04de 0000
000001a0: 9530 0080 f5c2 0080 ac33 0000 0a14 0000
000001b0: ab00 0080 01d5 0080 794f 0000 6011 0000
000001c0: 6b56 0000 b361 0080 acd5 0080 d13b 0000
000001d0: ce8f 0000 de31 0000 edca 0080 9d73 0000
000001e0: caee 0000 2f67 0380 ae66 0080 f7d4 0080
000001f0: 0293 0080 ffdf 0180 b4a0 0000 b1a6 0000
00000200: d2f0 0080 9009 0000 9e8d 0080 b516 0100
00000210: 0d58 0000 816d 0080 9293 0200 6496 0080
00000220: d54b 0080 045c 0000 ce1c 0000 b883 0280
00000230: d0a0 0000 6939 0080 f73d 0300 1ca0 0080
00000240: c076 6618 9ced 5b18 77cc 6d18 2f36 b518
00000250: f8a7 6518 80fa 6e18 238e 6c18 670c 7218
00000260: 5140 1818 5b8a f13d c9f3 6b3a c952 9b3d
00000270: 1a20 9d3d fedb 6f3d 605e 8bbc d23c 093d
00000280: aa19 953d 8b0a 20bd 5ddf 9cbd a4ec a33d
00000290: 38ca 41bc 4e22 b33d 88e8 b13d 52a2 db3d
000002a0: bec3 a73d 53ba a53c 042e 2d3c 2b80 faba
000002b0: aa56 a43d 27d2 c63d 4a2a 37bd e275 6bbd
000002c0: 4632 983d 9bd4 5ebd 043c 313d 692d e83d
000002d0: d5f4 0f80 38be 0500 8d0a 1580 95b8 0180
000002e0: 1190 0300 ff39 0380 99da 0080 7088 0780
000002f0: 9e60 0d00 bc79 0080 942e 0200 9160 0000
00000300: d753 0080 f458 0000 0284 0100 9f8c 0080
00000310: 277c 0080 2285 0080 77ff 7219 7d52 7419
00000320: 7d35 7019 ba8c 5b19 90e5 7519 30c2 5d19
00000330: 8eea 7319 652c 7419 835c 7319 bd45 b035
00000340: d157 9f35 6e41 9f35 e3c4 a035 c160 9d35
00000350: d5b4 1036 a6ea a035 ced4 9a35 7b02 a435
00000360: 20f0 3e0a 6da6 440c 0122 250c 3a2f 560a
00000370: c39e 100c 3d98 be0c f37d 9f0a cf9d 690c
00000380: 0659 ef0c b8f7 093d 3adf 033a ec8f 103d
00000390: dd53 143c 2fcb 33bc 0b57 ac3c 191d 12bd
000003a0: 1c7c c6bc e3bc 4fbc ea22 ac3c e01c 1c3c
000003b0: 92a9 643a e83a 0dbd d47c 1dbd 080b 7039
000003c0: c3ca 673c 757c 263c cabf c23c c414 d1bc
000003d0: 60b2 17bd 0cf5 4e3c 9f70 723c fdf7 5e3a
000003e0: aa74 ff3c cbd3 ffbc a20c e4bb 90f8 cb3c
000003f0: f054 0080 a814 0000 f62f 0000 8700 0080

down_path.1.block.0.bias f4 [16]
4.6928388e-11 -8.2623e-41 0.095479384 -0.05101073 -0.057417538 0.112743534 -1.2591049e-06 0.00017343636
4.08747e-36 8.8876e-41 -0.074590415 -0.06762444 0.00019493575 -0.034275915 -0.014807681 0.04918637
00000000: ab64 4e2e 52e6 0080 b28a c33d a1f0 50bd
00000010: a72e 6bbd 15e6 e63d 84fe a8b5 78dc 3539
00000020: 9bdc ad04 c0f7 0000 dcc2 98bd af7e 8abd
00000030: ab67 4c39 e764 0cbd ea9b 72bc a677 493d

down_path.1.block.2.weight f4 [16, 16, 3, 3]
8.1215e-41 7.4496e-41 6.9252e-41 4.032e-42 -7.4622e-41 -6.0246e-41 7.4228e-41 -7.6424e-41
-8.8768e-41 -9.5343e-41 2.922e-41 -1.24895e-40 -6.2522e-41 5.293e-41 -5.6492e-41 -2.2792e-41
2.2059e-40 4.2207e-41 1.10277e-40 4.6752e-41 1.2542e-41 1.25761e-40 -1.25248e-40 1.09303e-40
-1.5465e-41 8.438e-41 -1.03619e-40 6.5759e-41 5.3964e-41 -7.5132e-41 4.535e-42 1.07609e-40
2.5342e-41 -9.4111e-41 -5.3305e-41 -8.9641e-41 -1.01008e-40 -1.09181e-40 -5.3417e-41 6.7341e-41
1.2933e-41 -8.8238e-41 2.36954e-40 1.66123e-40 -3.89e-41 -5.708e-41 -6.0658e-41 -8.2549e-41
-7.5899e-41 1.103e-42 -2.7545e-41 -7.0993e-41 1.37969e-40 -5.7278e-41 -7.1657e-41 1.83378e-40
9.68e-43 1.11797e-40 9.895e-42 -2.9542e-41 7.7901e-41 -2.8018e-41 7.9469e-41 -7.514e-41
2.9619e-41 6.1993e-41 -8.502e-41 3.2785e-41 3.0852e-41 5.1376e-41 1.39505e-40 -7.443e-41
-3.2924e-41 2.602e-41 6.2031e-41 5.269e-41 4.233e-42 7.4499e-41 -8.4116e-41 8.3205e-41
-5.791e-41 1.2258e-40 7.0701e-41 1.45682e-40 -2.6615e-41 1.72646e-40 -1.84494e-40 1.80765e-40
-1.9021e-41 1.5763e-41 -1.64999e-40 1.56487e-40 -2.4647e-41 3.2042e-41 -5.6817e-41 2.4461e-41
-6.5934e-41 1.73178e-40 -2.9207e-41 -2.8402e-41 5.6212e-41 -6.885e-42 8.7417e-41 9.7792e-41
-2.9398e-41 6.488e-41 -4.6656e-41 8.7409e-41 -3.0597e-41 -9.2699e-41 5.0894e-41 6.7639e-41
3.9346e-41 8.0835e-41 7.3955e-41 5.8996e-41 -2.6853e-41 -7.7757e-41 1.017e-42 1.6434e-41
-2.5683e-41 -2.32337e-40 -7.15e-42 -1.10328e-40 -7.4859e-41 6.0835e-41 2.9628e-41 8.6173e-41
-7.4527e-41 -4.92e-41 -4.826e-42 -6.7456e-41 -8.7312e-41 -9.9324e-41 -2.06808e-40 1.70263e-40
1.28799e-40 2.31544e-40 3.4661e-41 -1.19763e-40 -6.6266e-41 3.401e-41 1.02414e-40 1.22616e-40
2.309273e-12 2.5172759e-12 2.3167807e-12 2.6766271e-12 2.7090895e-12 2.3368453e-12 2.3853333e-12 2.7537523e-12
2.7918236e-12 -1.30807e-40 6.0703e-41 -9.516e-42 -5.6565e-41 3.129e-42 7.1676e-41 6.8508e-41
-1.1712e-41 9.2585e-41 0.048023403 0.0007182545 0.011286398 0.016697012 0.027495759 0.011453399
0.015323666 0.020989249 0.0124004325 5.512773e-08 3.1086522e-08 3.3103007e-08 7.955961e-08 3.230664e-08
3.4328465e-08 5.5498756e-08 3.366015e-08 3.3702445e-08 0.016810521 0.0024335412 0.015187418 -0.012010686
0.0121196145 -0.0007935542 0.018106299 0.0039921235 0.04508547 -0.008003776 -0.00034400207 -0.0081897
0.025857162 -0.010039709 0.005351679 0.014409461 -0.004568177 -0.00091047044 -3.414e-41 -1.3252e-41
-5.0203e-41 -9.159e-42 1.5025e-41 4.5282e-41 -2.1635e-41 7.827e-41 5.2502e-41 4.846467e-06
5.642335e-06 5.380124e-06 9.709565e-06 5.528756e-06 8.532697e-06 5.607769e-06 1.0946243e-05 5.282977e-06
1.2201367e-37 9.3802785e-37 7.019229e-37 2.5351812e-37 -9.1741957e-38 -3.269002e-37 -4.023202e-37 -4.461757e-37
-6.7877126e-38 6.5421e-41 1.78576e-40 7.6522e-41 6.0547e-41 7.5802e-41 -1.0689e-41 -1.21432e-40
4.216e-41 -9.3339e-41 6.5859194e-06 5.0650666e-05 0.000113508315 7.818277e-05 0.00010108389 0.000112326314
0.00011274935 0.000121710305 0.00012747785 1.5842616e-07 3.807928e-07 3.7176716e-05 9.417899e-08 3.127481e-07
1.897519e-05 1.942461e-07 2.8285595e-07 2.092242e-05 5.282198e-06 1.1889806e-05 1.1554816e-05 5.3345525e-06
00000000: 65e2 0000 aacf 0000 0cc1 0000 3d0b 0000
00000010: 04d0 0080 f1a7 0080 ebce 0000 0ad5 0080
00000020: 73f7 0080 c709 0180 7451 0000 285c 0180
00000030: 49ae 0080 8c93 0000 7a9d 0080 893f 0080
00000040: ea66 0200 a875 0000 6833 0100 5382 0000
00000050: f622 0000 925e 0100 245d 0180 b130 0100
00000060: 1c2b 0080 38eb 0000 d920 0180 4fb7 0000
00000070: 6e96 0000 70d1 0080 a40c 0000 f82b 0100
00000080: a546 0000 5806 0180 9894 0080 e2f9 0080
00000090: 9219 0180 5a30 0180 e894 0080 b8bb 0000
000000a0: 0d24 0000 f9f5 0080 8894 0200 15cf 0100
000000b0: 706c 0080 1e9f 0080 17a9 0080 1de6 0080
000000c0: 93d3 0080 1303 0000 c94c 0080 e6c5 0080
000000d0: 9a80 0100 ab9f 0080 c0c7 0080 2fff 0100
000000e0: b302 0000 a537 0100 951b 0000 5a52 0080
000000f0: 28d9 0000 1a4e 0080 87dd 0000 76d1 0080
00000100: 9152 0000 d0ac 0000 00ed 0080 645b 0000
00000110: 0156 0000 378f 0000 e284 0100 7bcf 0080
00000120: c75b 0080 8848 0000 ebac 0000 e192 0000
00000130: cd0b 0000 accf 0000 7bea 0080 f1e7 0000
00000140: 6ea1 0080 b455 0100 16c5 0000 1a96 0100
00000150: 314a 0080 44e1 0100 4b02 0280 e6f7 0100
00000160: 0635 0080 f12b 0000 f3cb 0180 39b4 0100
00000170: b544 0080 5259 0000 629e 0080 3044 0000
00000180: ccb7 0080 c0e2 0100 6b51 0080 2c4f 0080
00000190: b29c 0000 3113 0080 aff3 0000 9b10 0100
000001a0: f351 0080 dcb4 0000 0f82 0080 a9f3 0000
000001b0: 4b55 0080 6802 0180 df8d 0000 8dbc 0000
000001c0: ae6d 0000 56e1 0000 28ce 0000 75a4 0000
000001d0: db4a 0080 c1d8 0080 d602 0000 d02d 0000
000001e0: 9847 0080 a987 0280 ee13 0080 8d33 0180
000001f0: add0 0080 95a9 0000 9752 0000 37f0 0000
00000200: c0cf 0080 2689 0080 740d 0080 0abc 0080
00000210: 64f3 0080 e014 0180 7f40 0280 a0da 0100
00000220: 0a67 0100 7385 0200 9f60 0000 da4d 0180
00000230: b9b8 0080 ce5e 0000 7d1d 0100 ce55 0100
00000240: 2a80 222c 3623 312c 6907 232c d459 3c2c
00000250: 9ea2 3e2c dd70 242c 58da 272c 31c7 412c
00000260: 0675 442c a36c 0180 37a9 0000 871a 0080
00000270: ae9d 0080 b908 0000 cec7 0000 f9be 0000
00000280: a620 0080 1702 0100 30b4 443d 3e49 3c3a
00000290: 96ea 383c 2cc8 883c c93e e13c 0aa7 3b3c
000002a0: 1d10 7b3c a5f1 ab3c 2f2b 4b3c 95c5 6c33
000002b0: fe83 0533 242d 0e33 5cda aa33 87c1 0a33
000002c0: 8c70 1333 875d 6e33 ba91 1033 3bc0 1033
000002d0: 38b6 893c 0c7c 1f3b a6d4 783c 78c8 44bc
000002e0: 5991 463c 8506 50ba a953 943c 5cd0 823b
000002f0: 8bab 383d 4522 03bc 2d5b b4b9 172e 06bc
00000300: 66d2 d33c 977d 24bc 235d af3b a915 6c3c
00000310: a5b0 95bb a3ac 6eba 2b5f 0080 f124 0080
00000320: f28b 0080 8819 0080 e229 0000 3a7e 0000
00000330: 4f3c 0080 2fda 0000 5b92 0000 d69e a236
00000340: 4a53 bd36 ea86 b436 44e6 2237 a783 b936
00000350: a827 0f37 5e2a bc36 c1a5 3737 6d44 b136
00000360: 8f13 2602 e098 9f03 1cda 6e03 1689 ac02
00000370: d0be f981 0c7a de82 08e7 0883 63d3 1783
00000380: 74c7 b881 5eb6 0000 ccf1 0100 50d5 0000
00000390: c8a8 0000 4ed3 0000 cc1d 0080 8152 0180
000003a0: 8675 0000 3104 0180 9efc dc36 bd71 5438
000003b0: 500b ee38 0ef6 a338 00fd d338 bb90 eb38
000003c0: d973 ec38 b93e ff38 93ab 0539 da1b 2a34
000003d0: c46f cc34 32ee 1b38 733f ca33 c6e7 a734
000003e0: e92c 9f37 f691 5034 6ddb 9734 8e82 af37
000003f0: bc3d b136 547a 4737 8fdb 4137 75ff b236

down_path.1.block.2.bias f4 [16]
-4.9897e-41 0.020013403 -0.0029403756 0.049936753 3.3035e-40 0.07666199 0.04871383 0.009043908
0.019903673 0.009067486 7.2635e-41 0.051809378 0.09537792 -0.042832587 -0.00754977 0.001150219
00000000: 188b 0080 26f3 a33c 51b3 40bb 7b8a 4c3d
00000010: e298 0300 f600 9d3d 2788 473d e62c 143c
00000020: 070d a33c cb8f 143c 7aca 0000 1236 543d
00000030: 8055 c33d 3971 2fbd 1064 f7bb f2c2 963a

down_path.2.block.0.weight f4 [32, 16, 3, 3]
-1.7446e-41 -3.8243e-41 5.8406e-41 -7.261e-41 -8.5279e-41 1.0307e-40 -2.7575e-41 -2.9678e-41
-1.80361e-40 0.004850837 0.003391058 0.003756452 0.005094447 0.005257357 0.0042773145 0.0029821503
0.0021415465 0.0037528637 0.0051407344 0.009249578 -0.04173181 0.032176565 -0.034791846 -0.00064395164
-0.035173543 0.006978296 0.03416999 0.00583851 0.002755651 0.0048818025 0.0057117343 0.0044964706
0.0047810003 0.0042878194 0.0031046467 0.0061733704 -3.1714e-41 5.9821e-41 -9.5936e-41 8.3508e-41
5.147e-41 -7.5573e-41 -2.2219e-41 6.9032e-41 -9.5414e-41 -0.04312435 0.054615542 -5.7599067e-05
0.025385523 -0.013149189 0.018191235 0.07279946 0.008652513 -0.021118768 0.038842686 0.015366598
-0.04361706 -0.041065868 -0.02994466 -0.0039202026 0.00047865004 0.06217445 -0.051675092 0.048271332
-0.024952944 0.036433175 0.012641343 0.039464388 -0.021601861 0.021569869 0.008217185 -0.040366296
0.053488526 -0.0444927 0.043648556 0.044730477 -0.043543495 -0.026598724 -0.039395582 0.03661254
0.032620527 0.024975928 -0.04969252 0.07300423 -0.05142864 -0.039585087 0.07064396 -0.027429
0.013158618 -0.010974621 -2.7643e-41 -4.762e-42 -7.5087e-41 -1.32383e-40 -4.6445e-41 7.863e-41
3.00195e-40 2.1814e-41 -3.6721e-41 -0.0536046 -0.03744028 -0.029526884 0.06398101 -0.005058871
0.054328695 0.051703464 -0.020521794 0.037370417 -0.031258825 -0.0029238854 0.020927725 0.0113761965
0.029467626 0.05977721 0.020210702 0.03831156 -0.025250115 0.0005784781 -0.00047196157 0.00073893415
-5.0838484e-05 -0.00013609474 -0.0005028782 0.00013279775 -4.0420055e-05 0.0005789707 0.0535466 0.012282373
0.075665474 0.012530122 0.013901659 0.013756608 -0.050620064 0.042365614 0.024825677 3.85216e-05
3.988399e-05 3.9449835e-05 3.974394e-05 4.032223e-05 3.861591e-05 6.908203e-05 3.8802304e-05 7.633225e-05
-9.1267e-41 8.6256e-41 -8.653e-41 -8.3819e-41 7.8717e-41 8.6146e-41 4.7709e-41 -4.4996e-41
-4.499e-41 0.0026833054 0.0032399327 0.002633459 0.0027794482 0.0033541885 0.0027716607 0.0029192704
0.0031200673 0.002860439 0.025408037 -0.022284258 0.008363652 -0.013210556 0.048916113 0.04296182
0.00041742763 0.024826074 -0.013136075 0.0031925924 0.0033084825 0.0030712357 0.0033589117 0.0032869615
0.0033516448 0.0034155238 0.0033500802 0.0031672954 -2.33092e-40 -7.4301e-41 -1.48816e-40 -1.0913e-41
-1.5831e-40 -6.1053e-41 -1.44642e-40 -7.8925e-41 2.6053e-41 0.008095972 0.035639014 0.044739984
0.0065255486 0.04519086 -0.037132 0.034371693 0.007815365 0.024507586 -0.021444641 -0.040020723
-0.047473565 0.06095537 0.055977017 -0.019764908 -0.03554026 0.012310399 -0.021523364 0.016408645
0.04816261 0.05668976 -0.04156038 0.008286901 0.062912956 0.048160024 0.05579827 0.06603906
0.011379167 -0.026362685 -0.042771358 0.061256837 0.06382752 0.029343842 0.049617708 0.009116817
0.07047512 0.039971042 -0.003662891 0.05026063 0.013485253 -0.04195021 0.009425032 0.009041031
0.009977076 -0.024469558 2.3753e-41 5.7965e-41 -5.9265e-41 6.876e-41 3.658e-41 7.0094e-41
8.7291e-41 3.8461e-41 -1.16354e-40 0.064992025 -0.016283412 -0.02412134 0.0034245786 0.055541035
0.035247643 -0.049103636 -0.049717043 0.05487079 0.026420644 -0.044389542 -0.0016549998 0.0029931625
00000000: a230 0080 9b6a 0080 d0a2 0000 68ca 0080
00000010: b9ed 0080 511f 0100 de4c 0080 bb52 0080
00000020: c6f6 0180 c5f3 9e3b 833c 5e3b ce2e 763b
00000030: 52ef a63b e845 ac3b b728 8c3b 2e70 433b
00000040: 3059 0c3b 9bf2 753b 9b73 a83b 8b8b 173c
00000050: f9ee 2abd 93cb 033d e581 0ebd ddce 28ba
00000060: 2212 10bd 31aa e43b d5f5 0b3d f950 bf3b
00000070: 2798 343b 87f7 9f3b 8029 bb3b 2157 933b
00000080: f0a9 9c3b d680 8c3b 5477 4b3b fc49 ca3b
00000090: 6858 0080 c2a6 0000 6e0b 0180 c9e8 0000
000000a0: 7a8f 0000 abd2 0080 f03d 0080 6fc0 0000
000000b0: fa09 0180 29a3 30bd 8cb4 5f3d 8796 71b8
000000c0: 4df5 cf3c b26f 57bc c905 953c e217 953d
000000d0: 45c3 0d3c 4401 adbc 8219 1f3d 2fc4 7b3c
000000e0: cda7 32bd af34 28bd 814e f5bc 0b75 80bb
000000f0: 52f3 fa39 a3aa 7e3d 43a9 53bd 29b8 453d
00000100: 1e6a ccbc f43a 153d a31d 4f3c 69a5 213d
00000110: 63f6 b0bc 4bb3 b03c 5fa1 063c 2157 25bd
00000120: c916 5b3d fa3d 36bd d4c8 323d 4e37 373d
00000130: aa5a 32bd 91e5 d9bc 435d 21bd 08f7 153d
00000140: 1a9d 053d 519a cc3c 628a 4bbd 3e83 953d
00000150: d6a6 52bd f923 22bd c8ad 903d c8b2 e0bc
00000160: 3e97 573c e6ce 33bc 0f4d 0080 460d 0080
00000170: 50d1 0080 0871 0180 7881 0080 30db 0000
00000180: d244 0300 cf3c 0000 5d66 0080 7f90 5bbd
00000190: fb5a 19bd 5de2 f1bc 7a08 833d e3c4 a5bb
000001a0: c487 5e3d 03c7 533d 521d a8bc b911 193d
000001b0: 4109 00bd a89e 3fbb 9f70 ab3c 3a63 3a3c
000001c0: 1766 f13c f3d8 743d ea90 a53c 95ec 1c3d
000001d0: 54d9 cebc 02a5 173a 9c71 f7b9 08b5 413a
000001e0: 683b 55b8 a7b4 0eb9 96d3 03ba a03f 0b39
000001f0: b488 29b8 11c6 173a ae53 5b3d 023c 493c
00000200: 80f6 9a3d 244b 4d3c c9c3 633c 6563 613c
00000210: fc56 4fbd 9187 2d3d 385f cb3c 4192 2138
00000220: 1c49 2738 f076 2538 bbb2 2638 aa1f 2938
00000230: 85f7 2138 22e0 9038 a8bf 2238 9114 a038
00000240: 6afe 0080 72f0 0000 36f1 0080 a7e9 0080
00000250: 6edb 0000 24f0 0000 fe84 0000 6e7d 0080
00000260: 6a7d 0080 65da 2f3b 0d55 543b 1c96 2c3b
00000270: 6727 363b f2d1 5b3b c0a4 353b 3b51 3f3b
00000280: 0b7a 4c3b 3476 3b3b 8424 d03c 7a8d b6bc
00000290: b307 093c 1671 58bc 435c 483d bcf8 2f3d
000002a0: 30da da39 0d60 cb3c b138 57bc d03a 513b
000002b0: 20d3 583b c946 493b 3021 5c3b 106a 573b
000002c0: 45a7 5b3b fbd6 5f3b 058d 5b3b 6692 4f3b
000002d0: c489 0280 1fcf 0080 d79e 0180 6c1e 0080
000002e0: 4eb9 0180 31aa 0080 3493 0180 03dc 0080
000002f0: a048 0000 f8a4 043c 37fa 113d 4641 373d
00000300: 45d4 d53b 0d1a 393d b917 18bd 55c9 0c3d
00000310: 040c 003c 22c4 c83c acac afbc c5ec 23bd
00000320: a473 42bd 57ac 793d 2848 653d 04ea a1bc
00000330: aa92 11bd 8eb1 493c c451 b0bc 6c6b 863c
00000340: 2846 453d 8633 683d 383b 2abd c8c5 073c
00000350: 82d8 803d 7243 453d ba8c 643d 7d3f 873d
00000360: b06f 3a3c 8ff6 d7bc 0531 2fbd 73e8 7a3d
00000370: 01b8 823d 7f62 f03c f03b 4b3d b45e 153c
00000380: 4255 903d adb8 233d 1d0d 70bb 17de 4d3d
00000390: 40f1 5c3c fcd3 2bbd 736b 1a3c d520 143c
000003a0: e476 233c 6274 c8bc 3742 0000 95a1 0000
000003b0: 35a5 0080 adbf 0000 f865 0000 65c3 0000
000003c0: 55f3 0000 376b 0000 5944 0180 8a1a 853d
000003d0: ca64 85bc 1e9a c5bc e56e 603b ff7e 633d
000003e0: d55f 103d e520 49bd 19a4 4bbd 32c0 603d
000003f0: 1b70 d83c cfd1 35bd 94ec d8ba ef28 443b

down_path.2.block.0.bias f4 [32]
0.090257555 -0.028738353 0.091953784 -3.1403e-41 -0.0374157 0.040293504 1.6059e-40 0.047577985
4.4124e-41 -9.7411e-41 -0.026999692 0.0065758107 0.093648255 0.08500227 0.07745936 0.019004717
0.017944757 6.3561e-41 0.011857395 0.03829561 -7.5768e-41 -0.018568464 -0.024781318 -4.0055e-41
-0.005229444 -1.31366e-40 0.050671205 -9.514771e-30 0.07993749 0.018906493 -8.341e-41 7.3857e-41
00000000: f4d8 b83d b26c ebbc 4452 bc3d 8a57 0080
00000010: 3441 19bd cd0a 253d a9bf 0100 22e1 423d
00000020: 007b 0000 8b0f 0180 752e ddbc e679 d73b
00000030: a8ca bf3d ac15 ae3d 03a3 9e3d c8af 9b3c
00000040: e200 933c 2fb1 0000 8545 423c dcdb 1c3d
00000050: 36d3 0080 e41c 98bc 3102 cbbc a86f 0080
00000060: c15b abbb 326e 0180 9c8c 4f3d 84fb 408f
00000070: 44b6 a33d cae1 9a3c 83e8 0080 e2cd 0000

down_path.2.block.2.weight f4 [32, 32, 3, 3]
-0.016523553 -0.008988086 0.018641477 0.02287252 0.022894055 -0.0029542074 -0.008755228 -0.008887407
0.015324255 -0.021611845 0.021222858 0.0027523516 0.006861851 0.029126061 0.0090132505 0.025563024
0.021830922 0.011143776 -0.014458397 -0.007072276 -0.0027481504 0.035564408 0.0029355553 0.017842121
0.017154336 -0.0041763545 -0.0021872725 -1.1624e-41 -2.11225e-40 -9.3503e-41 8.2116e-41 -1.64591e-40
-3.8691e-41 1.1684e-41 1.29424e-40 -3.5407e-41 -1.9477357e-05 -2.4832907e-05 7.630094e-05 -6.8355894e-06
-2.0559739e-05 -5.747964e-06 -2.4845682e-05 -2.9055338e-05 -2.3634465e-07 0.03115388 0.00018693489 0.030247387
-0.021941153 0.014144355 0.011283106 0.004380684 4.9327216e-05 -0.008980738 6.8316e-41 -2.65007e-40
5.3862e-41 -1.22423e-40 -8.442e-41 -5.1231e-41 -1.21553e-40 9.0955e-41 -7.656e-41 -0.025321787
0.02618745 -0.011608601 0.014201696 0.018046362 -0.0061455998 0.0032383348 0.02108845 0.016151525
3.8993e-41 4.502e-41 4.3506e-41 -8.161e-42 2.20651e-40 -1.76117e-40 -1.63267e-40 -4.7128e-41
9.4843e-41 -3.8571e-41 5.231e-41 -1.7333e-40 -2.3806e-40 -1.1338e-40 -1.02195e-40 1.15487e-40
1.18952e-40 1.78661e-40 0.0107863685 0.0010190461 0.0012594096 0.0012866297 -0.0020141182 -0.009389383
0.018219903 0.0017453658 -0.0074563185 -0.007982876 0.023191866 -0.008152711 -0.021444106 0.00039871223
0.0048764143 0.0023730544 0.0032482338 0.016195107 0.0015951325 0.017402291 0.008722304 0.0030689768
-0.0027926476 0.0024196703 0.010734817 0.017710006 0.002911688 0.0051440992 0.0046195304 0.0027481376
0.010852688 0.009327837 0.0027186049 0.010887064 0.009682061 0.00192904 0.010113681 0.02207985
-0.011098031 0.0020169916 0.00066376926 -0.0013489183 -0.018049262 -0.0067925258 -0.01665437 0.0025702787
0.003111637 -0.0058480804 -0.00027197337 0.007389204 0.008140832 0.0035727308 0.008188718 0.023484869
-0.010370472 0.0059409044 0.0036094626 0.0026652701 0.016180197 -0.018494777 0.0023487296 0.020531967
0.029182963 -1.67098e-40 1.05387e-40 8.1273e-41 -7.2444e-41 7.5681e-41 2.5754e-41 -2.6758e-41
-4.03e-42 7.9447e-41 -0.0042039203 0.002025844 -0.007428824 0.011727285 0.0015268949 -0.0021117649
0.0012177057 -1.5741163e-05 0.0086654825 -0.0006342045 0.025243957 0.0070414743 0.002224342 -0.0113344705
-0.003129523 -0.013280382 0.015527595 0.0044848104 5.3722e-41 8.5391e-41 1.29365e-40 7.6268e-41
-5.7052e-41 -8.4006e-41 -1.6866e-41 2.87315e-40 2.86629e-40 -0.0073878146 0.008343509 -0.00684968
0.0009447859 0.0028453432 -0.00095059426 -0.0045229536 -0.008823572 0.0010785377 -0.011053119 0.017899595
-0.01190728 -0.0024079874 0.025298651 0.025338126 0.017026916 0.0028169358 -0.003384805 -2.64754e-40
-3.6168e-41 1.4415e-41 -8.1003e-41 5.25e-43 -3.81e-41 -1.0474e-40 -6.6387e-41 8.2056e-41
-0.0070738103 0.0027212983 0.0023883358 -0.016287114 -0.0112059815 0.015852725 0.018903501 0.009782299
0.0012644114 -1.02425e-40 -1.03155e-40 -2.6165e-41 1.993e-41 -4.5087e-41 9.2259e-41 -8.8739e-41
4.9637e-41 -1.86713e-40 -0.01351005 0.0022361602 0.010050209 0.0212227 0.002444968 -0.0009094423
0.024577782 -0.012868633 0.024563992 3.6364353e-32 1.2581068e-31 1.2965303e-31 -6.2863904e-32 -3.121663e-32
-3.8447802e-32 -2.4086417e-32 -1.18148004e-32 -7.285942e-33 0.015916822 0.013182602 -0.0065429877 0.00355251
00000000: 675c 87bc c442 13bc 03b6 983c 275f bb3c
00000010: 508c bb3c 609b 41bb 1672 0fbc 7d9c 11bc
00000020: 9612 7b3c 530b b1bc 8fdb ad3c cc60 343b
00000030: 61d9 e03b c799 ee3c 50ac 133c 8c69 d13c
00000040: c3d6 b23c 6294 363c eae2 6cbc 8dbe e7bb
00000050: 501a 34bb fcab 113d 7262 403b a429 923c
00000060: 4087 8c3c cdd9 88bb 5858 0fbb 6720 0080
00000070: cf4c 0280 a604 0180 e8e4 0000 d0ca 0180
00000080: db6b 0080 9220 0000 c868 0100 b362 0080
00000090: 4e63 a3b7 4350 d0b7 c103 a038 445d e5b6
000000a0: b477 acb7 a3de c0b6 b26b d0b7 ddbb f3b7
000000b0: ecc5 7db4 6c36 ff3c f403 4439 5ec9 f73c
000000c0: efbd b3bc babd 673c c7dc 383c d78b 8f3b
000000d0: b2e4 4e38 f223 13bc 70be 0000 bbe2 0280
000000e0: 2596 0000 4455 0180 54eb 0080 d08e 0080
000000f0: d752 0180 8cfd 0000 6bd5 0080 a36f cfbc
00000100: 1087 d63c 0032 3ebc 3bae 683c f7d5 933c
00000110: 0761 c9bb 3e3a 543b afc1 ac3c 3450 843c
00000120: b26c 0000 7f7d 0000 4779 0000 c016 0080
00000130: 1667 0200 f1ea 0180 1fc7 0180 6083 0080
00000140: 6208 0100 856b 0080 d291 0000 2ce3 0180
00000150: 9d97 0280 0f3c 0180 e11c 0180 ee41 0100
00000160: 974b 0100 09f2 0100 4fb9 303c 8391 853a
00000170: c612 a53a 21a4 a83a 4cff 03bb edd5 19bc
00000180: e841 953c c2c4 e43a 2254 f4bb 9cca 02bc
00000190: defc bd3c f392 05bc 8dab afbc 400a d139
000001a0: 54ca 9f3b 3f85 1b3b 52e0 543b 9aab 843c
000001b0: c413 d13a 408f 8e3c ffe7 0e3c e320 493b
000001c0: da04 37bb 5593 1e3b 16e1 2f3c 9314 913c
000001d0: 05d2 3e3b d58f a83b 6e5f 973b 191a 343b
000001e0: 79cf 313c c9d3 183c 9f2a 323b a85f 323c
000001f0: 82a1 1e3c d7d7 fc3a dab3 253c cde0 b43c
00000200: 84d4 35bc 812f 043b cd00 2e3a 30ce b0ba
00000210: 0cdc 93bc d693 debb bf6e 88bc 1f72 283b
00000220: 9bec 4b3b 41a1 bfbb a697 8eb9 2321 f23b
00000230: 2061 053c 7a24 6a3b f929 063c 5763 c03c
00000240: eae8 29bc ebab c23b bc8c 6c3b d0ab 2e3b
00000250: 558c 843c 5c82 97bc 25ed 193b a832 a83c
00000260: 1c11 ef3c cdd1 0180 c725 0100 8ee2 0000
00000270: f2c9 0080 f8d2 0000 cb47 0000 974a 0080
00000280: 3c0b 0080 77dd 0000 0ac1 89bb 06c4 043b
00000290: 7e6d f3bb cc23 403c 1722 c83a 8965 0abb
000002a0: 6c9b 9f3a e40b 84b7 abf9 0d3c be40 26ba
000002b0: 6acc ce3c 2bbc e63b 44c6 113b 37b4 39bc
000002c0: af18 4dbb f695 59bc 7467 7e3c 51f5 923b
000002d0: c195 0000 09ee 0000 9e68 0100 9bd4 0000
000002e0: 0a9f 0080 2dea 0080 042f 0080 eb20 0300
000002f0: 011f 0300 7b15 f2bb 37b3 083c 4873 e0bb
00000300: 82ab 773a f078 3a3b 4d31 79ba 4935 94bb
00000310: be90 10bc b85d 8d3a 2418 35bc 2ca2 923c
00000320: c116 43bc 53cf 1dbb 1e3f cf3c e791 cf3c
00000330: 087c 8b3c 579c 383b 9bd3 5dbb 07e2 0280
00000340: d264 0080 2f28 0000 cee1 0080 7701 0000
00000350: 356a 0080 f923 0180 0fb9 0080 bde4 0000
00000360: 6ccb e7bb cf57 323b a085 1c3b 8e6c 85bc
00000370: 4b99 37bc 93dd 813c 84db 9a3c f045 203c
00000380: 9bba a53a 851d 0180 8e1f 0180 f048 0080
00000390: 8f37 0000 af7d 0080 2e01 0100 5ef7 0080
000003a0: 5e8a 0000 7b08 0280 4259 5dbc 8b8c 123b
000003b0: a2a9 243c 3adb ad3c c23b 203b a467 6eba
000003c0: 5857 c93c f5d6 52bc 6d3a c93c 84d0 3c0b
000003d0: c54f 230c 9c4c 280c 3b34 a38b 0516 228b
000003e0: e5a1 478b ae20 fa8a 4162 758a b652 178a
000003f0: ff63 823c d7fb 573c 8f66 d6bb 3ad1 683b

down_path.2.block.2.bias f4 [32]
-0.0048764013 0.011827081 0.00030489673 -0.0031866464 5.2944e-41 0.009578467 0.06905405 0.03757224
0.0051147467 1.25867e-40 0.015839495 0.06913512 -7.5031e-41 0.017840758 1.7062e-41 -9.9012e-41
0.0016403404 0.011055428 0.06935197 0.063021 -0.0063705617 0.008821316 0.003187407 0.046135344
-0.0013632763 0.039906733 -0.026496816 3.9451e-41 0.043538105 0.0032379373 0.07655215 1.55369e-40
00000000: 38ca 9fbb 60c6 413c 8cda 9f39 0ed7 50bb
00000010: 9693 0000 01ef 1c3c 366c 8d3d 59e5 193d
00000020: 9b99 a73b de5e 0100 d4c1 813c b796 8d3d
00000030: 28d1 0080 c826 923c 902f 0000 0114 0180
00000040: b100 d73a d321 353c 6808 8e3d 2711 813d
00000050: 25c0 d0bb 4887 103c d1e3 503b 6af8 3c3d
00000060: f6af b2ba 3e75 233d da0f d9bc f96d 0000
00000070: 0355 323d 9333 543b 60c7 9c3d 1bb1 0100

down_path.3.block.0.weight f4 [64, 32, 3, 3]
5.750874e-09 6.3991856e-09 5.536209e-09 6.4442345e-09 7.1520385e-09 6.150099e-09 5.6632685e-09 6.289854e-09
5.45542e-09 4.791741e-09 5.272284e-09 4.4842277e-09 5.4254508e-09 5.8795555e-09 5.125155e-09 4.8026845e-09
5.2803757e-09 4.493846e-09 1.4853372e-11 1.591819e-11 1.4009788e-11 1.6258347e-11 1.8193901e-11 1.5895788e-11
1.5184782e-11 1.7756697e-11 1.5076098e-11 9.081846e-10 9.976326e-10 8.648867e-10 1.0030526e-09 1.1072674e-09
9.389711e-10 9.0732116e-10 9.860417e-10 8.214525e-10 6.7292e-41 1.21259e-40 5.9191e-41 5.4394e-41
-1.2876e-40 3.0848e-41 -7.331e-41 -2.185e-41 7.4253e-41 1.207453e-08 1.3470503e-08 1.13693295e-08
1.3635606e-08 1.4908009e-08 1.2899595e-08 1.2089352e-08 1.3446375e-08 1.1397905e-08 3.1164706e-08 4.1177017e-08
2.7968593e-08 3.4269277e-08 3.3602937e-08 5.0257686e-08 4.1405247e-08 3.8841325e-08 3.5843343e-08 1.0362264e-08
1.1492801e-08 9.990088e-09 1.1630124e-08 1.2908049e-08 1.1294892e-08 1.033509e-08 1.149972e-08 1.00072715e-08
5.496023e-08 2.6418118e-07 1.1230161e-07 2.1609438e-08 4.1808523e-08 1.4801182e-07 1.02684496e-07 1.1931002e-07
1.2207181e-07 -1.8618e-41 -5.9812e-41 -3.3682e-41 1.10166e-40 1.6856e-41 -9.12e-41 -4.3956e-41
-1.066e-42 3.7098e-41 2.1925155e-08 2.3745168e-08 2.0840607e-08 2.5302567e-08 2.7291081e-08 2.3463286e-08
2.2566537e-08 2.4174268e-08 2.0866583e-08 3.8405098e-08 4.680643e-08 2.199829e-08 3.509696e-08 5.2558324e-08
4.5310305e-08 3.726464e-08 3.8091258e-08 4.0957563e-08 -2.0442e-41 -1.8393e-41 -1.15314e-40 8.3345e-41
2.0498e-41 -2.92353e-40 1.19344e-40 -1.36664e-40 -3.78222e-40 2.0428866e-08 2.2290118e-08 1.9115339e-08
2.304617e-08 2.5266917e-08 2.1872243e-08 2.048024e-08 2.2562416e-08 1.9374353e-08 2.09636e-40 -1.17088e-40
-1.23604e-40 -5.7585e-41 -4.9819e-41 8.5559e-41 -2.40826e-40 6.9155e-41 -1.18698e-40 8.512e-41
-1.2512e-40 1.72416e-40 9.9167e-41 -1.4248e-41 -7.0865e-41 -9.7872e-41 2.8467e-41 8.7012e-41
1.3805285e-08 1.525329e-08 1.313241e-08 1.5537067e-08 1.7165783e-08 1.4897483e-08 1.381648e-08 1.53287e-08
1.3141186e-08 3.3238877e-08 3.4808554e-08 3.062351e-08 3.5542023e-08 3.934111e-08 3.5662545e-08 3.826299e-08
4.097914e-08 3.0646834e-08 -4.3572253e-08 2.221239e-07 3.0948268e-08 1.5367756e-07 4.711598e-07 2.0426437e-07
-5.9077742e-08 1.7948395e-07 3.1562087e-07 2.0225288e-08 2.2392733e-08 1.9242407e-08 2.323186e-08 2.5389472e-08
2.2011934e-08 2.0453644e-08 2.261761e-08 1.9480783e-08 1.0325485e-08 1.1433664e-08 9.8708695e-09 1.1881867e-08
1.29075595e-08 1.1237722e-08 1.0450105e-08 1.1663392e-08 9.979871e-09 4.386888e-08 7.188525e-08 7.851602e-08
8.9620826e-08 6.354958e-08 8.079316e-08 6.0024554e-08 6.840339e-08 1.0020348e-07 1.14484875e-08 1.2576331e-08
1.0885482e-08 1.283136e-08 1.4035424e-08 1.2364076e-08 1.1373834e-08 1.247084e-08 1.0790286e-08 4.8805642e-08
5.7429208e-08 7.634035e-08 1.7517701e-08 8.294405e-08 5.6780173e-08 4.874771e-08 3.3653272e-08 4.863048e-08
-5.0036e-41 6.4887e-41 7.5229e-41 -6.3089e-41 -9.7232e-41 -7.7091e-41 5.196e-41 -2.70837e-40
1.41219e-40 2.9556695e-08 3.3500978e-08 2.872333e-08 3.1592812e-08 3.7275864e-08 3.2004312e-08 3.0754325e-08
3.2609353e-08 3.1540107e-08 2.0764963e-09 2.3231514e-09 2.0271582e-09 2.3936082e-09 2.6699318e-09 2.3491944e-09
2.1684867e-09 2.4009066e-09 2.109082e-09 -4.2979e-41 8.7322e-41 -1.1684e-41 -1.06405e-40 3.30372e-40
-9.9758e-41 7.434e-42 2.8734e-41 1.1258e-41 2.7226214e-08 3.1823767e-08 2.678414e-08 3.2136356e-08
00000000: 3999 c531 d5df db31 0239 be31 166c dd31
00000010: ffbd f531 d850 d331 a396 c231 241e d831
00000020: 6272 bb31 99a4 a431 8027 b531 af13 9a31
00000030: c56a ba31 1e05 ca31 5719 b031 dc04 a531
00000040: ad6e b531 4a68 9a31 d2a6 822d 9404 8c2d
00000050: 7a76 762d 8b02 8f2d 0609 a02d 22d2 8b2d
00000060: 1791 852d 8730 9c2d 5b9c 842d cfa3 7930
00000070: 141d 8930 febc 6d30 c7db 8930 822e 9830
00000080: 1c0d 8130 0d67 7930 4285 8730 95cc 6130
00000090: 95bb 0000 0552 0100 00a5 0000 a197 0000
000000a0: ee66 0180 fe55 0000 5ccc 0080 e93c 0080
000000b0: fdce 0000 5870 4f32 e66b 6732 d752 4332
000000c0: 0842 6a32 0f0f 8032 059d 5d32 88b1 4f32
000000d0: c801 6732 84d0 4332 f5d9 0533 9cda 3033
000000e0: 963f f032 782f 1333 d252 1033 e9da 5733
000000f0: 8dd5 3133 7dd2 2633 2cf2 1933 b805 3232
00000100: e071 4532 dfa0 2b32 d4cd 4732 33c2 5d32
00000110: 760b 4232 358e 3132 4e90 4532 72ec 2b32
00000120: 690d 6c33 c9d4 8d34 772a f133 a89f b932
00000130: f590 3333 2eed 1e34 6683 dc33 b01b 0034
00000140: d812 0334 e633 0080 bba6 0080 e45d 0080
00000150: 1933 0100 fd2e 0000 3afe 0080 887a 0080
00000160: f902 0080 6a67 0000 ed55 bc32 2df8 cb32
00000170: fb04 b332 ef58 d932 b96d ea32 508c c932
00000180: 57d8 c132 c7a7 cf32 1a3e b332 daf2 2433
00000190: 3708 4933 c0f6 bc32 84bd 1633 7dbc 6133
000001a0: 359b 4233 e80c 2033 c899 2333 51e9 2f33
000001b0: fc38 0080 4633 0080 7341 0180 55e8 0000
000001c0: 2439 0000 f62e 0380 af4c 0100 f77c 0180
000001d0: 541e 0480 8d7b af32 7d78 bf32 1333 a432
000001e0: 10f7 c532 8a0a d932 92e1 bb32 86ec af32
000001f0: 47cf c132 a76c a632 6148 0200 6546 0180
00000200: 8f58 0180 86a0 0080 e08a 0080 81ee 0000
00000210: 539f 0280 c7c0 0000 e24a 0180 48ed 0000
00000220: c95c 0180 a0e0 0100 7014 0100 b827 0080
00000230: 8bc5 0080 d410 0180 5b4f 0000 8ef2 0000
00000240: 492c 6d32 5706 8332 f39c 6132 5f76 8532
00000250: f573 9332 d3ef 7f32 865d 6d32 2bac 8332
00000260: 8cc3 6132 88c2 0e33 6980 1533 e886 0333
00000270: dea6 1833 02f8 2833 622b 1933 9a56 2433
00000280: 0a01 3033 8da0 0333 3324 3bb3 f480 6e34
00000290: fbeb 0433 9102 2534 b6f3 fc34 c353 5b34
000002a0: aabc 7db3 2cb8 4034 9a72 a934 e1bb ad32
000002b0: 245a c032 804a a532 678f c732 0a18 da32
000002c0: c114 bd32 0ab2 af32 a648 c232 b256 a732
000002d0: f763 3132 c96d 4432 8b94 2932 0121 4c32
000002e0: 0cc0 5d32 0610 4132 0c88 3332 2460 4832
000002f0: f073 2b32 586a 3c33 565f 9a33 a39c a833
00000300: 9275 c033 c078 8833 8280 ad33 d9e6 8033
00000310: 29e5 9233 722f d733 fbae 4432 4a0f 5832
00000320: db02 3b32 eb70 5c32 7320 7132 c869 5432
00000330: a766 4332 563f 5632 2e60 3932 5f9e 5133
00000340: 15a8 7633 8df0 a333 d579 9632 f91e b233
00000350: 76de 7333 ad5e 5133 2a8a 1033 c7dd 5033
00000360: 7b8b 0080 e1b4 0000 b5d1 0000 deaf 0080
00000370: 0b0f 0180 e6d6 0080 d890 0000 fcf2 0280
00000380: a989 0100 dce3 fd32 b7e2 0f33 45bb f632
00000390: aab0 0733 3f19 2033 1d75 0933 bd16 0433
000003a0: 5d0e 0c33 b776 0733 1cb2 0e31 50a5 1f31
000003b0: 254e 0b31 cd7c 2431 f079 3731 776f 2131
000003c0: 6c04 1531 32fd 2431 5def 1031 cf77 0080
000003d0: 6bf3 0000 9220 0080 9d28 0180 f198 0300
000003e0: 1616 0180 b914 0000 1950 0000 621f 0000
000003f0: 14df e932 9aae 0833 f212 e632 4c06 0a33

down_path.3.block.0.bias f4 [64]
1.3184915e-07 0.043593593 0.034944434 0.013529571 -5.9072e-41 0.06256778 0.04493658 -0.0018873253
0.017468547 0.031588156 -5.63e-42 0.056295093 -5.5997914e-30 -5.820539e-05 -8.4983e-41 -2.3913e-40
-2.8308e-41 0.04215505 0.0037439473 8.2968e-41 0.056191117 0.014172102 -0.010816649 0.043133657
-0.009753498 0.0046900646 0.02082181 0.027912596 0.04158559 0.00584246 -8.1319e-41 -0.010138984
1.06913e-40 0.062484704 0.020974897 -0.00050080876 0.05818386 6.8263e-41 0.011660936 8.091e-41
-1.438e-41 0.04392199 0.028822258 0.009556065 0.0391017 0.021076836 2.33035e-40 0.00033830953
-0.008676373 1.30001e-40 -3.4024e-41 0.020311832 0.01824938 -0.006313124 0.048713017 -0.0030865578
0.02796848 1.17696e-40 0.01961727 1.16248e-40 5.8364e-41 0.0031653852 0.02092172 0.042988196
00000000: 6b92 0d34 328f 323d e521 0f3d 22ab 5d3c
00000010: aba4 0080 8923 803d 6b0f 383d 2160 f7ba
00000020: 331a 8f3c 9562 013d b20f 0080 af95 663d
00000030: 8f27 e38e 9021 74b8 e6ec 0080 999a 0280
00000040: e94e 0080 c6aa 2c3d 035d 753b 48e7 0000
00000050: a828 663d 1b32 683c 5038 31bc ebac 303d
00000060: 23cd 1fbc 1daf 993b 8092 aa3c f5a8 e43c
00000070: a755 2a3d 1b72 bf3b afe2 0080 fb1d 26bc
00000080: 082a 0100 f6ef 7f3d 8cd3 ab3c b548 03ba
00000090: 3352 6e3d 4abe 0000 830d 3f3c 8be1 0000
000000a0: 1628 0080 8be7 333d a81c ec3c 0b91 1c3c
000000b0: 1b29 203d 54a9 ac3c 9b89 0200 235f b139
000000c0: 5927 0ebc 646a 0100 d85e 0080 0065 a63c
000000d0: b97f 953c 53de cebb 4d87 473d d947 4abb
000000e0: 271e e53c 1748 0100 66b4 a03c 0d44 0100
000000f0: b2a2 0000 5a72 4f3b 0764 ab3c 6414 303d
